3D/results/MoveToGoal/MoveToGoal/checkpoint.pt (torch, 442210 bytes, 36 tensors)

network_body._body_endoder.seq_layers.0.weight f4 [128, 6]
0	0x3cf02cf1	0.029318305
1	0x3e958995	0.2920653
2	0x3f0b7976	0.5448221
3	0xbf14d2d5	-0.58134204
4	0xbdb20cc0	-0.08693838
5	0x3ccd0d61	0.025030794
6	0xbee0ff5a	-0.43944818
7	0x3e8ab92d	0.27094403
8	0x3eb4c752	0.3530832
9	0xbe8053a2	-0.25063807
10	0x3c9376c3	0.018000966
11	0x3c814d0e	0.015783813
12	0x3eeee58a	0.466595
13	0xbe879603	-0.26481637
14	0xba9c690e	-0.0011933164
15	0xbec74b7e	-0.38924783
16	0xbe939b2e	-0.2882933
17	0xbe843021	-0.2581797
18	0xbe1f67d7	-0.15566956
19	0xbf19d09e	-0.6008395
20	0x3f313c5a	0.69232714
21	0xbd36f342	-0.044665582
22	0x3f134fba	0.5754353
23	0x3f027232	0.509555
24	0x3eaa78b8	0.33295226
25	0xbe9bd393	-0.30434856
26	0x3eefbce5	0.46823803
27	0xbdf7d02c	-0.121002525
28	0x3ef5b421	0.4798899
29	0x3f2d6834	0.67737126
30	0xbdbc0b97	-0.09181898
31	0xbd11db3d	-0.035609473
32	0xbe123274	-0.14277059
33	0x3f727365	0.9470733
34	0x3b2d0293	0.002639924
35	0xbda83018	-0.08212298
36	0x3e1b836b	0.1518685
37	0x3e3829f2	0.17984751
38	0xbf233db1	-0.6376601
39	0xbe85b29d	-0.26112834
40	0x3db053a9	0.08609707
41	0xbdf8c899	-0.12147636
42	0x3f240b09	0.6407934
43	0xbe0ad68e	-0.13558409
44	0xbe76f1ae	-0.24115631
45	0xbf2beb4d	-0.67155915
46	0x3c9f1476	0.019418936
47	0xbf9e6e00	-1.2377319
48	0x3eb1e255	0.3474299
49	0x3e2eecde	0.17082545
50	0x3eafa045	0.34301963
51	0x3e01bedd	0.12670465
52	0x3f423c00	0.758728
53	0xbe14efa9	-0.14544548
54	0x3e6c975c	0.23104614
55	0x3c8ce307	0.017198099
56	0xbe9545b6	-0.29154748
57	0xbbcd7620	-0.006270185
58	0xbf4e76e8	-0.80650187
59	0x3e9fa9ce	0.31184238
60	0xbe239c00	-0.15977478
61	0xbf55cdea	-0.83517325
62	0xbe5c521c	-0.21515697
63	0x3f04c815	0.518678
64	0x3e7391c5	0.23786075
65	0xbdca1bb3	-0.098685645
66	0xbde81aa8	-0.11333209
67	0x3e5a6ecf	0.21331333
68	0xbf2cfe45	-0.67575485
69	0x3e004232	0.12525252
70	0xbe85b551	-0.26114896
71	0xbd277b16	-0.04088887
72	0x3e5bf134	0.2147873
73	0x3e54e6c1	0.2079115
74	0xbdfa5a19	-0.12224216
75	0x3e8cef53	0.2752634
76	0xbf067dfd	-0.5253599
77	0xbbe0cc8f	-0.006860323
78	0x3ee703e3	0.45120153
79	0xbdd70803	-0.10499575
80	0x3e825d19	0.25461653
81	0x3eb21758	0.34783435
82	0x3e040f37	0.12896429
83	0x3de0b7bf	0.10972547
84	0x3e8ba0c0	0.2727108
85	0x3ec12ff1	0.3773189
86	0xbf0492db	-0.51786584
87	0x3e939852	0.2882715
88	0xbdc6ed6f	-0.097132556
89	0xbebe0100	-0.37110138
90	0xbef4a742	-0.47783858
91	0x3eb2d734	0.34929812
92	0xbec1e364	-0.37868798
93	0x3e6e8dd1	0.23296286
94	0xbec769db	-0.3894795
95	0x3f0b8f6f	0.5451574
96	0x3e628a73	0.22123127
97	0xbf74cad0	-0.9562197
98	0xbcb580db	-0.02215617
99	0xbd1fa85a	-0.038978912
100	0x3ceb49f4	0.028721787
101	0x3f25514a	0.6457716
102	0x3ecabb13	0.3959585
103	0xbedede6e	-0.43529075
104	0x3cbf8e87	0.023383392
105	0xbe05ba50	-0.13059354
106	0x3eecb6a7	0.46233103
107	0x3ecc275c	0.3987378
108	0xbe640243	-0.22266488
109	0x3e5904e9	0.2119328
110	0xbe613526	-0.21992931
111	0x3efa473c	0.48882473
112	0xbd034077	-0.0320439
113	0x3e44c844	0.1921702
114	0xbea57896	-0.32318562
115	0x3ec4a5ac	0.38407648
116	0x3f92cf25	1.1469465
117	0x3f0448dc	0.51673675
118	0x3d973e1c	0.07384893
119	0x3eaf16aa	0.3419698
120	0xbd954782	-0.0728903
121	0xbe603f9f	-0.2189927
122	0x3efd612d	0.49488202
123	0x3f0865db	0.5328042
124	0x3e1976e1	0.14986755
125	0x3d2c7b5d	0.042109836
126	0x3d11fcc0	0.03564143
127	0xbd921725	-0.07133321
128	0x3cbad5f7	0.022807105
129	0x3f42b351	0.76054865
130	0xbeece7c9	-0.46270588
131	0x3f19ae0a	0.6003119
132	0x3df7ac41	0.12093402
133	0x3f255bb5	0.6459306
134	0x3e1a54a8	0.15071356
135	0xbec06643	-0.3757802
136	0x3f40585f	0.75134844
137	0xbdaadebb	-0.08343264
138	0x3e2c3eb8	0.168208
139	0x3e14ab9d	0.1451859
140	0x3f25f282	0.6482316
141	0xbf069f31	-0.52586657
142	0xbce74826	-0.028232645
143	0x3e8424bc	0.25809276
144	0xbc03fddf	-0.008056133
145	0x3f12232e	0.5708493
146	0xbee1645e	-0.44021887
147	0xbd5b266c	-0.05350344
148	0x3f26ef15	0.6520856
149	0x3ead4104	0.33838665
150	0xbf097d93	-0.53707236
151	0xbf2ed1de	-0.6828898
152	0x3cc70d7d	0.024298424
153	0xbf2ab0d3	-0.6667606
154	0x3d3c658b	0.045995276
155	0x3f07f064	0.5310118
156	0xbdc35d2b	-0.09539255
157	0xbe8badac	-0.2728094
158	0x3e52f8c2	0.20602706
159	0x3f2651f1	0.6496878
160	0x3eff67ab	0.4988378
161	0x3c1f79bf	0.009733616
162	0xbf04c6b1	-0.5186568
163	0x3d1b0c1e	0.037853353
164	0x3e3dd17a	0.1853694
165	0x3e72424f	0.23658107
166	0x3cacd3c5	0.021097073
167	0xbd14e6d0	-0.036352932
168	0x3e9ae9ee	0.302566
169	0x3da2b8db	0.07945415
170	0xbf0f928a	-0.56082976
171	0xbe56c5ef	-0.20973943
172	0xbdb2d389	-0.087317534
173	0xbeee615e	-0.4655866
174	0x3d68a1c3	0.056794893
175	0x3ee0f8a6	0.43939704
176	0x3e2f0098	0.1709007
177	0x3ec03fc5	0.37548652
178	0x3ed944ed	0.424354
179	0x3ec74f82	0.38927847
180	0x3e90f8e5	0.2831489
181	0x3dfa9026	0.122345254
182	0x3e50984b	0.20370595
183	0x3de4c882	0.11171056
184	0xbd5c9e0b	-0.05386166
185	0x3f11bba1	0.56926924
186	0xbf6659b5	-0.8998063
187	0x3efd3a25	0.49458423
188	0x3ea4e892	0.32208687
189	0xbf230959	-0.6368614
190	0x3e364b4b	0.1780216
191	0xbdcfd993	-0.10148921
192	0xbe12e848	-0.14346421
193	0x3e538030	0.20654368
194	0xbd08caf4	-0.033396676
195	0x3e1990f4	0.14996701
196	0xbf285c9b	-0.65766305
197	0xbe87a454	-0.2649256
198	0xbf2f83d4	-0.6856053
199	0x3e8cf86d	0.27533284
200	0x3ec49ecf	0.3840241
201	0xbec5a54b	-0.3860267
202	0x3f59273c	0.8482549
203	0xbe50efb1	-0.20403935
204	0xbf21915d	-0.6311243
205	0xbd54dafd	-0.051966656
206	0xbe69037d	-0.22755237
207	0xbea83ee4	-0.32860482
208	0xbd995116	-0.07486169
209	0xbeab9ff9	-0.33520487
210	0x3e8579ea	0.26069576
211	0xbdece6ca	-0.11567457
212	0x3f70488c	0.938607
213	0xbe757a3b	-0.23972408
214	0x3d93ecf0	0.072229266
215	0x3f3f9740	0.74840164
216	0x3cd62c83	0.026144272
217	0x3e15ede8	0.14641535
218	0x3e37ecfc	0.17961496
219	0x3e509854	0.20370609
220	0x3ea74392	0.3266874
221	0xbe18c5ad	-0.14919157
222	0x3f1b80e5	0.6074355
223	0xbd8c98aa	-0.06865056
224	0x3e7ab816	0.24484286
225	0x3dd4d977	0.103930406
226	0xbe79d729	-0.24398483
227	0xbf406e68	-0.75168467
228	0xbe44d1c8	-0.1922065
229	0x3eff1023	0.49817
230	0x3de99733	0.11405792
231	0xbf6d7eb7	-0.92771477
232	0x3f019eb2	0.50632775
233	0xbd8fddd4	-0.07024732
234	0xbf0cba16	-0.54971445
235	0xbeef78f3	-0.46771964
236	0x3f0a73bb	0.5408284
237	0xbe1b2288	-0.15149891
238	0x3cdeb17b	0.027184239
239	0x3f06beaf	0.5263471
240	0x3e3f62f9	0.18690099
241	0x3ef97be0	0.48727322
242	0xbf5cd6aa	-0.8626505
243	0x3db3e864	0.08784559
244	0xbf2767d8	-0.6539283
245	0xbf38e207	-0.7221989
246	0x3f57c1d2	0.8428012
247	0xbdc9d4f7	-0.09855073
248	0x3dad4a0e	0.084613904
249	0xbe49aae8	-0.19694102
250	0x3dbca895	0.09211842
251	0xbf1f7fc5	-0.62304336
252	0xbea6dc75	-0.3259007
253	0x3f14c95a	0.5811974
254	0xbdab972d	-0.08378444
255	0xbf2b5044	-0.6691935

network_body._body_endoder.seq_layers.0.bias f4 [128]
0	0x3a8e36f7	0.0010850121
1	0x3a5d6477	0.00084454514
2	0xbaae9857	-0.0013320547
3	0x3bab2bd2	0.0052237296
4	0x3babc367	0.0052417996
5	0x39fad684	0.00047843542
6	0xbcf87e83	-0.030333763
7	0x3c3dd507	0.011586434
8	0x38e8715c	0.00011083737
9	0x3bba3ec2	0.005683751
10	0x3bdf6bd2	0.006818273
11	0xbcc93a94	-0.024564065
12	0x3b44b50c	0.003001514
13	0xbba982b3	-0.0051730513
14	0x3b3a3fea	0.0028419443
15	0xbabb39a3	-0.0014284145
16	0x3b0d76fd	0.0021585815
17	0x3c6ed5c4	0.014577333
18	0x3c139c16	0.009009382
19	0xbbac8fa3	-0.0052661463
20	0xbbaedba4	-0.005336242
21	0xbc3a25c5	-0.011361544
22	0x3b08f043	0.002089516
23	0xbc4583d3	-0.012055355
24	0x3c406653	0.011743146
25	0xbaeedca4	-0.0018223715
26	0x3baf0bc3	0.0053419783
27	0x3c66d0e8	0.014087893
28	0x3be7beb2	0.007072293
29	0xbbb6d37e	-0.005579411
30	0x3c4b58e1	0.012411327
31	0x3c549944	0.0129759945
32	0xbcab95aa	-0.020945389
33	0x3c94cf03	0.018165117
34	0xbc7be7d0	-0.015375093
35	0xbbe45ff6	-0.0069694472
36	0x3cc27a5d	0.023739988
37	0x3caeeeda	0.021354128
38	0xbb41785a	-0.0029521198
39	0x3c87a198	0.016556546
40	0x3d088688	0.033331424
41	0x3d095a25	0.033533234
42	0xbc748650	-0.014924601
43	0xbbab5b3f	-0.0052293832
44	0xbcb928de	-0.022602495
45	0x3acd1044	0.0015645106
46	0x3d4059fd	0.04696082
47	0x3c52b6b7	0.012860945
48	0xbc882ee6	-0.016623925
49	0x3b47b97a	0.0030475543
50	0xbab5ce7c	-0.0013870741
51	0xbb56b5b7	-0.003276212
52	0xbcd84bfe	-0.026403423
53	0x3b558d4e	0.0032585445
54	0x3bc9035c	0.0061344337
55	0x3be8325a	0.0070860805
56	0x3ad1000c	0.0015945449
57	0x3cd73a74	0.02627299
58	0x3cbe24e5	0.023210952
59	0x3c77c9ab	0.015123765
60	0x3cadf5ac	0.02123531
61	0x3c0a6f82	0.008449437
62	0xbb543980	-0.0032382905
63	0xbc85b0ef	-0.01631972
64	0x3d10666c	0.035253927
65	0x3c9db2cb	0.019250294
66	0x3c4032e8	0.011730887
67	0x3c98fce5	0.018675277
68	0x3bd883d1	0.0066075106
69	0xbc2a2c8c	-0.010386597
70	0xbcd56021	-0.026046814
71	0x3cdd8a9b	0.027043631
72	0x3c729e60	0.014808267
73	0x3d09a2cb	0.033602517
74	0xbbf65978	-0.0075179897
75	0x3c93599e	0.017987069
76	0x3b0679ee	0.0020519453
77	0xba80c149	-0.0009823228
78	0x3ca1106f	0.019661156
79	0x3c1bd0bc	0.009510215
80	0x3bc4cb02	0.0060056457
81	0x3bb63f91	0.005561777
82	0x3c1dd6d3	0.009633738
83	0xb824ea72	-3.931899e-05
84	0x3b0662c2	0.0020505642
85	0xbc7fde73	-0.015617001
86	0x3c9e273f	0.019305823
87	0xbcc39098	-0.023872659
88	0xb92d418e	-0.00016522987
89	0xbcc472b5	-0.023980478
90	0x3b85f120	0.004087582
91	0xbc6edfa2	-0.014579685
92	0x3c516348	0.012780018
93	0xbb808f32	-0.00392332
94	0x3bc05f87	0.0058707627
95	0x3c8bbff6	0.017059308
96	0xbc7e1ee1	-0.015510292
97	0x3c11dd11	0.008902804
98	0x396d4e3d	0.00022631227
99	0xbc364b52	-0.011126356
100	0x3a879210	0.0010343213
101	0xbbab5aee	-0.0052293455
102	0x3b53b3ed	0.003230329
103	0xbb2111be	-0.0024577226
104	0x3d4ada54	0.04952462
105	0xbd0163de	-0.03158938
106	0x3c8b818a	0.017029542
107	0x3c3e7411	0.011624352
108	0x3cf19054	0.029487766
109	0xbc320aa8	-0.010866798
110	0x3bdd37c1	0.006751031
111	0x3b9d6bad	0.0048040957
112	0x3a846489	0.0010100763
113	0x3c8ae2bf	0.016953824
114	0x3d047043	0.032333624
115	0xbb521980	-0.0032058656
116	0x3c6bb365	0.014386033
117	0xbbb358ad	-0.0054732175
118	0xbc908093	-0.017639434
119	0x3c92de6d	0.017928327
120	0x3c355b57	0.01106914
121	0xbc0f2985	-0.008737926
122	0x3c59c07a	0.013290519
123	0x3bc2fd4d	0.005950606
124	0x3ca98867	0.020694925
125	0x3b89070f	0.0041817497
126	0x3c620d70	0.013797149
127	0xbb79ab00	-0.0038096309

network_body._body_endoder.seq_layers.2.weight f4 [128, 128]
0	0x3cc98cc9	0.024603264
1	0x3e0ca08e	0.13733122
2	0xbd8bb9f7	-0.06822579
3	0x3ce1aebc	0.02754914
4	0x3e110d3f	0.14165209
5	0x3dc69a84	0.0969744
6	0x3e08565d	0.13314195
7	0xbc7221b7	-0.014778546
8	0xbc8df61e	-0.017329272
9	0x3cbb8253	0.022889292
10	0x3ccf9335	0.025338748
11	0xbe05611d	-0.13025327
12	0x3b345bb2	0.0027520475
13	0x3d5a47e7	0.053291228
14	0x3d9d69ef	0.07686221
15	0xbd482742	-0.048865564
16	0xbdd1049a	-0.10205956
17	0x3d36f006	0.044662498
18	0x3dbca773	0.09211626
19	0xbd4b16e1	-0.049582366
20	0xbda20869	-0.0791176
21	0xbc82dfb2	-0.015975807
22	0xbd4f90cc	-0.0506752
23	0x3dfd51ed	0.12369142
24	0xbe62df2e	-0.22155449
25	0xbdaea27c	-0.08527085
26	0xbddcbd7f	-0.10778331
27	0x3dd3c094	0.10339466
28	0x3e1b3d26	0.15160045
29	0x3d3587e7	0.04431906
30	0xbd8e26db	-0.06941005
31	0x3d47aae9	0.048746977
32	0xbd0209bf	-0.031747576
33	0xbaf391f3	-0.0018582925
34	0xbcedc27c	-0.029023401
35	0x3c3e9be9	0.011633852
36	0x3cd7e4d5	0.026354233
37	0x3b3d8700	0.0028919578
38	0x3d1836b2	0.037161537
39	0xbd0f8d98	-0.035047144
40	0xbd3b00e8	-0.04565516
41	0x3d274aa7	0.04084268
42	0xbd9eb47e	-0.0774927
43	0xbd86eaa6	-0.065877244
44	0x3dc7eaaf	0.09761559
45	0x3d9b79c0	0.07591581
46	0xbe1f175a	-0.15536252
47	0x3d3964cd	0.045262147
48	0xbd1181e3	-0.03552426
49	0x3ce27ef6	0.02764843
50	0x3d91f3dc	0.071265906
51	0x3d04c276	0.032412015
52	0x3db4316c	0.08798489
53	0x3da3bdde	0.07995199
54	0xbd8a40f7	-0.06750672
55	0xbd7a22c3	-0.061068308
56	0xbacd4dea	-0.0015663479
57	0xbc59b7a5	-0.013288413
58	0xbc85041b	-0.01623731
59	0xbd2c93cb	-0.042133134
60	0x3cc42f30	0.023948282
61	0x3c19c181	0.009384514
62	0xbe11afc2	-0.14227203
63	0x3dc3cacf	0.09560167
64	0xbc8e155e	-0.017344173
65	0x3d901ce0	0.070367575
66	0xbd5d2dfc	-0.053998932
67	0xbb6cfdad	-0.0036161945
68	0xbccac566	-0.02475233
69	0x3dc9436e	0.09827314
70	0x3db3f4ce	0.08786927
71	0xbdb7360a	-0.08945854
72	0xbd90cccf	-0.07070314
73	0xbd5ac309	-0.053408656
74	0xbdb9ecf2	-0.09078397
75	0xbe4eef27	-0.20208417
76	0xbb25b154	-0.0025282698
77	0xbca1b515	-0.019739667
78	0xbdc9a3cb	-0.09845694
79	0xbdc3a37e	-0.09552668
80	0x3d874c40	0.066063404
81	0x3d876fd6	0.06613128
82	0x3d825e0d	0.06365595
83	0xbc7b3e69	-0.015334704
84	0x3d1c8d37	0.03822061
85	0xb8d09f74	-9.947913e-05
86	0xbd4102ab	-0.047121685
87	0x3dccfa92	0.1000873
88	0xbda61be0	-0.081107855
89	0x3d798912	0.060921736
90	0xbe33391b	-0.17502253
91	0xbd63ebe2	-0.055644877
92	0xbe518a3f	-0.20462893
93	0x3ddd832e	0.10816036
94	0x3d55e327	0.052218582
95	0xbc1f8727	-0.009736813
96	0x3cce74f6	0.025202256
97	0xbd672bbb	-0.05643819
98	0x3d915832	0.070969
99	0x3d531c5d	0.05154072
100	0xbb8adbe6	-0.0042376397
101	0x3de383ac	0.11109099
102	0xbc0c6fdf	-0.008571594
103	0x3d9ea9a5	0.07747201
104	0x3d13f614	0.03612335
105	0x3d794dba	0.06086514
106	0x3dd32ef0	0.10311687
107	0x3d17ca7b	0.037058335
108	0xbe0e927a	-0.13923064
109	0x3d7eb556	0.062184654
110	0x3dcfd6c1	0.10148383
111	0xbdd93981	-0.10606671
112	0x3d3122f9	0.043246243
113	0x3d16f31b	0.036852937
114	0x3df8b159	0.121432014
115	0xbaca307d	-0.0015425828
116	0x3e2f8eba	0.1714429
117	0xbd2697e5	-0.0406722
118	0xbc904cd5	-0.017614761
119	0xbd9201cb	-0.07129248
120	0xbcd23e76	-0.02566455
121	0xbbe9c63d	-0.0071342275
122	0x3ddc41c3	0.107547306
123	0x3e1574f6	0.14595398
124	0xbd15c1bb	-0.03656171
125	0x3c6d2d51	0.014476136
126	0xbd0a0f3f	-0.033705946
127	0x3cd212f6	0.025643807
128	0x3bfa9f8c	0.007648414
129	0x3de66f36	0.112516806
130	0xbe02abba	-0.12760821
131	0x3e204eb1	0.15655018
132	0xbd8b2ea0	-0.067960024
133	0x3deecd76	0.11660282
134	0x3d81d32d	0.06339107
135	0x3d0d38ce	0.034478
136	0x3d24f08a	0.04026846
137	0xbdb228e1	-0.08699203
138	0xbd362ba0	-0.044475198
139	0xbd0dc01a	-0.03460703
140	0x3cdf57e2	0.027263585
141	0x3d945887	0.07243448
142	0x3cfd5f55	0.030929247
143	0x3c1478f2	0.009062039
144	0xbda649ec	-0.08119568
145	0xba4656d2	-0.0007566038
146	0x3da16788	0.07881075
147	0x3d0439c6	0.03228166
148	0xbc6d353d	-0.014478025
149	0x3d68bc96	0.056820475
150	0xbe0f686b	-0.14004676
151	0xbdfd7039	-0.123749204
152	0xbd01e284	-0.031710163
153	0xbe149a85	-0.1451207
154	0xbdb904ff	-0.09034156
155	0xbe29b67e	-0.16573521
156	0x3e1722f0	0.14759421
157	0xbd03779d	-0.032096494
158	0x3df39d5b	0.118952475
159	0xbdd90d07	-0.10598188
160	0x3da875b9	0.08225579
161	0xbbe155a7	-0.0068766656
162	0x3d7e0bb9	0.0620229
163	0xbcc2f00d	-0.023796106
164	0x3e3ed214	0.18634826
165	0x3d915dd2	0.07097973
166	0xbb210b5d	-0.0024573423
167	0x3de82d25	0.11336736
168	0x3c86998a	0.016430635
169	0xbd6905ac	-0.056890175
170	0x3dc45680	0.09586811
171	0x3d4644aa	0.048405327
172	0x3dac2a87	0.08406549
173	0xbcbaefbd	-0.022819394
174	0xbb23bc00	-0.0024983883
175	0xbd4f0452	-0.05054123
176	0xbe09efa1	-0.13470317
177	0x3da31a38	0.07963985
178	0x3ddd6089	0.10809428
179	0xbd40ba09	-0.047052417
180	0x3e07e919	0.13272513
181	0xbcd3c0a5	-0.025848696
182	0x3d064626	0.032781743
183	0x3db06e71	0.08614815
184	0x3dea2a60	0.11433864
185	0xbdf95ff6	-0.12176506
186	0xbe459779	-0.19296063
187	0xbddfd9d7	-0.109302215
188	0xbd76405d	-0.060119975
189	0xbdfcaaa4	-0.123372346
190	0x3dba342b	0.090919815
191	0x3d671ecd	0.05642586
192	0x3d6245c6	0.055242322
193	0xbe15d0b7	-0.146304
194	0xbcb43853	-0.021999514
195	0x3d591d41	0.053006414
196	0xbd5d23f5	-0.05398937
197	0xbe03c6cf	-0.12868808
198	0x3c74bf5f	0.014938205
199	0xbe549400	-0.20759583
200	0xbe472b96	-0.1945022
201	0xbddd0414	-0.107917935
202	0xbcea412e	-0.028595533
203	0xbda277c4	-0.07933
204	0x3da9a9d1	0.08284343
205	0xbd6bc547	-0.057561185
206	0x3e49759e	0.19673774
207	0xbd57ed88	-0.05271676
208	0xbba09b8e	-0.004901356
209	0x3d9d9082	0.07693578
210	0xbdccf899	-0.10008354
211	0x3daeb21f	0.08530068
212	0x3da955f4	0.082683474
213	0xbbfc8d4e	-0.0077072745
214	0xbde5791a	-0.11204739
215	0x3e15f740	0.146451
216	0x3cb06bbb	0.021535745
217	0x3d696a14	0.05698593
218	0x3b10b6f7	0.0022081712
219	0x3daa87b1	0.08326662
220	0x3d822b63	0.063559316
221	0x3d16ecac	0.0368468
222	0x3dc04678	0.09388441
223	0xbc3ff4fa	-0.011716122
224	0xbde16f73	-0.110075854
225	0xbdb112f0	-0.0864619
226	0xbdb74fe6	-0.08950786
227	0x3c9b7932	0.018978689
228	0x3d97cf65	0.07412604
229	0xbdd32541	-0.1030984
230	0xbdd75f72	-0.105162516
231	0x3aebd6b6	0.0017993066
232	0xbcf723a7	-0.030168368
233	0xbc33bdd6	-0.010970553
234	0x3d8a347c	0.06748292
235	0x3e304f43	0.17217736
236	0x3d8be993	0.0683166
237	0x3c853902	0.016262535
238	0xbdaba988	-0.08381945
239	0xbe7b1fe1	-0.2452388
240	0x3df0039b	0.11719438
241	0xbe0fb40b	-0.14033525
242	0x3cc23c11	0.023710283
243	0xbdaab636	-0.08335535
244	0xbb95315e	-0.004553004
245	0x3d9cb05f	0.076508276
246	0x3d2364c2	0.039891012
247	0xbcc83cc8	-0.024443045
248	0xbcee9490	-0.029123574
249	0x3d300c4b	0.042980473
250	0xbe19048f	-0.14943145
251	0x3dd77e82	0.10522176
252	0x3d71af57	0.059005108
253	0xbdbde62d	-0.09272418
254	0xbdc29899	-0.09501762
255	0xbdcfdb97	-0.10149305

network_body._body_endoder.seq_layers.2.bias f4 [128]
0	0xbb5205d4	-0.003204693
1	0xbc1ee1a7	-0.009697354
2	0x3b9282fe	0.004471182
3	0xbba8a811	-0.005146988
4	0x39f472c8	0.00046624825
5	0xbbb3183a	-0.0054655345
6	0x3c1b4513	0.009476918
7	0x3cb34b7a	0.021886576
8	0x3ae7beea	0.0017680798
9	0x3c6d0891	0.014467374
10	0x3b1b8007	0.0023727433
11	0x3adec9f8	0.0016997447
12	0xba5ef2e6	-0.00085048226
13	0x3b78f08c	0.0037985174
14	0x3c076b15	0.008265276
15	0xbb2d12c6	-0.0026408895
16	0xbb151fca	-0.0022754543
17	0xbc5c44fa	-0.01344418
18	0x3cda2915	0.026630918
19	0x3bd3a2ed	0.0064586313
20	0xbb395263	-0.0028277866
21	0xbb8ff195	-0.0043928125
22	0x3bf1b911	0.007376798
23	0x3be742ae	0.0070575094
24	0x3a9fafc1	0.0012183116
25	0x3be5ef70	0.0070170686
26	0xbc0f93c4	-0.008763257
27	0x3cb576c1	0.022151353
28	0xbbe1844c	-0.006882226
29	0x3c83b6a5	0.016078303
30	0x3cc0cc64	0.023534961
31	0xbb29bbdb	-0.0025899324
32	0x3c3b5545	0.011433904
33	0xbb8d8a1c	-0.0043194424
34	0x3c8f9413	0.017526662
35	0x3aa16be7	0.0012315483
36	0x3b8cdb08	0.0042985715
37	0x3ac4f8b9	0.0015027738
38	0x3a32e544	0.00068243244
39	0xbbaa8a08	-0.005204443
40	0x3c69d453	0.014271813
41	0x3c6b3d46	0.01435787
42	0x3b8b9130	0.004259251
43	0x3c500396	0.012696167
44	0xbb0fe14f	-0.0021954363
45	0x3c614eb7	0.013751677
46	0x3b24587e	0.002507716
47	0x3c958759	0.018253015
48	0xbb508df1	-0.0031822885
49	0xbb9b7233	-0.004743838
50	0x3c189238	0.009312205
51	0x3b97f303	0.0046371236
52	0x3c08c068	0.0083466545
53	0xbbd6b6c2	-0.006552548
54	0x3b81acad	0.003957352
55	0xbbe4f474	-0.006987149
56	0xba444b05	-0.00074879854
57	0x3b23c3ef	0.0024988612
58	0x3c29e8fc	0.010370489
59	0x39369828	0.00017413555
60	0x3b878791	0.004136034
61	0x3c93118f	0.017952709
62	0xbb3ae280	-0.0028516352
63	0x3c7183b1	0.01474087
64	0x3c303139	0.010753923
65	0x3b919722	0.0044430653
66	0x3c1adaf8	0.00945162
67	0xbb31710f	-0.0027075445
68	0x3c501553	0.012700397
69	0xbc270cae	-0.010195894
70	0x3c4d1dfd	0.012519357
71	0x3c0425bd	0.008065638
72	0x3becbd47	0.007224712
73	0x3b7a5ca4	0.003820219
74	0xbac8b814	-0.0015313649
75	0xbc10834b	-0.008820365
76	0xbc1162ae	-0.008873625
77	0x3c85d6de	0.016337808
78	0x3b336ca7	0.0027377994
79	0x3cc6c0ad	0.024261797
80	0x3be04148	0.0068437196
81	0xbbf07ffd	-0.007339476
82	0xbbf6ba26	-0.007529515
83	0x3c11057f	0.008851408
84	0x3c5f1c7a	0.013617629
85	0xbbfec184	-0.0077745337
86	0xbb257930	-0.0025249235
87	0x3c3a6f0e	0.011379017
88	0x3bd497ab	0.006487807
89	0xbb3704bb	-0.0027926404
90	0xbc8886ff	-0.016665934
91	0xbc211d9f	-0.009833722
92	0xbac6fd44	-0.001518168
93	0x3c59cc14	0.013293285
94	0x3c348ea7	0.011020339
95	0xb9cad2e4	-0.00038685568
96	0x3c07fb9a	0.008299733
97	0x3892ebd1	7.005747e-05
98	0xbb926e58	-0.0044687204
99	0x38bc3597	8.9745205e-05
100	0xbb9b33ab	-0.004736384
101	0x3bf30e39	0.007417467
102	0xbc1bf497	-0.009518764
103	0xbc3b55eb	-0.011434059
104	0xbc01fba0	-0.007933527
105	0x3c4e51a9	0.0125927115
106	0x3b37356c	0.0027955426
107	0x3ba733f2	0.005102628
108	0x3c019129	0.007908144
109	0x3c1d80a5	0.009613191
110	0x3c9f7960	0.019467056
111	0x3c529608	0.012853153
112	0xbb45c5c3	-0.003017769
113	0xbb954b00	-0.00455606
114	0x3abdf751	0.0014493262
115	0xbb94057a	-0.0045172544
116	0x3b5f7472	0.0034096506
117	0x3c06c1be	0.008224903
118	0xbb4e71e7	-0.0031500997
119	0x3b771d33	0.0037706613
120	0xbc253023	-0.0100822775
121	0xbc140c90	-0.009036198
122	0x3c4eb077	0.012615315
123	0xbbdd99f4	-0.0067627374
124	0xba1208b4	-0.0005570755
125	0x3bf9d9d7	0.0076248455
126	0x3cecd715	0.028911153
127	0x3b83cbcc	0.004022097

action_model._continuous_distribution.log_sigma f4 [1, 2]
0	0xbcd1f22a	-0.025628168
1	0xbcb93bb7	-0.022611482

action_model._continuous_distribution.mu.weight f4 [2, 128]
0	0xbb86ab0d	-0.0041097463
1	0xbc2a2384	-0.010384444
2	0xbc755c39	-0.014975601
3	0xbb9a00af	-0.0046997885
4	0x3b312f5c	0.0027036285
5	0xbc169a84	-0.009192113
6	0x3c9e25ae	0.019305076
7	0xbc876448	-0.01652731
8	0x3d05dd15	0.032681543
9	0xbd07c26a	-0.033144392
10	0x3ce24fc6	0.02762593
11	0x3ce96c27	0.028493954
12	0xbcb27965	-0.021786401
13	0x3c21639e	0.009850411
14	0xbc93d49c	-0.018045716
15	0x3cb7d602	0.022440914
16	0xbc931bb2	-0.017957542
17	0xbcb2703a	-0.02178203
18	0x3d0099cc	0.031396672
19	0x3c8838d0	0.016628653
20	0x3c6e1c3c	0.014533099
21	0x3c6abcd4	0.014327247
22	0xbd4c877a	-0.049933888
23	0xbcff62b1	-0.03117499
24	0x3c5e15db	0.013555015
25	0xbd2ae79d	-0.04172479
26	0xbcd97d4a	-0.026549
27	0x3c65264f	0.013986184
28	0x3ab3f625	0.0013729973
29	0xbd1ded67	-0.038556483
30	0x3cdd0ec0	0.026984572
31	0xbc397446	-0.011319226
32	0x3d31dd7b	0.04342411
33	0x3c0d0c67	0.008608914
34	0x3cabed7f	0.02098727
35	0xbbef394d	-0.007300532
36	0x3c8b855b	0.017031362
37	0x3c5eed21	0.013606341
38	0xbbadbf7e	-0.0053023687
39	0xbc13b14b	-0.009014438
40	0x3cd92cec	0.026510678
41	0xbd0aee60	-0.03391874
42	0x3c648f55	0.013950189
43	0x3cbdea96	0.023183148
44	0xbbc64304	-0.0060504694
45	0x3d0cc411	0.03436667
46	0x3a6d2039	0.0009045634
47	0xbc2b62cd	-0.010460568
48	0xba765f2d	-0.00093983376
49	0xbc3aa968	-0.011392929
50	0xbd1f07d6	-0.038825832
51	0x3c52903c	0.012851771
52	0xbd14ad7b	-0.036298256
53	0xbc6612bb	-0.014042552
54	0xbd26d42e	-0.040729694
55	0x3bc64c48	0.006051574
56	0x3c9f2a00	0.019429207
57	0xbc48b566	-0.01225028
58	0xbc4ce502	-0.012505772
59	0x3cb1e449	0.0217153
60	0x3c77772d	0.015104097
61	0xbd74363d	-0.05962204
62	0x3a296b67	0.00064628426
63	0x3c7ecae1	0.0155513
64	0x3d1e324d	0.03862219
65	0xbc864046	-0.01638807
66	0x3c14d816	0.009084722
67	0xbcd5c005	-0.026092539
68	0x3b6e2ce5	0.0036342677
69	0x3be78e0a	0.007066493
70	0xbd0c4cb3	-0.034252834
71	0xbd1ccea6	-0.038283013
72	0xbc22bc68	-0.009932615
73	0x3ca592e9	0.020211654
74	0xbcb3d12d	-0.021950329
75	0xbc9fc74f	-0.019504217
76	0xbc8161d4	-0.015793718
77	0xbd336d87	-0.043805625
78	0xbcdd4502	-0.027010445
79	0x3b31ecfb	0.0027149308
80	0xba46ee62	-0.00075886224
81	0xbad8a277	-0.001652791
82	0xbc2040c3	-0.009781065
83	0xbae818ba	-0.0017707564
84	0xbd48cb53	-0.04902203
85	0xbc18f0e7	-0.009334779
86	0x3bcc2fa4	0.006231265
87	0x3d1a4350	0.03766185
88	0x3c4e9e96	0.012611052
89	0x3c9e4ffa	0.019325245
90	0x3ca2ad89	0.019858139
91	0xbb12e7c2	-0.002241597
92	0xbc2f7019	-0.0107078785
93	0x3cf7e5a0	0.03026086
94	0x3c4752df	0.012165754
95	0xbcd91b07	-0.026502145
96	0xbc297696	-0.0103432145
97	0x3c6c5a4d	0.014425826
98	0xbc3af08f	-0.011409893
99	0xbc453be5	-0.012038206
100	0x3aeb4265	0.0017948864
101	0x3ce50f1a	0.027961303
102	0xbca869e9	-0.020558314
103	0x3bafc8fa	0.0053645344
104	0xbd1ce9fe	-0.03830909
105	0x3c8ded31	0.017325016
106	0xbc6bf45c	-0.0144015215
107	0xbce514b4	-0.027963974
108	0x3c1f65cc	0.00972886
109	0x3c04fc90	0.008116856
110	0xbd06eea3	-0.032942425
111	0xbd3f712f	-0.0467388
112	0xbcbda7ab	-0.02315124
113	0xbc91fc2e	-0.017820444
114	0xbd3b68ac	-0.04575412
115	0xbc141133	-0.009037304
116	0xbce022ea	-0.027360398
117	0x3cdf3a95	0.027249614
118	0xbc68a4fb	-0.014199491
119	0x3cb94bd8	0.022619173
120	0xbb3f6644	-0.0029205242
121	0xbc2a3719	-0.010389113
122	0x3ca980eb	0.020691356
123	0x3b2f4816	0.0026745847
124	0xbc184006	-0.009292608
125	0xbb46913a	-0.0030298964
126	0x3c4b0c04	0.0123930015
127	0xba6ec6f5	-0.00091086264
128	0xbcae08c4	-0.021244414
129	0xb7aa064c	-2.0268511e-05
130	0x3cc7e7f5	0.024402598
131	0xbb355972	-0.0027671722
132	0x3c8087ea	0.015689809
133	0x3c6b30d8	0.014354907
134	0x3cc51034	0.024055578
135	0x3d724352	0.059146233
136	0xbcfd6989	-0.030934112
137	0xbc29b1bf	-0.010357319
138	0xbba30de5	-0.0049760216
139	0xbcabf9f3	-0.020993209
140	0x3c18287a	0.009286994
141	0x3c8bd483	0.017069107
142	0xbc78a2ab	-0.015175502
143	0x3d176c6a	0.036968626
144	0xbc3b7d67	-0.0114434725
145	0x3c8d8d0f	0.017279176
146	0x3cd34b08	0.025792614
147	0xbd22a496	-0.039707743
148	0xbc721ad8	-0.014776908
149	0xb86f39ff	-5.7036053e-05
150	0xbbf5c56b	-0.0075003407
151	0xbc88b16d	-0.016686166
152	0xbbe8abd8	-0.0071005635
153	0xbcc34f5d	-0.023841554
154	0xbbee2d99	-0.0072686193
155	0xbdb0b7ca	-0.08628805
156	0xbcbd7f8b	-0.023132106
157	0xbc5ba53b	-0.013406093
158	0x3c55b9c6	0.01304478
159	0x3a98127f	0.0011602192
160	0xbb5abc0f	-0.0033376252
161	0xbb8cf048	-0.0043011047
162	0x3aa10a16	0.0012286331
163	0x3c9fad26	0.019491743
164	0x3cb846f8	0.022494778
165	0xbad00e62	-0.0015873427
166	0x3c72e1bd	0.014824328
167	0xba0005ec	-0.0004883695
168	0x3cd9b216	0.026574176
169	0x3b0643d7	0.0020487213
170	0x3c803a2a	0.015652735
171	0x3cb67d29	0.022276478
172	0x3bca7ece	0.006179667
173	0x3ccc1c9a	0.024915982
174	0xbd20b61f	-0.039236184
175	0xbd3f502a	-0.04670731
176	0x3b89bb53	0.004203239
177	0xbb6f0068	-0.0036468748
178	0xbbb0da95	-0.0053971508
179	0x3c6bfdf1	0.014403806
180	0x3c889326	0.016671728
181	0xbc836c1b	-0.01604276
182	0x3c1f426c	0.009720426
183	0xbc680c99	-0.01416316
184	0xbcf6a36f	-0.030107228
185	0xbd56ceca	-0.052443303
186	0x3d257065	0.04039039
187	0xbd398abc	-0.045298323
188	0x3c8a1bcb	0.016858956
189	0xbae89b57	-0.001774649
190	0xbcc669c8	-0.024220362
191	0x3d2cd640	0.042196512
192	0xbd624e00	-0.055250168
193	0x3cc8b54e	0.024500515
194	0x3ce8b7d3	0.028407967
195	0xbc63effe	-0.013912199
196	0x3d43d0b1	0.047806446
197	0x3ccd560b	0.025065443
198	0x3d29619c	0.041352853
199	0x3d3bae14	0.04582031
200	0x3d6eac1e	0.058269612
201	0x3c331658	0.01093062
202	0x3bbf2737	0.005833532
203	0xbc807295	-0.015679637
204	0x3b8cf936	0.004302169
205	0x3d3560cb	0.044281762
206	0x3cf8d214	0.03037361
207	0xbd713f4b	-0.05889825
208	0xbd58ef3b	-0.052962523
209	0xbc86e3d7	-0.016466064
210	0xbc392a5b	-0.011301602
211	0x3d2bbb05	0.041926403
212	0x3ae98716	0.0017816748
213	0xbcad8075	-0.021179417
214	0xbc8282c5	-0.015931496
215	0x3d8d256d	0.06891904
216	0x3c2f5b0c	0.01070286
217	0xbc8cea23	-0.017201489
218	0x3a6c3338	0.0009010318
219	0xbc8671a5	-0.016411612
220	0xbcc2c23a	-0.023774255
221	0xbc9cbaa0	-0.019131958
222	0x3d285eed	0.041106153
223	0xbbb3957d	-0.005480467
224	0x3bf9214d	0.0076028467
225	0xbc0b8f13	-0.008517998
226	0xbccc32e7	-0.024926616
227	0xbc4bbb6f	-0.012434824
228	0xbce40c2b	-0.027837833
229	0x3cbeb1ce	0.023278143
230	0xbd05f70e	-0.032706313
231	0xbd07bcfa	-0.033139206
232	0xbcc448a3	-0.023960417
233	0x3b914d41	0.004434258
234	0x3c3e8aa2	0.011629732
235	0x3c58dbad	0.013235969
236	0xbcdce16c	-0.026962958
237	0x3c087038	0.008327536
238	0x3d1b687e	0.03794145
239	0xbb0e6fee	-0.0021734196
240	0x3ca820ba	0.020523418
241	0xbafb4c09	-0.001917244
242	0x3b1f18ad	0.0024276183
243	0xbd2b7239	-0.041856978
244	0xbc21047f	-0.009827732
245	0xba848cf9	-0.0010112814
246	0x3c891ea5	0.016738245
247	0x3c03c754	0.008043129
248	0xbcfd551f	-0.030924378
249	0xbc02533b	-0.007954414
250	0x3c4d7242	0.012539448
251	0x3baa452d	0.0051962347
252	0x3c55b0e7	0.013042665
253	0xbc49cfca	-0.012317607
254	0x3d3e7d82	0.046506412
255	0x3cb1c5d8	0.021700785

action_model._continuous_distribution.mu.bias f4 [2]
0	0x3b5036eb	0.0031771015
1	0x3ba37f2a	0.0049895244

exp_avg f4 [128, 6]
0	0xb5d2de2b	-1.5710879e-06
1	0x2d038b56	7.477427e-12
2	0xb9751235	-0.00023371803
3	0x3868ac12	5.5473363e-05
4	0x3493adfa	2.7507468e-07
5	0xb93fcf7f	-0.00018292478
6	0x38f97fc1	0.00011897041
7	0x2c597d1b	3.0907002e-12
8	0xb8724af2	-5.7767094e-05
9	0x38280bd2	4.006533e-05
10	0x34555236	1.9867079e-07
11	0xb90a88a7	-0.00013211613
12	0xb821b99f	-3.8558264e-05
13	0xac927af6	-4.163221e-12
14	0x3865e791	5.4813518e-05
15	0xb711e563	-8.696082e-06
16	0xb339341a	-4.3121055e-08
17	0x37f08c49	2.8675555e-05
18	0xb858bd27	-5.1674575e-05
19	0x2c3218bb	2.530905e-12
20	0xb8fb3378	-0.000119781995
21	0x376dc7c5	1.4172813e-05
22	0x3396ebeb	7.0278325e-08
23	0xb84405a4	-4.6735295e-05
24	0xb91ff80e	-0.00015255829
25	0xac36b13e	-2.5962145e-12
26	0xb844116d	-4.674627e-05
27	0xb74d8197	-1.2249125e-05
28	0xb3826ff1	-6.073959e-08
29	0x38296a78	4.0391897e-05
30	0x372d5a4a	1.0332626e-05
31	0xaaa5fde3	-2.9486057e-13
32	0x37088b1e	8.138622e-06
33	0x35b17ac9	1.3223263e-06
34	0x31e14bd2	6.5569816e-09
35	0xb6924f62	-4.3603804e-06
36	0x35e6bd05	1.7191347e-06
37	0xaa9602ec	-2.664738e-13
38	0x37b86ddf	2.1985672e-05
39	0xb6642cb2	-3.4000664e-06
40	0xb290d32d	-1.6859838e-08
41	0x373c1a44	1.1211789e-05
42	0xb60cdd7f	-2.0990553e-06
43	0xaab2afc4	-3.1741114e-13
44	0x360d57fc	2.106185e-06
45	0x3535e51c	6.776115e-07
46	0x3166e6a8	3.3600518e-09
47	0xb615f37e	-2.2344461e-06
48	0xb8f31fa9	-0.0001159304
49	0x2c91612d	4.1319365e-12
50	0xb98052aa	-0.00024475652
51	0x386865da	5.5407967e-05
52	0x3493816b	2.7475048e-07
53	0xb93f95a1	-0.0001827092
54	0xb89f36cd	-7.591918e-05
55	0xac4a619c	-2.876011e-12
56	0xb7a5539d	-1.9708468e-05
57	0x34729294	2.2591331e-07
58	0x3099f8ec	1.1202963e-09
59	0xb547f999	-7.449649e-07
60	0xb6b75d6d	-5.464701e-06
61	0xaab1b532	-3.1567246e-13
62	0x340c5770	1.3070326e-07
63	0x3632ecfa	2.6662005e-06
64	0x326321bc	1.3220809e-08
65	0xb71380ba	-8.791854e-06
66	0x36dd9c66	6.6045204e-06
67	0xab8d7d5b	-1.0053446e-12
68	0x384a439a	4.8223512e-05
69	0xb63f7e6e	-2.853481e-06
70	0xb273164f	-1.4149534e-08
71	0x371ddd3c	9.409439e-06
72	0xb774b303	-1.4585213e-05
73	0xabbc473a	-1.3377973e-12
74	0x376c9149	1.4100523e-05
75	0xb5e710b5	-1.7215704e-06
76	0xb212a8a9	-8.536667e-09
77	0x36be7c7d	5.6769336e-06
78	0xb96b63b3	-0.00022448487
79	0x2ccfb1d9	5.903039e-12
80	0xb9936e79	-0.00028120333
81	0x37210e1a	9.599631e-06
82	0x334c7244	4.7601375e-08
83	0xb804c581	-3.1655192e-05
84	0xb4913028	-2.7043393e-07
85	0xab1bcc57	-5.535064e-13
86	0x37057bf7	7.956281e-06
87	0x35427037	7.2433926e-07
88	0x3176d335	3.5917769e-09
89	0xb6204a65	-2.3885161e-06
90	0x389449f6	7.070966e-05
91	0xad1215e9	-8.304004e-12
92	0x39051a88	0.00012693752
93	0x3842c58e	4.643719e-05
94	0x34773f5d	2.3026719e-07
95	0xb92090e6	-0.00015312768
96	0xb88034ec	-6.113373e-05
97	0xac8fa320	-4.082415e-12
98	0x388aa9c2	6.611973e-05
99	0xb7f16119	-2.8774653e-05
100	0xb41934b8	-1.4268414e-07
101	0x38c6fd11	9.488513e-05
102	0xb87e18d6	-6.058145e-05
103	0xac0e050a	-2.018221e-12
104	0x35942a3d	1.1039152e-06
105	0xb71eb638	-9.45996e-06
106	0xb349790b	-4.6909047e-08
107	0x3802d6d6	3.1194497e-05
108	0x377e4831	1.5156388e-05
109	0xaab20b54	-3.1627012e-13
110	0xb7ccb7c0	-2.440426e-05
111	0x37ec9b08	2.8205584e-05
112	0x34162d13	1.3986237e-07
113	0xb8c30d90	-9.300851e-05
114	0x37a1e33f	1.9298515e-05
115	0x2d8ee89d	1.6246832e-11
116	0xb9c166d2	-0.00036888436
117	0x383dbd54	4.5237437e-05
118	0x3470dbfd	2.2431773e-07
119	0xb91c6adf	-0.00014917132
120	0xb817db29	-3.6205314e-05
121	0x2d173bdd	8.596649e-12
122	0xb99348df	-0.00028092318
123	0x3885720b	6.363176e-05
124	0x34a96613	3.1552972e-07
125	0xb95c051c	-0.00020982738
126	0xb6f34f29	-7.25118e-06
127	0xab2e8c30	-6.2011767e-13
128	0x368be851	4.169568e-06
129	0x34f7376a	4.6047654e-07
130	0x311ce8c8	2.2833309e-09
131	0xb5cbcca1	-1.5184233e-06
132	0xb8d6ce2f	-0.0001024272
133	0x2cb1abb9	5.0497076e-12
134	0xb970696e	-0.00022927459
135	0x381d0b9f	3.744254e-05
136	0x34475b36	1.8566502e-07
137	0xb9017710	-0.00012346753
138	0x38bc6c4d	8.984711e-05
139	0x2ccf5313	5.892517e-12
140	0xb8c12c2f	-9.211187e-05
141	0x3817636d	3.6093803e-05
142	0x34402cd7	1.7897706e-07
143	0xb8f99a69	-0.000119020064
144	0xb7f34145	-2.899825e-05
145	0xad32bf7b	-1.0160646e-11
146	0x38e4b672	0.0001090587
147	0x37ea962f	2.7964908e-05
148	0x3414e508	1.3866895e-07
149	0xb8c16372	-9.22148e-05
150	0x38ca0621	9.633252e-05
151	0xac3fcd82	-2.7256812e-12
152	0x3857e1b8	5.147021e-05
153	0x38003f28	3.0576397e-05
154	0x3422cc8f	1.5161844e-07
155	0xb8d372b3	-0.000100826284
156	0xb7d92363	-2.5884894e-05
157	0x2c825236	3.7039495e-12
158	0xb8fd68eb	-0.000120835226
159	0x37d6a862	2.5589197e-05
160	0x34083ed6	1.2688847e-07
161	0xb8b0f5a0	-8.438085e-05
162	0xb6f6ac75	-7.351448e-06
163	0x2ba2ca84	1.1567002e-12
164	0xb8ce4e48	-9.8374265e-05
165	0x381df7c3	3.7662463e-05
166	0x3448871d	1.8675605e-07
167	0xb90239bf	-0.00012419278
168	0xb6b7ff1f	-5.483525e-06
169	0xabb061c7	-1.2532691e-12
170	0x37c2275c	2.314493e-05
171	0xb616bb2b	-2.2460688e-06
172	0xb23f5769	-1.1137538e-08
173	0x36f88559	7.4064997e-06
174	0xb7f090c8	-2.8677649e-05
175	0xac0685f6	-1.9116909e-12
176	0x37915f94	1.7329854e-05
177	0xb6bf7858	-5.7062534e-06
178	0xb2f30e9b	-2.8295565e-08
179	0x379dd82c	1.8816521e-05
180	0x368f8cb9	4.2781144e-06
181	0xad4821e3	-1.1376208e-11
182	0x39782c7d	0.00023667696
183	0xb7c8e9cc	-2.3950728e-05
184	0xb3ff0b33	-1.18764e-07
185	0x38a5a0db	7.897775e-05
186	0x38cfe80a	9.91375e-05
187	0x2ce13f00	6.401879e-12
188	0xb9f0b5fd	-0.0004591196
189	0x395a2af0	0.00020806096
190	0x358a792a	1.0317065e-06
191	0xba33da62	-0.00068608497
192	0x36917d6f	4.335939e-06
193	0xaa12afbc	-1.3028375e-13
194	0x37340889	1.0730823e-05
195	0xb638b4cd	-2.7523377e-06
196	0xb26a7866	-1.3647968e-08
197	0x371844aa	9.075893e-06
198	0xb6abc89d	-5.1195516e-06
199	0x2cbda033	5.3894888e-12
200	0xb9ba1968	-0.00035495614
201	0x390a72be	0.0001320345
202	0x352fbfc8	6.547166e-07
203	0xb9e44492	-0.00043538638
204	0x3716a5a6	8.979265e-06
205	0x2996f55e	6.7039026e-14
206	0x376bfc68	1.4065859e-05
207	0xb6802961	-3.8195144e-06
208	0xb2a2b0d9	-1.8939703e-08
209	0x37534ebd	1.2594913e-05
210	0xb892a3cf	-6.992334e-05
211	0xab11cdf4	-5.1800166e-13
212	0x3809cf42	3.285637e-05
213	0xb83f2723	-4.5574398e-05
214	0xb472a76d	-2.2598915e-07
215	0x391d9535	0.0001502827
216	0xb81a9560	-3.6855577e-05
217	0x2c1907dc	2.174697e-12
218	0xb8d92886	-0.000103549144
219	0x37d68052	2.5570542e-05
220	0x34082578	1.2679618e-07
221	0xb8b0d4a1	-8.431939e-05
222	0xb4f64011	-4.5867685e-07
223	0xa8fa9f59	-2.7824682e-14
224	0xb69159ba	-4.3317823e-06
225	0x3613092e	2.191005e-06
226	0x323aa685	1.0864487e-08
227	0xb6f26d49	-7.2248845e-06
228	0xb792bc7f	-1.7492332e-05
229	0x2c437dac	2.7780929e-12
230	0xb8b7eb64	-8.769965e-05
231	0x375ae901	1.3048063e-05
232	0x338af1d4	6.470114e-08
233	0xb8347710	-4.302623e-05
234	0x38878e87	6.4638494e-05
235	0x2ca15a8d	4.5859484e-12
236	0xb9663dd6	-0.00021957545
237	0x38d8622e	0.0001031797
238	0x35095748	5.116349e-07
239	0xb9b261df	-0.00034023725
240	0xb64cf040	-3.0538213e-06
241	0xaa9aba72	-2.7485268e-13
242	0xb5774225	-9.2110923e-07
243	0x35ae7458	1.2997871e-06
244	0x31dd74fa	6.4452452e-09
245	0xb68fd13d	-4.2860906e-06
246	0xb79a782e	-1.8414194e-05
247	0xab5dab90	-7.8753063e-13
248	0xb874d9f5	-5.837712e-05
249	0x37fe82fc	3.0340154e-05
250	0x34218a90	1.5044702e-07
251	0xb8d1d079	-0.00010004728
252	0x37098e3d	8.198954e-06
253	0xaa726d89	-2.153192e-13
254	0x37a103c5	1.9194451e-05
255	0xb6a82214	-5.0107574e-06

exp_avg_sq f4 [128, 6]
0	0x33dff124	1.042811e-07
1	0x1aa75c91	6.921913e-23
2	0x3549420b	7.497444e-07
3	0x3405ab8d	1.2449e-07
4	0x2c57666f	3.06102e-12
5	0x35b5af69	1.3536602e-06
6	0x342a5862	1.5864637e-07
7	0x1a96270a	6.210162e-23
8	0x353d7ecc	7.05925e-07
9	0x3402cc2d	1.2181472e-07
10	0x2c52c573	2.9952401e-12
11	0x35b1c7df	1.3245698e-06
12	0x3395c9cb	6.975059e-08
13	0x19dffae6	2.3158997e-23
14	0x34db92f0	4.089884e-07
15	0x3341a13c	4.5082956e-08
16	0x2b9c02b0	1.1085213e-12
17	0x35039765	4.902161e-07
18	0x342f1ebf	1.630933e-07
19	0x19f38925	2.5181003e-23
20	0x35385444	6.8667964e-07
21	0x33cd5d14	9.562987e-08
22	0x2c2576f3	2.351394e-12
23	0x358b90c5	1.039844e-06
24	0x34900b2c	2.683022e-07
25	0x1ae33d81	9.3984364e-23
26	0x359174a0	1.0837284e-06
27	0x34437d93	1.8206474e-07
28	0x2c9d827b	4.4766946e-12
29	0x3604db13	1.979705e-06
30	0x30f23b1a	1.7624615e-09
31	0x1725eb3c	5.3611283e-25
32	0x3214712f	8.640469e-09
33	0x30ae6899	1.2689895e-09
34	0x290c860d	3.1202515e-14
35	0x326d0e9b	1.37985365e-08
36	0x30616bed	8.2007895e-10
37	0x171d7b6f	5.088523e-25
38	0x3199486d	4.46112e-09
39	0x30a3b31a	1.1910715e-09
40	0x2903e52c	2.9286618e-14
41	0x325e804f	1.2951275e-08
42	0x2f182bbe	1.383986e-10
43	0x15bad238	7.545647e-26
44	0x303554c3	6.596787e-10
45	0x2f0842e4	1.2392892e-10
46	0x275b9359	3.0472233e-15
47	0x30b93500	1.3475585e-09
48	0x33c3d330	9.11881e-08
49	0x1a2cdf44	3.574912e-23
50	0x351e7cdc	5.904128e-07
51	0x33d07678	9.707304e-08
52	0x2c27f632	2.3868793e-12
53	0x358dabfe	1.0555375e-06
54	0x330febeb	3.3509348e-08
55	0x198cf21e	1.4573451e-23
56	0x341f1751	1.4816511e-07
57	0x32e47072	2.6593828e-08
58	0x2b380ea0	6.539023e-13
59	0x349b3f76	2.8917174e-07
60	0x300da854	5.153471e-10
61	0x166cbd8d	1.912374e-25
62	0x311064d1	2.1012065e-09
63	0x2fa23759	2.9506955e-10
64	0x2802b33b	7.255314e-15
65	0x315c7c2a	3.2084793e-09
66	0x3133d5cc	2.6169458e-09
67	0x181023f8	1.8629723e-24
68	0x32a9a966	1.9751223e-08
69	0x31927d99	4.263438e-09
70	0x29ec0f2f	1.0483139e-13
71	0x33471c5f	4.63591e-08
72	0x3130b200	2.5712552e-09
73	0x18108aa2	1.8681555e-24
74	0x3279eade	1.454711e-08
75	0x313a7f84	2.7139047e-09
76	0x299643b8	6.6730855e-14
77	0x32fd7d3e	2.951003e-08
78	0x34dd12ef	4.1178234e-07
79	0x1b35f9db	1.5052702e-22
80	0x361cc966	2.336304e-06
81	0x34d3802b	3.9395067e-07
82	0x2d2a68ce	9.6866525e-12
83	0x368fbc86	4.283679e-06
84	0x2fec3551	4.2966034e-10
85	0x169e163e	2.5540314e-25
86	0x313b9659	2.7297544e-09
87	0x300c602f	5.106839e-10
88	0x286234b0	1.2556945e-14
89	0x31becca3	5.5529923e-09
90	0x33bd53b0	8.816221e-08
91	0x1a98a4dd	6.313208e-23
92	0x35404a36	7.1633565e-07
93	0x34326a45	1.6616202e-07
94	0x2c8fc078	4.0856728e-12
95	0x35f280b3	1.8067861e-06
96	0x338dd5ef	6.6047384e-08
97	0x1a1f7c41	3.29808e-23
98	0x34bb6399	3.490393e-07
99	0x33513df5	4.8717954e-08
100	0x2ba896f0	1.1979012e-12
101	0x350e3394	5.297418e-07
102	0x32faf5da	2.921563e-08
103	0x198dbb2f	1.4654661e-23
104	0x34216c19	1.5033619e-07
105	0x32f2b2ce	2.8253819e-08
106	0x2b438bc5	6.9471886e-13
107	0x34a4f046	3.0722202e-07
108	0x31557ce8	3.106658e-09
109	0x17f24e45	1.5658641e-24
110	0x32311564	1.030762e-08
111	0x31481583	2.9116058e-09
112	0x29a135fe	7.1592024e-14
113	0x3307fa49	3.165977e-08
114	0x349490c8	2.767249e-07
115	0x1b949666	2.458174e-22
116	0x361b3485	2.312737e-06
117	0x34e5b18f	4.2783765e-07
118	0x2d391150	1.0519877e-11
119	0x369c19b2	4.6521536e-06
120	0x33cc96d8	9.5269286e-08
121	0x1a919e52	6.0226375e-23
122	0x3543b24b	7.290261e-07
123	0x3404d8f2	1.2372382e-07
124	0x2c561313	3.0421817e-12
125	0x35b49126	1.3453289e-06
126	0x32ce2f5b	2.4003091e-08
127	0x187aa858	3.2396735e-24
128	0x339fcf8d	7.441768e-08
129	0x322c78e8	1.0039209e-08
130	0x2a8af6af	2.4684896e-13
131	0x33ea6ce1	1.0916279e-07
132	0x34128821	1.3646833e-07
133	0x1a6b7cf6	4.8697804e-23
134	0x356498ea	8.515914e-07
135	0x34145b62	1.3816819e-07
136	0x2c6f112b	3.3973473e-12
137	0x35c9a5cb	1.5023919e-06
138	0x342d88ed	1.6161694e-07
139	0x1ab7d745	7.603481e-23
140	0x354ea88a	7.6986237e-07
141	0x34027129	1.2148361e-07
142	0x2c5232c6	2.987098e-12
143	0x35b14c33	1.3209705e-06
144	0x33bd5a9d	8.817481e-08
145	0x1ac77b57	8.250374e-23
146	0x352c0f80	6.409755e-07
147	0x34243ad8	1.5295097e-07
148	0x2c845291	3.7608324e-12
149	0x35df38db	1.6631342e-06
150	0x337dea21	5.9119092e-08
151	0x1a19cbd3	3.1804306e-23
152	0x34d0de73	3.8904872e-07
153	0x33a2fe01	7.589916e-08
154	0x2c035345	1.8662444e-12
155	0x355d8a33	8.253002e-07
156	0x3373e555	5.6786423e-08
157	0x199a1db0	1.5935217e-23
158	0x34bf2559	3.5603696e-07
159	0x333afd47	4.3536854e-08
160	0x2b96a8ff	1.0705047e-12
161	0x34fe282a	4.734041e-07
162	0x31fc1329	7.3363435e-09
163	0x1861ddb6	2.9192504e-24
164	0x333ccfaa	4.396103e-08
165	0x31c8bc81	5.8421965e-09
166	0x2a21bc81	1.4365073e-13
167	0x33886bc5	6.352597e-08
168	0x3143898b	2.8454419e-09
169	0x180ff06f	1.8603705e-24
170	0x329c20e0	1.817574e-08
171	0x3158a32b	3.1524887e-09
172	0x29ae8c4d	7.7514906e-14
173	0x33133a31	3.427903e-08
174	0x33a27da9	7.56657e-08
175	0x19771fcf	1.27760244e-23
176	0x3485f1dd	2.494916e-07
177	0x334af363	4.725315e-08
178	0x2ba38537	1.1618821e-12
179	0x3509ecf3	5.1381284e-07
180	0x34c921cd	3.746376e-07
181	0x1b47d664	1.6530168e-22
182	0x36155fea	2.225856e-06
183	0x34be2134	3.5414416e-07
184	0x2d1930b7	8.70786e-12
185	0x3681366e	3.850836e-06
186	0x33e51968	1.0668265e-07
187	0x1b4b1866	1.679965e-22
188	0x359756e4	1.1275665e-06
189	0x345215a0	1.9565641e-07
190	0x2ca944b7	4.8108978e-12
191	0x360ec627	2.1274989e-06
192	0x3002970a	4.7508364e-10
193	0x15a7a943	6.771781e-26
194	0x30bd7c9f	1.3786979e-09
195	0x2f807e14	2.3372648e-10
196	0x27cf0e93	5.7469843e-15
197	0x312ea5cd	2.541458e-09
198	0x334eb476	4.812724e-08
199	0x1a67869d	4.787842e-23
200	0x3512997a	5.4612576e-07
201	0x33a156b6	7.512919e-08
202	0x2c01fe3c	1.847313e-12
203	0x355b4adb	8.1692787e-07
204	0x30fbdd99	1.8325635e-09
205	0x165f63c1	1.8045273e-25
206	0x3111af7c	2.1200028e-09
207	0x2ff86511	4.518275e-10
208	0x284822ae	1.110975e-14
209	0x31a8cf4b	4.91301e-09
210	0x33482ee5	4.660878e-08
211	0x19ec6d3a	2.4445944e-23
212	0x348e0cab	2.6458778e-07
213	0x33358501	4.2263313e-08
214	0x2b9240c7	1.0391903e-12
215	0x34f6b8e9	4.595561e-07
216	0x32a29936	1.8928954e-08
217	0x18e23370	5.847157e-24
218	0x33f7f9fc	1.1547306e-07
219	0x328c568e	1.6337506e-08
220	0x2ae22530	4.0171469e-13
221	0x343ebf8d	1.7764815e-07
222	0x305039d4	7.575214e-10
223	0x15fa044d	1.0098098e-25
224	0x30f1aa61	1.7583482e-09
225	0x2f541660	1.9289237e-10
226	0x27aae1cd	4.7429292e-15
227	0x31102295	2.0974416e-09
228	0x333563f2	4.2233246e-08
229	0x19558da2	1.10404444e-23
230	0x3447e3e0	1.861622e-07
231	0x33087f47	3.1780726e-08
232	0x2b5bf4b8	7.8144045e-13
233	0x34b9871e	3.4557246e-07
234	0x33a6731e	7.750917e-08
235	0x1aa03200	6.625523e-23
236	0x351137b1	5.409775e-07
237	0x33c8e7f7	9.35542e-08
238	0x2c21df89	2.3003563e-12
239	0x3588894e	1.017275e-06
240	0x2e60f2ae	5.1147246e-11
241	0x159afa8a	6.2595386e-26
242	0x2fa66452	3.0266506e-10
243	0x2ebe5f9d	8.657184e-11
244	0x27196309	2.1286702e-15
245	0x308160dc	9.413514e-10
246	0x336f8d99	5.5775306e-08
247	0x18dfa888	5.7814322e-24
248	0x33e69337	1.0736988e-07
249	0x3244a290	1.1445664e-08
250	0x2a9e6e91	2.814316e-13
251	0x3405a240	1.2445616e-07
252	0x3193472e	4.2863553e-09
253	0x16e915ed	3.7657017e-25
254	0x32182b22	8.857372e-09
255	0x30c8360f	1.456728e-09

exp_avg f4 [128]
0	0xb8404a8f	-4.5845805e-05
1	0xb80ae18c	-3.311182e-05
2	0x36f12685	7.186844e-06
3	0xb7448353	-1.1713087e-05
4	0x3729d723	1.0123275e-05
5	0xb592ad69	-1.0928317e-06
6	0x363c92fc	2.809974e-06
7	0xb5165384	-5.6000886e-07
8	0xb8401078	-4.5791705e-05
9	0xb4487a19	-1.867087e-07
10	0xb613df53	-2.2034699e-06
11	0x361e428e	2.3582575e-06
12	0x35bef67d	1.4227841e-06
13	0xb7051a9f	-7.933616e-06
14	0xb520b15f	-5.9862754e-07
15	0xb820f7d6	-3.8377788e-05
16	0x37c77ca9	2.3780698e-05
17	0x37032ac5	7.8181665e-06
18	0xb7c38ab0	-2.3310393e-05
19	0xb81ccf3b	-3.7386297e-05
20	0xb85c9240	-5.2588293e-05
21	0xb4cc4f9e	-3.805589e-07
22	0xb801ca1f	-3.0944237e-05
23	0xb7fa3a73	-2.982954e-05
24	0xb7c1df86	-2.311148e-05
25	0xb7d3fa66	-2.5269761e-05
26	0xb7b16726	-2.1148076e-05
27	0xb8028d4b	-3.1126005e-05
28	0x35f92491	1.8562588e-06
29	0x369e3d70	4.715919e-06
30	0x37a60b45	1.979399e-05
31	0xb9344dca	-0.00017195116
32	0x3618a65b	2.2746597e-06
33	0xb8e4d708	-0.0001091194
34	0x3653d64f	3.1566194e-06
35	0x381dfa51	3.7664842e-05
36	0xb7b14617	-2.1132682e-05
37	0xb5f308d2	-1.8107478e-06
38	0xb734eae4	-1.0783526e-05
39	0xb8b2d451	-8.5272484e-05
40	0xb5902d75	-1.0742066e-06
41	0xb7d25716	-2.5074503e-05
42	0x368af3f8	4.141122e-06
43	0xb7fedfcc	-3.0383373e-05
44	0x3684cf08	3.958008e-06
45	0xb807211d	-3.2217347e-05
46	0xb83971e9	-4.4213524e-05
47	0xb4bccb51	-3.516566e-07
48	0xb65d05f3	-3.293503e-06
49	0xb6a890bb	-5.023639e-06
50	0xb5c46c33	-1.4634628e-06
51	0xb6a769d2	-4.989307e-06
52	0x3685874c	3.9794595e-06
53	0xb864212f	-5.439034e-05
54	0xb7cc79d5	-2.4375428e-05
55	0x3697f6f0	4.528898e-06
56	0xb6cc71eb	-6.0929356e-06
57	0xb6c0674a	-5.7340703e-06
58	0xb8252c6b	-3.9380433e-05
59	0xb77ab0c0	-1.4942314e-05
60	0xb59d8a2a	-1.1737623e-06
61	0x376ee6dc	1.4239657e-05
62	0xb8258b10	-3.9468578e-05
63	0x370637c9	8.000011e-06
64	0xb63f581c	-2.8512504e-06
65	0xb87bb4be	-6.0011393e-05
66	0x37170dd0	9.003517e-06
67	0x35b7e04a	1.3699839e-06
68	0xb8348cf9	-4.3046635e-05
69	0xb7b42ce4	-2.1478576e-05
70	0xb701f8f1	-7.74696e-06
71	0xb8b99d22	-8.850756e-05
72	0xb7f3a5a8	-2.9044997e-05
73	0xb883b03a	-6.2793915e-05
74	0xb6de5aa5	-6.626668e-06
75	0xb790f263	-1.7279008e-05
76	0xb86cb969	-5.643946e-05
77	0xb88fa3e8	-6.849301e-05
78	0xb72ee9bf	-1.0425631e-05
79	0xb83a19ed	-4.437e-05
80	0xb635cbc0	-2.70897e-06
81	0xb89cefd0	-7.483328e-05
82	0x386b6a9e	5.612766e-05
83	0xb6cc58dd	-6.090019e-06
84	0xb7493c55	-1.1994581e-05
85	0xb5f3f822	-1.8177127e-06
86	0x37775a70	1.4743404e-05
87	0x372b069f	1.0193936e-05
88	0xb4bceef7	-3.51916e-07
89	0xb4ed1a60	-4.416388e-07
90	0xb682dad0	-3.899775e-06
91	0x3571eec4	9.0126946e-07
92	0x37db8dc4	2.617285e-05
93	0xb58fac71	-1.0704517e-06
94	0xb8031a1a	-3.1257143e-05
95	0xb6a3785a	-4.8717893e-06
96	0xb6adf85f	-5.184716e-06
97	0xb7021b93	-7.755024e-06
98	0xb620c8a9	-2.3958657e-06
99	0xb6815f10	-3.8555663e-06
100	0xb7c69535	-2.367292e-05
101	0xb8505a3f	-4.9675113e-05
102	0x3842341f	4.6301746e-05
103	0xb7e679c9	-2.7474847e-05
104	0xb8c817ba	-9.5411626e-05
105	0x3474fe98	2.2816891e-07
106	0xb64342fa	-2.909625e-06
107	0xb763e4e2	-1.3583545e-05
108	0xb8dc5583	-0.00010506345
109	0xb60102f3	-1.9224215e-06
110	0xb899f5e9	-7.341413e-05
111	0x3813a62d	3.5202294e-05
112	0xb7337278	-1.0695883e-05
113	0xb9333d96	-0.00017093713
114	0xb851653f	-4.9923776e-05
115	0x37a332d0	1.9454776e-05
116	0xb691e5a3	-4.34807e-06
117	0xb5f09486	-1.792462e-06
118	0x364f6a8c	3.0907422e-06
119	0xb850d7ec	-4.9792157e-05
120	0x37cf4ec3	2.4713e-05
121	0x3575c770	9.155983e-07
122	0xb815850c	-3.5648278e-05
123	0xb7c49b7c	-2.3437424e-05
124	0xb814994b	-3.5428715e-05
125	0x379d2ee8	1.87377e-05
126	0x37dde56d	2.6452088e-05
127	0xb6bdbbd5	-5.6545055e-06

exp_avg_sq f4 [128]
0	0x33b698db	8.50284e-08
1	0x33b2ac41	8.320104e-08
2	0x33044073	3.079226e-08
3	0x338c4426	6.531654e-08
4	0x340585c3	1.2435252e-07
5	0x306e3f2d	8.6673674e-10
6	0x305f9e2a	8.135169e-10
7	0x2eba22f6	8.464511e-11
8	0x338e6206	6.6302206e-08
9	0x329c06f7	1.8163957e-08
10	0x2f5d977f	2.0153655e-10
11	0x31481c2c	2.9119844e-09
12	0x30fec2ef	1.8536336e-09
13	0x34907534	2.6907367e-07
14	0x2fbfc1c6	3.4880382e-10
15	0x33f3b84f	1.1349095e-07
16	0x330eea4d	3.3275047e-08
17	0x32a5c42d	1.9297739e-08
18	0x3108a8ff	1.9886668e-09
19	0x349ce23c	2.9221872e-07
20	0x33b57920	8.450502e-08
21	0x31eb9a10	6.856915e-09
22	0x33caa8e1	9.437077e-08
23	0x33b22ff2	8.297492e-08
24	0x33e057a6	1.0446756e-07
25	0x335ea6d9	5.184015e-08
26	0x32ff6eb0	2.9736242e-08
27	0x31891b0b	3.990299e-09
28	0x3113f756	2.153191e-09
29	0x330a9e28	3.227447e-08
30	0x3481dc73	2.418852e-07
31	0x340f7d98	1.3363604e-07
32	0x2f2f8639	1.5963843e-10
33	0x335c64a1	5.1314263e-08
34	0x2fa9a82d	3.0860417e-10
35	0x32f7f5ef	2.8866422e-08
36	0x323fb4aa	1.11587415e-08
37	0x2f10dbc4	1.31748e-10
38	0x32ba757c	2.1706676e-08
39	0x338938b8	6.389877e-08
40	0x2e820715	5.9129736e-11
41	0x32064dea	7.817542e-09
42	0x3088bf3b	9.949653e-10
43	0x33226b3f	3.7816104e-08
44	0x2fe6b7fd	4.1967488e-10
45	0x34005d4b	1.1954869e-07
46	0x322d4d49	1.0087498e-08
47	0x2e9411a9	6.733398e-11
48	0x310e84f4	2.0739295e-09
49	0x33dbd10a	1.0236006e-07
50	0x2f4376c8	1.7777346e-10
51	0x30ef5978	1.7414967e-09
52	0x3039fdba	6.7663175e-10
53	0x34769d9c	2.2967873e-07
54	0x33186914	3.5485826e-08
55	0x32fa5335	2.9141669e-08
56	0x30f6e675	1.7964356e-09
57	0x2f68ba54	2.1166474e-10
58	0x34852d4d	2.480614e-07
59	0x31783661	3.611966e-09
60	0x2de5fbc5	2.6146094e-11
61	0x3463252d	2.1154547e-07
62	0x338ed1f3	6.65058e-08
63	0x31291f4c	2.4610527e-09
64	0x2db14951	2.015513e-11
65	0x33bc755e	8.775781e-08
66	0x330033ba	2.9849367e-08
67	0x32afbe72	2.0459286e-08
68	0x3388af42	6.364873e-08
69	0x3360bbe4	5.232495e-08
70	0x305ff115	8.1469526e-10
71	0x3337f299	4.282865e-08
72	0x3315aa8b	3.4846874e-08
73	0x32effe90	2.7939024e-08
74	0x3205a10a	7.778235e-09
75	0x331ac478	3.6034606e-08
76	0x318b7661	4.0588906e-09
77	0x34487934	1.8670545e-07
78	0x2fc28e7a	3.538963e-10
79	0x337bee9b	5.8657502e-08
80	0x2fa33eab	2.9694056e-10
81	0x32f40322	2.8406763e-08
82	0x3510e08b	5.3970933e-07
83	0x33e86509	1.082172e-07
84	0x3466e3f3	2.1503347e-07
85	0x2e0a722a	3.1478965e-11
86	0x3401d9bf	1.2093277e-07
87	0x31186f22	2.2182083e-09
88	0x300531ca	4.845587e-10
89	0x3089917f	1.0009414e-09
90	0x2f3b2f23	1.7024297e-10
91	0x2ee66cf0	1.047854e-10
92	0x33585189	5.0365575e-08
93	0x2f373d1c	1.6665463e-10
94	0x34a56cfd	3.0812944e-07
95	0x30150413	5.4211674e-10
96	0x32f44be6	2.8439853e-08
97	0x31ef0dc5	6.957381e-09
98	0x2e354c09	4.1222168e-11
99	0x311812ef	2.2129674e-09
100	0x3146f70a	2.8953218e-09
101	0x3385bb8e	6.227411e-08
102	0x3475a521	2.2877477e-07
103	0x33f390bf	1.13418984e-07
104	0x3296295e	1.748111e-08
105	0x2db4f7b5	2.0573635e-11
106	0x2f22c0ae	1.4802268e-10
107	0x332ca14e	4.0193576e-08
108	0x3400a9a8	1.198265e-07
109	0x2ea019a3	7.2805116e-11
110	0x341b46d8	1.4461273e-07
111	0x33631295	5.2869456e-08
112	0x33fce05f	1.1775477e-07
113	0x34bcf688	3.5197104e-07
114	0x32198d28	8.937867e-09
115	0x34dc9521	4.10867e-07
116	0x2fc16dcf	3.518452e-10
117	0x2f041581	1.201297e-10
118	0x312d363a	2.5205638e-09
119	0x3206a512	7.837359e-09
120	0x34bf14eb	3.5591742e-07
121	0x2f3ce1ea	1.7178761e-10
122	0x34a746a4	3.1157572e-07
123	0x335bb904	5.115818e-08
124	0x327cea48	1.47216e-08
125	0x3388b362	6.365623e-08
126	0x33cbb1b9	9.485252e-08
127	0x2fa62e79	3.0228245e-10
