2D/results/SegundoTeste2D/MoveToGoal/MoveToGoal-101771.pt (torch, 491803 bytes, 36 tensors)

network_body._body_endoder.seq_layers.0.weight f4 [128, 22]
0	0xbe6bee60	-0.23040152
1	0x3ea3fd8b	0.32029375
2	0x3d16d25d	0.03682171
3	0x3e833b70	0.25631285
4	0xbeaba31e	-0.33522886
5	0xbc81a885	-0.015827427
6	0xbd0d7778	-0.034537762
7	0xbe9e190f	-0.30878493
8	0x3e5b27e8	0.21401942
9	0xbdf34000	-0.118774414
10	0x3e3c98b4	0.18417627
11	0xbebcc73a	-0.36870748
12	0xbe85e2dc	-0.26149642
13	0x3dacea92	0.08443178
14	0x3e87ba41	0.26509288
15	0xbe90e0b2	-0.2829643
16	0xbc979833	-0.018505191
17	0x3db10f60	0.08645511
18	0xbe1782a8	-0.14795935
19	0x3cadf213	0.021233594
20	0xbe411a2b	-0.18857639
21	0x3ea83abb	0.32857308
22	0xbd260f34	-0.040541843
23	0x3b507ee0	0.0031813905
24	0x3ddb99dd	0.107227065
25	0x3e6e319e	0.23261115
26	0xbeb6ac61	-0.3567839
27	0xbc6bad6b	-0.014384608
28	0x3d957fef	0.07299792
29	0xbdfcd8b9	-0.12346024
30	0x3ddc8f69	0.10769541
31	0x3db7fb75	0.089835085
32	0xbca00f90	-0.01953867
33	0xbe8a50d0	-0.2701478
34	0x3e7e30f4	0.24823362
35	0x3ef2d2ec	0.47426546
36	0x3d13f6f9	0.036124203
37	0xbe967b97	-0.29391167
38	0x3e7d0389	0.2470838
39	0xbd9eee15	-0.07760254
40	0x3ec39839	0.38202074
41	0xbcec61cd	-0.028855229
42	0x3ea8d4aa	0.3297475
43	0x3c9c376f	0.019069402
44	0x3b528390	0.0032121874
45	0x3e2b7e28	0.16747344
46	0x3e562f67	0.2091652
47	0x3cc48749	0.02399029
48	0x3efaf6bb	0.49016365
49	0xbe00cb17	-0.12577473
50	0xbed07465	-0.40713802
51	0x3d0facaa	0.035076775
52	0x3e397de2	0.18114427
53	0x3e7637ac	0.24044675
54	0xbd13fe7e	-0.036131375
55	0xbe95142c	-0.29116952
56	0xbe401fea	-0.18762174
57	0x3e6bd322	0.2302976
58	0x3e16ae0a	0.14714828
59	0xbd93c22b	-0.07214769
60	0x3ce4740d	0.027887369
61	0xbed011b9	-0.4063852
62	0x3ddf6681	0.10908223
63	0xbcb21f1e	-0.021743353
64	0xbe015c03	-0.12632756
65	0x3dc2d2e9	0.09512884
66	0xbed2e013	-0.4118658
67	0x3d2dc213	0.04242141
68	0xbbb50bc4	-0.005525084
69	0x3ddfc74b	0.10926684
70	0x3ea65d65	0.3249313
71	0xbe0a300d	-0.13494892
72	0x3eb286f2	0.3486858
73	0xbdcaa4bb	-0.09894701
74	0x3e33015e	0.1748099
75	0x3df7ae15	0.120937504
76	0xbed4827a	-0.41505796
77	0x3eca5b01	0.39522555
78	0xbdb50bbc	-0.08840129
79	0x3e696bc6	0.22795019
80	0x3e0cd282	0.13752177
81	0x3e1b7321	0.15180637
82	0x3eafc57c	0.34330356
83	0xbe9d88da	-0.30768472
84	0x3c920a64	0.01782722
85	0x3dc5321d	0.09628699
86	0xbeeabc25	-0.45846668
87	0xbe122395	-0.14271386
88	0xbdafefd3	-0.08590665
89	0xbe1dca45	-0.15409191
90	0xbed1dcaf	-0.4098868
91	0xbe87398d	-0.26411095
92	0xbd0e96fd	-0.034811962
93	0xbc6457df	-0.013936966
94	0xbd8463af	-0.06464326
95	0xbc9a061a	-0.018801738
96	0x3e10fe9c	0.14159626
97	0x3d159aba	0.036524512
98	0xbdf0690c	-0.11738786
99	0x3d85b4b7	0.06528609
100	0xbe1ccade	-0.15311763
101	0xbdb87ce2	-0.090081945
102	0xbda32951	-0.07966865
103	0xbcfbfa8f	-0.030759124
104	0xbea9b460	-0.33145428
105	0x3e178a85	0.14798935
106	0xbe831948	-0.25605226
107	0x3cf4ed3d	0.02989828
108	0xbe0d8276	-0.13819298
109	0xbd8be305	-0.0683041
110	0xbd0d2640	-0.034460306
111	0xbdde14d7	-0.10843819
112	0xbde260f9	-0.11053652
113	0x3e0bbae0	0.13645506
114	0x3e9108de	0.28327078
115	0xbde5d65e	-0.11222528
116	0x3c43829d	0.011932996
117	0x3d3d1e33	0.04617138
118	0x3deaa106	0.11456494
119	0x3e44eb6c	0.19230431
120	0xbc67b599	-0.014142417
121	0x3ca0db35	0.019635776
122	0x3d965d7b	0.07342049
123	0xbe174278	-0.1477145
124	0x3e5d420b	0.21607225
125	0xbddb4b96	-0.10707776
126	0xbdb8cedf	-0.090238325
127	0x3dba5f73	0.09100237
128	0xbd9a799d	-0.07542727
129	0xb99019cf	-0.0002748505
130	0x3e3aa99c	0.18228763
131	0xbe2ea696	-0.17055735
132	0x3e758162	0.23975137
133	0xbedafd13	-0.42771205
134	0x3e1674f3	0.1469305
135	0xbdfc5660	-0.12321162
136	0x3e495f5c	0.19665283
137	0x3dd2df3b	0.10296484
138	0xbc38f1ba	-0.011288101
139	0x3c61db9c	0.013785269
140	0xbe99662a	-0.29960757
141	0x3d17c5b3	0.037053775
142	0xbb85f91c	-0.004088534
143	0xbd042b76	-0.03226801
144	0x3da20567	0.07911187
145	0xbdbf9bc6	-0.09355883
146	0xbd83181d	-0.064010836
147	0xbe84dad4	-0.25948203
148	0x3e55cb09	0.20878233
149	0xbd28e263	-0.041231524
150	0x3e87a824	0.2649547
151	0x3e7a590e	0.24448034
152	0x3ddc6645	0.10761694
153	0xbe2f1778	-0.17098796
154	0xbd300a2b	-0.042978447
155	0xbea285df	-0.3174276
156	0xbe45078a	-0.19241157
157	0x3dc80b73	0.09767809
158	0xbe71585b	-0.23568861
159	0x3d141b76	0.036159
160	0x3d5a559b	0.053304296
161	0x3db7301b	0.08944722
162	0xbe53363d	-0.20626159
163	0x3e4ae795	0.19814904
164	0xbd2eb74a	-0.042655267
165	0x3c9e0a31	0.019291969
166	0x3e515b08	0.20444882
167	0x3d290386	0.041263126
168	0x3d7f8e5c	0.062391624
169	0x3e472587	0.1944791
170	0x3e79e5b6	0.24404034
171	0xbcc5af97	-0.02413158
172	0xbda52e79	-0.080655046
173	0x3d768024	0.0601808
174	0xbd86528b	-0.065587126
175	0xbe2f09e8	-0.17093623
176	0x3e077f54	0.13232166
177	0x3d477775	0.048697907
178	0x3db9cb19	0.09071941
179	0xbd360b06	-0.044444107
180	0xbe431d89	-0.19054236
181	0xbe304084	-0.17212111
182	0xbe166bb8	-0.14689529
183	0x3dbb4c46	0.091454074
184	0x3e0d56cc	0.13802642
185	0xbeb98098	-0.36230922
186	0xbd87b64a	-0.06626566
187	0x3e0830a9	0.13299812
188	0x3ee56b49	0.44808415
189	0xbec28af1	-0.3799663
190	0x3e798a4b	0.24369161
191	0x3e848891	0.25885442
192	0xbd0791b5	-0.03309794
193	0xbe3df53f	-0.18550585
194	0x3e0412c2	0.1289778
195	0xbd9eeb7f	-0.07759761
196	0xbe0c767d	-0.13717075
197	0xbeb5da5c	-0.35518157
198	0x3df2f7d4	0.11863676
199	0x3e1a9335	0.15095218
200	0x3e714585	0.23561676
201	0xbe109c59	-0.14122142
202	0xbd9f4bfa	-0.07778163
203	0xbe8a8f0f	-0.2706227
204	0xbeaca68a	-0.3372081
205	0x3ebedefe	0.37279505
206	0x3e6f877a	0.23391524
207	0x3ddd9106	0.10818677
208	0xbdf9934d	-0.121862985
209	0xbc82006c	-0.015869342
210	0xbc7d9f07	-0.01547981
211	0x3cd8a9ba	0.02644812
212	0x3e0ea2fd	0.13929363
213	0x3e9c5ca0	0.30539417
214	0x3e41755b	0.18892424
215	0xbebb7d38	-0.36618972
216	0xbdcf0932	-0.10109176
217	0x3cd28fdb	0.025703361
218	0x3db24b66	0.08705787
219	0xbe24a58f	-0.1607878
220	0x3cf7b450	0.030237347
221	0x3e9b9678	0.30388236
222	0x3e989851	0.29803708
223	0xbd73a6e4	-0.05948533
224	0xbdc3aecf	-0.095548265
225	0x3ddd3863	0.108017705
226	0x3d094a0c	0.033517882
227	0xbe614425	-0.21998651
228	0x3cfe4be6	0.03104205
229	0x3e1c44dc	0.15260643
230	0xbcc365cb	-0.02385225
231	0xbdd0f615	-0.102031864
232	0x3c11e0a0	0.008903652
233	0x3e184286	0.14869127
234	0xbe1b5337	-0.15168463
235	0xbe00efff	-0.12591551
236	0x3e1e9648	0.15487015
237	0x3cf073b1	0.029352041
238	0xbdec7182	-0.115450874
239	0xbe66853c	-0.22511762
240	0xbd78a1f0	-0.06070131
241	0x3cb15295	0.021645823
242	0x3eb1eaf1	0.3474956
243	0x3dc5ac50	0.096520066
244	0x3e1bc04c	0.15210074
245	0x3e4703cb	0.1943504
246	0x3dd09686	0.1018496
247	0xbdcc940b	-0.099891745
248	0xbe414aba	-0.18876162
249	0x3e2ebbc9	0.17063822
250	0x3ed0ec2d	0.40805188
251	0x3d902786	0.070387885
252	0xbe89a9b5	-0.2688729
253	0xbd9a8e13	-0.0754663
254	0xbe397db1	-0.18114354
255	0x3dabda4f	0.083912484

network_body._body_endoder.seq_layers.0.bias f4 [128]
0	0x3cce7653	0.025202906
1	0xbb07b34a	-0.002070623
2	0xbc76ef08	-0.015071638
3	0xbba4dd58	-0.005031269
4	0xbcb75ed7	-0.02238409
5	0x3cdf484a	0.02725615
6	0xbb893974	-0.004187757
7	0xbb901c95	-0.0043979385
8	0xbbec6627	-0.007214326
9	0xbcac31a3	-0.021019762
10	0x3c605db9	0.01369422
11	0xbbd4296e	-0.0064746654
12	0xb90f2902	-0.0001365282
13	0xbbdd789a	-0.0067587616
14	0x39c213a2	0.0003701719
15	0x3c3d416b	0.011551241
16	0xb91bac52	-0.00014846146
17	0xbbdfd3f2	-0.006830686
18	0x3b886fb3	0.004163706
19	0x3ca4277f	0.020038364
20	0x3c8d72e3	0.017266696
21	0x3cb8df98	0.022567555
22	0xbb4b7f67	-0.003105128
23	0x3cef708c	0.029228471
24	0xbc994781	-0.018710854
25	0x3cc58cd8	0.024115011
26	0xbb4dee75	-0.003142265
27	0x3bf098b5	0.007342423
28	0x3bd69e2d	0.0065496177
29	0xbc06a7b0	-0.008218691
30	0x3cb88a08	0.022526756
31	0x3aa791e2	0.0012784565
32	0x3c195d26	0.009360587
33	0x3c860e66	0.016364288
34	0x3b89f1fa	0.004209754
35	0xbc15447b	-0.009110565
36	0x3b5bb41b	0.00335241
37	0x3c8b1383	0.016977077
38	0x3c2ea200	0.010658741
39	0x3c8e541b	0.017374089
40	0x3c1944dd	0.009354797
41	0xbaca3d92	-0.0015429726
42	0x3d2512f3	0.040301275
43	0x3cf5daa0	0.030011475
44	0xbc534dff	-0.012897014
45	0x3cced5db	0.025248459
46	0x3cbba49f	0.022905646
47	0xbb981e74	-0.004642302
48	0x3cb7e405	0.022447595
49	0xbcbfc69f	-0.02341014
50	0xbad9b8df	-0.0016610882
51	0xbaae9bc7	-0.0013321572
52	0xbd0128a4	-0.0315329
53	0x3c8376d1	0.016047867
54	0x3c84679b	0.016162684
55	0x3bb53e0f	0.0055310796
56	0xbcac3e00	-0.021025658
57	0xbcc08dea	-0.02350517
58	0x3cd9f7cd	0.026607418
59	0xbb6a4e49	-0.0035752228
60	0x3c999759	0.018748926
61	0x3c986180	0.01860118
62	0xbd11b67d	-0.035574425
63	0x3cd1c76d	0.025607789
64	0xbc215a3c	-0.009848174
65	0xbc5dda16	-0.013540765
66	0xbba24544	-0.0049521048
67	0x39002767	0.0001222171
68	0x389e74c6	7.555778e-05
69	0xbc374c5e	-0.011187641
70	0x3c083c07	0.008315093
71	0x3cb463d2	0.022020254
72	0xbc2bf1c3	-0.010494652
73	0x3ca66c4e	0.020315316
74	0xbcb6b343	-0.022302276
75	0x3a1e2181	0.0006032214
76	0xbc8533cc	-0.01626005
77	0xbc02f03e	-0.0079918485
78	0x3cac9bcf	0.02107039
79	0xbc4a89b1	-0.01236193
80	0x3ce2d934	0.027691461
81	0xbc87955d	-0.016550714
82	0x3c5d6148	0.013511963
83	0x3d07f888	0.033196002
84	0x3cff4b2a	0.03116377
85	0xbc18ea2e	-0.009333177
86	0xbc1f0e85	-0.009708052
87	0xbad05e5b	-0.0015897261
88	0x3bb53923	0.005530493
89	0x3ca60fa1	0.020271124
90	0xbbf486d3	-0.0074623614
91	0x3c10fba4	0.008849058
92	0x3a383dd7	0.0007028258
93	0x3bac21f4	0.005253071
94	0x3c00ce8b	0.007861744
95	0x3bdeae70	0.006795697
96	0x3cc58752	0.024112377
97	0x3c2252f0	0.009907469
98	0x3aa3b79f	0.0012490636
99	0xbca0df7b	-0.019637814
100	0xbbf0df2f	-0.0073508243
101	0x3cb874ba	0.022516597
102	0x3c6fe89a	0.014642859
103	0xbbd8d160	-0.0066167563
104	0x3bbcc226	0.005760449
105	0x3c242ff3	0.010021198
106	0x3c4b8def	0.012423976
107	0xbbeac2f7	-0.007164355
108	0xba9132eb	-0.0011077797
109	0xbacffaa2	-0.0015867541
110	0x3c927d98	0.017882153
111	0xbc379f7e	-0.0112074595
112	0x3c91c542	0.017794255
113	0xbaadf8c7	-0.0013272994
114	0x3d0b64c6	0.034031652
115	0xbc5346db	-0.012895311
116	0xbc40f58d	-0.011777294
117	0xbb041056	-0.0020151339
118	0xbc784d01	-0.015155078
119	0xbbcac27a	-0.006187734
120	0x3ce27d36	0.027647596
121	0xbb35afe1	-0.002772324
122	0xbcaaa443	-0.02083028
123	0x3bce32d3	0.00629268
124	0xbc84e1cc	-0.01622095
125	0xbc3997a2	-0.011327656
126	0xbc0feed6	-0.00878497
127	0x3b799f37	0.0038089284

network_body._body_endoder.seq_layers.2.weight f4 [128, 128]
0	0xbc4fb39e	-0.012677101
1	0xbe09b4b4	-0.13447839
2	0x3d3132bf	0.043261286
3	0xbd070a26	-0.032968663
4	0xbcac3e99	-0.021025943
5	0xbd802ed2	-0.0625893
6	0xbd1a2014	-0.03762825
7	0xbcccb56b	-0.02498885
8	0x3d64f6d7	0.055899467
9	0xbe185e3d	-0.14879699
10	0x3c8b5d06	0.01701213
11	0x3bc9ef38	0.0061625503
12	0x3d835ea2	0.06414534
13	0xbd2fd020	-0.042923093
14	0x3ccaa69c	0.024737649
15	0x3d6ecc93	0.058300566
16	0x3dd29567	0.102824025
17	0x3da43eb9	0.08019776
18	0xbd84bf94	-0.06481853
19	0x3d86a98d	0.06575308
20	0x3daca102	0.08429147
21	0xbd8cb173	-0.06869783
22	0x3d694cc5	0.05695798
23	0xbe03f7b9	-0.12887467
24	0x3d856e53	0.06515183
25	0xbdc92c54	-0.09822908
26	0xbbe72da3	-0.007055001
27	0xbc5b80b3	-0.0133973835
28	0xbe0e103a	-0.13873377
29	0xbdb16820	-0.086624384
30	0x3d9b5d48	0.07586151
31	0xbcc67047	-0.02422346
32	0x3e3d65e6	0.18495902
33	0x3d98305a	0.07431097
34	0x3deb7b68	0.11498147
35	0xbe24ddfd	-0.16100307
36	0x3d93e195	0.07220761
37	0x3d1f13ee	0.038837366
38	0x3d35ca40	0.044382334
39	0xbd4499cf	-0.047998246
40	0x3cdeec3b	0.027212253
41	0x3e0a6f65	0.13519056
42	0xbdb29c66	-0.08721237
43	0xbd0dabf3	-0.03458781
44	0xbdee5e94	-0.11639133
45	0xbd644eda	-0.05573926
46	0x3d392d0a	0.04520897
47	0xbd7efb6d	-0.062251497
48	0x3d4d09f7	0.05005833
49	0xbdb2b0bb	-0.08725115
50	0x3d80f5c3	0.06296875
51	0xbd8106bc	-0.063001126
52	0x3e05d7e2	0.13070634
53	0xbc949321	-0.018136563
54	0xbcc956c8	-0.024577513
55	0x3e5fe69d	0.21865316
56	0x3e0983cb	0.13429181
57	0x3d67bb1f	0.056574937
58	0xbcd0a18c	-0.025467657
59	0xbc38fc44	-0.011290614
60	0x3e15923f	0.1460657
61	0xbe42511b	-0.18976252
62	0xbc9d0265	-0.01916618
63	0xbd82e9c7	-0.06392246
64	0x3c1b55c2	0.0094808955
65	0x3dab5ae6	0.08366947
66	0x3d9ec09e	0.077515826
67	0xbd17e9da	-0.037088253
68	0x3cf7659a	0.030199815
69	0xbd720f77	-0.05909678
70	0xbb9ff420	-0.004881397
71	0xbd0c9cff	-0.03432941
72	0x3e0d2763	0.13784556
73	0x3d6d1923	0.0578853
74	0x3db9ee91	0.09078706
75	0xbe0c1645	-0.1368037
76	0xbd03e298	-0.03219852
77	0x3dfe67a9	0.12422115
78	0xbbee9ae7	-0.0072816494
79	0xbdd7f2c8	-0.10544354
80	0x3d5c06b8	0.053717345
81	0x39ae02a4	0.00033189834
82	0xbd75d9f4	-0.06002231
83	0xbcff963f	-0.031199573
84	0xbe082713	-0.13296156
85	0x3d3ebe26	0.04656806
86	0xba98df69	-0.0011663261
87	0xbd8be95f	-0.068316214
88	0xbc818302	-0.01580954
89	0xbdfe3fa5	-0.12414483
90	0x3df87196	0.1213104
91	0x3dd6d6a1	0.10490156
92	0x3ddebf3b	0.10876318
93	0x3c1c04cd	0.009522629
94	0x3c124efc	0.008929964
95	0xbdadcacd	-0.08485947
96	0xbd6e346e	-0.05815547
97	0x3e05da83	0.13071637
98	0x3d3005ee	0.042974405
99	0x3ca8844f	0.020570902
100	0x3e14de9b	0.14538042
101	0x3d117507	0.035511997
102	0xbcacb4bd	-0.021082276
103	0xbce0cb1a	-0.027440596
104	0x3d41df65	0.047332186
105	0xbd364ca0	-0.04450667
106	0x3be1c2df	0.0068896855
107	0x3dd06408	0.101753294
108	0xbd59dc41	-0.053188566
109	0xbddba94c	-0.1072565
110	0xbd1598ff	-0.03652286
111	0xbd9fc6e8	-0.0780161
112	0x3cba3410	0.022729903
113	0x3df44943	0.11928036
114	0xbcbf34db	-0.023340633
115	0x3d589250	0.05287391
116	0x3d98b18a	0.07455738
117	0xbd14f059	-0.036362026
118	0x3debc5a9	0.1151231
119	0xbd4794d5	-0.04872592
120	0xbda9f8b4	-0.082993895
121	0x3d5e95ae	0.054341964
122	0x3da13326	0.07871084
123	0x3c324db4	0.010882784
124	0x3d68ae94	0.056807116
125	0xbd9a96ab	-0.07548269
126	0x3dbf00e5	0.093263425
127	0x3dbcff3d	0.0922837
128	0x3ddda567	0.108225636
129	0x3da93341	0.08261729
130	0xbe93a0a0	-0.28833485
131	0x3d013d2c	0.03155248
132	0xbe674c81	-0.22587778
133	0xbe0a7fd5	-0.13525327
134	0xbd2f1b2b	-0.04275052
135	0xbdd481d5	-0.10376326
136	0x3dd79d02	0.10527994
137	0xbd45b183	-0.04826499
138	0x3c441527	0.011967934
139	0x3df1b354	0.11801782
140	0x3dccfb73	0.10008898
141	0xbe066879	-0.1312579
142	0x3db6cebb	0.089261495
143	0x3d951214	0.07278839
144	0x3c333c79	0.010939711
145	0x3d08bd9c	0.03338395
146	0x3e002323	0.12513404
147	0x3e1d52aa	0.15363565
148	0x3ca662ca	0.020310778
149	0x3d885a1e	0.066578135
150	0x3d258dbd	0.040418375
151	0x3cedc0b1	0.029022546
152	0xbd820e40	-0.06350374
153	0x3c44ed13	0.0120194135
154	0x3d6b5c04	0.0574608
155	0xbcd2ebeb	-0.02574726
156	0xbce0ce42	-0.027442101
157	0x3d440c0a	0.047863044
158	0x3dc9237b	0.098212205
159	0x3dbde816	0.092727825
160	0xbcd9640e	-0.026536968
161	0x3d8aaf3d	0.06771705
162	0xbdd68c4c	-0.10475978
163	0x3cbffa41	0.02343476
164	0xbca46449	-0.020067351
165	0xbdf5fe7c	-0.1201143
166	0x3b8c04bb	0.004273025
167	0x3da29e22	0.07940318
168	0x3caa9d01	0.020826818
169	0xbd501ce1	-0.05080879
170	0x3d8c413b	0.06848379
171	0xbdff03b8	-0.12451881
172	0xbe0f5279	-0.13996305
173	0x3e873079	0.2640417
174	0x3abce7a5	0.0014412297
175	0xbe3ecc53	-0.18632631
176	0x3de16b51	0.11006797
177	0xbe41f772	-0.18942049
178	0x3d22e782	0.039771564
179	0xbcace6de	-0.02110618
180	0x3b652a6c	0.0034967912
181	0x3cc7ab94	0.024373807
182	0xbc950a7a	-0.018193472
183	0x3d8a9c5a	0.06768103
184	0x3cb0069c	0.021487527
185	0xbdfea341	-0.12433482
186	0xbd8d7e72	-0.06908883
187	0xbbd16065	-0.006389665
188	0xbd84d1be	-0.06485318
189	0x3cd0384f	0.025417475
190	0xbe349dc9	-0.17638315
191	0x3d946449	0.072456904
192	0xbe4bd45b	-0.19905226
193	0x3e0fc275	0.14039023
194	0x3d4d3203	0.050096523
195	0xbcf5c8cc	-0.030002974
196	0xbe1013c3	-0.14070038
197	0x3d80b4f5	0.06284515
198	0xbb1493f6	-0.00226712
199	0xbe121905	-0.14267357
200	0x3e197121	0.14984562
201	0x3c2fa569	0.010720589
202	0xbde9a88a	-0.114090994
203	0xbd670162	-0.056397803
204	0xbdddbec2	-0.108274
205	0xbc6b18b9	-0.014349156
206	0x3d092f90	0.033492625
207	0x3cc7f898	0.02441053
208	0x3dffb16d	0.12485013
209	0x3dd4ea1c	0.10396215
210	0xbc8c6819	-0.017139481
211	0xbd81c4e8	-0.06336385
212	0xbda9c5fd	-0.082897164
213	0xbe224e2c	-0.15850133
214	0xbdb760b4	-0.089539915
215	0xbe2a86f5	-0.16653045
216	0xbd7a7fbb	-0.06115697
217	0x3d565330	0.052325428
218	0x3e1ac628	0.15114653
219	0xbd7c85e4	-0.061651126
220	0xbc00a0b0	-0.007850811
221	0x3d3f00fb	0.046631794
222	0xbbdbd329	-0.006708522
223	0x3e31f6d2	0.1737931
224	0xbda5bd50	-0.08092749
225	0x3e4c44d6	0.19948134
226	0xbdc96026	-0.09832792
227	0xbccf785c	-0.025325947
228	0xbd244ceb	-0.040112417
229	0x3d810da4	0.0630143
230	0x3d8afbc3	0.06786301
231	0xbd7162a5	-0.058931965
232	0xbe15f86e	-0.1464555
233	0xbd81ff93	-0.06347575
234	0x3c85340e	0.016260173
235	0xbd1cc8f2	-0.038277574
236	0x3d952e13	0.072841786
237	0xbdaca572	-0.08429994
238	0xbb6237bd	-0.0034518086
239	0xbd8e39a4	-0.06944588
240	0x3e562d4c	0.20915717
241	0x3cc95a0e	0.024579074
242	0x3cadb8cb	0.02120628
243	0x3d1592aa	0.036516823
244	0xbcd75ff0	-0.026290864
245	0xbbbaf225	-0.0057051354
246	0xbd8f1f15	-0.0698835
247	0x3e14f2b9	0.14545716
248	0x3dc89d8f	0.09795677
249	0xbceca6b3	-0.028888082
250	0xba87f4af	-0.0010372604
251	0x3c82c419	0.015962647
252	0xbd893718	-0.066999614
253	0xbc9352bf	-0.017983792
254	0xbc5a0796	-0.013307473
255	0x3dd629c4	0.10457185

network_body._body_endoder.seq_layers.2.bias f4 [128]
0	0x3bdd3354	0.0067505036
1	0x3c82649d	0.015917117
2	0x3c495172	0.0122874845
3	0xbbe6a57f	-0.0070387716
4	0xbc5ab6f2	-0.013349282
5	0xba8412bd	-0.0010076385
6	0x3c072f12	0.0082509685
7	0x3acd2a2e	0.0015652829
8	0xbc0a4665	-0.008439635
9	0xbbce6e3b	-0.0062997616
10	0xbba07833	-0.0048971414
11	0x3b0d2e99	0.0021542667
12	0x3ccfa593	0.025347507
13	0x3b9f805a	0.0048675956
14	0x3c0d730e	0.008633388
15	0x3b76fc40	0.0037686974
16	0x3bd15e51	0.006389417
17	0xbca4178c	-0.02003076
18	0x3b54b09f	0.0032453907
19	0x3c61b84c	0.01377685
20	0x3c396c61	0.011317343
21	0xbbd6058b	-0.0065314225
22	0x3c188e55	0.009311278
23	0x3a2c0279	0.0006561648
24	0x3c51ac4c	0.012797426
25	0x3c8316eb	0.01600214
26	0x3b004095	0.0019569744
27	0xb94ab55f	-0.00019331787
28	0xba27c9f3	-0.0006400637
29	0xbc19a709	-0.009378203
30	0xbc0d208b	-0.008613716
31	0x3d01e3ee	0.03171151
32	0xbc0cec9d	-0.008601335
33	0x3bd425bf	0.0064742262
34	0x3cf9830a	0.030457992
35	0x3cffd2da	0.031228472
36	0x3c713f9f	0.014724641
37	0xba881c77	-0.001038446
38	0x3c0c2350	0.008553341
39	0xbc051980	-0.008123755
40	0x3c67fe08	0.014159687
41	0x3b8ffb4c	0.0043939706
42	0x3b91f786	0.004454556
43	0x3ca9eacc	0.020741843
44	0x3c212c95	0.009837289
45	0x3b8a634c	0.004223263
46	0x3c3054a9	0.010762372
47	0x3bf7bbed	0.0075602443
48	0xbc8ced67	-0.017203046
49	0x3ca369fd	0.019948
50	0xbc7621a6	-0.015022671
51	0x3b1fc602	0.0024379496
52	0x3c804577	0.015658123
53	0xbbf90ee1	-0.0076006507
54	0x3be3221b	0.006931556
55	0xb9d01515	-0.0003968856
56	0x3c8a3a81	0.0168736
57	0x3ca4ff36	0.020141225
58	0x3ca40488	0.020021692
59	0x3c00138f	0.007817163
60	0x3d1163f5	0.035495717
61	0x3ca7e4f1	0.02049491
62	0x3bf36e58	0.0074289255
63	0x3c365bb4	0.011130262
64	0x3c592f9f	0.013255983
65	0x3bf74846	0.0075464575
66	0x3c153191	0.009106056
67	0x3acbab20	0.001553867
68	0x3bb04a74	0.0053799693
69	0x391ea79e	0.00015130496
70	0x3b365192	0.0027819616
71	0xbaf7d13a	-0.0018906959
72	0x3a7084ff	0.00091750914
73	0x3b103fd7	0.0022010708
74	0xbbdf7d1c	-0.006820334
75	0xba2a2c10	-0.0006491551
76	0x3ba3b2c1	0.0049956744
77	0x3c972b64	0.018453307
78	0x3bc218b3	0.0059233545
79	0x3a4bc89e	0.000777373
80	0xbbfa9c14	-0.0076480005
81	0x3b176473	0.0023100644
82	0x3ac43a10	0.0014970917
83	0x3b9ab293	0.0047209947
84	0xbbbd3788	-0.005774442
85	0xba5e8830	-0.00084889214
86	0x3c840ae0	0.016118467
87	0x3b2909ad	0.002579312
88	0x3b47f981	0.0030513706
89	0x3c1395c5	0.009007876
90	0xbc106690	-0.008813515
91	0x3cc5c395	0.024141112
92	0x3c700b68	0.014651157
93	0x3a196388	0.0005851318
94	0x3c2980a8	0.010345615
95	0x3d0d0214	0.03442581
96	0xbbe7f253	-0.007078448
97	0x3b056219	0.002035266
98	0xbd125417	-0.035724726
99	0xbc7ee6e3	-0.015557977
100	0x3d070d59	0.032971714
101	0x3c86d4fa	0.016458977
102	0x3bb8ac14	0.0056357477
103	0x3cb2f828	0.021846846
104	0x3c8d1acb	0.01722469
105	0xba133034	-0.0005614788
106	0x3bac1777	0.0052518207
107	0xbc937af6	-0.018002968
108	0x3c12508b	0.008930336
109	0x3c8fd7ee	0.017559018
110	0x3c9936d2	0.018702898
111	0x3c340f72	0.010990011
112	0xb899f646	-7.3414805e-05
113	0x3b11efae	0.0022268104
114	0x3b507935	0.0031810526
115	0x3c07e836	0.0082951095
116	0x3b1d55ee	0.0024007517
117	0xbb2eaf39	-0.0026654734
118	0xb9a06393	-0.00030591767
119	0x3b2a7cbb	0.0026014287
120	0x3c081530	0.008305833
121	0xbc72fac7	-0.014830298
122	0x3c18ddee	0.009330256
123	0xba377f87	-0.0006999899
124	0x3c412dde	0.011790721
125	0xbbe4ecc5	-0.006986233
126	0x3d163425	0.036670823
127	0x3c0228b0	0.007944271

action_model._continuous_distribution.log_sigma f4 [1, 2]
0	0xbb8cd95e	-0.004298373
1	0xba968340	-0.0011483207

action_model._continuous_distribution.mu.weight f4 [2, 128]
0	0xbcc0c163	-0.023529714
1	0x3ceaa7e0	0.028644502
2	0x3d164489	0.036686454
3	0xbcc478cb	-0.02398338
4	0x3b9c9fbb	0.0047797835
5	0xba3c0f1c	-0.00071738823
6	0xbc96c37f	-0.018403767
7	0xbcbd7ccb	-0.023130795
8	0xbd01fbf3	-0.031734418
9	0xbaca7a84	-0.001544789
10	0xbc7b9241	-0.015354694
11	0x3c7979e4	0.015226815
12	0xbd0c70f7	-0.03428742
13	0x3c2e104b	0.010624002
14	0xba6dea56	-0.00090757513
15	0xbb0162fe	-0.0019742842
16	0x3bd42d78	0.006475147
17	0xbc3f7b6c	-0.011687141
18	0xbd066ceb	-0.032818716
19	0xbc1c7a74	-0.0095506795
20	0x3c67b2d2	0.014141755
21	0xbd278741	-0.040900473
22	0xbd26ebe5	-0.04075231
23	0xbc52acb1	-0.012858556
24	0x3d030661	0.031988505
25	0x3d0471f1	0.032335225
26	0xbd1ff4a2	-0.03905166
27	0x3c91144f	0.01770988
28	0xbc217ee6	-0.009856915
29	0xbc2ac462	-0.010422798
30	0x3ab97c85	0.001415149
31	0x3d02f2b0	0.031969726
32	0xbbdcf5e6	-0.0067431806
33	0x3cb6deb5	0.022322992
34	0x3c26f9b8	0.0101913735
35	0x3d259da2	0.040433533
36	0xbd08d28d	-0.033403922
37	0x3cbaf029	0.022819595
38	0xbc8cbcab	-0.017179808
39	0xbc27d206	-0.010242945
40	0x3c1067e5	0.008813833
41	0x3c448556	0.01199468
42	0x3bc554cc	0.0060220715
43	0x3d11a124	0.035554066
44	0x3b585db7	0.0033014843
45	0xbd137887	-0.036003616
46	0x3c6f275b	0.014596785
47	0xbaebe4df	-0.0017997286
48	0xbbd81488	-0.0065942444
49	0x3d080a0a	0.0332127
50	0xbccf639a	-0.025316048
51	0xbc0d9195	-0.0086406665
52	0x3b357d84	0.0027693221
53	0xbb7c9a36	-0.0038544065
54	0x3bd6dbb3	0.006556952
55	0xbd5a73a2	-0.053332932
56	0xbcc97702	-0.02459288
57	0xbd4bf548	-0.049794465
58	0xbb62146b	-0.0034497033
59	0x3ce18000	0.027526855
60	0x3d259261	0.0404228
61	0x3d266dc5	0.040632028
62	0xbb711fcc	-0.0036792634
63	0x3cc77394	0.024347104
64	0xbc129cbb	-0.0089485
65	0xbb8e7c47	-0.004348311
66	0x3c6e87f7	0.014558784
67	0x3ce40f4b	0.027839324
68	0x3c9b943c	0.018991582
69	0xbc448d53	-0.011996585
70	0x3c467d0a	0.012114773
71	0x3c204332	0.009781646
72	0x3cbd286a	0.02309056
73	0x3cea50e1	0.02860302
74	0xbbbc386d	-0.005744031
75	0xbd1294ab	-0.035786312
76	0x3c3d1b59	0.011542165
77	0x3c9eea27	0.019398762
78	0xbd3f709a	-0.046738245
79	0x39787436	0.00023694415
80	0xbca9e0c5	-0.020737061
81	0xbbbf3942	-0.005835683
82	0xbc9ec629	-0.0193816
83	0xbcb3b7e7	-0.021938277
84	0x3b14da56	0.0022713146
85	0xbd356bb3	-0.044292163
86	0x3cd21086	0.025642645
87	0xbc4df36d	-0.012570244
88	0xbcc65ef9	-0.024215208
89	0x3d6dd268	0.058061987
90	0xbcbaa0fe	-0.022781845
91	0x3cb1fbac	0.021726452
92	0x3afddcb7	0.0019368146
93	0xbcc1bc8e	-0.02364948
94	0x3d25cb86	0.0404773
95	0x3d43a219	0.04776201
96	0xbc82bab2	-0.015958164
97	0xbcccd7d0	-0.025005251
98	0xbc66a20a	-0.014076719
99	0xbca63afa	-0.020291794
100	0x3d98871a	0.074476436
101	0x3ccaa171	0.024735184
102	0xbc82c7cb	-0.01596441
103	0xba9116e4	-0.0011069444
104	0xbcb20027	-0.021728588
105	0xbbcf7947	-0.006331596
106	0x3cc388cd	0.023868943
107	0xbc16267d	-0.00916445
108	0x3c1b68b7	0.009485415
109	0x3cb04e68	0.021521762
110	0xbc8ece9a	-0.0174325
111	0x3d3421b3	0.04397745
112	0x3d2a52ce	0.041582875
113	0x3b748979	0.0037313385
114	0xbc7be889	-0.015375265
115	0xbca84d1e	-0.020544585
116	0xbcbeb84d	-0.02328124
117	0xbcac957e	-0.021067377
118	0xbd516961	-0.051125888
119	0x3b2300ca	0.0024872296
120	0xbd1bdac2	-0.03805042
121	0xbbd63bbb	-0.006537882
122	0xbc12ec23	-0.008967432
123	0x3bfdebaf	0.007749043
124	0xbd08a252	-0.033357926
125	0x3b8667e6	0.004101741
126	0xbd16933b	-0.036761504
127	0xbc427de6	-0.011870837
128	0x3cb8cff7	0.022560103
129	0x3cc566d1	0.024096878
130	0xbc3bdda4	-0.011466417
131	0xbc782fdf	-0.015148132
132	0xbced7996	-0.02898864
133	0x3bb803fd	0.00561571
134	0x3d329884	0.04360248
135	0xbd2b4d9f	-0.041822072
136	0x3b8e6d85	0.004346552
137	0xbd03718f	-0.03209072
138	0xbb92a955	-0.0044757524
139	0xbb9b7d6a	-0.004745175
140	0xbd31a1e9	-0.0433673
141	0x3b1cba3c	0.0023914715
142	0x3caac70d	0.020846868
143	0x3c6bea26	0.014399087
144	0x3d18954c	0.037251756
145	0xbca9ed99	-0.020743178
146	0x3c24546f	0.010029896
147	0xbcde9924	-0.027172633
148	0xbd418739	-0.0472481
149	0xbcc5791c	-0.024105601
150	0x3d155752	0.03646023
151	0xbd25755e	-0.040395133
152	0xbc81855f	-0.015810667
153	0xbcdb3f01	-0.026763441
154	0xbafc45b1	-0.0019246844
155	0xbd0b0061	-0.03393591
156	0xbbe1a5fd	-0.0068862424
157	0xbc4c585a	-0.0124722365
158	0xba89a95c	-0.0010502744
159	0x3ab99e3f	0.0014161541
160	0xb9fbd9f4	-0.00048036838
161	0x3afba56d	0.0019199081
162	0x3d2e1132	0.042496867
163	0xbc2187b4	-0.009859014
164	0x3cc0012e	0.023438063
165	0xbcc26867	-0.023731424
166	0x3d3dcd3c	0.046338305
167	0xbcf580fb	-0.02996873
168	0x3cbd989b	0.023144057
169	0xbd4b254a	-0.04959611
170	0x3bcb3635	0.0062015303
171	0x3d0e12ad	0.03468578
172	0x3d2b4e2a	0.04182259
173	0x3c4995d1	0.012303785
174	0xbb9e0385	-0.004822197
175	0x3cacae4a	0.021079201
176	0xbbe03ecf	-0.006843425
177	0x3c52358b	0.012830148
178	0xbc9da175	-0.019242028
179	0x3cf75ced	0.030195678
180	0x3cb3a374	0.021928526
181	0xbb0ec994	-0.002178763
182	0xbd4e5084	-0.050369754
183	0x3ccf0983	0.02527309
184	0x3d1a4ac6	0.037668966
185	0x3cecf3c9	0.02892484
186	0x3cad9a28	0.021191671
187	0xbc2502c4	-0.01007146
188	0x3cae8103	0.021301752
189	0xbc91ecfb	-0.017813196
190	0x3d17d9e5	0.037073035
191	0xbc05337a	-0.008129949
192	0x3d0d3140	0.034470797
193	0xbc157f77	-0.009124628
194	0x3c96e459	0.018419432
195	0xbcb9245c	-0.022600345
196	0x3c0c185c	0.00855073
197	0xbcaacc91	-0.020849498
198	0xbbb8624d	-0.0056269527
199	0x3a956678	0.0011398336
200	0xbbe7c6c9	-0.0070732576
201	0xbd557e4f	-0.05212241
202	0xbcaa1f2a	-0.020766813
203	0xbcc25a68	-0.02372475
204	0xbabc15f1	-0.0014349801
205	0x3d57d369	0.05269185
206	0xbabf6528	-0.001460229
207	0x3bacd8b6	0.0052748574
208	0xbb15c5c4	-0.0022853473
209	0x3c19e918	0.009393953
210	0x3c12a218	0.008949779
211	0xbd4388b7	-0.047737803
212	0xbd36f23f	-0.044664618
213	0xbb0f84b4	-0.0021899166
214	0x3c123f04	0.008926157
215	0x3cd4cce7	0.025976611
216	0xbce41836	-0.027843576
217	0xbba64cb0	-0.00507506
218	0x3bc8fa06	0.0061333207
219	0xbd533d45	-0.051572103
220	0xbce3099c	-0.027714543
221	0xb9087b65	-0.00013015939
222	0xbb172acc	-0.002306628
223	0x3ce8f392	0.028436456
224	0xbd0ab0fd	-0.033860195
225	0xbca3db44	-0.020002015
226	0x3bac67de	0.0052614054
227	0xbc3c2215	-0.011482735
228	0xbbf35e00	-0.007426977
229	0x3c247619	0.010037922
230	0xbda5c726	-0.08094625
231	0x3d003e88	0.031309634
232	0x3d41cd81	0.047315124
233	0xbc55f9a5	-0.013060008
234	0x3ba404a9	0.0050054383
235	0xbb67f4d8	-0.003539374
236	0xbd3081d6	-0.04309257
237	0x3ce65fc7	0.028121842
238	0x3d030902	0.031991012
239	0xbcbce228	-0.023057058
240	0xbc7ce8eb	-0.015436391
241	0x3944d861	0.00018772624
242	0xbb74fef7	-0.0037383416
243	0x3cbc6594	0.022997655
244	0xbc2456a6	-0.010030424
245	0x3bacbdd3	0.0052716522
246	0xbbdf1f19	-0.006809127
247	0xbd147aa4	-0.03624977
248	0xbc630286	-0.013855582
249	0xbc94f06d	-0.01818105
250	0x3d03de13	0.03219421
251	0x3c0be49a	0.00853839
252	0xbcea5058	-0.028602764
253	0xbc701e9a	-0.0146557335
254	0xbd276356	-0.04086622
255	0x3d222d31	0.03959388

action_model._continuous_distribution.mu.bias f4 [2]
0	0x3bdec5bc	0.006798474
1	0x3bcf201f	0.006320968

exp_avg f4 [128, 22]
0	0x395e6e67	0.00021212698
1	0xb9d6f95f	-0.00041003057
2	0x00000000	0.0
3	0x3a003e88	0.00048921304
4	0xb9daaa63	-0.00041707148
5	0x00000000	0.0
6	0x39a7ae3d	0.0003198254
7	0x3880f3aa	6.1489016e-05
8	0x38fc1026	0.00012019304
9	0x00000000	0.0
10	0x37358103	1.0818479e-05
11	0x3830ff75	4.2199583e-05
12	0xb7083ab4	-8.1199e-06
13	0xb7ce719f	-2.4610023e-05
14	0x38af0599	8.345693e-05
15	0xb11c8496	-2.2776354e-09
16	0xb86c4cbb	-5.6338245e-05
17	0x36f619d9	7.3343804e-06
18	0x3701459b	7.7052055e-06
19	0xb7f313fc	-2.8977163e-05
20	0xb6c0a913	-5.7417287e-06
21	0xb6e9f0ee	-6.971989e-06
22	0x390d6177	0.00013483116
23	0x38269df2	3.9724582e-05
24	0x00000000	0.0
25	0x3793175c	1.7534643e-05
26	0x392c0b4d	0.00016407408
27	0x00000000	0.0
28	0xb96022aa	-0.00021375218
29	0xb7a68abe	-1.9853349e-05
30	0x3800eb4d	3.073672e-05
31	0x00000000	0.0
32	0xb85075e7	-4.970087e-05
33	0x310d1848	2.0532003e-09
34	0x367b5f0d	3.7457241e-06
35	0x38472517	4.747984e-05
36	0xb68afb0a	-4.1419453e-06
37	0x368c017f	4.1724993e-06
38	0xb6a5a46e	-4.9365253e-06
39	0xb84ba78b	-4.8555008e-05
40	0x3668584b	3.4622087e-06
41	0xb6fb97f7	-7.498074e-06
42	0x384dae93	4.9038394e-05
43	0x3690bc7c	4.313477e-06
44	0xb8cc58cb	-9.744017e-05
45	0x3952e341	0.0002011182
46	0x00000000	0.0
47	0xb8cce683	-9.770414e-05
48	0x396db82d	0.00022670692
49	0x00000000	0.0
50	0x38ea0eb2	0.00011160727
51	0x368f538d	4.2714587e-06
52	0x375932f5	1.2946072e-05
53	0x00000000	0.0
54	0x3836c842	4.3578686e-05
55	0xb82995e1	-4.0432325e-05
56	0xb66f1156	-3.5623866e-06
57	0xb83c81f6	-4.494373e-05
58	0xb81b8884	-3.708202e-05
59	0xb6525e82	-3.134745e-06
60	0xb4a026b7	-2.983049e-07
61	0x3847436c	4.750809e-05
62	0xb719f885	-9.177374e-06
63	0xb5e8097d	-1.7288108e-06
64	0xb866d67d	-5.503603e-05
65	0xb5ff7f25	-1.9035984e-06
66	0xb883b934	-6.2810635e-05
67	0x37994b23	1.827401e-05
68	0x00000000	0.0
69	0xb90b9d84	-0.00013314752
70	0x37ee5ba3	2.8414483e-05
71	0x00000000	0.0
72	0x39877c78	0.00025841943
73	0xb8663eb4	-5.489467e-05
74	0x3566edbc	8.6027626e-07
75	0x00000000	0.0
76	0x38926ab9	6.981701e-05
77	0xb786aac2	-1.605356e-05
78	0xb7014368	-7.704693e-06
79	0xb89f138a	-7.58535e-05
80	0xb6814b5a	-3.8532717e-06
81	0xb694b1db	-4.431449e-06
82	0xb7921935	-1.7416294e-05
83	0x389d6461	7.5050404e-05
84	0xb6f1117b	-7.1843947e-06
85	0xb77162a1	-1.4387683e-05
86	0xb89ffd50	-7.628894e-05
87	0xb6b28b26	-5.3210124e-06
88	0x379c7a8e	1.8653718e-05
89	0x380d3eb8	3.367543e-05
90	0x00000000	0.0
91	0x38c436ca	9.3562136e-05
92	0x394f6f97	0.00019782629
93	0x00000000	0.0
94	0xb8c9d80a	-9.624667e-05
95	0x38197ca4	3.6594123e-05
96	0x37ea706e	2.7947328e-05
97	0x00000000	0.0
98	0xb7ee0f85	-2.8379038e-05
99	0x35ca4ba8	1.5072192e-06
100	0x365f3bab	3.326432e-06
101	0x3800c55f	3.0701394e-05
102	0xb739f01a	-1.1082762e-05
103	0x360b1bd4	2.0728812e-06
104	0x37510df9	1.2460624e-05
105	0xb7e71acf	-2.754983e-05
106	0x36036539	1.957944e-06
107	0x366dded5	3.5445457e-06
108	0x37f97223	2.9736262e-05
109	0x361a2f8a	2.297546e-06
110	0x3859981e	5.1878502e-05
111	0x396b2855	0.00022426371
112	0x00000000	0.0
113	0xb8a16871	-7.696532e-05
114	0x39840fbd	0.00025188728
115	0x00000000	0.0
116	0x3998ebef	0.00029167483
117	0xb80df6aa	-3.3846743e-05
118	0xb8594253	-5.17986e-05
119	0x00000000	0.0
120	0x388c9260	6.702985e-05
121	0xb87233c3	-5.7745503e-05
122	0xb732b430	-1.065158e-05
123	0xb8a4079d	-7.8215475e-05
124	0xb81cd31b	-3.7389906e-05
125	0xb64fd21a	-3.09677e-06
126	0xb8345815	-4.2997377e-05
127	0x389daffd	7.519124e-05
128	0xb74f46cf	-1.2354648e-05
129	0xb807b1ed	-3.2352214e-05
130	0xb8a93d89	-8.07001e-05
131	0xb66675b4	-3.4341183e-06
132	0xb8a71fbb	-7.969091e-05
133	0x38a0ded0	7.6708966e-05
134	0x00000000	0.0
135	0xb89796ef	-7.228355e-05
136	0x37adf100	2.0735431e-05
137	0x00000000	0.0
138	0xb8b2f069	-8.532481e-05
139	0x3784f346	1.584891e-05
140	0xb84ad7fe	-4.836171e-05
141	0x00000000	0.0
142	0xb825494b	-3.9407325e-05
143	0xb64d22a2	-3.056754e-06
144	0x36f0a002	7.1711847e-06
145	0x3849f36e	4.8148846e-05
146	0xb769284c	-1.3897265e-05
147	0x36039d8c	1.9612226e-06
148	0x37fc8ef6	3.0107312e-05
149	0xb829e35d	-4.050449e-05
150	0x35fa347d	1.8641728e-06
151	0x3801bc8c	3.0931595e-05
152	0x3833e553	4.28905e-05
153	0x36744f98	3.6405163e-06
154	0xb9318603	-0.00016929959
155	0xb913e9f5	-0.00014106168
156	0x00000000	0.0
157	0xb9034647	-0.00012519314
158	0xb9866a0e	-0.0002563749
159	0x00000000	0.0
160	0x39674140	0.00022054184
161	0xb7153059	-8.892349e-06
162	0xb790b73d	-1.7251465e-05
163	0x00000000	0.0
164	0x38a4e4a8	7.86272e-05
165	0x3793836f	1.758497e-05
166	0xb6d377ae	-6.3022226e-06
167	0xb8a2e654	-7.767664e-05
168	0x37a91132	2.0154377e-05
169	0xb6cfe988	-6.1962673e-06
170	0x3566205f	8.5728783e-07
171	0x38a8d028	8.0496364e-05
172	0xb6a1c777	-4.8213947e-06
173	0xb559d714	-8.115178e-07
174	0xb8a3bc25	-7.80749e-05
175	0xb702d40b	-7.797974e-06
176	0x37a6a0f3	1.986369e-05
177	0xb8d43cbf	-0.000101202626
178	0x00000000	0.0
179	0x39166ec8	0.00014346384
180	0x3808e3fa	3.2637246e-05
181	0x00000000	0.0
182	0x37d9f362	2.598175e-05
183	0x383e5ac6	4.538407e-05
184	0x38da6ad7	0.000104149505
185	0x00000000	0.0
186	0xb73f3204	-1.1396132e-05
187	0x378c86d3	1.6752083e-05
188	0x35aa29b7	1.2678128e-06
189	0x3751a237	1.2495139e-05
190	0x3795b6f1	1.7847373e-05
191	0x357bdf99	9.3830164e-07
192	0xb590fcd8	-1.0802423e-06
193	0xb72b8bfe	-1.0224989e-05
194	0x361be351	2.3229115e-06
195	0x35709436	8.962264e-07
196	0x37310a94	1.0552485e-05
197	0xb60258c8	-1.9423187e-06
198	0xb7ecb684	-2.8218383e-05
199	0x37b53679	2.1602247e-05
200	0x00000000	0.0
201	0xb781fcb2	-1.5495669e-05
202	0x37843f05	1.5764972e-05
203	0x00000000	0.0
204	0x37b9dad5	2.215562e-05
205	0x36cf61c8	6.180464e-06
206	0xb6301d10	-2.624296e-06
207	0x00000000	0.0
208	0x36e30c72	6.766576e-06
209	0xb6540262	-3.1591849e-06
210	0xb40b65dc	-1.298244e-07
211	0xb6bece78	-5.6864774e-06
212	0xb697492f	-4.5086704e-06
213	0xb51251e0	-5.450838e-07
214	0x3642226e	2.8928293e-06
215	0x36e14ae1	6.7142396e-06
216	0xb59c0ff1	-1.1627545e-06
217	0x35d3e326	1.5786834e-06
218	0xb704b9ed	-7.911102e-06
219	0xb4b0fc62	-3.2966187e-07
220	0x395c5e80	0.00021016039
221	0xb8b0001e	-8.392356e-05
222	0x00000000	0.0
223	0x39ab86b5	0.00032716026
224	0x3740a4dd	1.1482477e-05
225	0x00000000	0.0
226	0xb9c53bb1	-0.00037619242
227	0x38f33516	0.00011597031
228	0x38b3f64a	8.58126e-05
229	0x00000000	0.0
230	0xb95993a2	-0.0002074973
231	0x3842a35a	4.6405337e-05
232	0x37b5872d	2.1639828e-05
233	0x395d27ef	0.00021091079
234	0x37e29ecd	2.7015247e-05
235	0x374cb92b	1.220246e-05
236	0x37ec5c06	2.8176244e-05
237	0xb9698d19	-0.00022273175
238	0x37b3687a	2.1387114e-05
239	0x381c0230	3.7195336e-05
240	0x395ee06b	0.00021255172
241	0x376c3475	1.407891e-05
242	0x377802d6	1.4782612e-05
243	0x37949493	1.771216e-05
244	0x00000000	0.0
245	0x3875fbeb	5.864717e-05
246	0xb587383c	-1.007465e-06
247	0x00000000	0.0
248	0x385bccfa	5.2404568e-05
249	0x37f3caa2	2.9062216e-05
250	0xb6bc1499	-5.6052345e-06
251	0x00000000	0.0
252	0x378e80b2	1.6987648e-05
253	0xb721fbd1	-9.654978e-06
254	0xb62bf246	-2.5622007e-06
255	0xb7b0a64e	-2.1058277e-05

exp_avg_sq f4 [128, 22]
0	0x3425dbe9	1.5446825e-07
1	0x340ac311	1.2923216e-07
2	0x00000000	0.0
3	0x3487bd4a	2.5283435e-07
4	0x34a4236f	3.0573162e-07
5	0x00000000	0.0
6	0x341f16b4	1.4816288e-07
7	0x32f26469	2.821817e-08
8	0x32c4cd43	2.2910745e-08
9	0x00000000	0.0
10	0x32f70d59	2.8760654e-08
11	0x319b97fc	4.5283723e-09
12	0x2f6d2472	2.1567972e-10
13	0x32fbe706	2.9325303e-08
14	0x31776257	3.599913e-09
15	0x2f2a999b	1.5515982e-10
16	0x31559de3	3.1085328e-09
17	0x32f8d515	2.8967898e-08
18	0x2f67fe37	2.1099643e-10
19	0x3137eaeb	2.676354e-09
20	0x32f9aeaf	2.9066852e-08
21	0x2f5550a9	1.9400893e-10
22	0x33354cf8	4.221235e-08
23	0x32f84d53	2.8906163e-08
24	0x00000000	0.0
25	0x32943c95	1.7257017e-08
26	0x330877dc	3.177398e-08
27	0x00000000	0.0
28	0x338600d5	6.2400126e-08
29	0x3111ce03	2.1217381e-09
30	0x30974fb6	1.1009351e-09
31	0x00000000	0.0
32	0x31661180	3.3479353e-09
33	0x2fd781f2	3.9200604e-10
34	0x2da247b8	1.8449117e-11
35	0x31377e53	2.6701812e-09
36	0x30854664	9.69703e-10
37	0x2dd830b3	2.4577984e-11
38	0x2f8ad7a4	2.5255276e-10
39	0x317256c9	3.5264967e-09
40	0x2d4b4b3c	1.1555919e-11
41	0x309a30bb	1.1218825e-09
42	0x312c2dba	2.5055287e-09
43	0x2e38a7f0	4.1985915e-11
44	0x3225e54f	9.656403e-09
45	0x32ed2173	2.7605642e-08
46	0x00000000	0.0
47	0x320a5d71	8.053903e-09
48	0x330af2f3	3.235159e-08
49	0x00000000	0.0
50	0x322942fd	9.852326e-09
51	0x310c058a	2.037583e-09
52	0x30cc7f88	1.48792e-09
53	0x00000000	0.0
54	0x30e6d283	1.6794534e-09
55	0x30e85b2d	1.6906135e-09
56	0x2dcfd1ed	2.3626401e-11
57	0x313c9ced	2.7446803e-09
58	0x301bdc2f	5.670157e-10
59	0x2d1123b2	8.250222e-12
60	0x30c95a54	1.4650348e-09
61	0x30f7f9f0	1.8042652e-09
62	0x2e350610	4.116002e-11
63	0x2f9f97a8	2.902969e-10
64	0x314ea7c3	3.0072307e-09
65	0x2cfd1f7c	7.194188e-12
66	0x33752c50	5.708381e-08
67	0x32f3291a	2.8307614e-08
68	0x00000000	0.0
69	0x33970d5e	7.033917e-08
70	0x32a33422	1.8999405e-08
71	0x00000000	0.0
72	0x33b431ac	8.3909384e-08
73	0x31a27b8c	4.728866e-09
74	0x310d4689	2.0558295e-09
75	0x00000000	0.0
76	0x31ddb374	6.452348e-09
77	0x3069cbaf	8.505436e-10
78	0x2e349de2	4.106749e-11
79	0x31d55434	6.2086887e-09
80	0x307c84d4	9.1865826e-10
81	0x2e527ee0	4.786116e-11
82	0x303e7004	6.928078e-10
83	0x31e59473	6.681654e-09
84	0x2e736724	5.534341e-11
85	0x30561612	7.788411e-10
86	0x31dcf42e	6.4306027e-09
87	0x2e71ed7f	5.5007995e-11
88	0x3307b726	3.159871e-08
89	0x3297f1e6	1.7688716e-08
90	0x00000000	0.0
91	0x333be63e	4.3748734e-08
92	0x32ef83cf	2.7883202e-08
93	0x00000000	0.0
94	0x332fe8e0	4.095716e-08
95	0x3121d09b	2.3547162e-09
96	0x30e54a3d	1.6683043e-09
97	0x00000000	0.0
98	0x318590cc	3.887271e-09
99	0x2fe4a3ce	4.158935e-10
100	0x2e2cc37a	3.928189e-11
101	0x317af285	3.6517644e-09
102	0x3007017b	4.911482e-10
103	0x2ddb8eb0	2.4960783e-11
104	0x2fb94d42	3.37062e-10
105	0x318852af	3.967521e-09
106	0x2dae4f86	1.9816825e-11
107	0x3021ea83	5.890472e-10
108	0x317538b9	3.5684435e-09
109	0x2e213369	3.6652823e-11
110	0x33262f75	3.869305e-08
111	0x330ec31f	3.3239413e-08
112	0x00000000	0.0
113	0x337ef8b3	5.9365174e-08
114	0x337ee44c	5.934662e-08
115	0x00000000	0.0
116	0x336e91c1	5.5546256e-08
117	0x31b13b3a	5.1581113e-09
118	0x31f3f4b9	7.1000525e-09
119	0x00000000	0.0
120	0x321c1639	9.085448e-09
121	0x31075c4f	1.9697557e-09
122	0x2eafec1a	8.000019e-11
123	0x322c70d4	1.0037372e-08
124	0x3074139e	8.879456e-10
125	0x2e4a850d	4.6047655e-11
126	0x30c698f6	1.444987e-09
127	0x322516db	9.609461e-09
128	0x2ee10a86	1.0233685e-10
129	0x303f15f9	6.951662e-10
130	0x32322562	1.03694635e-08
131	0x2e63b1cb	5.1771736e-11
132	0x33aa7d9f	7.939092e-08
133	0x33cf2ea0	9.64767e-08
134	0x00000000	0.0
135	0x33b2779a	8.310526e-08
136	0x339d6988	7.330078e-08
137	0x00000000	0.0
138	0x34848adc	2.468795e-07
139	0x31dd29b1	6.4366863e-09
140	0x31ef9a30	6.9733446e-09
141	0x00000000	0.0
142	0x3221c44f	9.416069e-09
143	0x31034168	1.9100188e-09
144	0x2f0a5c41	1.2583802e-10
145	0x321937cd	8.91846e-09
146	0x31293983	2.4625428e-09
147	0x2e648a20	5.1963878e-11
148	0x308c02dc	1.0187153e-09
149	0x3232776c	1.0388117e-08
150	0x2e082276	3.0953427e-11
151	0x314700ea	2.895883e-09
152	0x3206ac9d	7.839074e-09
153	0x2f359f69	1.6518488e-10
154	0x340f6199	1.3353419e-07
155	0x340b89e6	1.2995551e-07
156	0x00000000	0.0
157	0x33e3104b	1.0573475e-07
158	0x33a5a061	7.712584e-08
159	0x00000000	0.0
160	0x3495c677	2.7897815e-07
161	0x31b3fa44	5.2380376e-09
162	0x31a00c09	4.657981e-09
163	0x00000000	0.0
164	0x32170eb0	8.792696e-09
165	0x3102f16d	1.9054724e-09
166	0x2e31e77b	4.0450737e-11
167	0x31e772d1	6.736038e-09
168	0x3188abb2	3.9776404e-09
169	0x2ea56503	7.5212746e-11
170	0x304b0196	7.3853224e-10
171	0x322cc433	1.0056328e-08
172	0x2ded47a6	2.6975599e-11
173	0x317f9c8e	3.7196375e-09
174	0x31d35001	6.1500036e-09
175	0x2f51dd6b	1.9087103e-10
176	0x33857677	6.214844e-08
177	0x332dbf20	4.045353e-08
178	0x00000000	0.0
179	0x33b986e9	8.639274e-08
180	0x339a1fc7	7.176964e-08
181	0x00000000	0.0
182	0x336201c9	5.262135e-08
183	0x319b3a96	4.517754e-09
184	0x320a0dbe	8.035782e-09
185	0x00000000	0.0
186	0x32307cfa	1.0272965e-08
187	0x30978fa8	1.1027526e-09
188	0x2e9bfc9b	7.093456e-11
189	0x3230a1e1	1.0281355e-08
190	0x3078a721	9.045938e-10
191	0x2e82b351	5.9435686e-11
192	0x303575a5	6.60146e-10
193	0x323709e3	1.065425e-08
194	0x2e50c5fc	4.746957e-11
195	0x308cabb6	1.0235144e-09
196	0x322901d2	9.837509e-09
197	0x2ec924dd	9.14697e-11
198	0x307925de	9.0639485e-10
199	0x3046c6fe	7.2314765e-10
200	0x00000000	0.0
201	0x3018b11e	5.5548977e-10
202	0x305c2cba	8.0099094e-10
203	0x00000000	0.0
204	0x30ba5a8f	1.355902e-09
205	0x2e9f1444	7.234083e-11
206	0x2e5a44b5	4.9628485e-11
207	0x00000000	0.0
208	0x2ef9810f	1.13461344e-10
209	0x2e07cc65	3.0876985e-11
210	0x2b71d259	8.5912316e-13
211	0x2f01edf5	1.1817021e-10
212	0x2dd469cc	2.4148593e-11
213	0x2b5d5002	7.8626005e-13
214	0x2dba9545	2.121204e-11
215	0x2eff2bf7	1.1603867e-10
216	0x2be5dfd1	1.633355e-12
217	0x2d5ed3a1	1.266623e-11
218	0x2f0f9c37	1.3061273e-10
219	0x2b5ba842	7.8037934e-13
220	0x3496207a	2.7963307e-07
221	0x3413e9cd	1.3775498e-07
222	0x00000000	0.0
223	0x3538f322	6.8899146e-07
224	0x340f0d85	1.3322831e-07
225	0x00000000	0.0
226	0x34c15faa	3.6018656e-07
227	0x330a6c33	3.2229035e-08
228	0x326d31a8	1.3806506e-08
229	0x00000000	0.0
230	0x334eacbd	4.8120217e-08
231	0x321486d3	8.645389e-09
232	0x2fba6f6b	3.391237e-10
233	0x335d3f97	5.1513407e-08
234	0x319fa7a2	4.6465667e-09
235	0x2f9b006e	2.819464e-10
236	0x31c2a146	5.6644778e-09
237	0x33560d32	4.983776e-08
238	0x303332f7	6.5192246e-10
239	0x30d61bfb	1.5578502e-09
240	0x3375026a	5.7045703e-08
241	0x2f604b1b	2.0399364e-10
242	0x30d4c782	1.5481734e-09
243	0x31381e7a	2.6792848e-09
244	0x00000000	0.0
245	0x3128dda9	2.4573217e-09
246	0x319a6d3a	4.4944075e-09
247	0x00000000	0.0
248	0x31ddff51	6.4609726e-09
249	0x2ffbedaa	4.5825505e-10
250	0x2fb226b5	3.2405514e-10
251	0x00000000	0.0
252	0x2ff21154	4.4031856e-10
253	0x2f8aa2f7	2.5217847e-10
254	0x2d6dcee0	1.3517826e-11
255	0x302d0c03	6.2954103e-10

exp_avg f4 [128]
0	0x37baca89	2.226724e-05
1	0xb85e26c7	-5.296504e-05
2	0x386711c0	5.5091223e-05
3	0x38ac088e	8.2031926e-05
4	0xb8068e90	-3.208086e-05
5	0x38be71b8	9.081088e-05
6	0xb84490c0	-4.686485e-05
7	0x38b14064	8.4520114e-05
8	0xb73aea0c	-1.1140957e-05
9	0x36f353c7	7.2517173e-06
10	0xb96ca044	-0.00022566417
11	0x37bb8f22	2.2358789e-05
12	0xb91491df	-0.00014168721
13	0x3584a4b6	9.882704e-07
14	0xb97d3243	-0.00024146684
15	0xb88b8e0a	-6.654493e-05
16	0xb9e5cc6c	-0.0004383059
17	0xb74a06e8	-1.2041746e-05
18	0xb91b715c	-0.00014824182
19	0x38878ec8	6.463897e-05
20	0x38324aa7	4.2508032e-05
21	0x3946d9d7	0.00018963903
22	0xb8720edc	-5.7711135e-05
23	0xb9e6d6d4	-0.00044029078
24	0x376bdfb2	1.4059175e-05
25	0x3985cf5a	0.00025522226
26	0xb60ae787	-2.069837e-06
27	0x385740a9	5.1320214e-05
28	0xb88fcd64	-6.857028e-05
29	0xb7d7d393	-2.572852e-05
30	0xb94bb2fb	-0.00019426264
31	0x38f2b357	0.00011572864
32	0x3891851b	6.9389316e-05
33	0xb938d3f7	-0.0001762657
34	0xb6dc7282	-6.5698414e-06
35	0xb82b302f	-4.081445e-05
36	0xb8811260	-6.154622e-05
37	0xb85e0dd0	-5.294179e-05
38	0x385fc820	5.3353724e-05
39	0x38ae21fb	8.303296e-05
40	0xb8cc9f48	-9.7571465e-05
41	0xb8fae937	-0.000119643686
42	0x36e8cb8a	6.937834e-06
43	0xb912cf21	-0.00014000807
44	0x37fb0c75	2.9927332e-05
45	0x38c42af4	9.354009e-05
46	0xb873c6bd	-5.8120804e-05
47	0xb90efcbc	-0.00013636326
48	0x39bd6404	0.00036123407
49	0xb8497798	-4.8033515e-05
50	0xb87a59b8	-5.9688202e-05
51	0xb6f8ec96	-7.418518e-06
52	0xb8135bc4	-3.5132995e-05
53	0xb91bafb3	-0.00014847405
54	0x3898b2df	7.281242e-05
55	0xb87ab9c4	-5.9777652e-05
56	0x38a2703a	7.745666e-05
57	0xb82a3139	-4.0577e-05
58	0x387bb718	6.0013583e-05
59	0xb918ef6b	-0.0001458504
60	0xba0f3605	-0.00054630666
61	0x37759c9f	1.4639604e-05
62	0xb7194cf2	-9.137426e-06
63	0x386ac280	5.597109e-05
64	0xb891ef30	-6.958691e-05
65	0x39be25de	0.00036267837
66	0xb88207da	-6.2003455e-05
67	0xb8383588	-4.3918873e-05
68	0xb9422797	-0.0001851603
69	0xb7893315	-1.635546e-05
70	0x37b9f6e1	2.216868e-05
71	0xb6a29dbd	-4.8463394e-06
72	0x39008672	0.00012257116
73	0x38941d29	7.0626214e-05
74	0x36ca747e	6.0336306e-06
75	0xb752e080	-1.2569246e-05
76	0xb6c5feec	-5.9007343e-06
77	0x38c3c017	9.334104e-05
78	0x3921c8c1	0.00015428943
79	0x38ceb276	9.8560864e-05
80	0x38777729	5.9000366e-05
81	0xb4436e6c	-1.8200961e-07
82	0xb8a949e7	-8.072313e-05
83	0x36b06477	5.2569044e-06
84	0xb995c841	-0.00028568695
85	0xb7543990	-1.2649587e-05
86	0xb91759e6	-0.00014433972
87	0xb8bc19f4	-8.969373e-05
88	0xb81e2568	-3.7704973e-05
89	0x36917382	4.3347836e-06
90	0xb8065487	-3.2026812e-05
91	0xb938863d	-0.00017597615
92	0xb84905d4	-4.7927562e-05
93	0xb8e506b6	-0.00010920821
94	0x393cffe0	0.00018024398
95	0xb91bcc9f	-0.00014858179
96	0x38c12835	9.210446e-05
97	0x38b9c4b9	8.85813e-05
98	0xb6c75597	-5.940626e-06
99	0x33c9cc69	9.396974e-08
100	0xb6779e87	-3.6898143e-06
101	0xb6d91176	-6.4691367e-06
102	0xb8e60144	-0.000109674904
103	0xb9663aaa	-0.00021956363
104	0xb855840e	-5.0906143e-05
105	0xb82a64b6	-4.0624953e-05
106	0x3656325c	3.1917798e-06
107	0xb8133778	-3.509919e-05
108	0x379c897b	1.8660669e-05
109	0x37859922	1.5926144e-05
110	0xb838f064	-4.40929e-05
111	0x373b8953	1.1178042e-05
112	0x370eecc0	8.518982e-06
113	0xb893f4f6	-7.055134e-05
114	0xb8becafb	-9.097714e-05
115	0xb78fffcf	-1.7166049e-05
116	0xb7da6a96	-2.6037258e-05
117	0xb93744d8	-0.00017477886
118	0x37780945	1.478411e-05
119	0x385b1ab8	5.2238553e-05
120	0xb7f19a2d	-2.8801232e-05
121	0xb8f23535	-0.0001154937
122	0xb60d5c73	-2.106445e-06
123	0x32de0ee0	2.5850966e-08
124	0x375d356f	1.31850675e-05
125	0x38f36dfa	0.00011607628
126	0xb8e8df2d	-0.00011104192
127	0x3883c1de	6.282677e-05

exp_avg_sq f4 [128]
0	0x330b7507	3.2469895e-08
1	0x3183af33	3.8325196e-09
2	0x31642471	3.3199081e-09
3	0x320621ee	7.807541e-09
4	0x3196e50c	4.391614e-09
5	0x3246e09f	1.157619e-08
6	0x324728e1	1.1592619e-08
7	0x32398bf6	1.0800241e-08
8	0x3247d209	1.1631081e-08
9	0x2f258587	1.5054101e-10
10	0x3383328d	6.109358e-08
11	0x303af1ea	6.8010186e-10
12	0x33721818	5.636693e-08
13	0x3109da9d	2.0060391e-09
14	0x339821b7	7.084184e-08
15	0x31aeee1c	5.0911364e-09
16	0x3445413d	1.8370788e-07
17	0x323a1a92	1.0832666e-08
18	0x32879c07	1.5787021e-08
19	0x324e0833	1.1992642e-08
20	0x32ba93fe	2.1720549e-08
21	0x33f36333	1.13336135e-07
22	0x324c2dd0	1.1884779e-08
23	0x3419a53d	1.4309349e-07
24	0x2f15ef7c	1.3636553e-10
25	0x33add76e	8.095127e-08
26	0x3323c115	3.8127002e-08
27	0x31a8598b	4.8996234e-09
28	0x332aa9c0	3.9735596e-08
29	0x31bf18bb	5.561643e-09
30	0x3352a64a	4.9045674e-08
31	0x32bd798d	2.205777e-08
32	0x3336d4f7	4.2568868e-08
33	0x32c207b7	2.258808e-08
34	0x33380347	4.284382e-08
35	0x33bfe479	8.9356895e-08
36	0x33712adf	5.6151176e-08
37	0x3351a63f	4.8812804e-08
38	0x31343693	2.622447e-09
39	0x321df6e8	9.194743e-09
40	0x31d59d35	6.2169883e-09
41	0x329c3b12	1.8187652e-08
42	0x3307ae23	3.1590513e-08
43	0x33aa758f	7.937626e-08
44	0x30e77c02	1.6842707e-09
45	0x33482045	4.6595478e-08
46	0x31641062	3.318768e-09
47	0x3291e78e	1.698552e-08
48	0x341904e3	1.4251013e-07
49	0x3167e4f8	3.3745078e-09
50	0x3128cbfe	2.4563174e-09
51	0x31dbfa63	6.4022045e-09
52	0x3181dae2	3.7792782e-09
53	0x32c74431	2.3197659e-08
54	0x32576462	1.25374715e-08
55	0x330f7fc7	3.3410995e-08
56	0x3290ac0d	1.6842046e-08
57	0x31b24d52	5.189272e-09
58	0x315ce6b9	3.2145364e-09
59	0x325a6f2b	1.2714547e-08
60	0x3440ce26	1.795639e-07
61	0x323bf2ae	1.0940012e-08
62	0x300e1185	5.1684196e-10
63	0x31430846	2.8380938e-09
64	0x32d9aa9a	2.5339705e-08
65	0x3415d9d2	1.3955949e-07
66	0x32a46140	1.9136337e-08
67	0x32849e22	1.5438733e-08
68	0x330a26c4	3.2165886e-08
69	0x30f58928	1.7865078e-09
70	0x32c37c47	2.2757503e-08
71	0x309a4e83	1.1227289e-09
72	0x330851df	3.173943e-08
73	0x326e61a6	1.3875626e-08
74	0x2f84c71a	2.415213e-10
75	0x317ad84f	3.6502745e-09
76	0x308347f5	9.551956e-10
77	0x327ffd19	1.4900501e-08
78	0x32a817cd	1.9568597e-08
79	0x3246b037	1.15651835e-08
80	0x31e87dc9	6.766389e-09
81	0x31e26e23	6.589987e-09
82	0x3195d9ef	4.361247e-09
83	0x30980855	1.1061824e-09
84	0x33c95c29	9.376556e-08
85	0x31040408	1.921082e-09
86	0x333a9d2c	4.3449447e-08
87	0x3234f2d1	1.0532589e-08
88	0x32484254	1.16566135e-08
89	0x335cc8aa	5.1405245e-08
90	0x3074074d	8.877706e-10
91	0x337511dd	5.7059754e-08
92	0x324522b8	1.1474803e-08
93	0x31a68786	4.846643e-09
94	0x33a17e25	7.520092e-08
95	0x334ba553	4.7414982e-08
96	0x330a2416	3.216345e-08
97	0x31c16bd4	5.629298e-09
98	0x328677c5	1.5654118e-08
99	0x2fb3a524	3.267725e-10
100	0x32bac688	2.1743531e-08
101	0x325ecd5f	1.2968797e-08
102	0x333e8916	4.43625e-08
103	0x3389ec43	6.4225354e-08
104	0x30be1dcc	1.3832788e-09
105	0x32c3105b	2.2708425e-08
106	0x2f352fbb	1.6478811e-10
107	0x331256c6	3.4072194e-08
108	0x32991e06	1.7825197e-08
109	0x32a80db7	1.956401e-08
110	0x3377bc0c	5.7680197e-08
111	0x2fdcd46c	4.0168702e-10
112	0x327d1b75	1.4732781e-08
113	0x32384ee4	1.0728147e-08
114	0x331635ed	3.497364e-08
115	0x3226a991	9.701027e-09
116	0x301d4e14	5.7227223e-10
117	0x3381dce9	6.047214e-08
118	0x32087de5	7.944867e-09
119	0x320aafe6	8.072652e-09
120	0x31516a57	3.047395e-09
121	0x32cebc9a	2.4067322e-08
122	0x3074e35a	8.908977e-10
123	0x31136584	2.144902e-09
124	0x304cfd06	7.4574336e-10
125	0x3270023c	1.3970347e-08
126	0x32f78479	2.8814826e-08
127	0x33537782	4.9235958e-08
