2D/results/SegundoTeste2D/MoveToGoal/MoveToGoal-153739.pt (torch, 491803 bytes, 36 tensors)

network_body._body_endoder.seq_layers.0.weight f4 [128, 22]
00000000: 04dd 6bbe 7538 a43e 5dd2 163d c487 893e
00000010: ca97 aebe 85a8 81bc 666c 1fbd 5b54 93be
00000020: 482b 403e 0040 f3bd d232 433e 032d bdbe
00000030: a996 89be 40e9 9d3d 5f55 883e 454a 92be
00000040: 83c5 d4bc 8cdb be3d 159b 21be 3519 313c
00000050: b881 49be 28fb a33e b398 19bd 2dcf 7b3c
00000060: dd99 db3d b022 733e ced0 b2be 6bad 6bbc
00000070: 6a23 9b3d f8c6 07be cf95 ea3d 75fb b73d
00000080: 8516 eabc 75e1 91be 9f52 843e 40d8 f73e
00000090: fe2c d13c 8374 93be 48a5 813e c77d b2bd
000000a0: 8834 c63e b512 cabc 509d ad3e d565 ee3c
000000b0: 5c4f 3cbb 0d55 233e 672f 563e a752 fd3c
000000c0: b011 fa3e 17cb 00be 3d80 d2be f15e 5f3d
000000d0: a6a3 4d3e ac37 763e 116d f5bc b2fe 91be
000000e0: 2094 41be aeaa 683e 110f 1c3e 05a2 9bbd
000000f0: 85c8 fb3c 98cb cbbe 48af e03d 1d85 abbc
00000100: f271 03be a9fe b53d 3b94 d3be 7e47 223d
00000110: c40b b5bb 5775 ed3d 844d a43e 0d30 0abe
00000120: 7b74 b23e d84f 94bd 0e72 3b3e 15ae f73d
00000130: 7ded d0be 424c c93e e7e2 c2bd 525f 613e
00000140: 4023 113e 2822 173e 9a54 a93e 185f 99be
00000150: d5c0 373c b2dd b93d 6293 eebe 20f1 19be
00000160: 85c9 b0bd faf6 15be afdc d1be 561f 8cbe
00000170: 409d 07bd df57 64bc e9e5 85bd 2bd2 44bd
00000180: c0d2 173e ba9a 153d 5b88 f1bd a22a 713d
00000190: 5b55 1dbe bb87 b7bd 075c bcbd 192b 01bd
000001a0: 4623 a7be 5768 163e ab3b 83be a73a e33c
000001b0: 1697 0cbe 27ee 83bd 731f 2cbd 02dc e6bd
000001c0: f960 e2bd 386a 123e d253 953e 5ed6 e5bd
000001d0: d4f9 003c 9c3c 9c3d 570e 153e 6ceb 443e
000001e0: 8765 91bb 6982 a93c fda7 8b3d e245 20be
000001f0: 76f8 5e3e 67ad eabd 47a4 bebd 6f9b d03d
00000200: 0c0b a7bd e699 38bb 4edc 313e 0cd8 38be
00000210: daad 7b3e 87a2 d8be f374 163e 6960 04be
00000220: 40b7 593e 3bdf d23d 7e70 3dbc c0a7 2fbc
00000230: a8f1 8fbe b3c5 173d d979 36bc cac3 18bd
00000240: 9dc7 a73d 79d4 b1bd ec3b 8cbd f1c4 81be
00000250: 73ec 563e d509 45bd 4182 8b3e 89f2 793e
00000260: 13ff ec3d 5a38 28be 5696 39bd ee3b a4be
00000270: 8a07 45be e3c4 d43d 3be7 77be 761b 143d
00000280: 1545 4d3d 2691 e73d 271e 62be 95e7 4a3e
00000290: 335e 1bbd 191a b33c 5c19 4d3e 7282 163d
000002a0: da8e 883d a2b5 443e c98d 773e 9a98 a0bc
000002b0: 0823 acbd 09ec 793d a524 91bd b101 33be
000002c0: 1c11 073e 4e1f 393d 19cb b93d b3c2 22bd
000002d0: 5419 51be 8440 30be a5e5 1bbe a3e0 cb3d
000002e0: f599 e03d 9880 b9be 79a9 83bd 0cb5 0b3e
000002f0: cc55 e43e 8e93 c3be 99d7 7e3e f803 843e
00000300: 7e80 17bd 621a 3cbe 91bd 023e 8611 a3bd
00000310: 6118 0fbe 428f b7be 345c 053e 0adb 0f3e
00000320: 8545 713e 9630 07be 4a47 aebd 0f8f 8abe
00000330: 0efc b5be f107 b83e 35ad 743e 0691 dd3d
00000340: a4fb 0bbe 973c 1abb be04 b5ba e453 283d
00000350: 64ed 173e aa54 a33e 28b4 3f3e 20e1 c2be
00000360: a684 aebd 2db4 a83c a255 d13d 73cf 17be
00000370: 5ce7 da3c bfba 9c3e 5198 983e 0cc6 81bd
00000380: 5ffe c9bd 6338 dd3d 5bfd 033d 3b08 74be
00000390: e7f1 f43b dc44 1c3e c1af 91bc e567 d7bd
000003a0: baa1 eb39 14c4 113e 0247 1fbe 49f6 06be
000003b0: c96d 1d3e 9b8e 0d3d 8342 f5bd e4ec 6abe
000003c0: 41be 88bd b84a 6b3c 805a a93e c857 d03d
000003d0: 4cc0 1b3e ebeb 563e c5c5 ee3d 0b94 ccbd
000003e0: e511 42be 73e5 4e3e 2417 db3e 8627 903d
000003f0: ff29 83be c93a a4bd 80cb 3cbe c8f2 983d
-0.2303353 0.32074323 0.03682171 0.26861393 -0.3410018 -0.015827427 -0.038921736 -0.28775296
0.1876651 -0.118774414 0.19062355 -0.36948404 -0.26872757 0.077105045 0.26627633 -0.28572288
-0.025973087 0.09319219 -0.15781815 0.0108092325 -0.1967839 0.32027555 -0.03749914 0.015369219
0.107227065 0.23743701 -0.3492493 -0.014384608 0.07575114 -0.13259494 0.11454355 0.089835085
-0.028575191 -0.28492323 0.25844285 0.48407173 0.02553415 -0.2879983 0.25321412 -0.087153964
0.38711953 -0.024667123 0.33909082 0.029101292 -0.0028733825 0.15950413 0.2091652 0.0309232
0.4884162 -0.12577473 -0.41113463 0.054533903 0.20081958 0.24044675 -0.029959233 -0.2851463
-0.18904161 0.22721359 0.15240122 -0.07599262 0.030735264 -0.39803767 0.10970932 -0.020937497
-0.12836435 0.08886463 -0.41324028 0.03961896 -0.005525084 0.115946464 0.3209039 -0.13494892
0.34854493 -0.072417915 0.18305227 0.120937504 -0.4080619 0.39315993 -0.095159344 0.22009018
0.14173603 0.14759123 0.33072358 -0.29955363 0.011215408 0.09075488 -0.4659682 -0.15033388
-0.08632187 -0.14644995 -0.4098868 -0.27367657 -0.03310895 -0.013936966 -0.065379925 -0.048051994
0.14826488 0.036524512 -0.11793586 0.05887855 -0.15364592 -0.089614354 -0.0919724 -0.03153524
-0.326441 0.1468824 -0.2563146 0.027737929 -0.1372951 -0.06441908 -0.04202218 -0.11272432
-0.11053652 0.14298332 0.29165512 -0.11222528 0.007872064 0.07628748 0.14556251 0.19230431
-0.004437152 0.020692067 0.068191506 -0.15651658 0.21774468 -0.11458855 -0.09308677 0.101858966
-0.08156404 -0.0028167902 0.17369196 -0.18051165 0.24578038 -0.423115 0.1469305 -0.12927403
0.2126131 0.10296484 -0.011562465 -0.010721147 -0.28114057 0.037053775 -0.011137449 -0.037296094
0.0819237 -0.08683104 -0.06847367 -0.25345567 0.20988636 -0.04810508 0.27247813 0.24408926
0.11572089 -0.16427746 -0.045309387 -0.32076973 -0.19241157 0.10389116 -0.24209301 0.036159
0.05011471 0.11306982 -0.22081815 0.19814904 -0.037931632 0.02186303 0.20029205 0.036745496
0.06667872 0.19209912 0.2417518 -0.019604016 -0.08405119 0.061016116 -0.070870675 -0.17481114
0.1319012 0.04519587 0.09071941 -0.03973646 -0.20419818 -0.17212111 -0.15224321 0.099549554
0.10966865 -0.36230922 -0.06428809 0.13643283 0.44596708 -0.38198513 0.24886931 0.25784278
-0.036987774 -0.18369439 0.12767626 -0.07962327 -0.13974144 -0.35851485 0.13023454 0.140484
0.23561676 -0.13202128 -0.08509691 -0.2706227 -0.35543865 0.3594356 0.23894198 0.10818677
-0.13670212 -0.002353465 -0.0013810617 0.04109563 0.14836651 0.3190053 0.18721068 -0.38062382
-0.085213944 0.020593727 0.10221411 -0.1482523 0.026721649 0.30611226 0.29803708 -0.063366026
-0.098629706 0.108017705 0.03222404 -0.23831265 0.007475126 0.15260643 -0.017784001 -0.10517863
0.0004494319 0.14234954 -0.15554431 -0.13179888 0.15373911 0.034559827 -0.11975577 -0.22941929
-0.06676913 0.014361076 0.3307686 0.10172993 0.15210074 0.20988433 0.11658815 -0.099891745
-0.18952139 0.20204715 0.42791092 0.070387885 -0.25617978 -0.08019025 -0.18437004 0.07468182

network_body._body_endoder.seq_layers.0.bias f4 [128]
00000000: d5f2 063d 0151 2ebc 3577 5abc 393b 023b
00000010: 7dd2 babc 44be 0f3d a5e0 2ebc 6f79 1eba
00000020: c37b a9bb 7bb5 14bd a0ee a43c 7202 453b
00000030: 5ff2 f13b dc1d 423a 0d64 fa3b 3e22 b83c
00000040: 5854 8839 9787 6dbc ed36 cd3b 3508 0e3d
00000050: cd6f ee3c e21c d63c 55cc 2e3a fe64 1f3d
00000060: 286d 0dbd 4b68 fd3c b0eb 15b9 f2a7 523c
00000070: 8a89 653c 9d27 4ebc 8969 0e3d 084c 8c3a
00000080: c6fa 8b3c fd41 e53c 6bd2 483c 0305 8abc
00000090: 9da2 3d3c d5bf b83c 31e3 6d3c d717 ff3c
000000a0: 485a a83c b615 ae3b 2295 813d 6922 3a3d
000000b0: a47b 9cbc 4bf5 063d 0aff bf3c 3f91 98bb
000000c0: d4bf fc3c e28a 0ebd 6629 dd3b a08d 4fbb
000000d0: cb4b 28bd 4710 c43c 73c2 003d cb9c 973c
000000e0: bf8b 13bd d1b3 ebbc 79e4 183d 69da 5db9
000000f0: 0159 eb3c df20 e73c de42 0ebd 957f 323d
00000100: 3a94 a6bb e4c1 90bc 6b9f 93bb 1ec4 003c
00000110: a5be 193a 5e21 92bb c004 923c ef26 213d
00000120: fdeb 2bbc 9c9f c93c 5b90 99bc 95e2 473c
00000130: 70c6 d0bc bc39 abbb c67f fe3c 6a5e e6bb
00000140: 2189 413d 5474 c4b9 97b8 f03c a360 843d
00000150: 8a0b 3c3d ed69 a5bb 2d3e 27bc 6f47 b9b8
00000160: 42ec 573c eff5 903c 9ec2 90bb 6725 803c
00000170: 028d 253c 607a cc3c 37e9 3f3c aa81 3b3c
00000180: d4f0 1f3d e48b f03c e04f 6b3c 34d8 0cbd
00000190: f08c 7cbc b315 063d 9c4c 013d a076 e2ba
000001a0: c97d e13b d5ed 8a3c a774 b83c 9979 19bc
000001b0: 83ef 4f3b 6135 ba3b 5e46 c03c 26bd 08bd
000001c0: 3734 013d 230d 2b3b 1da4 4a3d 6092 0cbc
000001d0: 35ac a0bc eac2 433b ed93 94bc 1242 a6bb
000001e0: 5892 433d 3a6d d13b 1b74 35bd 85d9 493c
000001f0: 9735 09bd aaf6 59bc 1abb 2bbb b040 ed3a
0.032946426 -0.01063943 -0.013334085 0.0019871725 -0.022805447 0.03509356 -0.010673677 -0.00060453167
-0.0051722242 -0.036305886 0.020133317 0.0030061272 0.007383629 0.0007404962 0.0076413215 0.022477265
0.00026002782 -0.014497659 0.006262651 0.034675796 0.029106045 0.02613682 0.0006668021 0.038914673
-0.034527928 0.03093352 -0.00014297548 0.012857424 0.014009843 -0.012582687 0.034768615 0.0010703811
0.017087352 0.027985567 0.012257199 -0.016848093 0.011574415 0.02255241 0.014519499 0.031139297
0.020550862 0.0053126467 0.06327273 0.045442972 -0.019101925 0.032948773 0.023437042 -0.0046559866
0.03085319 -0.034800418 0.00674932 -0.0031670108 -0.041087907 0.023933543 0.03143544 0.018507382
-0.036021944 -0.028772267 0.037327264 -0.00021157567 0.028728964 0.028213916 -0.03473174 0.043578703
-0.005083588 -0.01767058 -0.004505088 0.007859258 0.0005864895 -0.004459544 0.01782453 0.03934377
-0.010493276 0.02461224 -0.018745592 0.012200017 -0.025485247 -0.0052253883 0.031066786 -0.007030298
0.047249917 -0.00037470704 0.029384894 0.064637445 0.045909442 -0.0050480277 -0.010207695 -8.834793e-05
0.013178887 0.017695395 -0.0044177314 0.015642835 0.01010442 0.024960697 0.011713318 0.011444489
0.03904803 0.02936358 0.014362305 -0.034385875 -0.0154144615 0.032735538 0.0315672 -0.0017277785
0.00688145 0.01695911 0.022516562 -0.00936737 0.0031728453 0.005682633 0.023471054 -0.03338351
0.031543937 0.002610036 0.049472917 -0.00857982 -0.019613365 0.0029870817 -0.018136943 -0.005073794
0.047746986 0.0063911946 -0.04430018 0.012319927 -0.033498373 -0.013303438 -0.002620405 0.0018100943

network_body._body_endoder.seq_layers.2.weight f4 [128, 128]
00000000: 8a35 52bc c8a8 10be ef2e 3f3d 461c f7bc
00000010: 839a 7cbc 15e3 71bd c330 23bd 3226 00bd
00000020: 801e 463d 3ff8 1dbe 3a7e df3c e438 bb3b
00000030: aef3 5e3d 66e0 33bd 44db ff3c 91d9 813d
00000040: aca8 d53d e20e 9e3d 2d5d 89bd e4a8 713d
00000050: 64d6 cc3d 4bf8 86bd 7dbb 5b3d 9b8e febd
00000060: ae1c 783d df37 bbbd 3d35 97bb baf7 c9bc
00000070: ca64 10be cffb a5bd fbff a83d 6db9 99bc
00000080: aa0c 413e 6a7a 9c3d 58e2 f73d e76b 20be
00000090: ba69 9b3d 9f46 0e3d e52b 203d 3c38 3fbd
000000a0: 1091 883c b2e5 0f3e e550 88bd e994 43bd
000000b0: b942 f3bd f76f 6dbd 47c8 213d a2aa 84bd
000000c0: d498 493d 1a56 b2bd 5916 733d 41a9 76bd
000000d0: e766 043e f510 77bc 9794 d2bc a6a9 623e
000000e0: da9f 0b3e 433d 743d c8e5 13bd 455b 5abc
000000f0: 5d14 1c3e 7d1d 3ebe de91 bebc 6821 99bd
00000100: 4891 8e3a f374 ab3d 0edf 9e3d cb0e d4bc
00000110: 0fbf c13c 82fc 6fbd ea53 68bb 4c63 12bd
00000120: fa46 133e 9bfb 643d 34e8 ad3d 5398 0abe
00000130: 869e 12bd c943 003e 3e46 78bb 60fa d8bd
00000140: 73b7 213d 05fe 65bc 3de6 93bd 2a12 1bbd
00000150: 7bfa 0ebe 51c6 473d c0ba 8739 d7cc 91bd
00000160: 7c5c 85bc 15e4 f1bd 2536 f73d d75e da3d
00000170: 2933 ed3d 1d77 893c 0620 a13c 48a7 a3bd
00000180: c278 8cbd 7c58 fa3d 5af0 3e3d a358 593c
00000190: 25ad 153e 9880 f13c bdf3 babc 0f86 bebc
000001a0: 68be 2e3d 94a7 11bd 0aff 7b3b e4d7 e43d
000001b0: 09c6 4dbd b8d3 e5bd e66e 0bbd cd23 a1bd
000001c0: 15a5 f83c a7e0 ee3d 1a21 0dbd 4168 783d
000001d0: c4a9 8f3d d337 f7bc 8f4e ef3d c835 3bbd
000001e0: 6951 a7bd 91ed 803d 0f29 983d 6c15 ccba
000001f0: 5045 653d 8dec 8abd 96a8 b93d c82d be3d
00000200: 7e5f d83d 0c28 a73d b55c 8fbe 4589 fa3c
00000210: 0928 68be 0067 01be da18 4abd 651c c7bd
00000220: 10f0 d73d ca02 52bd ccd5 313b 48be fe3d
00000230: a90f cf3d be16 09be 246f ad3d da6d 923d
00000240: fbe1 0b3c ed54 133d d70f 003e 6632 243e
00000250: 5b30 a63c 0262 8f3d ab35 263d 10d8 7f3c
00000260: 8e03 88bd 165d 833c e62d 6a3d 01b9 7ebc
00000270: 0ed3 e9bc fa12 3f3d 98db bb3d ab7c b73d
00000280: 20b9 dbbc 5de9 5d3d fb1a dabd 08eb c53c
00000290: d529 cabc ecb8 fcbd 4584 273c 4b12 bc3d
000002a0: ba95 8c3c d304 82bd 3e6a aa3d 1cd9 06be
000002b0: 0f09 14be 29ef 893e b6e7 5239 8130 43be
000002c0: 0a89 f33d e75c 43be e51a 0e3d f960 b4bc
000002d0: 9399 883b 7222 9d3c 6c70 ebbb 4678 9a3d
000002e0: c6f9 ad3c 21d4 02be 6aca 6cbd d12e 60bc
000002f0: a0f9 96bd 8853 be3c eb0a 34be 4f74 af3d
00000300: a9cb 59be 8598 143e 04a9 4b3d cc3f 0fbd
00000310: 0ef6 11be a4a6 5f3d 184d ff3a ba9b 1dbe
00000320: 6998 113e 21b6 873b a177 dbbd 5b67 62bd
00000330: 9825 ebbd 9cc7 fcbb f094 0d3d 5d29 f43c
00000340: a310 083e f99d f83d 58d4 5bbc 045c 34bd
00000350: 45c8 b0bd d195 27be 648e b8bd aa6b 2ebe
00000360: 8b35 91bd 4e6e 553d a00a 153e e2dd 90bd
00000370: e3cc 59bc dbac 053d 0a9c cbbb f4f2 2c3e
00000380: 46ca 9ebd a326 5a3e b728 c7bd a047 ecbc
00000390: 90a5 26bd 37de 983d 2696 953d 19e7 79bd
000003a0: 3230 1bbe 5098 8fbd 464a 2f3c 1f4c 16bd
000003b0: 7fa0 913d fd4a 7fbd 93fa 8bbb 4259 92bd
000003c0: 332b 553e e736 013d 6844 d33c a283 143d
000003d0: 9b4a 07bd 46a9 3bbc e929 91bd 815f 113e
000003e0: c0f2 bb3d 8a33 0fbd 9686 d3bb ed10 b83c
000003f0: 3eaf 8ebd 7e2f a3bc 744a 1ebc 6c92 d43d
-0.0128301475 -0.14126885 0.04667562 -0.030164849 -0.015417698 -0.059054453 -0.039841425 -0.031286426
0.04836893 -0.1542673 0.02728187 0.005713569 0.05443161 -0.043915175 0.031232484 0.063403256
0.10432562 0.077176824 -0.06707225 0.058998957 0.10001829 -0.06590327 0.0536456 -0.124295436
0.060574226 -0.09141516 -0.004614501 -0.024654258 -0.14100948 -0.08104669 0.082519494 -0.018765176
0.18852487 0.07640536 0.121037185 -0.15666161 0.07588525 0.03473532 0.03910436 -0.04668449
0.016670734 0.14052466 -0.066560544 -0.047749434 -0.11877961 -0.057968106 0.03949764 -0.06477858
0.049218014 -0.08707829 0.059347484 -0.060220007 0.12929879 -0.015079726 -0.025705619 0.22135028
0.13635197 0.059628736 -0.03610781 -0.013327424 0.15242143 -0.18565936 -0.023262914 -0.07477075
0.0010877037 0.08371916 0.07757388 -0.02588596 0.023650674 -0.05859042 -0.0035450407 -0.035739228
0.14382544 0.055904012 0.08491555 -0.1353467 -0.03579571 0.12525858 -0.0037883664 -0.1059463
0.03948159 -0.014037614 -0.07221649 -0.03785912 -0.13962738 0.048773114 0.00025888346 -0.07119148
-0.016279452 -0.11811081 0.12070874 0.106626205 0.11582024 0.01678043 0.01966859 -0.07990891
-0.0685897 0.12223908 0.046615936 0.013265762 0.1461683 0.029480264 -0.022821302 -0.023257283
0.042662054 -0.035560206 0.0038451576 0.1117399 -0.05023769 -0.11222023 -0.034041308 -0.078681566
0.030352155 0.11663943 -0.034455396 0.0606463 0.07014802 -0.030177986 0.11684906 -0.045705587
-0.08169825 0.06295312 0.07429706 -0.0015570349 0.055974305 -0.067834 0.09065358 0.09286076
0.10565089 0.08161935 -0.28000417 0.030583033 -0.22671522 -0.12636948 -0.049340107 -0.09722213
0.10543835 -0.05127219 0.002713549 0.12438637 0.10110409 -0.13387582 0.08468464 0.07149859
0.008537765 0.035969663 0.12506042 0.1603485 0.02028673 0.070011154 0.040578526 0.015615478
-0.06641303 0.016035598 0.05717268 -0.015547038 -0.028543022 0.046648957 0.091727436 0.089593254
-0.026821673 0.05417763 -0.10649677 0.024159923 -0.02467815 -0.123399585 0.010224407 0.091831766
0.017161239 -0.063485764 0.08321045 -0.13168758 -0.1445658 0.26940277 0.0002011348 -0.19061472
0.118913725 -0.19078408 0.034693617 -0.022018896 0.004168698 0.019181464 -0.0071850326 0.075424716
0.021237265 -0.12776233 -0.057810225 -0.013683037 -0.07371831 0.02323319 -0.1758229 0.08567106
-0.21269096 0.14511307 0.049721733 -0.03497295 -0.14254019 0.05460228 0.0019477932 -0.15391436
0.14218296 0.0041415845 -0.10716177 -0.05527435 -0.1148178 -0.007714225 0.034565866 0.02980488
0.13287596 0.12139506 -0.013417326 -0.044033065 -0.086319484 -0.16365744 -0.09011534 -0.17033258
-0.07090291 0.052107148 0.14554834 -0.07073571 -0.013293478 0.03263555 -0.0062136697 0.16889554
-0.07753424 0.21303801 -0.097245626 -0.028842747 -0.040685236 0.07464259 0.07304029 -0.061011408
-0.15155104 -0.07011473 0.0106988605 -0.03669369 0.0711069 -0.062327374 -0.004271814 -0.07145931
0.2081726 0.0315465 0.025789455 0.036258347 -0.033030134 -0.011453932 -0.07088072 0.14196588
0.0917716 -0.03496126 -0.006455253 0.022469008 -0.069670185 -0.019920107 -0.009661306 0.1037949

network_body._body_endoder.seq_layers.2.bias f4 [128]
00000000: f2e5 3c3c a0fe 953c 00df 383c e44b 51bb
00000010: d228 14bc 727d cdba 0809 4b3c 3d41 203c
00000020: 3718 acbb fdbc 90bb 0bda 2dba 973a e03a
00000030: 55c9 043d 3c7e 8d3b a105 363c bedd 4c3c
00000040: 0778 e63b 20f5 9cbc a62d 023c 7fa3 f63c
00000050: a441 b63c 471f 4abb ee64 833c 1f7c d13b
00000060: 6ed7 c53c f565 0d3d 8c0a 943b 79f7 433b
00000070: 3004 c23a 50cf 11bc 7fe4 0dbc 917f 523d
00000080: b50a e3bb 9381 c03b 42f1 3a3d 10ba 463d
00000090: 184f cd3c 64f9 0c3c d967 5f3c ef21 24bc
000000a0: eb1f 973c 48e8 453c fa5e ac3b 7f0e e73c
000000b0: dcee 413c 91e3 6a3c 255f c13c 8d44 8d3c
000000c0: 8881 d9bb 1269 063d 7852 30bc da3f 833b
000000d0: 0488 023d 919b 9fbb c394 553c 320e 003c
000000e0: 0b6a dc3c 511e f23c 0f6f 103d b915 833c
000000f0: 3abc 353d 8cb7 123d 4273 473c 5c29 3e3c
00000100: 2db9 ac3c ab8e e03c 3bc3 303c 251a 853b
00000110: 4543 de3b 567d c43b d6a2 833b 1702 5b3b
00000120: dbfb 72ba c707 653c 26fb fd3a a060 283c
00000130: cb62 b53b de52 c03c 47ba 413c afc9 8dba
00000140: 8fac 85bb 805d 2a3b 8e85 0e3c 8d3a 453c
00000150: 5eb8 41bb 6629 893b 4c2b a03c 657e d43b
00000160: e4df 5a3c f9d6 363c 7017 b0bb 3333 0b3d
00000170: 5709 fa3c 623d b93b 1882 583c d601 413d
00000180: 84ec 9abb 8bdb 003c 5af8 31bd e0c7 69bc
00000190: 1133 1f3d 1519 dc3c 34d1 613c af3a 083d
000001a0: eff3 ec3c bc46 c23b 063e 613c b828 abbc
000001b0: acff 853c 391d cb3c fc4f eb3c fc47 773c
000001c0: 67e0 42ba 67a0 333a 0aec 5a3c 05cc 893c
000001d0: 301c cd3b 560d 843a 539f e63b f595 7b3c
000001e0: 2506 8b3c 7646 39bc fe52 853c 138f ef38
000001f0: 656e ae3c 2c12 f1bb 16e9 403d b4d6 413c
0.011529433 0.018309891 0.011283636 -0.0031936103 -0.009042935 -0.0015677644 0.01239229 0.009781179
-0.00525191 -0.0044170604 -0.0006631917 0.0017107305 0.032418568 0.004318027 0.0111097405 0.012504039
0.0070333513 -0.019159853 0.007945454 0.030107258 0.022248097 -0.0030841397 0.016039338 0.00639297
0.024150576 0.034521062 0.004517859 0.0029902144 0.0014802273 -0.008899525 -0.008660435 0.051391188
-0.0069287666 0.0058748215 0.045640238 0.048517287 0.025062129 0.008604381 0.013635599 -0.010017856
0.018447837 0.012079306 0.0052603455 0.028205154 0.011836734 0.014336483 0.023604939 0.017244602
-0.006637756 0.032815047 -0.01076185 0.0040054144 0.031867996 -0.00487084 0.013035956 0.007815884
0.026906034 0.029555472 0.035262164 0.01600157 0.04436896 0.035819575 0.012173476 0.0116065405
0.021084392 0.02741178 0.010788734 0.0040619546 0.0067829215 0.0059963865 0.0040172143 0.0033417994
-0.0009269097 0.013978905 0.0019377216 0.010276943 0.0055354587 0.023477014 0.011824197 -0.0010817553
-0.0040794085 0.0025995672 0.008698834 0.012037885 -0.0029559354 0.0041858433 0.019551896 0.006484794
0.013359044 0.011159652 -0.0053738877 0.033984374 0.030522032 0.0056530694 0.0132146105 0.04712089
-0.004727902 0.007864843 -0.043449737 -0.014268845 0.03886706 0.026867429 0.013782788 0.03325909
0.02892491 0.0059288424 0.013747698 -0.02089344 0.016357265 0.024794208 0.028724663 0.015092846
-0.0007433951 0.000685221 0.01336194 0.016820917 0.0062594637 0.0010074775 0.007038036 0.015355577
0.016970703 -0.011308303 0.016274925 0.00011423058 0.021292875 -0.0073569026 0.047097288 0.011830974

action_model._continuous_distribution.log_sigma f4 [1, 2]
00000000: 788b 93bc 88a9 5abc
-0.01801084 -0.013346083

action_model._continuous_distribution.mu.weight f4 [2, 128]
00000000: 6e7c e4bc e634 003d 9f56 113d 58ce edbc
00000010: 5591 933b 002b d43b 9ffa debc b36a 02bd
00000020: 836e 06bd e5e1 bb3b 597d 9cbc 85c9 953c
00000030: 638b 24bd 2b2a 3e3c 715f 9fbb 713e 7cba
00000040: dedf 873b fac3 cfbb 835a 0ebd c9af 6cbc
00000050: 2078 b43c ff93 37bd 9387 3dbd 59e6 86bc
00000060: a6c3 1b3d ed37 653d 1510 2ebd d6e7 9e3c
00000070: e9e3 35bc ff90 2dbc 9634 bf3b 66b9 6e3d
00000080: c1b9 d7bb aeb4 ad3c f70a 8c3c a872 803d
00000090: d11c 2dbd 2f3b ee3c d4b1 dabc 0841 a0ba
000000a0: 3928 003c 8d95 a13c a1bc 753b 5dcd 2e3d
000000b0: 19c8 db3b 96d7 44bd 421c 0f3d 148f 14bb
000000c0: 55fc 5fbc a7b0 413d 973a 0cbd a8dd 9eba
000000d0: 114e 083c d1d9 19bc 1a1a 3d3c 9bc7 74bd
000000e0: 61d0 10bd 3561 86bd 3189 f2bb f554 2a3d
000000f0: 41be 623d da6c 843d 6b90 06bc 0e1e e73c
00000100: a605 92bc 263a 46bc e2ec 6c3c 7576 f53c
00000110: 4161 f03c 5460 6bbc a51d 883c eaaa bb3c
00000120: 1c6e af3c 123e 1c3d fc81 42bc 64b4 60bd
00000130: 313c 8b3c bcbc 853c 2ea9 46bd 16e6 853a
00000140: 89af c5bc 76b7 efbb 9fd4 b7bc 6429 e6bc
00000150: 6d38 2f3c a301 58bd 6d40 003d cfc1 4ebc
00000160: 33f3 19bd 6722 833d 19b1 c6bc edc2 d03c
00000170: bafb 9a3b 58b1 f1bc 8dae 3b3d 136c 8f3d
00000180: 80a2 abbc 4885 f9bc bd54 55bc 4891 96bc
00000190: f91f b93d 2339 063d b076 98bc 1624 fdbb
000001a0: 2e21 0dbd ea3e 40bc eac2 333d 3391 05bc
000001b0: bfee 143c 637f 003d b367 bfbc 509f 6e3d
000001c0: 462e 363d 229a ff3a a55d f4bc fa70 aabc
000001d0: c1dc babc a9f2 c9bc 241e 6ebd 420e 903b
000001e0: afd0 4abd dee5 b53b 5c6a 31bc 569c 243b
000001f0: e59f 3ebd c7b7 ce3b 81d2 43bd 8dd9 4bbc
00000200: 321f c13c b178 ee3c b674 72bc 8f23 a2bc
00000210: 0681 04bd 84e3 a13b aef7 463d c8bd 65bd
00000220: 5a52 923b 6fa1 0ebd dc7a 7fbc 999e f7bb
00000230: 1d49 54bd 5c6d 1b3b 43ac bd3c c95c 923c
00000240: 99e2 1a3d 3db6 c3bc 0304 133c 2990 55bd
00000250: 2ed6 85bd df7f c7bc b1ab 273d 8bbd 4cbd
00000260: 0286 9ebc 27a5 1ebd 554b 6739 774e 15bd
00000270: b7aa 47bc bd2e 51bc fc47 5dbb c3c6 953a
00000280: 0607 75bb 921b 3d3b 28b0 793d f637 10bc
00000290: 152b fd3c 9458 e5bc fc86 673d cb45 f7bc
000002a0: d871 f33c 936c 7ebd 8de5 493c 25c9 3a3d
000002b0: 4836 423d 3a2c 0c3c a876 0cba 0a99 083d
000002c0: 1e9e 69bb fa3d d63c c81b b3bc 1eb7 103d
000002d0: 95be 013d 3e60 683b adbf 81bd ae48 f23c
000002e0: 24c2 443d 5c16 e63c 4abc 223d bd56 21bc
000002f0: 0a84 133d c629 e6bc f113 333d ae33 89bc
00000300: 1c54 3e3d 8401 cebc 045a b33c af55 cbbc
00000310: 24b4 393c 8815 e5bc 912f c8bb af8f 863b
00000320: b9ce fdba c3a1 87bd e897 14bd a8aa 1dbd
00000330: 0aa4 06bb d61c 823d af65 eebb be57 e83a
00000340: 1270 53ba 47d7 003c 9629 173c 2810 6abd
00000350: 248c 5ebd 9649 9bbb 3ea6 443c a70d 083d
00000360: 31f7 1abd ed6c b3bb 2fa6 de3b 8b6f 7fbd
00000370: 2b03 3dbd aef4 4abb ca9b 14ba 3912 423d
00000380: 0506 06bd fccf efbc 60af b23b 059b 6dbc
00000390: c7b7 1dbc 6e54 6a3c c8d0 cebd 2d60 323d
000003a0: 825a 813d 1f1b b1bc 8428 593c 5592 05bb
000003b0: 4da5 5cbd 1b8f 303d f101 253d 22ce 93bc
000003c0: 0d82 41bc 92fc 0bbb c52d 3cbc b59c e53c
000003d0: 2541 80bc 6758 973b 0c62 8ebb 20f3 33bd
000003e0: a9c5 a4bc b52b f3bc 5542 1c3d a4d6 4c3c
000003f0: 1e25 1bbd a907 69bc d3e1 58bd 8ad2 363d
-0.027891364 0.031300448 0.035483 -0.029029056 0.004503409 0.0064748526 -0.027219115 -0.031840038
-0.032820236 0.005733716 -0.01910274 0.018284569 -0.040171992 0.011606733 -0.0048636724 -0.00096223416
0.00414656 -0.006340501 -0.034754287 -0.014446207 0.022029936 -0.044818874 -0.04627187 -0.01646726
0.03802838 0.055961538 -0.042495806 0.019397657 -0.011101701 -0.010593652 0.005835126 0.05828228
-0.006583423 0.021204319 0.017095072 0.06271869 -0.04226381 0.029080955 -0.026696123 -0.0012226412
0.00782209 0.019724632 0.0037496465 0.04267632 0.006707203 -0.04805716 0.034939058 -0.002266829
-0.0136710005 0.04728761 -0.034235563 -0.0012120502 0.008319394 -0.00939031 0.011541868 -0.05976067
-0.035354976 -0.065615095 -0.0074016084 0.041584928 0.05535722 0.06466074 -0.008213143 0.028212573
-0.017824959 -0.012098825 0.014460774 0.029963711 0.02934325 -0.014366228 0.016615698 0.022908647
0.021414809 0.038145132 -0.011871811 -0.054859534 0.016996475 0.016325347 -0.048501186 0.0010215666
-0.024131553 -0.0073155714 -0.022440253 -0.028095908 0.010694605 -0.052735936 0.03131144 -0.01261945
-0.03758545 0.06403046 -0.024254369 0.025483573 0.004729715 -0.02950351 0.04582076 0.070030354
-0.02095151 -0.030459061 -0.013020691 -0.018379822 0.090393014 0.032769334 -0.018611282 -0.007725249
-0.03445547 -0.01173375 0.043887056 -0.008152294 0.009090125 0.031371485 -0.023364877 0.0582574
0.044477724 0.0019500891 -0.02982981 -0.020805825 -0.022810342 -0.024651842 -0.058134213 0.004396231
-0.049515422 0.005551084 -0.010828581 0.0025117598 -0.046539206 0.006308529 -0.047808174 -0.012442005
0.023574445 0.029110285 -0.014798334 -0.019792346 -0.03234961 0.004940452 0.04857605 -0.056089193
0.0044653835 -0.034821924 -0.015593257 -0.007556748 -0.05182754 0.0023716306 0.02315343 0.017866509
0.037813757 -0.023890609 0.008973124 -0.052139435 -0.06534992 -0.024352966 0.040935222 -0.04998545
-0.01935101 -0.03873172 0.0002205794 -0.036451783 -0.012186698 -0.012767491 -0.003376483 0.0011427033
-0.003738822 0.0028855545 0.06095901 -0.008802405 0.030904332 -0.027996339 0.056525216 -0.030184647
0.02971737 -0.062115263 0.012322796 0.045601983 0.047415048 0.008555466 -0.00053582573 0.033349074
-0.0035647224 0.0261526 -0.021863833 0.035330884 0.031675894 0.0035457755 -0.063353874 0.029575672
0.04803671 0.028086834 0.039730348 -0.00984734 0.036014594 -0.028096091 0.04372019 -0.016748276
0.04646693 -0.025147207 0.021893509 -0.02482113 0.011334453 -0.027964368 -0.006109186 0.004106484
-0.0019363976 -0.066226505 -0.03627768 -0.03849283 -0.0020544552 0.06353156 -0.007275305 0.0017726345
-0.0008065711 0.007863826 0.009226223 -0.057144314 -0.054332867 -0.0047389967 0.012002526 0.033216145
-0.037833396 -0.0054756314 0.006794713 -0.062362235 -0.0461456 -0.0030968594 -0.00056689663 0.04738066
-0.032720584 -0.02927398 0.0054530352 -0.014502292 -0.009626335 0.014302356 -0.100984156 0.04354875
0.06316091 -0.021619378 0.013254289 -0.002038141 -0.05386858 0.043105226 0.040285055 -0.018042628
-0.011810792 -0.002136026 -0.011485522 0.028028825 -0.015656063 0.0046186927 -0.004345184 -0.043933034
-0.020113783 -0.029683927 0.038149197 0.012502346 -0.037877195 -0.014223018 -0.052949738 0.04463438

action_model._continuous_distribution.mu.bias f4 [2]
00000000: 28df ac3b bfba cd3b
0.0052756257 0.0062783654

exp_avg f4 [128, 22]
00000000: 09ec b238 6bae 36b8 0000 0000 fbea 8738
00000010: 7a73 dc37 0000 0000 8ee4 1439 adb9 91b8
00000020: ad0f 2f39 0000 0000 e7ce dcb4 ff00 f636
00000030: 1788 88b6 9f86 5cb7 be2e bf37 16d5 6db6
00000040: d1ba bbb7 1799 a034 6720 2a35 77df 4ab7
00000050: 847c 5c37 d7b5 a535 f49c e538 5ffd 21b7
00000060: 0000 0000 6ebc 3bb8 7caf ff38 0000 0000
00000070: 0d67 81b9 a476 cfb7 9427 c637 0000 0000
00000080: 9407 0db8 2d92 7036 cd34 4536 edad 1238
00000090: 7322 b436 6bba 7136 7da2 03b7 025a 0db8
000000a0: a0b9 6836 2345 9ab6 db61 0e38 d418 2936
000000b0: a55d d239 fd5d 8739 0000 0000 3c9d a536
000000c0: 9226 8f39 0000 0000 1afb d139 1fe1 04b9
000000d0: 71e0 23b8 0000 0000 a1cb 9b36 cf8c b8b8
000000e0: 22cd 97b7 a4a4 76b8 b65e a9b7 e1c6 4bb4
000000f0: 74f8 0eb9 6d35 5cb7 80b3 aab6 8b8b 7eb8
00000100: 915d 40b8 157c 9fb5 3dd3 84b9 8475 aab8
00000110: 0000 0000 407e c5b8 950d 4cb9 0000 0000
00000120: eda8 cb39 f2a4 49b8 5a93 4fb8 0000 0000
00000130: 34b6 6f38 1247 c8b6 3b1d f6b6 47f7 61b8
00000140: a32d a237 4a81 ebb6 c960 3a37 b4e0 4038
00000150: 9b59 90b6 731c 0c38 e00d 70b8 5adb cdb6
00000160: 6fc9 ce39 ec06 2339 0000 0000 bdd8 6839
00000170: 0104 c739 0000 0000 71c5 3fb8 fa57 3138
00000180: 9451 1638 0000 0000 307f b6b8 93a6 ccb7
00000190: 1054 8f36 d97f b238 b8a0 70b7 3a79 4537
000001a0: 4416 20b8 ca0e aab8 8a3a 4b36 9f36 02b8
000001b0: 85e0 9b38 c14c d736 d104 0439 308c 2cb9
000001c0: 0000 0000 4837 1238 5e88 8137 0000 0000
000001d0: a93f 3c3a cc6f eeb8 a918 14b9 0000 0000
000001e0: 0fb0 d3b7 2dcc 01b8 be44 a7b7 a43a 3eb6
000001f0: 2c13 6938 2f7f 3eb5 e1a3 62b8 86f9 18b8
00000200: 35ac d835 2ff6 6b37 a661 9336 64b6 bdb6
00000210: 3078 ec38 6a42 8439 0000 0000 d865 6638
00000220: 0307 1c38 0000 0000 dd0c 37b9 53ab ee37
00000230: a254 44b8 0000 0000 d03c abb7 3711 0ab8
00000240: 3a2d 5b36 a1ad de37 9443 50b8 8d27 9236
00000250: 5df8 c9b6 cc0f f0b7 92df 7db5 7666 67b7
00000260: a3da 1937 a5c9 9536 5a53 6ab9 cb6c e4b8
00000270: 0000 0000 fbfe c4b8 a4d7 38b9 0000 0000
00000280: f5bf 7439 fd40 0db8 8aad 1437 0000 0000
00000290: 0b3a 7c38 0368 ac37 b77c bab6 e15b 88b8
000002a0: 8e26 8737 3d6d 0db7 b3d0 9937 2b55 8538
000002b0: d751 94b6 1c8d 1337 3a8f 4bb8 70a7 8cb6
000002c0: f6e4 2739 a9d3 feb6 0000 0000 cfd6 4339
000002d0: e5aa 4639 0000 0000 53be c2b6 8846 81b7
000002e0: 4552 0f39 0000 0000 b22e e735 f330 8437
000002f0: 33ae 3eb6 dbc7 65b7 373d 3ab6 8e26 c834
00000300: 3573 c2b7 29dc 0b37 3078 81b4 2207 27b8
00000310: 0548 8936 941a 6735 bd94 14b7 5095 04b8
00000320: 0000 0000 691e 8bb7 4af5 3db8 0000 0000
00000330: ceb0 9c38 4e7e cf36 b8ca 4ab6 0000 0000
00000340: b100 0a37 6de2 f735 5d76 69b5 26a2 0ab7
00000350: 33c4 ce36 9585 65b5 ffcd 01b6 cbde 0b37
00000360: 326f 1434 3b3c e834 c929 b8b6 cdcf 35b5
00000370: bc03 293a 48e2 e4b9 0000 0000 2dd8 0a3a
00000380: a754 8339 0000 0000 412b ebb9 8865 6e39
00000390: 8648 8e39 0000 0000 75f0 20b9 b1bd cd38
000003a0: 90e7 6137 91c9 3b39 0de5 a138 a61e ab37
000003b0: e744 0e38 d44a c1b8 7a48 aa37 50d5 51b8
000003c0: 03a9 5939 f5f6 5437 c1ac f138 1e93 9b38
000003d0: 0000 0000 87bc 8fb8 7e16 2639 0000 0000
000003e0: 9779 7038 5388 67b8 5786 2bb7 0000 0000
000003f0: fc86 8cb7 bd4c d0b7 b92e 9ab6 6fce f936
8.5316664e-05 -4.355462e-05 0.0 6.48107e-05 2.6279817e-05 0.0 0.00014199523 -6.9487236e-05
0.0001669514 0.0 -4.1128735e-07 7.3314873e-06 -4.068959e-06 -1.3144366e-05 2.279074e-05 -3.5439784e-06
-2.237913e-05 2.991371e-07 6.3377087e-07 -1.2092168e-05 1.3142013e-05 1.234638e-06 0.00010948806 -9.65534e-06
0.0 -4.4759763e-05 0.00012192034 0.0 -0.00024681576 -2.473157e-05 2.362187e-05 0.0
-3.3624077e-05 3.5847872e-06 2.9386022e-06 3.4971094e-05 5.3684284e-06 3.6020308e-06 -7.846041e-06 -3.3700846e-05
3.4678742e-06 -4.597606e-06 3.3946573e-05 2.5197414e-06 0.00040124092 0.00025819233 0.0 4.9356877e-06
0.00027303823 0.0 0.00040050672 -0.00012672365 -3.9071256e-05 0.0 4.6430655e-06 -8.800031e-05
-1.8096125e-05 -5.8804304e-05 -2.0190473e-05 -1.89782e-07 -0.00013634731 -1.3125461e-05 -5.0872914e-06 -6.068828e-05
-4.5863508e-05 -1.1882536e-06 -0.00025334387 -8.128121e-05 0.0 -9.417208e-05 -0.00019460016 0.0
0.00038845037 -4.807575e-05 -4.9489878e-05 0.0 5.715173e-05 -5.968738e-06 -7.334774e-06 -5.3874475e-05
1.9333156e-05 -7.018597e-06 1.11089985e-05 4.598564e-05 -4.301966e-06 3.3405096e-05 -5.723338e-05 -6.135012e-06
0.00039441462 0.0001554747 0.0 0.00022205985 0.0003795922 0.0 -4.572183e-05 4.2282023e-05
3.5838762e-05 0.0 -8.702127e-05 -2.4396262e-05 4.2715183e-06 8.511515e-05 -1.4342535e-05 1.177034e-05
-3.816771e-05 -8.1089864e-05 3.0283431e-06 -3.1045285e-05 7.432796e-05 6.4164346e-06 0.00012590295 -0.00016455422
0.0 3.4860597e-05 1.54415e-05 0.0 0.0007181117 -0.00011369548 -0.00014123567 0.0
-2.5235144e-05 -3.094615e-05 -1.9939962e-05 -2.834634e-06 5.5569384e-05 -7.096559e-07 -5.4035223e-05 -3.647201e-05
1.6143373e-06 1.4064411e-05 4.392309e-06 -5.653872e-06 0.000112757436 0.00025226484 0.0 5.4931123e-05
3.719983e-05 0.0 -0.00017457032 2.845159e-05 -4.6808862e-05 0.0 -2.0413107e-05 -3.2917796e-05
3.2659868e-06 2.6545315e-05 -4.9654e-05 4.3557434e-06 -6.01918e-06 -2.8617585e-05 -9.457518e-07 -1.3792529e-05
9.170416e-06 4.4640205e-06 -0.0002234703 -0.000108921515 0.0 -9.393502e-05 -0.0001762794 0.0
0.00023341163 -3.3677545e-05 8.861893e-06 0.0 6.013554e-05 2.0552432e-05 -5.5577507e-06 -6.502099e-05
1.6111208e-05 -8.429689e-06 1.8336204e-05 6.357798e-05 -4.420271e-06 8.794737e-06 -4.853236e-05 -4.1918174e-06
0.00016011656 -7.5944304e-06 0.0 0.00018676672 0.00018946415 0.0 -5.803807e-06 -1.5410842e-05
0.0001366819 0.0 1.7224431e-06 1.575842e-05 -2.8413604e-06 -1.3695996e-05 -2.7751792e-06 3.7280955e-07
-2.318025e-05 8.336306e-06 -2.411557e-07 -3.9822546e-05 4.0913023e-06 8.609288e-07 -8.856118e-06 -3.161031e-05
0.0 -1.6584252e-05 -4.5289555e-05 0.0 7.471592e-05 6.1837845e-06 -3.0218343e-06 0.0
8.225602e-06 1.8468833e-06 -8.6971505e-07 -8.263194e-06 6.162119e-06 -8.5503535e-07 -1.9342403e-06 8.336919e-06
1.3824027e-07 4.325719e-07 -5.4884918e-06 -6.7730144e-07 0.0006447395 -0.00043656141 0.0 0.0005296495
0.00025049338 0.0 -0.0004485492 0.00022735272 0.00027138385 0.0 -0.00015348366 9.8104945e-05
1.346496e-05 0.00017908799 7.719742e-05 2.039906e-05 3.391961e-05 -9.216895e-05 2.0299329e-05 -5.0028146e-05
0.00020757694 1.2693684e-05 0.000115239534 7.418379e-05 0.0 -6.853887e-05 0.00015839373 0.0
5.73337e-05 -5.5201654e-05 -1.0223673e-05 0.0 -1.6752158e-05 -2.4831266e-05 -4.594997e-06 7.4448103e-06

exp_avg_sq f4 [128, 22]
00000000: 663c 9d35 684e 1035 0000 0000 0d5d c235
00000010: f998 0b36 0000 0000 0a83 dc35 32f4 0234
00000020: 939d 2b34 0000 0000 8e98 2634 ee9e 9832
00000030: 5a64 8730 48e0 2434 b495 9d32 cf18 9230
00000040: 4d14 bb32 8556 2134 dd75 a230 7778 3d32
00000050: e574 2934 e9de 8730 124b a633 adff 3d33
00000060: 0000 0000 e56c d332 8639 bb33 0000 0000
00000070: 9c81 1534 9897 9b31 c56d 4d31 0000 0000
00000080: 7fee 1932 0f64 4930 4046 662e b605 0932
00000090: a1f5 b630 9ea1 842e 6779 0830 332a 1d32
000000a0: 02f0 242e 332f b030 7d1c 0732 5bc4 c62e
000000b0: 3968 9733 57c4 0c34 0000 0000 7d0d d733
000000c0: aa09 3734 0000 0000 1ae9 d833 4563 3132
000000d0: d500 d831 0000 0000 a0bf 2532 2323 0e32
000000e0: 188a 7d2f 79e2 7c32 3f53 5f31 c4b5 5e2e
000000f0: 6eac 0e32 51cd 1b32 45f5 752f b5b4 fc30
00000100: f52e 8b32 b849 252e 0d0e 7934 aa0f 8e33
00000110: 0000 0000 97cc 9934 01e5 ea33 0000 0000
00000120: 4ef9 bd34 5e41 df32 7a69 0c32 0000 0000
00000130: 070d fc32 dcf0 3431 072d 8f2f 8e68 f932
00000140: ead4 3831 07e5 5f2f 9440 6131 b421 f732
00000150: 84d8 8c2f 300b 1631 af23 0333 e93f 4d2f
00000160: c7f2 8134 e3ef 8a33 0000 0000 1e34 2c35
00000170: 371e 1734 0000 0000 3a42 9734 6884 eb32
00000180: 8590 0432 0000 0000 543b de32 c17f f830
00000190: a408 192f cf83 cf32 f4ca 2631 314e 572f
000001a0: 20fe 1831 3c06 d832 7a6b 342f 5016 1631
000001b0: f2d3 d832 78a6 492f 9ae5 da34 1dc7 9f34
000001c0: 0000 0000 ba1b 1b35 e016 2f35 0000 0000
000001d0: 8976 4235 9428 3b33 af5e 6033 0000 0000
000001e0: d347 8f33 1bd9 9a32 f47f 7930 a469 a533
000001f0: ac81 1b32 8b59 dc2f 462a 8832 8d29 8f33
00000200: 738f 5630 8676 e931 afe0 aa33 ed5e c22f
00000210: 2e48 3b34 5ab0 3234 0000 0000 0898 6734
00000220: 7f91 7234 0000 0000 b64d ed34 cf5d 9932
00000230: 02c6 9832 0000 0000 7b20 db32 695b 8631
00000240: fa00 0630 3ae2 dd32 ad58 9131 7a16 1c2f
00000250: 571d 4d31 8eab e632 dd66 c92e 706a b831
00000260: 1465 c032 5d95 af2f 2d28 9634 400b 4934
00000270: 0000 0000 35c9 8434 2935 9334 0000 0000
00000280: 997e f334 840b ab32 0f3d 7532 0000 0000
00000290: 93ec f932 b971 6131 d86b 322f 585c e032
000002a0: c014 b131 756a 6c2f f922 d430 eec7 0233
000002b0: a68c ee2e 88c5 b231 1713 d832 74a2 c92f
000002c0: c1c2 2334 bf7f e033 0000 0000 e58e 5f34
000002d0: 4af7 ad34 0000 0000 eea1 5034 4a7a 2d32
000002e0: f1a4 f532 0000 0000 3245 dd32 c317 5b31
000002f0: 3226 572f 4ec8 e232 2158 1f31 e6de 292f
00000300: 6afc 0c31 6361 e432 7881 042f f4d0 3a31
00000310: f6ca d632 b8a6 792f 9190 7a31 e91c 1931
00000320: 0000 0000 bf37 8131 e51e 6631 0000 0000
00000330: 38e5 c431 0914 572f a920 3b2f 0000 0000
00000340: 1c42 d72f af37 b42e 9e3b 982c 8f56 d22f
00000350: e125 c72e 699d 392c b00d cc2e ab87 c62f
00000360: 80d3 bb2c 0fe7 322e b285 f02f cfed 112c
00000370: 5bfb c035 a878 3635 0000 0000 6915 6f36
00000380: d799 8135 0000 0000 4ffe f135 9305 1d34
00000390: f814 8633 0000 0000 3e8b 4834 0edf 1233
000003a0: c020 ae30 5fc3 4c34 7cf7 fa32 03d4 a830
000003b0: d28a 0633 53c9 3934 e652 2831 5251 0132
000003c0: 2ef4 6b34 34ce 4830 fc06 5c32 ec84 9c32
000003d0: 0000 0000 4525 6432 d5ca 3333 0000 0000
000003e0: bad9 1733 3efb 2731 03c1 1b31 0000 0000
000003f0: df15 2731 4e82 f030 532a e72e 4e01 8531
1.171499e-06 5.3758276e-07 0.0 1.4481208e-06 2.0801656e-06 0.0 1.6429415e-06 1.2196031e-07
1.5982941e-07 0.0 1.5515454e-07 1.7767402e-08 9.851064e-10 1.5355283e-07 1.8345283e-08 1.0629949e-09
2.1778897e-08 1.5025769e-07 1.182055e-09 1.10286384e-08 1.5781877e-07 9.885898e-10 7.7436326e-08 4.4237527e-08
0.0 2.4613152e-08 8.7183295e-08 0.0 1.3923858e-07 4.528328e-09 2.9893823e-09 0.0
8.96e-09 7.3265566e-10 5.235834e-11 7.975748e-09 1.3312055e-09 6.031374e-11 4.9649035e-10 9.148198e-09
3.7502453e-11 1.28191e-09 7.864512e-09 9.038877e-11 7.0504434e-08 1.3109944e-07 0.0 1.0014171e-07
1.7046719e-07 0.0 1.0100685e-07 1.0325327e-08 6.286522e-09 0.0 9.6478345e-09 8.273477e-09
2.3059277e-10 1.47198245e-08 3.249809e-09 5.0638396e-11 8.304694e-09 9.068871e-09 2.2369757e-10 1.8386773e-09
1.6203083e-08 3.7582132e-11 2.3195044e-07 6.6152396e-08 0.0 2.864733e-07 1.093813e-07 0.0
3.5385386e-07 2.5990342e-08 8.173055e-09 0.0 2.9342585e-08 2.633036e-09 2.6043542e-10 2.9034961e-08
2.6896552e-09 2.0363099e-10 3.2778518e-09 2.8769911e-08 2.5619695e-10 2.1834232e-09 3.053327e-08 1.8667347e-10
2.4204766e-07 6.469761e-08 0.0 6.4150834e-07 1.4073963e-07 0.0 2.8174128e-07 2.7417812e-08
7.716271e-09 0.0 2.587118e-08 1.8080685e-09 1.3918339e-10 2.4157911e-08 2.4271545e-09 1.9581915e-10
2.2263364e-09 2.5148545e-08 1.6409088e-10 2.1840556e-09 2.5242091e-08 1.8339985e-10 4.077272e-07 2.9760932e-07
0.0 5.7782347e-07 6.522587e-07 0.0 7.2443123e-07 4.3576236e-08 5.224018e-08 0.0
6.672021e-08 1.8026688e-08 9.0767505e-10 7.702627e-08 9.051671e-09 4.008139e-10 1.5851708e-08 6.6665145e-08
7.80566e-10 6.794667e-09 7.9571116e-08 3.5355843e-10 1.7441991e-07 1.6641698e-07 0.0 2.156886e-07
2.2590937e-07 0.0 4.4201232e-07 1.7854203e-08 1.7785172e-08 0.0 2.5509726e-08 3.9103054e-09
4.8750304e-10 2.5830662e-08 4.2301367e-09 1.4196103e-10 2.9848104e-09 2.6853538e-08 9.158694e-11 5.3672053e-09
2.2397707e-08 3.1938444e-10 2.796891e-07 1.8723676e-07 0.0 2.4733313e-07 2.7419563e-07 0.0
4.535439e-07 1.9912257e-08 1.427476e-08 0.0 2.9094997e-08 3.2806453e-09 1.622732e-10 2.6119025e-08
5.153737e-09 2.1501896e-10 1.543497e-09 3.044982e-08 1.0847971e-10 5.2029385e-09 2.515439e-08 3.6677117e-10
1.5251409e-07 1.045405e-07 0.0 2.0820478e-07 3.2403688e-07 0.0 1.9430419e-07 1.0097731e-08
2.859676e-08 0.0 2.5759253e-08 3.1882201e-09 1.9567706e-10 2.640095e-08 2.318764e-09 1.544965e-10
2.0516162e-09 2.658698e-08 1.2051327e-10 2.7185338e-09 2.5005175e-08 2.2705648e-10 3.6461965e-09 2.2280864e-09
0.0 3.7607317e-09 3.3486967e-09 0.0 5.73041e-09 1.9561254e-10 1.7019154e-10 0.0
3.9155246e-10 8.195344e-11 4.3267187e-12 3.826028e-10 9.056201e-11 2.6377461e-12 9.279277e-11 3.6112388e-10
5.338341e-12 4.0677735e-11 4.3750742e-10 2.073775e-12 1.4378269e-06 6.797586e-07 0.0 3.5626238e-06
9.656022e-07 0.0 1.8029913e-06 1.4623792e-07 6.2436754e-08 0.0 1.8677108e-07 3.419614e-08
1.2669474e-09 1.9070056e-07 2.9216373e-08 1.2283866e-09 3.1325563e-08 1.7302709e-07 2.449434e-09 7.527278e-09
2.1974913e-07 7.305261e-10 1.28072735e-08 1.8221236e-08 0.0 1.3279821e-08 4.186116e-08 0.0
3.535545e-08 2.4444513e-09 2.2665183e-09 0.0 2.431413e-09 1.7499333e-09 1.0512182e-10 3.8709578e-09

exp_avg f4 [128]
00000000: ffe6 3a37 0b8f 30b8 04e4 7f38 6110 9738
00000010: 1dc5 c3b8 5b56 ce37 4a5c 16b8 c631 9c38
00000020: 6c48 2537 e799 0837 ce2d 69b9 de4b ecb6
00000030: 1cb6 78b9 3ead 26b8 a898 b5b9 64d9 1ab7
00000040: e127 dab9 fddb a738 7ea8 45b8 f2c0 a137
00000050: fc8c adb8 04a8 8d39 1d0a b1b8 8c9a f3b9
00000060: 6d7a 4cb6 25ab 1739 5367 9736 7ebd 1539
00000070: 082d 3db9 a06a 04b8 6c94 adb9 336a 3639
00000080: 86c5 0f39 a18a 9cb9 2018 a5b8 b687 0238
00000090: e60c 08b9 0252 d7b6 34d5 c537 bd89 b5b6
000000a0: 108a 89b8 daee 83b9 01e4 4eb9 a1d1 7cb9
000000b0: c285 8937 ecac 2739 85f4 91b7 6c2b 27b8
000000c0: 3b12 a039 75ca d8b8 6ed0 69b8 bc2a df37
000000d0: 8bf0 8237 ca75 ddb8 9270 d4b7 104e fab7
000000e0: 5f1a cc38 bbb4 32b8 7e01 5138 8b26 9ab9
000000f0: a469 1aba 8a40 9237 7c78 88b7 012b b3b6
00000100: 83aa 1ab9 a524 ce39 4319 12b8 1005 13b9
00000110: 35f9 0cb9 f9b0 c8b7 9f27 ba38 947a 80b7
00000120: a7db 1238 8f60 2838 c402 81b6 b67e bcb8
00000130: 7417 8ab7 628d 2939 6284 fe37 bc22 8338
00000140: f989 f236 bdee 48b8 0dd7 3eb8 d326 d5b8
00000150: edaa a9b9 c74a d835 3702 59b9 783b d5b8
00000160: 292c 30b9 2f9c 4e39 a870 dab7 74b3 d4b8
00000170: d0b1 9eb8 c104 7cb8 aaea 7238 35f4 65b9
00000180: dbba 0238 59af 4f37 cb8a 04b8 30e1 23b7
00000190: 5a43 70b7 3062 0038 5705 49b7 93fd b1b9
000001a0: 9245 6cb8 8778 46b9 2328 bb35 cbca 94b7
000001b0: 8059 7bb8 6b1c c538 66ab 2838 28e0 2d37
000001c0: cbeb 17b8 490f 0f38 413d 2ab9 bd7a dbb7
000001d0: 797d ac36 eda7 84b9 c343 0838 3bc7 f637
000001e0: cc71 1db9 f061 f7b8 9aed 1638 9a52 86b7
000001f0: 7c07 0c38 ad5e aab6 9e25 d7b8 d3b1 cb38
1.1140247e-05 -4.209489e-05 6.1009094e-05 7.203292e-05 -9.33504e-05 2.4597326e-05 -3.5848738e-05 7.447931e-05
9.851628e-06 8.142065e-06 -0.00022237675 -7.04218e-06 -0.00023718964 -3.973883e-05 -0.00034636748 -9.2297305e-06
-0.00041609912 8.0041566e-05 -4.712538e-05 1.9282543e-05 -8.275543e-05 0.00027018797 -8.4419014e-05 -0.00046463718
-3.046963e-06 0.00014464238 4.512179e-06 0.00014280339 -0.0001804122 -3.1570555e-05 -0.00033107714 0.00017396435
0.00013711126 -0.00029857925 -7.872307e-05 3.1120806e-05 -0.00012974776 -6.4170463e-06 2.358351e-05 -5.410255e-06
-6.558385e-05 -0.00025164225 -0.00019730629 -0.00024110686 1.6393959e-05 0.0001599078 -1.739921e-05 -3.9856342e-05
0.0003053116 -0.00010337393 -5.5745644e-05 2.6603571e-05 1.560922e-05 -0.00010560041 -2.5324789e-05 -2.9838673e-05
9.73239e-05 -4.2606825e-05 4.9830873e-05 -0.00029401886 -0.00058903755 1.743461e-05 -1.6268568e-05 -5.339622e-06
-0.00014750105 0.00039318684 -3.483264e-05 -0.00014020898 -0.00013444277 -2.3924267e-05 8.876551e-05 -1.5315869e-05
3.501368e-05 4.014425e-05 -3.8448215e-06 -8.98814e-05 -1.6461803e-05 0.00016169765 3.0340805e-05 6.2530366e-05
7.228224e-06 -4.7906058e-05 -4.549981e-05 -0.00010163863 -0.00032361542 1.6115017e-06 -0.00020695558 -0.000101677084
-0.00016801119 0.00019703874 -2.6040085e-05 -0.000101423735 -7.567147e-05 -6.008591e-05 5.7915844e-05 -0.00021930116
3.1168438e-05 1.2378988e-05 -3.1600513e-05 -9.767988e-06 -1.4320796e-05 3.0609022e-05 -1.1981777e-05 -0.00033948998
-5.6331577e-05 -0.00018927651 1.3944267e-06 -1.7737408e-05 -5.9926417e-05 9.398985e-05 4.021395e-05 1.0363794e-05
-3.6220805e-05 3.4108092e-05 -0.00016235282 -2.6163989e-05 5.1406064e-06 -0.00025302116 3.2488035e-05 2.941826e-05
-0.0001501508 -0.0001179612 3.598407e-05 -1.601251e-05 3.338557e-05 -5.0774165e-06 -0.00010259006 9.712917e-05

exp_avg_sq f4 [128]
00000000: 2198 4034 adb3 2f32 f0c4 9c32 fcca 1833
00000010: 6a36 f832 1a77 c233 7d6c 0433 de1b 0f33
00000020: a938 ff32 4574 0930 e36b 7f34 cebb 9231
00000030: 527b 4a34 4911 b031 189c 7e34 2da1 2632
00000040: 35e3 e934 f1f5 d732 7041 0c33 a8d0 a833
00000050: 6639 e133 a10e b934 bc58 b732 15f0 2135
00000060: 9667 1b30 8cd5 c334 0bf7 2b34 0dfd 6932
00000070: 546d fb33 890b 9332 774b b734 c74c 9133
00000080: 1ec2 3d34 3d13 ea33 2d7f 6734 0aa7 3834
00000090: 18ce b634 11a3 7b34 d216 c731 94bb 9233
000000a0: 4e6a 5f33 f7e2 7933 3b69 9734 bde2 f534
000000b0: 9742 7331 6bae 2834 0152 3932 c2d4 2833
000000c0: 1257 2935 cdc5 0433 a66f c131 a9a3 1333
000000d0: 1322 dc31 39ba 1034 4596 1834 c984 be33
000000e0: f8b6 f433 cf1a 3332 d232 b932 9c89 a033
000000f0: 5a13 0835 5af3 3433 60bb 6d30 abba c932
00000100: 9813 9933 8248 0835 ef64 0f33 9e30 6533
00000110: daea ca33 a1ef 8b31 a528 a333 862c b931
00000120: acbb 3c33 6b7c 7533 f6de 8230 1f38 b032
00000130: cdbc bc31 f537 9633 c2e2 db33 fffc 8633
00000140: 0572 4633 b5ca f132 733f f532 f00b bb32
00000150: 5473 1635 219c ec31 4e3d d933 9024 1333
00000160: fec8 2233 bb91 5434 f74e 3831 5b75 8034
00000170: f8ac a733 b634 0633 b79e 8034 15d2 1734
00000180: 1b95 3e34 534a 4233 7e24 bc33 dd2a 8130
00000190: e95d 1a34 d676 1433 5ecd df33 5ee5 9734
000001a0: 0b03 7f31 dc5b 3f34 4c97 7330 b7f6 3933
000001b0: b6c8 3533 3e14 af33 9650 4b34 bdc7 7830
000001c0: fa08 e233 e04f 9932 7e79 6434 4f52 bf33
000001d0: dc9c c630 3bd1 1d34 ed14 a832 7950 d932
000001e0: e124 4233 86bc 1034 2abb 2d31 b708 0032
000001f0: 39e6 8c31 13fe 0433 ea5e f833 f0b2 0734
1.7936738e-07 1.0227194e-08 1.8250347e-08 3.557487e-08 2.8895744e-08 9.0554934e-08 3.0832314e-08 3.3320127e-08
2.9711673e-08 5.000554e-10 2.3787975e-07 4.27051e-09 1.885758e-07 5.1242393e-09 2.371238e-07 9.699119e-09
4.3564947e-07 2.5141135e-08 3.2655805e-08 7.861064e-08 1.048782e-07 3.446958e-07 2.1344356e-08 6.032654e-07
5.6535876e-10 3.6476956e-07 1.601549e-07 1.3619922e-08 1.1707985e-07 1.7118298e-08 3.4141314e-07 6.7660544e-08
1.7672616e-07 1.08999735e-07 2.1559818e-07 1.7197104e-07 3.4050095e-07 2.343552e-07 5.7942566e-09 6.832775e-08
5.2017917e-08 5.8181254e-08 2.8202507e-07 4.579978e-07 3.5399006e-09 1.5709672e-07 1.0787063e-08 3.930905e-08
6.308411e-07 3.0913544e-08 5.6297322e-09 3.4374953e-08 6.4067165e-09 1.3478792e-07 1.4210771e-07 8.871718e-08
1.1395417e-07 1.0425267e-08 2.1559945e-08 7.4756116e-08 5.069211e-07 4.2130843e-08 8.6486374e-10 2.3484366e-08
7.128182e-08 5.076946e-07 3.338658e-08 5.3362434e-08 9.449077e-08 4.072675e-09 7.597672e-08 5.3892704e-09
4.3942848e-08 5.7156665e-08 9.522114e-10 2.0514618e-08 5.4929843e-09 6.995098e-08 1.0239229e-07 6.285881e-08
4.6204168e-08 2.8148273e-08 2.8550607e-08 2.1775094e-08 5.604718e-07 6.886254e-09 1.0116001e-07 3.4259358e-08
3.7901366e-08 1.9797055e-07 2.682041e-09 2.3927245e-07 7.808006e-08 3.1247247e-08 2.3957338e-07 1.4139398e-07
1.7749373e-07 4.5236742e-08 8.76107e-08 9.398168e-10 1.4376532e-07 3.4567016e-08 1.0421603e-07 2.8292828e-07
3.7109114e-09 1.782168e-07 8.861789e-10 4.3298055e-08 4.2324892e-08 8.1527546e-08 1.8935165e-07 9.050572e-10
1.0525578e-07 1.7847867e-08 2.1278353e-07 8.9091024e-08 1.4450978e-09 1.4697882e-07 1.956729e-08 2.529872e-08
4.5202686e-08 1.347963e-07 2.5281204e-09 7.452562e-09 4.1007095e-09 3.0964724e-08 1.1565665e-07 1.2637952e-07
