2D/results/SegundoTeste2D/MoveToGoal/MoveToGoal-101771.onnx (onnx, 83254 bytes, 7 tensors)

network_body._body_endoder.seq_layers.0.weight f4 [128, 22]
00000000: 60ee 6bbe 8bfd a33e 5dd2 163d 703b 833e
00000010: 1ea3 abbe 85a8 81bc 7877 0dbd 0f19 9ebe
00000020: e827 5b3e 0040 f3bd b498 3c3e 3ac7 bcbe
00000030: dce2 85be 92ea ac3d 41ba 873e b2e0 90be
00000040: 3398 97bc 600f b13d a882 17be 13f2 ad3c
00000050: 2b1a 41be bb3a a83e 340f 26bd e07e 503b
00000060: dd99 db3d 9e31 6e3e 61ac b6be 6bad 6bbc
00000070: ef7f 953d b9d8 fcbd 698f dc3d 75fb b73d
00000080: 900f a0bc d050 8abe f430 7e3e ecd2 f23e
00000090: f9f6 133d 977b 96be 8903 7d3e 15ee 9ebd
000000a0: 3998 c33e cd61 ecbc aad4 a83e 6f37 9c3c
000000b0: 9083 523b 287e 2b3e 672f 563e 4987 c43c
000000c0: bbf6 fa3e 17cb 00be 6574 d0be aaac 0f3d
000000d0: e27d 393e ac37 763e 7efe 13bd 2c14 95be
000000e0: ea1f 40be 22d3 6b3e 0aae 163e 2bc2 93bd
000000f0: 0d74 e43c b911 d0be 8166 df3d 1e1f b2bc
00000100: 035c 01be e9d2 c23d 13e0 d2be 13c2 2d3d
00000110: c40b b5bb 4bc7 df3d 655d a63e 0d30 0abe
00000120: f286 b23e bba4 cabd 5e01 333e 15ae f73d
00000130: 7a82 d4be 015b ca3e bc0b b5bd c66b 693e
00000140: 82d2 0c3e 2173 1b3e 7cc5 af3e da88 9dbe
00000150: 640a 923c 1d32 c53d 25bc eabe 9523 12be
00000160: d3ef afbd 45ca 1dbe afdc d1be 8d39 87be
00000170: fd96 0ebd df57 64bc af63 84bd 1a06 9abc
00000180: 9cfe 103e ba9a 153d 0c69 f0bd b7b4 853d
00000190: deca 1cbe e27c b8bd 5129 a3bd 8ffa fbbc
000001a0: 60b4 a9be 858a 173e 4819 83be 3ded f43c
000001b0: 7682 0dbe 05e3 8bbd 4026 0dbd d714 debd
000001c0: f960 e2bd e0ba 0b3e de08 913e 5ed6 e5bd
000001d0: 9d82 433c 331e 3d3d 06a1 ea3d 6ceb 443e
000001e0: 99b5 67bc 35db a03c 7b5d 963d 7842 17be
000001f0: 0b42 5d3e 964b dbbd dfce b8bd 735f ba3d
00000200: 9d79 9abd cf19 90b9 9ca9 3a3e 96a6 2ebe
00000210: 6281 753e 13fd dabe f374 163e 6056 fcbd
00000220: 5c5f 493e 3bdf d23d baf1 38bc 9cdb 613c
00000230: 2a66 99be b3c5 173d 1cf9 85bb 762b 04bd
00000240: 6705 a23d c69b bfbd 1d18 83bd d4da 84be
00000250: 09cb 553e 63e2 28bd 24a8 873e 0e59 7a3e
00000260: 4566 dc3d 7817 2fbe 2b0a 30bd df85 a2be
00000270: 8a07 45be 730b c83d 5b58 71be 761b 143d
00000280: 9b55 5a3d 1b30 b73d 3d36 53be 95e7 4a3e
00000290: 4ab7 2ebd 310a 9e3c 085b 513e 8603 293d
000002a0: 5c8e 7f3d 8725 473e b6e5 793e 97af c5bc
000002b0: 792e a5bd 2480 763d 8b52 86bd e809 2fbe
000002c0: 547f 073e 7577 473d 19cb b93d 060b 36bd
000002d0: 891d 43be 8440 30be b86b 16be 464c bb3d
000002e0: cc56 0d3e 9880 b9be 4ab6 87bd a930 083e
000002f0: 496b e53e f18a c2be 4b8a 793e 9188 843e
00000300: b591 07bd 3ff5 3dbe c212 043e 7feb 9ebd
00000310: 7d76 0cbe 5cda b5be d4f7 f23d 3593 1a3e
00000320: 8545 713e 599c 10be fa4b 9fbd 0f8f 8abe
00000330: 8aa6 acbe fede be3e 7a87 6f3e 0691 dd3d
00000340: 4d93 f9bd 6c00 82bc 079f 7dbc baa9 d83c
00000350: fda2 0e3e a05c 9c3e 5b75 413e 387d bbbe
00000360: 3209 cfbd db8f d23c 664b b23d 8fa5 24be
00000370: 50b4 f73c 7896 9b3e 5198 983e e4a6 73bd
00000380: cfae c3bd 6338 dd3d 0c4a 093d 2544 61be
00000390: e64b fe3c dc44 1c3e cb65 c3bc 15f6 d0bd
000003a0: a0e0 113c 8642 183e 3753 1bbe ffef 00be
000003b0: 4896 1e3e b173 f03c 8271 ecbd 3c85 66be
000003c0: f0a1 78bd 9552 b13c f1ea b13e 50ac c53d
000003d0: 4cc0 1b3e cb03 473e 8696 d03d 0b94 ccbd
000003e0: ba4a 41be c9bb 2e3e 2dec d03e 8627 903d
000003f0: b5a9 89be 138e 9abd b17d 39be 4fda ab3d
-0.23040152 0.32029375 0.03682171 0.25631285 -0.33522886 -0.015827427 -0.034537762 -0.30878493
0.21401942 -0.118774414 0.18417627 -0.36870748 -0.26149642 0.08443178 0.26509288 -0.2829643
-0.018505191 0.08645511 -0.14795935 0.021233594 -0.18857639 0.32857308 -0.040541843 0.0031813905
0.107227065 0.23261115 -0.3567839 -0.014384608 0.07299792 -0.12346024 0.10769541 0.089835085
-0.01953867 -0.2701478 0.24823362 0.47426546 0.036124203 -0.29391167 0.2470838 -0.07760254
0.38202074 -0.028855229 0.3297475 0.019069402 0.0032121874 0.16747344 0.2091652 0.02399029
0.49016365 -0.12577473 -0.40713802 0.035076775 0.18114427 0.24044675 -0.036131375 -0.29116952
-0.18762174 0.2302976 0.14714828 -0.07214769 0.027887369 -0.4063852 0.10908223 -0.021743353
-0.12632756 0.09512884 -0.4118658 0.04242141 -0.005525084 0.10926684 0.3249313 -0.13494892
0.3486858 -0.09894701 0.1748099 0.120937504 -0.41505796 0.39522555 -0.08840129 0.22795019
0.13752177 0.15180637 0.34330356 -0.30768472 0.01782722 0.09628699 -0.45846668 -0.14271386
-0.08590665 -0.15409191 -0.4098868 -0.26411095 -0.034811962 -0.013936966 -0.06464326 -0.018801738
0.14159626 0.036524512 -0.11738786 0.06528609 -0.15311763 -0.090081945 -0.07966865 -0.030759124
-0.33145428 0.14798935 -0.25605226 0.02989828 -0.13819298 -0.0683041 -0.034460306 -0.10843819
-0.11053652 0.13645506 0.28327078 -0.11222528 0.011932996 0.04617138 0.11456494 0.19230431
-0.014142417 0.019635776 0.07342049 -0.1477145 0.21607225 -0.10707776 -0.090238325 0.09100237
-0.07542727 -0.0002748505 0.18228763 -0.17055735 0.23975137 -0.42771205 0.1469305 -0.12321162
0.19665283 0.10296484 -0.011288101 0.013785269 -0.29960757 0.037053775 -0.004088534 -0.03226801
0.07911187 -0.09355883 -0.064010836 -0.25948203 0.20878233 -0.041231524 0.2649547 0.24448034
0.10761694 -0.17098796 -0.042978447 -0.3174276 -0.19241157 0.09767809 -0.23568861 0.036159
0.053304296 0.08944722 -0.20626159 0.19814904 -0.042655267 0.019291969 0.20444882 0.041263126
0.062391624 0.1944791 0.24404034 -0.02413158 -0.080655046 0.0601808 -0.065587126 -0.17093623
0.13232166 0.048697907 0.09071941 -0.044444107 -0.19054236 -0.17212111 -0.14689529 0.091454074
0.13802642 -0.36230922 -0.06626566 0.13299812 0.44808415 -0.3799663 0.24369161 0.25885442
-0.03309794 -0.18550585 0.1289778 -0.07759761 -0.13717075 -0.35518157 0.11863676 0.15095218
0.23561676 -0.14122142 -0.07778163 -0.2706227 -0.3372081 0.37279505 0.23391524 0.10818677
-0.121862985 -0.015869342 -0.01547981 0.02644812 0.13929363 0.30539417 0.18892424 -0.36618972
-0.10109176 0.025703361 0.08705787 -0.1607878 0.030237347 0.30388236 0.29803708 -0.05948533
-0.095548265 0.108017705 0.033517882 -0.21998651 0.03104205 0.15260643 -0.02385225 -0.102031864
0.008903652 0.14869127 -0.15168463 -0.12591551 0.15487015 0.029352041 -0.115450874 -0.22511762
-0.06070131 0.021645823 0.3474956 0.096520066 0.15210074 0.1943504 0.1018496 -0.099891745
-0.18876162 0.17063822 0.40805188 0.070387885 -0.2688729 -0.0754663 -0.18114354 0.083912484

network_body._body_endoder.seq_layers.0.bias f4 [128]
00000000: 5376 ce3c 4ab3 07bb 08ef 76bc 58dd a4bb
00000010: d75e b7bc 4a48 df3c 7439 89bb 951c 90bb
00000020: 2766 ecbb a331 acbc b95d 603c 6e29 d4bb
00000030: 0229 0fb9 9a78 ddbb a213 c239 6b41 3d3c
00000040: 52ac 1bb9 f2d3 dfbb b36f 883b 7f27 a43c
00000050: e372 8d3c 98df b83c 677f 4bbb 8c70 ef3c
00000060: 8147 99bc d88c c53c 75ee 4dbb b598 f03b
00000070: 2d9e d63b b0a7 06bc 088a b83c e291 a73a
00000080: 265d 193c 660e 863c faf1 893b 7b44 15bc
00000090: 1bb4 5b3b 8313 8b3c 00a2 2e3c 1b54 8e3c
000000a0: dd44 193c 923d caba f312 253d a0da f53c
000000b0: ff4d 53bc dbd5 ce3c 9fa4 bb3c 741e 98bb
000000c0: 05e4 b73c 9fc6 bfbc dfb8 d9ba c79b aeba
000000d0: a428 01bd d176 833c 9b67 843c 0f3e b53b
000000e0: 003e acbc ea8d c0bc cdf7 d93c 494e 6abb
000000f0: 5997 993c 8061 983c 7db6 11bd 6dc7 d13c
00000100: 3c5a 21bc 16da 5dbc 4445 a2bb 6727 0039
00000110: c674 9e38 5e4c 37bc 073c 083c d263 b43c
00000120: c3f1 2bbc 4e6c a63c 43b3 b6bc 8121 1e3a
00000130: cc33 85bc 3ef0 02bc cf9b ac3c b189 4abc
00000140: 34d9 e23c 5d95 87bc 4861 5d3c 88f8 073d
00000150: 2a4b ff3c 2eea 18bc 850e 1fbc 5b5e d0ba
00000160: 2339 b53b a10f a63c d386 f4bb a4fb 103c
00000170: d73d 383a f421 ac3b 8bce 003c 70ae de3b
00000180: 5287 c53c f052 223c 9fb7 a33a 7bdf a0bc
00000190: 2fdf f0bb ba74 b83c 9ae8 6f3c 60d1 d8bb
000001a0: 26c2 bc3b f32f 243c ef8d 4b3c f7c2 eabb
000001b0: eb32 91ba a2fa cfba 987d 923c 7e9f 37bc
000001c0: 42c5 913c c7f8 adba c664 0b3d db46 53bc
000001d0: 8df5 40bc 5610 04bb 014d 78bc 7ac2 cabb
000001e0: 367d e23c e1af 35bb 43a4 aabc d332 ce3b
000001f0: cce1 84bc a297 39bc d6ee 0fbc 379f 793b
0.025202906 -0.002070623 -0.015071638 -0.005031269 -0.02238409 0.02725615 -0.004187757 -0.0043979385
-0.007214326 -0.021019762 0.01369422 -0.0064746654 -0.0001365282 -0.0067587616 0.0003701719 0.011551241
-0.00014846146 -0.006830686 0.004163706 0.020038364 0.017266696 0.022567555 -0.003105128 0.029228471
-0.018710854 0.024115011 -0.003142265 0.007342423 0.0065496177 -0.008218691 0.022526756 0.0012784565
0.009360587 0.016364288 0.004209754 -0.009110565 0.00335241 0.016977077 0.010658741 0.017374089
0.009354797 -0.0015429726 0.040301275 0.030011475 -0.012897014 0.025248459 0.022905646 -0.004642302
0.022447595 -0.02341014 -0.0016610882 -0.0013321572 -0.0315329 0.016047867 0.016162684 0.0055310796
-0.021025658 -0.02350517 0.026607418 -0.0035752228 0.018748926 0.01860118 -0.035574425 0.025607789
-0.009848174 -0.013540765 -0.0049521048 0.0001222171 7.555778e-05 -0.011187641 0.008315093 0.022020254
-0.010494652 0.020315316 -0.022302276 0.0006032214 -0.01626005 -0.0079918485 0.02107039 -0.01236193
0.027691461 -0.016550714 0.013511963 0.033196002 0.03116377 -0.009333177 -0.009708052 -0.0015897261
0.005530493 0.020271124 -0.0074623614 0.008849058 0.0007028258 0.005253071 0.007861744 0.006795697
0.024112377 0.009907469 0.0012490636 -0.019637814 -0.0073508243 0.022516597 0.014642859 -0.0066167563
0.005760449 0.010021198 0.012423976 -0.007164355 -0.0011077797 -0.0015867541 0.017882153 -0.0112074595
0.017794255 -0.0013272994 0.034031652 -0.012895311 -0.011777294 -0.0020151339 -0.015155078 -0.006187734
0.027647596 -0.002772324 -0.02083028 0.00629268 -0.01622095 -0.011327656 -0.00878497 0.0038089284

network_body._body_endoder.seq_layers.2.weight f4 [128, 128]
00000000: 9eb3 4fbc b4b4 09be bf32 313d 260a 07bd
00000010: 993e acbc d22e 80bd 1420 1abd 6bb5 ccbc
00000020: d7f6 643d 3d5e 18be 065d 8b3c 38ef c93b
00000030: a25e 833d 20d0 2fbd 9ca6 ca3c 93cc 6e3d
00000040: 6795 d23d b93e a43d 94bf 84bd 8da9 863d
00000050: 02a1 ac3d 73b1 8cbd c54c 693d b9f7 03be
00000060: 536e 853d 542c c9bd a32d e7bb b380 5bbc
00000070: 3a10 0ebe 2068 b1bd 485d 9b3d 4770 c6bc
00000080: e665 3d3e 5a30 983d 687b eb3d fddd 24be
00000090: 95e1 933d ee13 1f3d 40ca 353d cf99 44bd
000000a0: 3bec de3c 656f 0a3e 669c b2bd f3ab 0dbd
000000b0: 945e eebd da4e 64bd 0a2d 393d 6dfb 7ebd
000000c0: f709 4d3d bbb0 b2bd c3f5 803d bc06 81bd
000000d0: e2d7 053e 2193 94bc c856 c9bc 9de6 5f3e
000000e0: cb83 093e 1fbb 673d 8ca1 d0bc 44fc 38bc
000000f0: 3f92 153e 1b51 42be 6502 9dbc c7e9 82bd
00000100: c255 1b3c e65a ab3d 9ec0 9e3d dae9 17bd
00000110: 9a65 f73c 770f 72bd 20f4 9fbb ff9c 0cbd
00000120: 6327 0d3e 2319 6d3d 91ee b93d 4516 0cbe
00000130: 98e2 03bd a967 fe3d e79a eebb c8f2 d7bd
00000140: b806 5c3d a402 ae39 f4d9 75bd 3f96 ffbc
00000150: 1327 08be 26be 3e3d 69df 98ba 5fe9 8bbd
00000160: 0283 81bc a53f febd 9671 f83d a1d6 d63d
00000170: 3bbf de3d cd04 1c3c fc4e 123c cdca adbd
00000180: 6e34 6ebd 83da 053e ee05 303d 4f84 a83c
00000190: 9bde 143e 0775 113d bdb4 acbc 1acb e0bc
000001a0: 65df 413d a04c 36bd dfc2 e13b 0864 d03d
000001b0: 41dc 59bd 4ca9 dbbd ff98 15bd e8c6 9fbd
000001c0: 1034 ba3c 4349 f43d db34 bfbc 5092 583d
000001d0: 8ab1 983d 59f0 14bd a9c5 eb3d d594 47bd
000001e0: b4f8 a9bd ae95 5e3d 2633 a13d b44d 323c
000001f0: 94ae 683d ab96 9abd e500 bf3d 3dff bc3d
00000200: 67a5 dd3d 4133 a93d a0a0 93be 2c3d 013d
00000210: 814c 67be d57f 0abe 2b1b 2fbd d581 d4bd
00000220: 029d d73d 83b1 45bd 2715 443c 54b3 f13d
00000230: 73fb cc3d 7968 06be bbce b63d 1412 953d
00000240: 793c 333c 9cbd 083d 2323 003e aa52 1d3e
00000250: ca62 a63c 1e5a 883d bd8d 253d b1c0 ed3c
00000260: 400e 82bd 13ed 443c 045c 6b3d ebeb d2bc
00000270: 42ce e0bc 0a0c 443d 7b23 c93d 16e8 bd3d
00000280: 0e64 d9bc 3daf 8a3d 4c8c d6bd 41fa bf3c
00000290: 4964 a4bc 7cfe f5bd bb04 8c3b 229e a23d
000002a0: 019d aa3c e11c 50bd 3b41 8c3d b803 ffbd
000002b0: 7952 0fbe 7930 873e a5e7 bc3a 53cc 3ebe
000002c0: 516b e13d 72f7 41be 82e7 223d dee6 acbc
000002d0: 6c2a 653b 94ab c73c 7a0a 95bc 5a9c 8a3d
000002e0: 9c06 b03c 41a3 febd 727e 8dbd 6560 d1bb
000002f0: bed1 84bd 4f38 d03c c99d 34be 4964 943d
00000300: 5bd4 4bbe 75c2 0f3e 0332 4d3d ccc8 f5bc
00000310: c313 10be f5b4 803d f693 14bb 0519 12be
00000320: 2171 193e 69a5 2f3c 8aa8 e9bd 6201 67bd
00000330: c2be ddbd b918 6bbc 902f 093d 98f8 c73c
00000340: 6db1 ff3d 1cea d43d 1968 8cbc e8c4 81bd
00000350: fdc5 a9bd 2c4e 22be b460 b7bd f586 2abe
00000360: bb7f 7abd 3053 563d 28c6 1a3e e485 7cbd
00000370: b0a0 00bc fb00 3f3d 29d3 dbbb d2f6 313e
00000380: 50bd a5bd d644 4c3e 2660 c9bd 5c78 cfbc
00000390: eb4c 24bd a40d 813d c3fb 8a3d a562 71bd
000003a0: 6ef8 15be 93ff 81bd 0e34 853c f2c8 1cbd
000003b0: 132e 953d 72a5 acbd bd37 62bb a439 8ebd
000003c0: 4c2d 563e 0e5a c93c cbb8 ad3c aa92 153d
000003d0: f05f d7bc 25f2 babb 151f 8fbd b9f2 143e
000003e0: 8f9d c83d b3a6 ecbc aff4 87ba 19c4 823c
000003f0: 1837 89bd bf52 93bc 9607 5abc c429 d63d
-0.012677101 -0.13447839 0.043261286 -0.032968663 -0.021025943 -0.0625893 -0.03762825 -0.02498885
0.055899467 -0.14879699 0.01701213 0.0061625503 0.06414534 -0.042923093 0.024737649 0.058300566
0.102824025 0.08019776 -0.06481853 0.06575308 0.08429147 -0.06869783 0.05695798 -0.12887467
0.06515183 -0.09822908 -0.007055001 -0.0133973835 -0.13873377 -0.086624384 0.07586151 -0.02422346
0.18495902 0.07431097 0.11498147 -0.16100307 0.07220761 0.038837366 0.044382334 -0.047998246
0.027212253 0.13519056 -0.08721237 -0.03458781 -0.11639133 -0.05573926 0.04520897 -0.062251497
0.05005833 -0.08725115 0.06296875 -0.063001126 0.13070634 -0.018136563 -0.024577513 0.21865316
0.13429181 0.056574937 -0.025467657 -0.011290614 0.1460657 -0.18976252 -0.01916618 -0.06392246
0.0094808955 0.08366947 0.077515826 -0.037088253 0.030199815 -0.05909678 -0.004881397 -0.03432941
0.13784556 0.0578853 0.09078706 -0.1368037 -0.03219852 0.12422115 -0.0072816494 -0.10544354
0.053717345 0.00033189834 -0.06002231 -0.031199573 -0.13296156 0.04656806 -0.0011663261 -0.068316214
-0.01580954 -0.12414483 0.1213104 0.10490156 0.10876318 0.009522629 0.008929964 -0.08485947
-0.05815547 0.13071637 0.042974405 0.020570902 0.14538042 0.035511997 -0.021082276 -0.027440596
0.047332186 -0.04450667 0.0068896855 0.101753294 -0.053188566 -0.1072565 -0.03652286 -0.0780161
0.022729903 0.11928036 -0.023340633 0.05287391 0.07455738 -0.036362026 0.1151231 -0.04872592
-0.082993895 0.054341964 0.07871084 0.010882784 0.056807116 -0.07548269 0.093263425 0.0922837
0.108225636 0.08261729 -0.28833485 0.03155248 -0.22587778 -0.13525327 -0.04275052 -0.10376326
0.10527994 -0.04826499 0.011967934 0.11801782 0.10008898 -0.1312579 0.089261495 0.07278839
0.010939711 0.03338395 0.12513404 0.15363565 0.020310778 0.066578135 0.040418375 0.029022546
-0.06350374 0.0120194135 0.0574608 -0.02574726 -0.027442101 0.047863044 0.098212205 0.092727825
-0.026536968 0.06771705 -0.10475978 0.02343476 -0.020067351 -0.1201143 0.004273025 0.07940318
0.020826818 -0.05080879 0.06848379 -0.12451881 -0.13996305 0.2640417 0.0014412297 -0.18632631
0.11006797 -0.18942049 0.039771564 -0.02110618 0.0034967912 0.024373807 -0.018193472 0.06768103
0.021487527 -0.12433482 -0.06908883 -0.006389665 -0.06485318 0.025417475 -0.17638315 0.072456904
-0.19905226 0.14039023 0.050096523 -0.030002974 -0.14070038 0.06284515 -0.00226712 -0.14267357
0.14984562 0.010720589 -0.114090994 -0.056397803 -0.108274 -0.014349156 0.033492625 0.02441053
0.12485013 0.10396215 -0.017139481 -0.06336385 -0.082897164 -0.15850133 -0.089539915 -0.16653045
-0.06115697 0.052325428 0.15114653 -0.061651126 -0.007850811 0.046631794 -0.006708522 0.1737931
-0.08092749 0.19948134 -0.09832792 -0.025325947 -0.040112417 0.0630143 0.06786301 -0.058931965
-0.1464555 -0.06347575 0.016260173 -0.038277574 0.072841786 -0.08429994 -0.0034518086 -0.06944588
0.20915717 0.024579074 0.02120628 0.036516823 -0.026290864 -0.0057051354 -0.0698835 0.14545716
0.09795677 -0.028888082 -0.0010372604 0.015962647 -0.066999614 -0.017983792 -0.013307473 0.10457185

network_body._body_endoder.seq_layers.2.bias f4 [128]
00000000: 5433 dd3b 9d64 823c 7251 493c 7fa5 e6bb
00000010: f2b6 5abc bd12 84ba 122f 073c 2e2a cd3a
00000020: 6546 0abc 3b6e cebb 3378 a0bb 992e 0d3b
00000030: 93a5 cf3c 5a80 9f3b 0e73 0d3c 40fc 763b
00000040: 515e d13b 8c17 a4bc 9fb0 543b 4cb8 613c
00000050: 616c 393c 8b05 d6bb 558e 183c 7902 2c3a
00000060: 4cac 513c eb16 833c 9540 003b 5fb5 4ab9
00000070: f3c9 27ba 09a7 19bc 8b20 0dbc eee3 013d
00000080: 9dec 0cbc bf25 d43b 0a83 f93c dad2 ff3c
00000090: 9f3f 713c 771c 88ba 5023 0c3c 8019 05bc
000000a0: 08fe 673c 4cfb 8f3b 86f7 913b ccea a93c
000000b0: 952c 213c 4c63 8a3b a954 303c edbb f73b
000000c0: 67ed 8cbc fd69 a33c a621 76bc 02c6 1f3b
000000d0: 7745 803c e10e f9bb 1b22 e33b 1515 d0b9
000000e0: 813a 8a3c 36ff a43c 8804 a43c 8f13 003c
000000f0: f563 113d f1e4 a73c 586e f33b b45b 363c
00000100: 9f2f 593c 4648 f73b 9131 153c 20ab cb3a
00000110: 744a b03b 9ea7 1e39 9251 363b 3ad1 f7ba
00000120: ff84 703a d73f 103b 1c7d dfbb 102c 2aba
00000130: c1b2 a33b 642b 973c b318 c23b 9ec8 4b3a
00000140: 149c fabb 7364 173b 103a c43a 93b2 9a3b
00000150: 8837 bdbb 3088 5eba e00a 843c ad09 293b
00000160: 81f9 473b c595 133c 9066 10bc 95c3 c53c
00000170: 680b 703c 8863 193a a880 293c 1402 0d3d
00000180: 53f2 e7bb 1962 053b 1754 12bd e3e6 7ebc
00000190: 590d 073d fad4 863c 14ac b83b 28f8 b23c
000001a0: cb1a 8d3c 3430 13ba 7717 ac3b f67a 93bc
000001b0: 8b50 123c eed7 8f3c d236 993c 720f 343c
000001c0: 46f6 99b8 aeef 113b 3579 503b 36e8 073c
000001d0: ee55 1d3b 39af 2ebb 9363 a0b9 bb7c 2a3b
000001e0: 3015 083c c7fa 72bc eedd 183c 877f 37ba
000001f0: de2d 413c c5ec e4bb 2534 163d b028 023c
0.0067505036 0.015917117 0.0122874845 -0.0070387716 -0.013349282 -0.0010076385 0.0082509685 0.0015652829
-0.008439635 -0.0062997616 -0.0048971414 0.0021542667 0.025347507 0.0048675956 0.008633388 0.0037686974
0.006389417 -0.02003076 0.0032453907 0.01377685 0.011317343 -0.0065314225 0.009311278 0.0006561648
0.012797426 0.01600214 0.0019569744 -0.00019331787 -0.0006400637 -0.009378203 -0.008613716 0.03171151
-0.008601335 0.0064742262 0.030457992 0.031228472 0.014724641 -0.001038446 0.008553341 -0.008123755
0.014159687 0.0043939706 0.004454556 0.020741843 0.009837289 0.004223263 0.010762372 0.0075602443
-0.017203046 0.019948 -0.015022671 0.0024379496 0.015658123 -0.0076006507 0.006931556 -0.0003968856
0.0168736 0.020141225 0.020021692 0.007817163 0.035495717 0.02049491 0.0074289255 0.011130262
0.013255983 0.0075464575 0.009106056 0.001553867 0.0053799693 0.00015130496 0.0027819616 -0.0018906959
0.00091750914 0.0022010708 -0.006820334 -0.0006491551 0.0049956744 0.018453307 0.0059233545 0.000777373
-0.0076480005 0.0023100644 0.0014970917 0.0047209947 -0.005774442 -0.00084889214 0.016118467 0.002579312
0.0030513706 0.009007876 -0.008813515 0.024141112 0.014651157 0.0005851318 0.010345615 0.03442581
-0.007078448 0.002035266 -0.035724726 -0.015557977 0.032971714 0.016458977 0.0056357477 0.021846846
0.01722469 -0.0005614788 0.0052518207 -0.018002968 0.008930336 0.017559018 0.018702898 0.010990011
-7.3414805e-05 0.0022268104 0.0031810526 0.0082951095 0.0024007517 -0.0026654734 -0.00030591767 0.0026014287
0.008305833 -0.014830298 0.009330256 -0.0006999899 0.011790721 -0.006986233 0.036670823 0.007944271

action_model._continuous_distribution.log_sigma f4 [1, 2]
00000000: 5ed9 8cbb 4083 96ba
-0.004298373 -0.0011483207

action_model._continuous_distribution.mu.weight f4 [2, 128]
00000000: 63c1 c0bc e0a7 ea3c 8944 163d cb78 c4bc
00000010: bb9f 9c3b 1c0f 3cba 7fc3 96bc cb7c bdbc
00000020: f3fb 01bd 847a caba 4192 7bbc e479 793c
00000030: f770 0cbd 4b10 2e3c 56ea 6dba fe62 01bb
00000040: 782d d43b 6c7b 3fbc eb6c 06bd 747a 1cbc
00000050: d2b2 673c 4187 27bd e5eb 26bd b1ac 52bc
00000060: 6106 033d f171 043d a2f4 1fbd 4f14 913c
00000070: e67e 21bc 62c4 2abc 857c b93a b0f2 023d
00000080: e6f5 dcbb b5de b63c b8f9 263c a29d 253d
00000090: 8dd2 08bd 29f0 ba3c abbc 8cbc 06d2 27bc
000000a0: e567 103c 5685 443c cc54 c53b 24a1 113d
000000b0: b75d 583b 8778 13bd 5b27 6f3c dfe4 ebba
000000c0: 8814 d8bb 0a0a 083d 9a63 cfbc 9591 0dbc
000000d0: 847d 353b 369a 7cbb b3db d63b a273 5abd
000000e0: 0277 c9bc 48f5 4bbd 6b14 62bb 0080 e13c
000000f0: 6192 253d c56d 263d cc1f 71bb 9473 c73c
00000100: bb9c 12bc 477c 8ebb f787 6e3c 4b0f e43c
00000110: 3c94 9b3c 538d 44bc 0a7d 463c 3243 203c
00000120: 6a28 bd3c e150 ea3c 6d38 bcbb ab94 12bd
00000130: 591b 3d3c 27ea 9e3c 9a70 3fbd 3674 7839
00000140: c5e0 a9bc 4239 bfbb 29c6 9ebc e7b7 b3bc
00000150: 56da 143b b36b 35bd 8610 d23c 6df3 4dbc
00000160: f95e c6bc 68d2 6d3d fea0 babc acfb b13c
00000170: b7dc fd3a 8ebc c1bc 86cb 253d 19a2 433d
00000180: b2ba 82bc d0d7 ccbc 0aa2 66bc fa3a a6bc
00000190: 1a87 983d 71a1 ca3c cbc7 82bc e416 91ba
000001a0: 2700 b2bc 4779 cfbb cd88 c33c 7d26 16bc
000001b0: b768 1b3c 684e b03c 9ace 8ebc b321 343d
000001c0: ce52 2a3d 7989 743b 89e8 7bbc 1e4d a8bc
000001d0: 4db8 bebc 7e95 acbc 6169 51bd ca00 233b
000001e0: c2da 1bbd bb3b d6bb 23ec 12bc afeb fd3b
000001f0: 52a2 08bd e667 863b 3b93 16bd e67d 42bc
00000200: f7cf b83c d166 c53c a4dd 3bbc df2f 78bc
00000210: 9679 edbc fd03 b83b 8498 323d 9f4d 2bbd
00000220: 856d 8e3b 8f71 03bd 55a9 92bb 6a7d 9bbb
00000230: e9a1 31bd 3cba 1c3b 0dc7 aa3c 26ea 6b3c
00000240: 4c95 183d 99ed a9bc 6f54 243c 2499 debc
00000250: 3987 41bd 1c79 c5bc 5257 153d 5e75 25bd
00000260: 5f85 81bc 013f dbbc b145 fcba 6100 0bbd
00000270: fda5 e1bb 5a58 4cbc 5ca9 89ba 3f9e b93a
00000280: f4d9 fbb9 6da5 fb3a 3211 2e3d b487 21bc
00000290: 2e01 c03c 6768 c2bc 3ccd 3d3d fb80 f5bc
000002a0: 9b98 bd3c 4a25 4bbd 3536 cb3b ad12 0e3d
000002b0: 2a4e 2b3d d195 493c 8503 9ebb 4aae ac3c
000002c0: cf3e e0bb 8b35 523c 75a1 9dbc ed5c f73c
000002d0: 74a3 b33c 94c9 0ebb 8450 4ebd 8309 cf3c
000002e0: c64a 1a3d c9f3 ec3c 289a ad3c c402 25bc
000002f0: 0381 ae3c fbec 91bc e5d9 173d 7a33 05bc
00000300: 4031 0d3d 777f 15bc 59e4 963c 5c24 b9bc
00000310: 5c18 0c3c 91cc aabc 4d62 b8bb 7866 953a
00000320: c9c6 e7bb 4f7e 55bd 2a1f aabc 685a c2bc
00000330: f115 bcba 69d3 573d 2865 bfba b6d8 ac3b
00000340: c4c5 15bb 18e9 193c 18a2 123c b788 43bd
00000350: 3ff2 36bd b484 0fbb 043f 123c e7cc d43c
00000360: 3618 e4bc b04c a6bb 06fa c83b 453d 53bd
00000370: 9c09 e3bc 657b 08b9 cc2a 17bb 92f3 e83c
00000380: fdb0 0abd 44db a3bc de67 ac3b 1522 3cbc
00000390: 005e f3bb 1976 243c 26c7 a5bd 883e 003d
000003a0: 81cd 413d a5f9 55bc a904 a43b d8f4 67bb
000003b0: d681 30bd c75f e63c 0209 033d 28e2 bcbc
000003c0: ebe8 7cbc 61d8 4439 f7fe 74bb 9465 bc3c
000003d0: a656 24bc d3bd ac3b 191f dfbb a47a 14bd
000003e0: 8602 63bc 6df0 94bc 13de 033d 9ae4 0b3c
000003f0: 5850 eabc 9a1e 70bc 5663 27bd 312d 223d
-0.023529714 0.028644502 0.036686454 -0.02398338 0.0047797835 -0.00071738823 -0.018403767 -0.023130795
-0.031734418 -0.001544789 -0.015354694 0.015226815 -0.03428742 0.010624002 -0.00090757513 -0.0019742842
0.006475147 -0.011687141 -0.032818716 -0.0095506795 0.014141755 -0.040900473 -0.04075231 -0.012858556
0.031988505 0.032335225 -0.03905166 0.01770988 -0.009856915 -0.010422798 0.001415149 0.031969726
-0.0067431806 0.022322992 0.0101913735 0.040433533 -0.033403922 0.022819595 -0.017179808 -0.010242945
0.008813833 0.01199468 0.0060220715 0.035554066 0.0033014843 -0.036003616 0.014596785 -0.0017997286
-0.0065942444 0.0332127 -0.025316048 -0.0086406665 0.0027693221 -0.0038544065 0.006556952 -0.053332932
-0.02459288 -0.049794465 -0.0034497033 0.027526855 0.0404228 0.040632028 -0.0036792634 0.024347104
-0.0089485 -0.004348311 0.014558784 0.027839324 0.018991582 -0.011996585 0.012114773 0.009781646
0.02309056 0.02860302 -0.005744031 -0.035786312 0.011542165 0.019398762 -0.046738245 0.00023694415
-0.020737061 -0.005835683 -0.0193816 -0.021938277 0.0022713146 -0.044292163 0.025642645 -0.012570244
-0.024215208 0.058061987 -0.022781845 0.021726452 0.0019368146 -0.02364948 0.0404773 0.04776201
-0.015958164 -0.025005251 -0.014076719 -0.020291794 0.074476436 0.024735184 -0.01596441 -0.0011069444
-0.021728588 -0.006331596 0.023868943 -0.00916445 0.009485415 0.021521762 -0.0174325 0.04397745
0.041582875 0.0037313385 -0.015375265 -0.020544585 -0.02328124 -0.021067377 -0.051125888 0.0024872296
-0.03805042 -0.006537882 -0.008967432 0.007749043 -0.033357926 0.004101741 -0.036761504 -0.011870837
0.022560103 0.024096878 -0.011466417 -0.015148132 -0.02898864 0.00561571 0.04360248 -0.041822072
0.004346552 -0.03209072 -0.0044757524 -0.004745175 -0.0433673 0.0023914715 0.020846868 0.014399087
0.037251756 -0.020743178 0.010029896 -0.027172633 -0.0472481 -0.024105601 0.03646023 -0.040395133
-0.015810667 -0.026763441 -0.0019246844 -0.03393591 -0.0068862424 -0.0124722365 -0.0010502744 0.0014161541
-0.00048036838 0.0019199081 0.042496867 -0.009859014 0.023438063 -0.023731424 0.046338305 -0.02996873
0.023144057 -0.04959611 0.0062015303 0.03468578 0.04182259 0.012303785 -0.004822197 0.021079201
-0.006843425 0.012830148 -0.019242028 0.030195678 0.021928526 -0.002178763 -0.050369754 0.02527309
0.037668966 0.02892484 0.021191671 -0.01007146 0.021301752 -0.017813196 0.037073035 -0.008129949
0.034470797 -0.009124628 0.018419432 -0.022600345 0.00855073 -0.020849498 -0.0056269527 0.0011398336
-0.0070732576 -0.05212241 -0.020766813 -0.02372475 -0.0014349801 0.05269185 -0.001460229 0.0052748574
-0.0022853473 0.009393953 0.008949779 -0.047737803 -0.044664618 -0.0021899166 0.008926157 0.025976611
-0.027843576 -0.00507506 0.0061333207 -0.051572103 -0.027714543 -0.00013015939 -0.002306628 0.028436456
-0.033860195 -0.020002015 0.0052614054 -0.011482735 -0.007426977 0.010037922 -0.08094625 0.031309634
0.047315124 -0.013060008 0.0050054383 -0.003539374 -0.04309257 0.028121842 0.031991012 -0.023057058
-0.015436391 0.00018772624 -0.0037383416 0.022997655 -0.010030424 0.0052716522 -0.006809127 -0.03624977
-0.013855582 -0.01818105 0.03219421 0.00853839 -0.028602764 -0.0146557335 -0.04086622 0.03959388

action_model._continuous_distribution.mu.bias f4 [2]
00000000: bcc5 de3b 1f20 cf3b
0.006798474 0.006320968
