2D/results/PrimeiroTeste2D/MoveToGoal.onnx (onnx, 77110 bytes, 7 tensors)

network_body._body_endoder.seq_layers.0.weight f4 [128, 10]
00000000: 45e3 f83c 2dfe 023f aa73 8dbe 16f3 433e
00000010: 4dae 56bd 4757 e3be 6a21 40be 33de 303d
00000020: c74a 2c3e 9ab8 94bd 1fe7 11be 46ef 3fbd
00000030: 6471 e53c 11cc 143d cda4 89bc afe3 0cbf
00000040: f6bd 8fbe 4a0b d7be fe1e 89bd 2a5a e1bd
00000050: c99d cdbd a393 9fbd 4bac 9f3e ec2f f1bd
00000060: 56a4 dbbd 6b11 db3d 5cb0 2e3e 63e3 153c
00000070: fc98 913c 7332 2abe a602 33bd 3bf7 c43c
00000080: cee2 673d 5abe 0d3f d834 bf3e 24f7 87be
00000090: 9d61 803e 8daf dd3d 7b2d 32bf 966b 473e
000000a0: f97f 05bf 99dd a83e e79e 283e 9575 24be
000000b0: f262 593f f141 03bf 700f b9be 1ba5 653c
000000c0: 47fc d33e 54f6 c0be 0a95 9d3d bb94 2dbe
000000d0: 431c 003d 2bee 0f3e 245f e7bd 7f75 153d
000000e0: f603 2bbe 9740 ab3e a1f8 2bbd 6960 e63e
000000f0: 8f53 4abe 64d7 303d 1cbd 13be b1b4 5abe
00000100: 5a18 8dbd cc51 c0bd d7b7 9cbd a510 2a3e
00000110: 8f0c 8e3e 8d05 2abf e4df 5f3e a870 03be
00000120: 67af 30bf 369a 4dbe f024 78be e48b 95be
00000130: 1855 a3be 8c67 de3e 059f 863e 7e05 6cbc
00000140: c62b 2f3e 7a37 eebd fbd6 22be 420f b03e
00000150: c471 babe 83df d8bd c790 12be fd1b 5bbf
00000160: 9cab 0fbf ec41 823e 15f6 d5be be93 babe
00000170: 6419 c2bc d7cf ce3e 34bb fa3e 732f 8dbe
00000180: 173b a23e 5612 c83e 5e36 d03e a5c6 de3b
00000190: 323f 403e 8b92 de3d a603 c73e f482 623d
000001a0: 425c cb3d 6aa8 0d3e 2937 a43e 4707 a2be
000001b0: 4c2f 13bf c4b4 be3a 6e9a 733e b89c bfbd
000001c0: 3088 ee3e d834 893e 4d9b 88be 4862 93be
000001d0: 3720 793d f4fa a13e 9964 8dbd c0fc ee3d
000001e0: 3beb 853d 9336 9dbe 6217 e33e 3aa9 b7be
000001f0: 5d28 bbbd e764 b53d 9700 c43d 9612 16bc
00000200: c0f7 bf3e 1f23 28bd 60cf 95bb aa46 e8bd
00000210: 77a2 ce3d 8749 1d3f 578a 263e 9aba 953e
00000220: bda9 a2bc e238 733e febb 31bf 9303 0abe
00000230: 946f b03d a09f f53e 402f 49be 44b8 f3be
00000240: ffc9 6f3e 6fb0 5dbe 08e4 38bd d69e a63e
00000250: 69b8 07bf a9a0 1c3e 7bb3 333e 9641 1d3e
00000260: f15d 2e3e 15e1 a73c 3f2d 37bf c2d7 c7bc
00000270: b998 75be c259 2abd 9284 61bd 5da4 48be
00000280: c210 5bbf 8a22 393d 2b82 c33d 896e ecbd
00000290: 19a7 09be d6cd 383e 18db 543e bb8d 60bd
000002a0: adb5 ee3e 2ecf c73d c6be fa3e 95fd 163e
000002b0: f262 35bf 4109 563e db20 03bd ddfb b1be
000002c0: 0f1d bbbc 1d70 65be 3496 04bf 4b1b f9be
000002d0: 8a23 90be 78c8 443d 66c2 613e 0cce 413e
000002e0: 8d0e 6abd 89ab efbe 73eb 463e 2134 23be
000002f0: 8dc7 253e a649 00be 0322 85bd e9e5 403d
00000300: bddb 8b3e 31e6 8a3d ec7d bfbe 0f49 d5be
00000310: e555 0b3f 8d92 323f 78ab 643e be8b 783d
00000320: 13f9 29be 366a e6be 05f8 27bd c4d3 033f
00000330: a763 c8be 59c8 f43e 20bc 25bf 3c35 bdbd
00000340: 274b 8dbe 34db a6be de25 0fbf f546 da3d
00000350: fa2e bb3e b5b0 ebbd b535 d0bb 1efb abbd
00000360: a158 d63e 7054 e33e 36dc a3be d500 8b3e
00000370: 3720 12be 4859 6abe 7f44 fe3e 71ea cdbe
00000380: 1382 fbbe 0a43 a3bd 21d6 2ebf 2d04 a7bd
00000390: f509 fd3e 3739 6abf 32cf 8b3d 15a5 d03e
000003a0: f3f7 cf3e 86fd fb3e 95d6 2fbe d74e 60bd
000003b0: 1776 143e c1cc b73e 1ae4 e93d 5b9b afbd
000003c0: 6582 99be b835 903e bc60 9c3e 5869 4abe
000003d0: 64e0 b53e 1c39 f83e 331f 98be d01e b43d
000003e0: e57a 34be 0002 0cbf 625e 823e 711b a4bd
000003f0: d1f2 0b3f a9d3 e63e 71a6 98bd f79e e83e
0.030381808 0.5116909 -0.27627307 0.19135699 -0.05241232 -0.44402525 -0.18762746 0.043180656
0.168254 -0.072617725 -0.14248322 -0.04685905 0.02800817 0.036327425 -0.016802216 -0.5503492
-0.28074616 -0.420008 -0.066953644 -0.110035256 -0.10039861 -0.07791831 0.31186137 -0.117767185
-0.10724704 0.106966816 0.17059463 0.0091484515 0.017773144 -0.16620807 -0.043703698 0.02404367
0.056612782 0.5536858 0.37345004 -0.2655574 0.25074473 0.10824499 -0.6960065 0.19474635
-0.52148396 0.32981566 0.16466866 -0.16060479 0.84916604 -0.51272494 -0.3614459 0.014016415
0.4140341 -0.37687933 0.076944426 -0.16951267 0.031276952 0.14055698 -0.112974435 0.036489006
-0.1670073 0.33447716 -0.041985158 0.4499543 -0.19758438 0.043174163 -0.14427608 -0.21357991
-0.0688941 -0.093906015 -0.07652252 0.16607912 0.27743956 -0.6641472 0.21862751 -0.12835944
-0.6901764 -0.20078358 -0.2423284 -0.2920829 -0.3190086 0.43438375 0.26293197 -0.014405606
0.17106542 -0.11631675 -0.15902321 0.3438664 -0.3641492 -0.105895065 -0.1431304 -0.8558958
-0.5612123 0.2544092 -0.41789308 -0.36440843 -0.023693748 0.40392944 0.4897095 -0.27575263
0.31685707 0.3907649 0.4066648 0.0067985826 0.18774107 0.108677946 0.3886997 0.055300668
0.09929706 0.13833776 0.32073334 -0.31646177 -0.57494044 0.0014549722 0.23789379 -0.093560636
0.46588278 0.2679813 -0.26680985 -0.2878592 0.060821738 0.31636775 -0.06903953 0.11669302
0.06539007 -0.307057 0.44353777 -0.35871297 -0.09138558 0.08857136 0.09570425 -0.009159705
0.37493706 -0.04104912 -0.00457184 -0.11341603 0.100895815 0.6144032 0.1626371 0.29243928
-0.019856328 0.23752168 -0.6942748 -0.13477926 0.08615032 0.47973347 -0.1964693 -0.4760152
0.23416899 -0.21649335 -0.045139343 0.32543057 -0.5301576 0.15295662 0.17548935 0.1535705
0.17028023 0.02049307 -0.71553415 -0.024394874 -0.2398404 -0.041589506 -0.05505807 -0.1959395
-0.85572445 0.045198955 0.09546312 -0.115445204 -0.13442649 0.1804727 0.20786703 -0.054822665
0.46622983 0.09756313 0.48973674 0.14745171 -0.70854104 0.20901968 -0.032013755 -0.3476247
-0.022841005 -0.22406049 -0.5179169 -0.48653635 -0.28152114 0.048042744 0.22046813 0.18926257
-0.057142783 -0.46810558 0.19425754 -0.15937854 0.16189404 -0.12528095 -0.06500628 0.04709426
0.27316085 0.06782187 -0.37400758 -0.41657302 0.5442794 0.6975487 0.22331035 0.060680144
-0.1659892 -0.45002908 -0.041008014 0.51495004 -0.3913853 0.47809103 -0.6474018 -0.09238669
-0.275964 -0.32589114 -0.55917156 0.10658065 0.36559278 -0.115083136 -0.0063540586 -0.08397506
0.41864493 0.44400358 -0.32003945 0.27149072 -0.14270101 -0.2288562 0.49661633 -0.40217927
-0.49122676 -0.07971771 -0.68295485 -0.08155093 0.4942166 -0.9149355 0.06826629 0.40750948
0.40618858 0.4921686 -0.171717 -0.054762688 0.14498173 0.35898402 0.1142046 -0.085745536
-0.29982296 0.28165984 0.30542552 -0.19766748 0.3552276 0.4848107 -0.29711303 0.087949395
-0.17625006 -0.5469055 0.25462633 -0.080130465 0.54667383 0.4508336 -0.07453621 0.4543378

network_body._body_endoder.seq_layers.0.bias f4 [128]
00000000: 8f1e efba 9ac0 95bc 17f4 8d39 350d c03b
00000010: 73c7 36bc cbf2 60bc 6a5f a13a 3125 28bc
00000020: 2a15 bd3b d8c6 a73c a81d 583c cb69 033c
00000030: 1058 7c3c f9eb f83a e0f6 67ba 4453 32bc
00000040: 3375 26bc 0eb4 67bc 7af8 81bb e9e6 38bc
00000050: a7ab 823b 1f7d 12bb a813 acbb d1ca 37ba
00000060: cd17 0dbc 4132 d33b 3b54 9aba 8aee c83c
00000070: 011c 1cbc 746c 8dbc 80c3 113c 7748 933c
00000080: 0a2b d23c 1d34 7fbc 14d6 bf3c 8df3 12bc
00000090: 7ed0 f63a 783d 41bc 858c b2bb ffc9 7c3c
000000a0: f028 d23b e8bd a33c 1e6d 233d fd55 9ebb
000000b0: 672d f0bc 7f1b 953a a5cb abbb 8487 b53c
000000c0: 9c45 4bba fce5 003b b3c1 29bc 0b26 71bc
000000d0: 29be 843c f1f3 e03b 402f 873c 2a2c 82bc
000000e0: 013a 04ba 377c e7bb 1c0e 8ebc 07b0 b03b
000000f0: d2cd de3c d976 bd3b 8e9f 853c 6a3b b23c
00000100: e973 c73b e5d4 0c3d 7c35 d03c 4bb4 3338
00000110: 66eb 0dbb 596e dbbc fcf2 98bb 64ca 953b
00000120: f512 1bbb cd72 0139 d426 043b b0ce d0bc
00000130: 57af 5738 c12c 11bc 4ea9 533c 97de 7a3c
00000140: eaac 67bc 9c1c 1ebc eaff 2a3b cd33 ccba
00000150: ecaa 7d3c e339 553c d7b5 ca3a d985 5d3c
00000160: eb8a 4a3b 0ea2 fb3c 1d2c 343c 1ca9 2d3c
00000170: 7643 993b 30b9 10bc 7277 d03c 4547 78bb
00000180: c217 803c 9e64 a3bb 035f 6d3c 17ac be3a
00000190: d4cf ad3b e05a b4bb 38ea f4bb 6d80 ac3b
000001a0: d7a3 bbbb 50cf bc3c 3be9 d23b df9a 25ba
000001b0: e921 283d f6d4 0a3c 9b14 7a3a 97aa 4d3c
000001c0: 7a34 d53b 4f59 b7bb 49d0 7fbc 39ed bcbc
000001d0: 0962 36bb 11dc 9aba 232f b13c d90b 7339
000001e0: 786b 803c 972a a73a 865d 41bc bea4 23bc
000001f0: a9dd 5abc bd64 65bc c3b2 a5bc 6270 ad3b
-0.001824336 -0.018280316 0.00027075477 0.0058609494 -0.011155951 -0.013729761 0.0012311761 -0.010262773
0.005770345 0.020480558 0.013190664 0.0080208285 0.015401855 0.0018991224 -0.0008848738 -0.01088411
-0.010159778 -0.0141420495 -0.0039663883 -0.011285522 0.0039877477 -0.002235241 -0.0052513666 -0.0007011118
-0.008611632 0.0064451997 -0.001177437 0.024527807 -0.009528161 -0.017263629 0.0088967085 0.01797889
0.025655288 -0.01557639 0.02341751 -0.0089692 0.0018830446 -0.01179444 -0.00544888 0.015429019
0.0064135715 0.019988015 0.039898984 -0.004832028 -0.029318525 0.0011375992 -0.005242782 0.022159345
-0.0007754208 0.0019668331 -0.010361123 -0.014718543 0.016203957 0.0068650176 0.016502023 -0.0158902
-0.00050440436 -0.007064368 -0.017340712 0.005392078 0.027197752 0.00578199 0.016311433 0.021756846
0.0060868156 0.03438272 0.025416128 4.2844837e-05 -0.00216552 -0.026786016 -0.004667638 0.004571246
-0.0023662422 0.00012345165 0.0020164745 -0.025489181 5.1423292e-05 -0.008860768 0.012918783 0.015311859
-0.014140347 -0.009650376 0.0026092478 -0.0015579403 0.0154826455 0.01301429 0.001546557 0.013520681
0.0030905555 0.030716922 0.010996846 0.010599401 0.0046772314 -0.008833215 0.025447581 -0.0037884277
0.015636329 -0.0049863597 0.014487985 0.0014547136 0.005304316 -0.005503997 -0.00747421 0.005264333
-0.0057263183 0.023048073 0.0064364946 -0.0006317328 0.041047964 0.008473625 0.00095398136 0.012552879
0.0065065 -0.005595363 -0.015613624 -0.023062335 -0.002782943 -0.0011814852 0.021628922 0.000231787
0.015676245 0.0012753782 -0.011802083 -0.009988008 -0.013358512 -0.014001069 -0.020226842 0.005292938

network_body._body_endoder.seq_layers.2.weight f4 [128, 128]
00000000: 6370 05be 8eba 2d3b fbd0 d63b a25d 9bbd
00000010: eb24 90bd 9f93 25bc d481 583d 4dc8 f83b
00000020: 6212 d83c 7467 a2bb c903 ebbd 9e6c c63d
00000030: d456 8b3d f51f eebc 5c31 ec3d 0b16 433d
00000040: 0577 433d 138f a8bc 9b60 15bd 96e2 063e
00000050: 736c a9bc c5b0 6bbb e9a4 85bd 6976 fd3d
00000060: e885 1b3c a3a2 733d c62d 1c3d 98b8 58bd
00000070: 3b64 703d 5484 9abd 5621 9e3d cefc 00bc
00000080: c375 50bd 6e8b 4d3d 01ca 7a3d 8d77 9bbd
00000090: ef56 06be 13c7 2d3d aa02 9b3d 34ef d73d
000000a0: 9a49 34bd 4e80 65bb 8ee2 cf3c d50d 06be
000000b0: 510b 273d f194 15bc 0054 40bd 9679 30be
000000c0: 84b4 48bd c934 113e 6a18 e63d e4a5 103c
000000d0: ea5d 23bc 4554 393d 345e fa3b 5248 29be
000000e0: 05e6 9c3d 4140 143c efbb 74bd f522 1cbc
000000f0: 26dd a8bd 6ee3 c53d 6cca 61bd ad3b ee3d
00000100: a7a5 b8bd ebfc aabd 63f1 cabd 73e1 69bd
00000110: 93ef 6fbd 6fab 59bd 0526 13be 5d7e f9bd
00000120: 5f2d 45bd f87d ab3d 4905 15ba ce7f 70bd
00000130: 2e7d 123e 618f d8bb 1d9b 32bd e397 af3d
00000140: e627 b7bd b2ab a0bd aad4 ffbb f2f6 bbbd
00000150: 3dcd c73c 1735 32bd 1e7c 47be 8663 98bd
00000160: 5a56 04bd 1d28 8cbc 9eed 6a3d 21c6 a33d
00000170: 74e1 6abd a58d 2fbe 263f 233e b72b 13be
00000180: 5ca0 a43d 046d 97bc bb49 863d 1923 2a3d
00000190: b494 18be 575f 813d bcb3 093d 83b9 603b
000001a0: 45ee 9fbb 31dc 45bd 7f81 9f3d df9c de3d
000001b0: 4cde 04bc 17dd d4bc 5cca eb3d 39ce 153d
000001c0: e260 e73d 2034 383e c0ac d3bc b1ad 9cbb
000001d0: fb94 503e 359a 8cbd 4b14 a03d 946d 993d
000001e0: b437 28be f51b 19bd 8ae6 e43b 22a0 543a
000001f0: 374d c33d 4e3e 783d 6f6c 57bb 506d 24bd
00000200: c5f2 303e 35eb 69bd b133 9bbd 9242 7b3d
00000210: 2e73 543b 9dfd eb3d 80ed 213e 7894 d53d
00000220: 733d 6abd 1643 50be 22fc 8b3d e501 353d
00000230: af8b 24be 32d4 32be fac1 a4bc 133f 2e3b
00000240: 4642 d4bb f460 303e 04cc c33d 62fe 303c
00000250: 03b6 7e3d 3b62 e5bd 2e7b b43c 9b84 9d3a
00000260: d82f 5e3d f5f8 b7bc 14f4 e8bd 4fce 363e
00000270: 6eb9 3ebb cf57 98bd 93f6 84bc 85f6 57bd
00000280: d8cf 3e3b 6d85 ef3c f201 04bd 326d c2bd
00000290: 6919 eabd f504 8c3d 0227 3c3c e501 2bbc
000002a0: e527 b43d 0cda 03bd a841 0b3c eafc 2dbd
000002b0: 9463 25bd 4e66 bf3d adfe d0ba 3f2b bebc
000002c0: eb4e c43d 4c24 12be 42bb 7f3c d819 acbd
000002d0: 9410 2a3d 0431 d3bd 2273 9ebd 2f39 063d
000002e0: 3228 0c3e e763 75bd c967 88bd b64a 673d
000002f0: 914e 83bd 8066 d4bd 5b8e e9bc aaed 25be
00000300: 69e7 37be 3606 a1bd 0dac 693e f00a 08be
00000310: 750e 863d 997e 6ebc 65cc 06be 35c4 aabd
00000320: 6724 553d 3bf4 d5bd 24c0 b63d e6f3 c53d
00000330: 7be8 80bd fd04 09bd 3e25 d5bd 8b50 1b3d
00000340: 3ef2 bc3c 28f2 313d 1d13 f73d 5cea 113e
00000350: 3753 1bbe 3950 ea3c 3107 84bd 9fb8 c03c
00000360: f093 86bd 18bd d9bd d074 0b3e f129 d83d
00000370: 0baa c03c c004 9fbc 252d 3ebc 72d7 46be
00000380: 25ac c8bd 7f0c b6bd 43b3 0d3e f4b5 163e
00000390: 5f1d 3f3e fd02 1abb d08a 9cbe 4b3b 543c
000003a0: d0b5 babd 820f 3e3d 3295 9abd 0aa1 a93d
000003b0: 8389 bb3c 03eb d43d 618d 08be e0c8 08be
000003c0: 23b2 93bc d181 3c3c 1d0c 22bd 4487 f73d
000003d0: 318c e8bd cc64 f83d 11d4 c83d 73bc e8bd
000003e0: 9679 ecbb 6a5d 033e 7838 8ebd df00 e2ba
000003f0: 042f 2dbd be91 b2bd 2396 bc3d ce93 353e
-0.13031153 0.00265089 0.006555674 -0.075862184 -0.070382915 -0.010105996 0.05285819 0.007592237
0.026375953 -0.00495618 -0.11475331 0.09688686 0.068036705 -0.029067973 0.11532852 0.047628444
0.047720928 -0.020576036 -0.036469083 0.13172373 -0.020681595 -0.0035963517 -0.06525595 0.123761006
0.009492375 0.059481274 0.03812959 -0.052910417 0.058689337 -0.07544771 0.07721202 -0.007872773
-0.050893556 0.0501818 0.061227802 -0.07591162 -0.131191 0.04242618 0.075688675 0.10543671
-0.044015504 -0.0035019103 0.025376584 -0.13091214 0.040782277 -0.009129749 -0.04695511 -0.17233881
-0.049000278 0.14180292 0.11235125 0.008828614 -0.009971121 0.04524638 0.0076406244 -0.16531494
0.0766106 0.009048522 -0.05974954 -0.009529819 -0.08245306 0.096625194 -0.055124685 0.11632476
-0.09015971 -0.083490215 -0.09909322 -0.05709977 -0.058578085 -0.053142007 -0.14369972 -0.12182305
-0.048138972 0.08373636 -0.00056846865 -0.058715634 0.14305565 -0.006608889 -0.04360496 0.08573892
-0.08943157 -0.07845248 -0.007807334 -0.091779605 0.024389857 -0.04350766 -0.1948094 -0.074408576
-0.032308914 -0.017108971 0.057355516 0.079967745 -0.057343915 -0.17143877 0.15942058 -0.14372145
0.080383986 -0.0184846 0.06557032 0.041537378 -0.14900476 0.06317013 0.033618674 0.003429026
-0.004880699 -0.048305694 0.07788371 0.108697645 -0.00810964 -0.02598433 0.11513206 0.036573622
0.11297776 0.17988634 -0.02583921 -0.004781448 0.20369332 -0.0686535 0.078163706 0.074916035
-0.16427499 -0.037380178 0.00698549 0.000811102 0.09536212 0.060606293 -0.0032871028 -0.04014331
0.17280109 -0.057109077 -0.07578219 0.061342783 0.0032417285 0.11522982 0.15813255 0.10428709
-0.05718751 -0.20338091 0.068352 0.04419126 -0.1606891 -0.17463759 -0.020112026 0.0026587888
-0.006477627 0.17224485 0.09560397 0.010802837 0.0621853 -0.112003766 0.022031393 0.0012017669
0.054244846 -0.02245758 -0.11374679 0.17852138 -0.0029102224 -0.07438623 -0.016230857 -0.052725334
0.0029115584 0.029238427 -0.032228418 -0.094934836 -0.11430628 0.06836883 0.01148391 -0.010437463
0.08796672 -0.032190368 0.00849954 -0.042477526 -0.04037817 0.09345685 -0.001594504 -0.02321398
0.09585365 -0.14271659 0.015608611 -0.08403367 0.041519716 -0.10312083 -0.077368036 0.03276938
0.13687208 -0.059909727 -0.066604204 0.056467734 -0.0641147 -0.10371113 -0.028510263 -0.16203943
-0.1795937 -0.07862513 0.22819538 -0.13285422 0.06545726 -0.01455655 -0.13163908 -0.08338205
0.05203667 -0.10446974 0.08923367 0.096656606 -0.06294342 -0.033452023 -0.10407494 0.03791861
0.023064729 0.04344383 0.120641924 0.14249557 -0.15168463 0.028602706 -0.06446684 0.023525534
-0.065711856 -0.1063177 0.13618779 0.10554875 0.023518583 -0.019411445 -0.011607443 -0.19418123
-0.09798459 -0.08889102 0.13837914 0.14717847 0.18663548 -0.0023500316 -0.30574656 0.01295359
-0.09116709 0.04640151 -0.07547988 0.08282669 0.02289272 0.103963874 -0.13335182 -0.13357878
-0.018029278 0.01150556 -0.039562333 0.12086347 -0.113548644 0.121286005 0.098060735 -0.11364069
-0.0072166426 0.12828603 -0.06944364 -0.0017242691 -0.042281166 -0.08719204 0.09208324 0.17732164

network_body._body_endoder.seq_layers.2.bias f4 [128]
00000000: d657 a7bb 4477 e43b 3dd7 eb3a 0a33 1ebc
00000010: 3029 19bc 5ebd fc3b ed9a 353a 6a61 d13b
00000020: 0d04 b83c ee31 d33c e7cd d9bc 5ef1 843c
00000030: d8c7 cbbb 7fbc fcbb 000c 1d3c 9591 b93c
00000040: 70bd 27bc 7ef3 8abb 6bd5 16bc 43db 99bc
00000050: f913 6abc ec76 4b3c f811 77bc de5f 4f3c
00000060: 0d0f 08bb 4114 093c 1abb c5ba 7175 323c
00000070: 4f59 4bbc 7f54 48bc e80b 83bc 1562 c13b
00000080: 4cdf 2bbc ab18 b33a 100d d13c 5d65 23bc
00000090: b390 d63c 1a50 6dbc 2902 383c dd8f 44bc
000000a0: 7799 13bc 499d db3c 6ea5 cf3c 6031 b3b9
000000b0: f3e6 0e3c 0241 fc3b 7da9 e83b ab64 a53c
000000c0: 8ca1 91bb 9339 80bc a398 37bc 4870 c33c
000000d0: 501a d13c 8ec6 c43c 8f2e 04bb 2593 77bb
000000e0: 0b34 9c3b 9fea 833c 7617 70bb 4d38 0b39
000000f0: 19a7 52bc 2c7b 2e3c 946e 793c cf0b 983c
00000100: 9db1 72bc 4b85 11bc 8b35 36ba 479f 2e3c
00000110: 6e3f a8bc d81f 423c 2c80 753c 70e0 893b
00000120: c3c1 00bc 441f fdbb aeba 8f3c fcfc de3b
00000130: 67f6 203c 9a6a 5e3c 93b7 32bc 0516 d33c
00000140: e386 63bc 2ead 73bc 1973 88bc 730a 6bbc
00000150: 4574 dbbb 8a14 3dbc aaa1 3cbc a800 29bc
00000160: 7065 42bc 5dba 60bc 6de5 b03b 4f3e 5b3a
00000170: b481 22bc 8712 903b c7cf 12bc 0de9 5ebc
00000180: 1369 4a3c e04b b6bc 367b 843c cbf6 c439
00000190: e745 34bc b3b5 5bbc 63f1 963c b7cf 34bc
000001a0: c496 f23b 4de5 0fbb 7681 923b f20e 82bc
000001b0: 29c3 74bc 9cd2 69bc 227e d03a 7ecc 8a3c
000001c0: e566 3e3c 92d2 a53b ec31 85bb d722 fe3c
000001d0: 11da 483b b543 993c b42b ae3c a222 cfbb
000001e0: c8d2 a23c 5d50 67bc 6773 ea3b 46f6 d33c
000001f0: 0cec 533b 2d58 873b 1871 cabb 0097 cc3c
-0.0051069064 0.0069722254 0.0017993223 -0.009655723 -0.009348199 0.007713004 0.0006927688 0.0063897865
0.022462869 0.025780644 -0.02658744 0.016228374 -0.0062188916 -0.0077129 0.009585381 0.022652427
-0.0102380365 -0.0042404523 -0.009206156 -0.01878131 -0.014286988 0.01241849 -0.015079968 0.012657134
-0.0020760924 0.008366645 -0.0015085668 0.010892258 -0.01241143 -0.012227177 -0.015996888 0.005901585
-0.01049025 0.0013663968 0.025518924 -0.009972897 0.026192045 -0.01448443 0.011230984 -0.01199719
-0.009008757 0.026808398 0.025347438 -0.00034178328 0.008722055 0.007698179 0.0071002827 0.020189604
-0.0044443067 -0.015652454 -0.011205825 0.02385725 0.025525242 0.02402046 -0.0020169353 -0.0037776914
0.004766946 0.016103087 -0.0036635078 0.00013277047 -0.012857222 0.010649484 0.015224118 0.018560318
-0.014812854 -0.008881877 -0.00069507275 0.010658092 -0.020538058 0.011848412 0.014984172 0.0042076632
-0.007858696 -0.0077246744 0.01754507 0.0068050604 0.009824372 0.0135752205 -0.010908025 0.025767336
-0.01388714 -0.014872832 -0.016656445 -0.014345753 -0.00669721 -0.011540541 -0.011513153 -0.010315098
-0.011865005 -0.0137163075 0.0053984434 0.0008363472 -0.009918619 0.00439674 -0.008960671 -0.013605368
0.012354153 -0.022252977 0.016172033 0.00037567908 -0.011002994 -0.01341002 0.018425649 -0.011035851
0.0074032266 -0.0021956742 0.0044709994 -0.015876267 -0.014939108 -0.014271405 0.0015906731 0.016943213
0.011621212 0.0050605023 -0.004064789 0.031022472 0.0030647556 0.018709043 0.021261074 -0.006321267
0.019875899 -0.014118281 0.0071548703 0.025874268 0.003233674 0.0041303844 -0.0061780326 0.024974346

action_model._continuous_distribution.log_sigma f4 [1, 2]
00000000: c6db 303c 4c21 f5ba
0.010794586 -0.001870194

action_model._continuous_distribution.mu.weight f4 [2, 128]
00000000: 9bdd a23c bfaf d7bc 6970 aa3c a3e0 c6bb
00000010: 9952 023d d347 bfbc c224 73bc a976 6b3a
00000020: 304e 14bd a0dc 6bbd 94a5 3b3c c9e5 9fbc
00000030: 2b97 85bc 3bc3 2dbc 5c47 1fbc 5e74 2cbd
00000040: b9cd 123c cdb1 bf3c 20ed 76bc 7058 2eba
00000050: 94f5 073d e9f6 c83c a9c7 ba3b ebaf 9dbc
00000060: e27c 063d 1a6c 54bc 8162 25bc f5a2 703b
00000070: 087d 963b 579e 103d e788 843c 275c 26bc
00000080: 0d5e 093d 9dd3 34bc b0b3 aabc 89d1 173c
00000090: 9208 d2bb 7405 403c 6441 bbbb 5ac0 663c
000000a0: df48 b53c ef02 b8bc 28ba 3cbd 0dbf d13c
000000b0: 3b58 85bc 85df bbbc c669 80bc 4dca 35bc
000000c0: f9ad 0d3d 1fe5 ea3b 16f8 f63c b0cf 6abc
000000d0: f79a f7bb 72fc 97bc 7e90 a6bb a4a0 f53b
000000e0: 1edf 8ebc 4f5e 18bd a470 8fbb 9259 88bb
000000f0: c2c1 923c 2105 9e3b 34d0 1bbd aa0b e23b
00000100: f7cc 523c 8635 0e3d 9974 fc3c f22a 7c3b
00000110: 853a 773c c93c e9bc 90fc 84bc cd62 5dbc
00000120: 6697 6abc aff1 1f3c dfa6 9bba e255 dd3c
00000130: 2cc4 e5bc e641 f2bb d06d 0c3c f657 05bd
00000140: abd6 cb3b 44b5 b43c 1727 71bb 7c5c 633c
00000150: 2fd6 bcbc c002 d93c 5edf 483c 042a e43c
00000160: 8362 9a3c ffb8 0835 e0c1 14bd 2420 8abc
00000170: a8ff f83c b441 b7bc 8d49 8d3c bb2f 15bc
00000180: 07fd f4bc af73 4c3c a6ca 01bd 0d07 a6bc
00000190: 736f a63c 3f81 ce3b 12fd be3c b336 cb3b
000001a0: 7934 9fbc 8b25 b33c ca36 22bd 85b6 953c
000001b0: a0ef 9f3c e170 8b3c ad48 d93b 0193 1b3c
000001c0: febd 6a3c 52a4 463a 0462 8fb9 f4fc a4bc
000001d0: 66e2 a9bc d7a6 c1bc b538 cfbc 62fb cf3c
000001e0: 6f69 eebc d23f dabc 9f11 59bc 330d 5abd
000001f0: e9d3 6cb9 7f65 343d c6ca f13c a728 f8bc
00000200: dde6 acbc e4aa 44bc aa65 803c 2933 ffbc
00000210: c411 a4bb e402 0dbc 6628 fcbb 8f94 b33b
00000220: 0cf5 1ebc 48c3 be3b 6a16 efbc bb4b 253d
00000230: 409f 8cbc 8599 79bc 6dc8 c43b 937d 4c3b
00000240: 8ecd f1bb 94e7 d2ba f3b2 a9bc f411 5bbc
00000250: af3e f63a 842f e23c 79df abbc 5b1c 3b3d
00000260: 1630 03bd 6a03 b8bb 743a 4ebc 2508 563c
00000270: 0ad8 0bbc d989 c8bb 41e3 aabc 19d2 2b3c
00000280: 8a01 8dbc 22ca 3fbc cc72 723c 9322 f4bc
00000290: ad6d 093d 35ca c1bc 8903 723c be6d 9cbc
000002a0: bdc3 95bc 0319 0b3a fb74 d53c 3691 b1bc
000002b0: a265 b5ba e2d5 a23a b9ef 76ba 92d5 533c
000002c0: 9b38 d4bc 11f1 02bc 1b47 1abd cfd2 e83b
000002d0: 9883 693c 3305 5c3a ddd4 62bb f145 113b
000002e0: 3472 dabb 31c5 8ebc 2d41 12bd d090 8a3c
000002f0: 9a2e 8b3b 1d72 fd3c 8b47 0d3d 048f f83c
00000300: 8246 0ebc 1576 b8bb 459b a03c 486e b63c
00000310: 23a2 fabc b289 b2bc 2d83 0e3c 8e73 57bb
00000320: eada b5bc d998 24bb ed5f 2f3c 5ce1 b93b
00000330: 7dc0 81bc d678 d13c 77b1 c4bb d27e e1bb
00000340: f755 c6bc faf1 9abc 527c dcbb 2f6b b8bc
00000350: 54f9 21bd 89c3 b2bc d481 efbc d1f2 9bbc
00000360: ad60 03bc 5c2e 7cbc 51d3 583c 3105 02bd
00000370: a221 b9bb 5672 2dbc 46fb 3fbd c799 77bc
00000380: af98 e63c 76b7 0cbd f2ef bd3c 7c24 22bd
00000390: ec62 1dbc 583a 05bc a3ac 7c3d 9a6d 97bb
000003a0: 6cd4 b4bb bf08 833b 2246 52bb db1f efbc
000003b0: 814a 2dbd 5fbc 42bc 11f5 963b 8861 603d
000003c0: 3880 a33c f1ff c23b eeff 3ebb 015e db3c
000003d0: f4c6 d1bc 8995 ac3c d89e 7abc e2fc 6d3b
000003e0: f449 103c c52a aabc 0d6c 9a3b 221b 8d3c
000003f0: 0c43 363c 9086 a53b 1294 c1bc 05a9 b33c
0.01988106 -0.02632892 0.020805554 -0.0060692593 0.031817053 -0.023349678 -0.014840307 0.00089822203
-0.036207378 -0.05758345 0.011453051 -0.01951875 -0.016307434 -0.010605629 -0.009721603 -0.042103164
0.008960181 0.023400212 -0.015071183 -0.00066507515 0.033193186 0.024531798 0.005700071 -0.019248923
0.03283394 -0.012965227 -0.010094286 0.0036718224 0.0045925416 0.035307255 0.016178561 -0.010153807
0.03353696 -0.011036781 -0.020837635 0.009266266 -0.006409713 0.01172005 -0.0057145823 0.014083946
0.022129474 -0.022462336 -0.04607597 0.025603795 -0.016277423 -0.02293373 -0.015675437 -0.011095596
0.03458974 0.0071684266 0.030147593 -0.014331743 -0.007556315 -0.018552992 -0.005083143 0.0074959565
-0.017440375 -0.037199315 -0.0043774415 -0.0041610682 0.017914657 0.0048223888 -0.038040355 0.006898363
0.01286625 0.034719013 0.030817317 0.0038477746 0.015089636 -0.028471367 -0.016233712 -0.0135123255
-0.014318323 0.009762212 -0.0011875293 0.027018491 -0.028047644 -0.0073931096 0.008571103 -0.03255459
0.006220659 0.02205909 -0.003679698 0.01387703 -0.02305135 0.02649057 0.012260286 0.027852066
0.018845802 5.093315e-07 -0.036317706 -0.016861029 0.030395344 -0.022370197 0.017246986 -0.009105618
-0.02990581 0.012478753 -0.0316874 -0.020267034 0.020316815 0.0063020284 0.023314033 0.006201589
-0.0194342 0.021868488 -0.039603032 0.018275509 0.019523442 0.017021598 0.006630978 0.009495498
0.014327524 0.0007577586 -0.00027348113 -0.020140149 -0.020737838 -0.023639126 -0.025295595 0.025388423
-0.029103009 -0.02664176 -0.01324883 -0.053235244 -0.00022585657 0.044042107 0.029515635 -0.030292822
-0.021106178 -0.012003634 0.015673477 -0.031152325 -0.0050070006 -0.008606646 -0.0076952456 0.005480356
-0.009701978 0.005821619 -0.029185493 0.040355425 -0.01716578 -0.015234356 0.006005338 0.0031202778
-0.0073792404 -0.0016090744 -0.020715212 -0.01337098 0.0018786992 0.027610548 -0.020980584 0.04568134
-0.03202828 -0.0056156414 -0.0125871785 0.013063465 -0.008535394 -0.0061199483 -0.020860316 0.010487103
-0.017212648 -0.011705907 0.0147978775 -0.029801643 0.03355186 -0.02365599 0.014771351 -0.019095298
-0.018281812 0.0005306156 0.026056757 -0.021675687 -0.0013839493 0.0012423361 -0.0009419877 0.012929337
-0.025905898 -0.007992045 -0.037665468 0.0071052085 0.014252566 0.0008393109 -0.003461174 0.0022166932
-0.006666446 -0.017428013 -0.035706688 0.016914755 0.0042474987 0.030938203 0.034492057 0.030341633
-0.008683803 -0.005629311 0.019605288 0.022269383 -0.030594891 -0.021794174 0.008698267 -0.0032875272
-0.022199113 -0.0025115518 0.010704023 0.005672617 -0.015838856 0.025570314 -0.006002601 -0.0068815732
-0.024210913 -0.018914212 -0.0067286873 -0.022512047 -0.03954442 -0.021821754 -0.029236712 -0.019036682
-0.008018655 -0.015391912 0.0132339755 -0.031743232 -0.0056497613 -0.010586342 -0.046870492 -0.015112347
0.028148977 -0.03435465 0.023185704 -0.039585575 -0.009606104 -0.008131586 0.061688077 -0.00462122
-0.0055184867 0.0039988453 -0.003208526 -0.029189995 -0.04230738 -0.0118857315 0.004606851 0.054780513
0.0199586 0.0059509207 -0.0029144245 0.026778223 -0.025607564 0.021067398 -0.01529666 0.003631406
0.008806694 -0.020772347 0.0047125877 0.017224852 0.011124384 0.0050514415 -0.023630176 0.02193118

action_model._continuous_distribution.mu.bias f4 [2]
00000000: d732 25bc 6d62 7a3c
-0.010082922 0.015282256
