3D/results/MoveToGoalRandom/MoveToGoal/MoveToGoal-154134.pt (torch, 454939 bytes, 36 tensors)

network_body._body_endoder.seq_layers.0.weight f4 [128, 10]
00000000: dc50 9e3d f116 90bd f52d 783e 3144 76be
00000010: 7656 653e 4f9a 443e bec8 f63d df82 04be
00000020: 6f4b 143d 0fe6 893e 618b 4fbe 915d 0cbd
00000030: b1b3 0a3e d8ba 97bc 0cf1 0a3d 864a d6be
00000040: 38d3 05bf 62bb 0fbe 025b 363c eb88 c0bd
00000050: 31d4 ca3e fd4a e53e d1af 00bf 90d5 413d
00000060: bcf3 793d cd61 4d3e 87c6 013e 9ea9 4dbf
00000070: 4ccc 673e a6ec c43d cc33 f2be f1a6 113d
00000080: 1959 c53d 9a20 2d3d 3af6 efbe 0592 5bbe
00000090: 1c21 02bf 5db3 bcbe 4701 6cbd ade2 54be
000000a0: fc7c d93a 2d42 6b3c 0a00 91bd e504 c23e
000000b0: ca75 a7be 9d2a dc3d 48f8 36be 370d 703d
000000c0: b772 3f3f 390d 6abe 35f4 64be f86c 0cbe
000000d0: 6519 efbc 1b0c c8be db82 10bb a5d0 1dbe
000000e0: f6ea 9c3d 7f99 1bbf ae41 93be 0ce4 343e
000000f0: 0868 e0be a156 09be 70d7 ed3e 6f9e 773e
00000100: 912e 1d3e 8e42 873d 5992 c63d a736 d33e
00000110: 9716 a23e 2b0d 77be 4c94 0bbc 229e d9be
00000120: 779c 06be bbff 103f b2e2 673e a2b3 9b3e
00000130: 9d46 d4be d203 8a3e f935 0ebe 843b 663e
00000140: 9e04 ff3e 8850 1fbe 61df aa3d da57 043e
00000150: a46a bbbe 1b33 fe3c 6eab 673e 26b1 c4be
00000160: 61a6 6bbd 584a 9fbc 194e 133e 04b2 c4bc
00000170: 1df1 683e fc52 b1be aa87 39bf 0006 383f
00000180: 421c 7abe fe50 833e 5b82 753e 5bd9 ec3c
00000190: 6ccc ab3e f643 8fbd d2e5 bb3c ae1f 1fbf
000001a0: a56c 293f 20de 193e 4060 f93d 78ca 153d
000001b0: b0fd 35be 7562 b3bc 45ff b13d b3cb 3abe
000001c0: 1a76 d43d e2d7 aa3e 2cbb 42be 0af6 413c
000001d0: ce36 47be f7ba ef3e 7d3b c3bd 2baf 153e
000001e0: d010 b33d 4feb 1ebe 73e6 73be 8330 96bd
000001f0: 6c91 3cbd 1acc d23e c1fb 0a3e 8766 54bf
00000200: f5ba 973e 6bfe 8fba ef77 10bf 9ca0 80be
00000210: 163f 373e 4db2 9e3d 09e4 d3be 7100 fe3c
00000220: b477 823e 3f39 f03d 0ad5 3dbe b969 203e
00000230: 8c2d c83e 5baa 823d 64cf 353f b4c4 01bb
00000240: 1bf6 373e e210 00bf 8465 67bc 0548 68be
00000250: 431b 743e fd7e 553d a30b a73d ff7c b2be
00000260: b8d7 65be 4e2c f83e 9981 8e3d 29b3 0a3e
00000270: a05b d5bb db56 dabe 523c 803e 1127 e2bd
00000280: c83a 32be 3f65 63be eebb 013e 2f50 08be
00000290: 7187 ddbd 624c 04bf b91f d93e 597e e43e
000002a0: dcd8 5e3e da41 41be 6f71 56bd d157 92be
000002b0: 31e6 8abe 8a92 b0be 723e 8cbe 731d 713e
000002c0: e856 e13e a555 1abf 9144 95be 5c16 ddbe
000002d0: d85a 113f cae0 3dbe bb7c 0a3f 21ed 00be
000002e0: ea7e 0a3f 65a7 523f a6da 0f3e 9ffc 7bbe
000002f0: 9fa3 a93c 3b89 adbe ae79 42be e189 153d
00000300: 933b a73d a413 c43e 9bbe 3abf 41c0 e0be
00000310: 5b4e a43e 415b 36bf f797 f13e 8421 06bf
00000320: 7bd5 41bf 5eeb 073d 9e9c 08bf 2815 b2bc
00000330: aca3 c0be 6bda ce3e 18db 203f 11e8 eebe
00000340: 58c4 763e c38c 7abd 89b8 5c3e b416 bfbd
00000350: 2fa9 9abe aca7 7bbe 7fc4 09bf 4bef 1b3f
00000360: 8bde e8bd b519 1e3e 7842 cf3c a834 483d
00000370: edf7 45bd ca44 673e c975 193e af99 62bd
00000380: 64b3 c33d 808c 013f 5363 89bd e430 acbe
00000390: b5c2 033f 7197 c4bc 8db5 64be 8edd 9b3e
000003a0: 045f e3be bd91 a13d 1c00 8abe 3fb6 9a3b
000003b0: 362e c9be b1b5 60be a0ea db3d 5d01 f03c
000003c0: ed0f d23e 0d1c c8be dc6c 223e 109f 79be
000003d0: 2e6d 78bf 4a63 18bd 733a 2abf b1db f83e
000003e0: f75f df3d d5f8 79be 11c1 e83d 3e89 fd3e
000003f0: 555b 173f 6590 913e 9a62 3d3f d3f9 05be
0.077302665 -0.07035626 0.24236281 -0.2404945 0.22396263 0.19199489 0.12050007 -0.12940548
0.03620475 0.26933333 -0.20268013 -0.03426892 0.1354511 -0.018521711 0.033921286 -0.41853732
-0.5227542 -0.14036325 0.011130096 -0.09401115 0.39615014 0.44783774 -0.50268275 0.04732281
0.06102346 0.2005684 0.12673388 -0.8033694 0.22636527 0.096154496 -0.47305143 0.0355596
0.09636135 0.04226742 -0.46867543 -0.21442421 -0.5083177 -0.36855593 -0.057618406 -0.20789595
0.0016593034 0.014359039 -0.070800856 0.3789436 -0.32707053 0.10750315 -0.1786815 0.058606353
0.74784416 -0.22856607 -0.22358783 -0.13713443 -0.029186914 -0.39071736 -0.0022050652 -0.15411623
0.07662003 -0.6078109 -0.28761047 0.17665118 -0.4382937 -0.13411953 0.46453428 0.24181531
0.15349795 0.06604491 0.09695882 0.41252634 0.3165786 -0.24126117 -0.008519243 -0.42503458
-0.13145624 0.56640214 0.22645071 0.30410486 -0.41460124 0.2695604 -0.13887776 0.22483641
0.4980821 -0.15558064 0.083433874 0.12924138 -0.36604798 0.031030228 0.22623989 -0.38416404
-0.05753172 -0.01944463 0.1438526 -0.024010666 0.22748227 -0.34633625 -0.7247263 0.71884155
-0.24424842 0.2564773 0.23975508 0.028912237 0.335544 -0.069953844 0.022936735 -0.62157714
0.66181403 0.1502614 0.12176561 0.036570042 -0.17772555 -0.021897534 0.08691267 -0.18241768
0.103740886 0.3336783 -0.19016713 0.011838445 -0.194545 0.4682233 -0.09532831 0.14617603
0.08743441 -0.1551945 -0.23818378 -0.073334716 -0.046037123 0.41171342 0.13572599 -0.82968944
0.29634824 -0.0010985857 -0.56433004 -0.25122535 0.17895159 0.07748852 -0.41384915 0.03100607
0.2548195 0.11729669 -0.18538299 0.1566533 0.3909725 0.06380149 0.7101958 -0.0019801082
0.17964976 -0.5002576 -0.014123324 -0.22683723 0.23838525 0.05212306 0.081565164 -0.3486099
-0.22445571 0.48471302 0.069583125 0.13544907 -0.0065111667 -0.4264439 0.2504602 -0.110426076
-0.17405236 -0.22206591 0.12669346 -0.13311838 -0.10816849 -0.5167905 0.42407015 0.44627646
0.21762413 -0.18872777 -0.052354272 -0.28582624 -0.27128747 -0.344868 -0.27391392 0.2354639
0.44011617 -0.60286933 -0.29153875 -0.4318112 0.5677924 -0.18542781 0.54096574 -0.12590457
0.54099905 0.82286674 0.14048252 -0.24608086 0.020707903 -0.3389376 -0.1899173 0.036508445
0.0816566 0.38296235 -0.7294709 -0.43896678 0.3209103 -0.7123299 0.47186252 -0.5239489
-0.7571637 0.033183448 -0.5336398 -0.021738604 -0.37624872 0.40401015 0.6283431 -0.46661428
0.24098337 -0.061169397 0.2155477 -0.09330502 -0.30207202 -0.2457568 -0.53815454 0.6091201
-0.11370572 0.15439494 0.02530025 0.048878342 -0.048332144 0.22584835 0.14986338 -0.055322345
0.095557004 0.5060501 -0.06708398 -0.3363105 0.51468974 -0.023997994 -0.22334881 0.3044247
-0.4440843 0.078891255 -0.26953208 0.0047214325 -0.3929307 -0.2194431 0.107381105 0.029297525
0.41027775 -0.390839 0.15861839 -0.24377084 -0.97041595 -0.037204064 -0.66495436 0.4860511
0.10906976 -0.24411328 0.113649495 0.4951877 0.59123737 0.28430477 0.7397858 -0.13083582

network_body._body_endoder.seq_layers.0.bias f4 [128]
00000000: 7361 713c d6d9 afbc 0aae e73c 004b b13c
00000010: e78a 823c eb6a adbb 4d78 423c b820 0bba
00000020: 5bfe ddba 2d0d 563c eaf3 71bc 33b5 fe3c
00000030: 6465 06bd 6285 48bc acfc a83c 3e1d 5c3b
00000040: e574 553c f7f9 153c e515 473b 1495 cd3c
00000050: 4619 353c 820e b83c 3d66 73bc 654b 493b
00000060: b606 103b 2327 bd3a a20f b83c e580 f53c
00000070: 7d87 0fbc 0ceb 3b3c 738b 023c 46dd bb3c
00000080: fd55 93bc f4ff 3d3c 40f8 dc3c bd73 d23a
00000090: e7a0 c7bb a6a8 2a3c 8da5 e83c 4080 3dbc
000000a0: e6b9 bebb 91a6 95bc 01f9 1abc 6eb2 703c
000000b0: c978 df3c 9b3c aabc c9e0 6b3c 2111 9c3b
000000c0: 71d7 a63c 0008 e13c 765a 1f3b 93ca 7b3c
000000d0: aad0 2cbb bd0e a43c d465 bcbc a41d 99bb
000000e0: 0ddb 393d f04a 7c3c 6c2a ba3c e0b9 cdbc
000000f0: 3a8e ad3b b184 f53c ac93 863c 0bcb 723c
00000100: 6a14 263c 61dc abbb 2169 62bc 5a8c 193d
00000110: cb97 3a3d 37f4 14bc a354 223d c962 5f3c
00000120: 1ef7 a03c 50c0 fe3c e1c6 9c3c 8062 563c
00000130: 6b99 bdbb 679a 8f3c f2e0 8ebc 2fd4 523b
00000140: 7440 27bb 675a 2f3c c1c5 fbbb b2a3 a03c
00000150: 7020 65bb 8ca5 a43c 0dcc 223c 6620 e53c
00000160: c82d ecbc 83f6 673d 9b9b 193d 42d6 c43b
00000170: 4186 2d3d 8137 f0bb e0d8 88bc 9fab 203a
00000180: 283d b13c 1d38 e6bc 2238 ebbc 09e0 9e3d
00000190: 04c0 b13c e687 683b bff4 403d ddd0 01bc
000001a0: 5b92 223d f7ca de3c c4db a23c 67eb 773b
000001b0: 681c cabc 5fc4 30bc 6854 8e3c d5af 73bc
000001c0: b7f8 4d3d c856 a83c e515 cd3b dc8f a6bc
000001d0: 9190 fb3c e4bb 8b3c 2a15 d9bb 4104 90bb
000001e0: 8815 a83c 7257 a1bc 7c99 9b3c bae4 c33c
000001f0: 6cc1 dd3c 1859 46ba eabd 9a3c d79f 893c
0.014732706 -0.021466177 0.02828123 0.021642208 0.015935374 -0.0052922866 0.011869502 -0.00053073047
-0.0016936766 0.013064665 -0.014767626 0.031092262 -0.032811537 -0.012238832 0.020628296 0.0033586766
0.013028358 0.009153835 0.003037804 0.0250955 0.011053389 0.022467855 -0.0148559185 0.0030715105
0.0021976656 0.0014431219 0.022468392 0.029968688 -0.00876033 0.011469614 0.007967818 0.02293266
-0.017985338 0.0115966685 0.026973844 0.0016056221 -0.006092179 0.0104161855 0.028399253 -0.011566222
-0.0058205007 -0.018267902 -0.009458781 0.014690978 0.027279275 -0.020780852 0.014396855 0.004762784
0.020366402 0.027469635 0.0024315394 0.015368122 -0.002636949 0.020026559 -0.022997774 -0.004672723
0.04537492 0.015398726 0.022725306 -0.025113046 0.0052964957 0.029970499 0.016427837 0.014818917
0.010136703 -0.005244777 -0.01381901 0.037487365 0.045554917 -0.0090914285 0.039631497 0.013634392
0.019649085 0.031097561 0.019137802 0.013085008 -0.005786111 0.01752968 -0.017441247 0.0032169928
-0.0025520595 0.010702706 -0.007683486 0.019609306 -0.0034961961 0.02009847 0.009936345 0.02796955
-0.028830424 0.056631576 0.037501913 0.006006987 0.042364363 -0.0073308353 -0.016704977 0.0006129089
0.021635607 -0.028102929 -0.02871329 0.07757575 0.021698005 0.0035481392 0.047108408 -0.007923332
0.039690357 0.02719639 0.019880183 0.003782952 -0.024671748 -0.010789006 0.017374232 -0.014873465
0.05028602 0.020549193 0.0062587135 -0.02033227 0.030708583 0.017057367 -0.0066248374 -0.0043950384
0.02051808 -0.019695017 0.018994085 0.023912776 0.02706977 -0.00075663766 0.018889386 0.01679985

network_body._body_endoder.seq_layers.2.weight f4 [128, 128]
00000000: 8261 153b 5b38 0ebe 6477 8abd 5f15 543c
00000010: 179d 553d f302 a1bc c12f 263e 1eaf 11be
00000020: 323c 16be d9a1 23bd db22 023c b0b5 1b3e
00000030: eb71 1dbe 05b8 0ebc 00ad 86bd ad7a 803e
00000040: 984d 8d3c 4ac4 e93c 9599 3d3d 60b7 6c3c
00000050: 4d23 323e 81c1 fc3d ea0c 263d 9213 293c
00000060: 9bda 6a3d d2fa 89bd d9d2 2a3c 1002 153e
00000070: 82c5 8f3a 8dba a63d 11e9 3e3e d36f 203e
00000080: f6d8 813d 0b91 fa3d 88c5 d93c 4716 f63d
00000090: d8a1 803c ae2b b2bd 60ea 943d a832 88bc
000000a0: 5f92 013d cc6c 253c 73b0 debd 1cc3 bcbd
000000b0: c965 003e 4d0a 563d b40f debd 2456 16bd
000000c0: ad85 233c 9472 7fbd 6bc5 1c3d 2405 a93b
000000d0: 9324 123d 8d2a c83c 7e9a fb3c 3c41 d2bc
000000e0: ebf1 a4bd 0ae4 923d 1c0d d9bd 6c90 b9bc
000000f0: 77dd ae3d baca 02bd dee0 d7bd 133b 91bd
00000100: d450 9dbd 00cd 97bc 830f 783d 1201 8b3d
00000110: 423e 333d 0937 0b3e 5de6 1c3d b0a8 983e
00000120: 19d5 73be ea5b 9cbb 6ebc 333d dd4e 56bc
00000130: 75e5 99bd edd3 d4bd fc80 e3bc 48e0 a03d
00000140: 5c4d 21be 44e0 07bb 8464 013d 72be acbd
00000150: 58fb ae3d b006 713d 719a c6bd 595c 45bd
00000160: 7e35 bc3d 8210 cabd ebf0 1a3d b4a8 bdbd
00000170: 20ef daba adb0 7dbd 4d82 4b3d 36f5 d4bd
00000180: 699d 8b3d 0863 443d 4150 f3bd 56bb 34be
00000190: d732 bcba d39d 3ebd 3505 a9ba 7c0e 42bc
000001a0: 6445 d83c 0336 37be 1b31 bebd 143d 003e
000001b0: bceb 673e 94ae a7bc 61ac e43d 1f3a afbd
000001c0: 67b7 4b3d b128 fdbd 2caa 2dbd e929 723d
000001d0: 2e5c 2bbe 8882 743d 3667 98bd 7d25 5fbe
000001e0: a588 043d f373 353e 75bc a03d f9c7 963d
000001f0: 804b 4abd 4bd5 6c3c a530 ee3c 1b85 a13d
00000200: c9d5 f0bd d9ec 70bd c415 98bc 5b1e a0bb
00000210: c12a a33d d61a 31bd b6a9 383e 1d1b 35bd
00000220: 2436 18bc 0c25 ffbc 2e93 74bd 3192 f53c
00000230: 0175 7ebc ec53 483b 59aa 193c bd6b adbd
00000240: 9b1b cd3d 04fe 323e 6bef 6e3d 4605 84bd
00000250: 2ba3 3c3d a409 233e 145a 5d3d a859 66bd
00000260: c9bc f13d 5029 bcbc 1797 c03d 1018 973c
00000270: 77f8 ba3d 1cf1 3b3d 4543 cb3c 5132 04be
00000280: acca c3bd 3f46 c83d b6f1 d63d 655d 28bd
00000290: 3aae 433e 17cd 46be 9d14 61bd 093e 543c
000002a0: 6b58 af3c 9dd1 33bd 8862 093d 4d9e 003e
000002b0: 2bfa 0dbd 4ef4 103e 984a 3abc 08ac 103e
000002c0: 87b3 bbbd f2a5 9abd d2cc 913c 8f6d dc3b
000002d0: 49ce bbbd fb29 eabd dc45 55bd 16e5 f33c
000002e0: 5ed5 8a3d cada 3f3c ec4a d13c 2935 a53b
000002f0: 7ecf 553d dfbc b53d 150b b4bd c943 c13c
00000300: bb92 1ebb 269d c4bd bef6 5dbb 53fa 5c3d
00000310: 6bba 333d 1575 383d d213 b3bd 91e9 843d
00000320: 1a97 133c a5cd 88bc 3d5b 0dbe ebc0 4bbd
00000330: 7909 a4bc f684 f73c f0b5 97bd 9b02 05be
00000340: bd15 0f3e 4553 cbbb d64f 013e 0e9d 8b3d
00000350: 2e2d 8fbd 17ec 5d3c 5078 353d c06c d43c
00000360: 813d e43d 4e1b b73c d179 e2bd 223a c4bc
00000370: 1c2a 56bd 3306 4ebc 84b9 d93d 234f c83d
00000380: 3528 0abe a99b 26bc a176 463d e909 a53d
00000390: cade 3abe b5fe 053d bdfd 13be e84e ed3d
000003a0: 116d 12bd e2bd c93d b92a 87bd 6f95 253e
000003b0: 450b 823c e934 483d d6ad bd3d 6d01 41bd
000003c0: 4f3b 103e e699 043d 4ca2 02be 7deb 33bc
000003d0: 7852 743e e45d fe3d 4c1d 943d 07b8 063d
000003e0: a0c9 9dbd cf18 b33b a09b 8f3d d7e0 a23d
000003f0: 6125 ae3d 463e 86bd 7e70 30bd 3f9f a3bb
0.0022793715 -0.13888685 -0.06761053 0.012944548 0.052151766 -0.019654727 0.16229154 -0.14226958
-0.146714 -0.03994927 0.0079428805 0.15206027 -0.15375488 -0.008710866 -0.06575966 0.25093594
0.017248914 0.02853598 0.046289045 0.014448017 0.17396279 0.123415954 0.04053966 0.010319607
0.057337385 -0.06737293 0.010426247 0.14551568 0.0010968896 0.081410505 0.18643595 0.15667658
0.0634021 0.12234696 0.026583448 0.12015968 0.015702173 -0.086997375 0.07271266 -0.016625717
0.03163373 0.01009674 -0.10873499 -0.09216902 0.12538828 0.052255917 -0.10842839 -0.036703244
0.009980601 -0.06236513 0.03827421 0.0051580835 0.03567941 0.024434352 0.030713316 -0.025665872
-0.08053955 0.07172401 -0.105982035 -0.022651874 0.08538335 -0.031931616 -0.10540937 -0.07091346
-0.07681432 -0.018530369 0.060561668 0.067873135 0.043760546 0.13595213 0.03830563 0.29816198
-0.23811759 -0.004771699 0.043880872 -0.013080326 -0.075144686 -0.10391984 -0.027771465 0.07855278
-0.15752167 -0.0020733038 0.03159 -0.08434762 0.08544034 0.05884427 -0.09697426 -0.048183773
0.0918989 -0.0986643 0.037827414 -0.09260693 -0.0016703345 -0.06193607 0.04968481 -0.10398333
0.06817133 0.047946006 -0.118805416 -0.17649588 -0.0014358413 -0.04653723 -0.0012895229 -0.011844274
0.026400276 -0.17891698 -0.0928671 0.125233 0.2264852 -0.020468988 0.11165691 -0.085560076
0.049735453 -0.12361277 -0.042398617 0.059122 -0.16734383 0.059694797 -0.07441561 -0.21791644
0.032356877 0.17720012 0.07848445 0.073623605 -0.04938841 0.01445515 0.02907593 0.07886716
-0.11759526 -0.058819626 -0.018565066 -0.004886431 0.07967139 -0.043238483 0.1803349 -0.04421531
-0.009290252 -0.031145595 -0.059710674 0.029976936 -0.015530826 0.00305676 0.009378993 -0.08467815
0.10015031 0.17479712 0.058333796 -0.06446318 0.046054047 0.15921646 0.054040983 -0.056237847
0.11803586 -0.022968918 0.09403818 0.018444091 0.09129422 0.045884237 0.02481235 -0.12909819
-0.09560141 0.097790234 0.104953215 -0.041104693 0.19109431 -0.19414173 -0.0549513 0.012954243
0.021404466 -0.043901075 0.033541232 0.12560387 -0.034662407 0.14155695 -0.011370324 0.14128125
-0.091651015 -0.07551183 0.017797861 0.0067269276 -0.09170205 -0.114337884 -0.052068576 0.029772323
0.06778978 0.011709878 0.02554842 0.0050417376 0.052199833 0.08873915 -0.08791176 0.023591893
-0.0024196345 -0.09600286 -0.0033868994 0.053949665 0.043878954 0.045033533 -0.08744015 0.06489862
0.009008193 -0.016699621 -0.13804336 -0.049744528 -0.020024048 0.030214768 -0.07407749 -0.12989275
0.13973136 -0.006204995 0.12628111 0.06817065 -0.06991039 0.013545058 0.044304192 0.025930762
0.111445434 0.022351887 -0.11058391 -0.023953501 -0.052286252 -0.01257472 0.106310874 0.09780719
-0.134919 -0.010168948 0.048452977 0.08058531 -0.1824905 0.03271361 -0.14452262 0.11587316
-0.035748545 0.098506704 -0.065999456 0.16170286 0.015874514 0.048878584 0.09261672 -0.0471205
0.14085124 0.03237333 -0.12757224 -0.010981438 0.23859584 0.12420252 0.072321504 0.032890346
-0.077044725 0.005465604 0.07012105 0.07953041 0.08503223 -0.065548465 -0.04307603 -0.004993349

network_body._body_endoder.seq_layers.2.bias f4 [128]
00000000: 00a6 c13a 7e93 15bc 6fb5 4cbb d910 c8bb
00000010: a060 fe3c 2a3a 9d3c 87c1 56bc 4a69 9a3c
00000020: 0923 af3c b17f 313d d75b d83c d85a 183c
00000030: 3c35 c53c 1601 503b baef f0b9 c90d 903c
00000040: 3c9a 773c 4815 ff3c b214 213c 1bb9 03bc
00000050: 29d3 3a3c 9047 293d c58b 423c 203b d4bb
00000060: 870d 4dbc 961e de3b f016 d13b 36a8 0abc
00000070: 9e3a 2d3c 139d 563b b03d d83b cc72 7d3c
00000080: 7d17 073b b8cd a93b 07f3 aa3c 0c3e 3a3c
00000090: 2114 913c fddd 153b b664 c5bb 4e02 99ba
000000a0: f8ba 5e3a bbcc 12bc 85b7 de3b c31f b13b
000000b0: 5516 0abc 9bbe 7e3c 2af7 f43c acf5 193d
000000c0: 6681 c1bb ce5f 3d3c da9d 5ebb 1aa1 3d3c
000000d0: dbda c0bb ca97 58bc 57d4 3cbc 8427 123c
000000e0: 091e 5dbc 893c f0b9 68ec be3c f9ff 0d3d
000000f0: fd22 bebb fe79 10bc fdd7 e53b c3f2 8abc
00000100: 88dc 6ebc 3f0e ea3b 8847 a73c 7772 de3b
00000110: 698c 003d 2f14 8b3c fa78 413c cc3c 96bc
00000120: 6df6 a93b 480d 3d3d f631 453c f8fe 763c
00000130: e97a 863c c569 c3ba 0220 06bc 4514 d3bb
00000140: deda f83b 1121 d83b 135a 493c 8ef8 793c
00000150: 1bae ed3c 6aaf f43c 3fdc b23c 9a48 d03b
00000160: c9e9 9a3a 517d ae3b 25d0 0b3d 7d81 c63b
00000170: de8e 563b 2f41 bc3a 3c2f 97bb 5d50 cd3b
00000180: 5448 8cbb 1336 d43b 43db 103c 89e4 1f3c
00000190: f0e4 4c3c 513c 1bb9 fea1 733c b5e8 053b
000001a0: 1c83 373d a408 073d 4ba2 34bb 9877 5a3b
000001b0: 4848 533c 73da 943b 8ab7 9e3c fae2 193d
000001c0: 4b8d 1b3c 9adf f33b 429c b33b f2b9 ab3c
000001d0: 168b fd3c 739b cd3c 0902 c63c 19a0 f43b
000001e0: 6d2d 1b3c 84e9 483c 3e0f f13c f01a 12bc
000001f0: aca7 22bc a5a5 fe3c 31dc 063c 00d9 923c
0.0014774203 -0.009129403 -0.0031236073 -0.006105524 0.031051934 0.019192774 -0.013107664 0.018849034
0.02137901 0.043334667 0.02641098 0.009299003 0.024073236 0.0031738929 -0.00045954977 0.017584698
0.015112456 0.031138077 0.009831594 -0.008039738 0.011402884 0.041328013 0.011874144 -0.006476775
-0.012515432 0.0067785485 0.006380908 -0.008462956 0.010573057 0.0032747432 0.0065991506 0.015469264
0.0020613365 0.0051819943 0.020867838 0.011367332 0.017709794 0.002286791 -0.0060239686 -0.001167366
0.00084964884 -0.008959944 0.0067967796 0.0054053976 -0.008428176 0.015548374 0.029903013 0.037587807
-0.005905318 0.011558486 -0.0033968599 0.011574054 -0.0058854646 -0.013219783 -0.011525235 0.008920554
-0.0134959305 -0.0004582147 0.023306087 0.034667943 -0.005802511 -0.008818148 0.007014273 -0.016961461
-0.014578946 0.0071428115 0.020419851 0.0067885476 0.031383906 0.016977398 0.011808628 -0.018339537
0.005186847 0.046155244 0.012035837 0.015075438 0.01641603 -0.0014908841 -0.008186342 -0.0064416253
0.0075944504 0.0065957387 0.012289542 0.015257014 0.029013684 0.0298688 0.021833537 0.006356311
0.0011818941 0.0053249975 0.03413405 0.0060579167 0.0032738964 0.0014362688 -0.004613785 0.0062656836
-0.004281083 0.0064761727 0.008841339 0.009759077 0.012505755 -0.00014804422 0.014870165 0.0020432894
0.04480277 0.032967225 -0.0027562554 0.0033335444 0.012895651 0.0045426427 0.019374628 0.037569977
0.009494136 0.007442427 0.005481274 0.02096269 0.03095011 0.025098538 0.024170892 0.007465374
0.00947128 0.012262706 0.029426213 -0.008917555 -0.009927671 0.031084845 0.008231209 0.01792574

action_model._continuous_distribution.log_sigma f4 [1, 2]
00000000: f0b3 cfbc cd0f eeba
-0.025354356 -0.0018162668

action_model._continuous_distribution.mu.weight f4 [2, 128]
00000000: f1db 623c 3e27 5b3c 4f99 f33c a5f2 373c
00000010: 7562 87bd d29b 4e3c 9bd0 1c3c 98d8 2d3d
00000020: 2c76 ce3a fc2f 393d d570 f73c c04b e83c
00000030: aa3d dc3c e833 d4bc e151 913c 6ab4 c8bc
00000040: 91fe c0bc 5f7c 5c3d 94f8 20bc 37c5 183c
00000050: 0a14 ea3b 65cd 343d 5e0c fabc 922d 5cbc
00000060: d863 603c 3900 ae3c 61e2 353d 12a0 993b
00000070: 9731 69bc 992b c9b6 1246 6e3d 3646 563d
00000080: 8874 1bbc 1b83 50bc 442c babc 0d60 b0bc
00000090: 4408 f13c 28e6 e2bc 4929 12ba 51f3 1b3d
000000a0: ded0 803c 7f9e 943c 27be c83c 59e2 743b
000000b0: 24c5 d43a 06e9 babc 6691 b7bc 162f 3c3c
000000c0: 6232 243d 8539 acbc 2829 f03c 3134 f2bc
000000d0: 2220 ff3a 9034 b13b 0c96 ad3c e005 d9bc
000000e0: 147e 583b 4769 ccbc 9ebf 71bc 883d 2b3d
000000f0: 2c23 323d 2680 aabb 61c6 963c 2582 e73a
00000100: e526 07bb 4d7e 46bc b2c1 fabc 2ddd c5bc
00000110: b81f fa3c f4e8 72bc cb49 553c e27c f93c
00000120: 4d01 61bc c9ac 343d ecf5 013d 7373 053d
00000130: 66f9 953c f38b bb3c 12f6 d1bb 7255 373b
00000140: 219f a4bc 6534 09bd 2784 b23c fbdd 71bc
00000150: 4639 cfbc 02c3 543d f6b9 26bd 47eb 3bbc
00000160: eb41 a8bc b24e c93c e96b 50bd 525f 73bb
00000170: 4561 2abc 075c ea3a e1e5 973b 2197 283d
00000180: af94 523c 6558 91bc 4fdc 0e3c 6715 3d3c
00000190: 3d87 dcbc 7168 df3a e44a 2c3d c6df 8bbb
000001a0: 26d4 1d3b 3ad8 68bd caa8 a93c 4dc6 cebb
000001b0: ba15 5dbb cc3e 21bc 073c 2c3d c0c0 753d
000001c0: c5bc 50bd 9c27 49bd cbb1 dcbb cf14 f4bc
000001d0: 4c5d 8d3d 73ac 9dbd ef27 78bd 4535 933b
000001e0: 072e 203c 7200 ddbb 1cee 183d e641 6e3c
000001f0: d14c f4ba cf1a f43c 1b29 05bd 0403 6b3d
00000200: 1cf1 193d 4a4f d7bc 0031 66bc b327 4d3b
00000210: b67a cbbc ebce 38bc 15aa 20bc 8274 173d
00000220: 692a 213d 58d4 343d f29b c9bc 04d6 25bc
00000230: 5b06 5f3c 9b18 42bc a38c e33c d9a4 13bd
00000240: 6b27 033d f177 25bb db38 ad3b dbcd 943a
00000250: 31b2 f1bc 5523 87bc f2b7 103c aac0 813c
00000260: 44cd debc 0c8d 2fbd cdad eabc 946c ba3b
00000270: ee52 c33c 7eb3 b23c 5771 713c 23a4 60bc
00000280: 679a 9bbc 820d 40bc 2604 d83c caa8 4b3d
00000290: f781 1c3c 6ff9 203b c6a1 3d3d 347f c03c
000002a0: 89c2 e1bc ef1a e3bb 04f1 07bd 203e dcbb
000002b0: c06c f33b 4f4a bb3c ef6e 39bd a652 63bd
000002c0: 385f 95bc 8bbe 453c 1219 bebc bfb8 d9bc
000002d0: 592e 193b b9f4 c5bc 5513 92b9 77c0 07bb
000002e0: 31a9 53bb 3c54 44bc 1ab1 013d 293d 133d
000002f0: a92a 973c 81b7 553c 7686 1fbd f57e 493c
00000300: 6abd 8abc 2bc9 013d cf03 1b3d f0d4 303b
00000310: c124 bcbc 5d80 0c3d eb95 8e3b ac13 ac3c
00000320: 6085 8f3c 7e36 c83c 8044 2abc 1181 313d
00000330: 8f7b 61bd fd61 13bc a68e bcbb e334 ab3b
00000340: 2c9f 053d cfa3 3dbd 0f4c fd3c f816 3ebd
00000350: b191 513d cdd5 123d afb3 113d 4812 24bb
00000360: 2b86 2fbd 2f87 a23c b4d8 c1bc 6938 843c
00000370: 71a7 2b3c 73ec 47bd 1040 13bd 5477 7fba
00000380: bbf0 0ebc eb30 11bc 48e8 0f3c d4ea d23c
00000390: 2685 c5bc a398 153d 6627 3a3b 829a 91bc
000003a0: 7e14 7d3d e358 afbc 5441 56bc 4e7a c2bc
000003b0: 29be 47bd 79a7 d43a 3a92 2f3b 08a0 cc3c
000003c0: 09c4 9cbb 3709 a2bc d978 c83c 7dd6 883d
000003d0: dba9 373c 458c 4cbc f2fb 75bb 7e08 edbc
000003e0: fe33 8d3c 0a0f 0d3d ea99 a5bc f28b 4ebc
000003f0: c5da 2fbc 787f 6f3c 0326 dbbc 9aba 073d
0.013846383 0.013376055 0.02973619 0.011227285 -0.06610576 0.012610393 0.00957122 0.042442888
0.0015751771 0.045211777 0.03020517 0.028356433 0.026884872 -0.025903657 0.017739238 -0.02450009
-0.023558887 0.053829547 -0.009824891 0.009324363 0.007143502 0.044141192 -0.030523475 -0.013438599
0.01369568 0.02124034 0.044405345 0.0046882713 -0.014233015 -5.9953422e-06 0.058172293 0.052313052
-0.009488232 -0.0127265705 -0.022726186 -0.021530176 0.029422887 -0.027697638 -0.000557561 0.03807384
0.015724596 0.018141983 0.024504734 0.003736636 0.0016233069 -0.022816192 -0.022408199 0.011485836
0.04008711 -0.021023521 0.0293165 -0.029565902 0.0019464532 0.0054078773 0.021189712 -0.02649206
0.0033034133 -0.024952544 -0.014755158 0.041806728 0.043490574 -0.0052032648 0.018405141 0.0017662687
-0.0020622548 -0.012115073 -0.03060994 -0.024153316 0.030532703 -0.014826048 0.013018082 0.030455057
-0.01373322 0.044110093 0.03172867 0.032580804 0.018307399 0.022893881 -0.0064075077 0.0027974513
-0.02009541 -0.033497233 0.02179153 -0.014762397 -0.025295865 0.051943786 -0.04070469 -0.011469669
-0.020539245 0.024573658 -0.05088416 -0.0037135673 -0.010399167 0.001788021 0.004635558 0.041159753
0.012852832 -0.017742345 0.008719518 0.011540747 -0.026919955 0.0017044676 0.04206361 -0.004268619
0.002408275 -0.056846835 0.020710368 -0.0063102604 -0.0033734874 -0.009841632 0.042049434 0.059998274
-0.050961275 -0.04911004 -0.0067350618 -0.029795079 0.069025606 -0.07698908 -0.06058496 0.004492434
0.009776599 -0.006744438 0.037336454 0.014542079 -0.0018638616 0.02979794 -0.032509904 0.057375923
0.037583455 -0.026282925 -0.014049768 0.003130418 -0.024838787 -0.011279802 -0.009806176 0.036976345
0.039347086 0.04414782 -0.024610493 -0.010121826 0.013612355 -0.011846687 0.027777022 -0.036045883
0.032020014 -0.0025248493 0.0052863187 0.0011352854 -0.029503914 -0.01649634 0.0088329185 0.01583894
-0.027197488 -0.042859122 -0.028647328 0.005689213 0.023843255 0.021814104 0.014736495 -0.013711008
-0.018994523 -0.0117219705 0.026369166 0.049721517 0.00955247 0.0024562737 0.046296857 0.023498155
-0.027558582 -0.006930701 -0.033188835 -0.006721273 0.0074287355 0.022862582 -0.04527181 -0.05549874
-0.01823388 0.012069355 -0.023205314 -0.026577352 0.0023373573 -0.024164544 -0.00027861694 -0.0020714083
-0.003229689 -0.011982974 0.031663038 0.035947 0.01845296 0.013044239 -0.03894659 0.012298335
-0.016936023 0.03168599 0.03784543 0.002698239 -0.022966744 0.034302104 0.0043513677 0.021005474
0.017519653 0.024440046 -0.010392308 0.043335978 -0.055049475 -0.00899553 -0.0057543097 0.0052248104
0.0326225 -0.0462988 0.030920057 -0.046408623 0.051164333 0.035848428 0.03557175 -0.002503531
-0.042852562 0.019839851 -0.023662902 0.01614018 0.010476933 -0.04880948 -0.035949767 -0.00097452593
-0.008724387 -0.008861761 0.0087834075 0.02574674 -0.024111342 0.03652252 0.002840483 -0.01777387
0.06178712 -0.02140469 -0.013077099 -0.02373996 -0.048765335 0.0016224227 0.0026790039 0.024978653
-0.0047841114 -0.019779785 0.024471687 0.066815354 0.01120993 -0.012484615 -0.0037534204 -0.028934713
0.017236706 0.03443817 -0.020214994 -0.012606608 -0.010733311 0.014617793 -0.026751524 0.03313694

action_model._continuous_distribution.mu.bias f4 [2]
00000000: 72ae cdbb eaf4 01ba
-0.006276899 -0.00049574545

exp_avg f4 [128, 10]
00000000: 53d9 8039 469c f62c 769f 81b8 8326 0438
00000010: 0000 0000 c8d2 8cb9 5810 1eba 5677 fab7
00000020: c8bc 2b2e f5c8 3ab6 6a0b d638 bdaf 94ac
00000030: b1ea a238 6df9 b838 0000 0000 9831 a837
00000040: 7733 0238 0840 94b8 da93 0f2d c911 78b8
00000050: e058 c938 64ef af2d 4c5d 52b8 aed9 44b8
00000060: 0000 0000 7d20 49b9 ad27 29b9 cae4 9ab8
00000070: c96f c8ad 5347 a6b8 a5ad 9939 4a53 9e2c
00000080: b0c5 c6b8 06f0 2939 0000 0000 623c 7fb8
00000090: 03f4 1cb9 6d36 63b8 da7a 19ad 6e3c 34b8
000000a0: 0935 a3b7 ff99 15ac c520 4638 ee2f 8438
000000b0: 0000 0000 39e4 c138 2c34 3338 b53a 9938
000000c0: 22d0 5a2c 10de bd37 6ff9 e7b8 15b6 30ad
000000d0: a4ff 7338 71a7 0639 0000 0000 6c8e 2d38
000000e0: 9893 64b9 3150 3138 f109 7a2d a3bc adb7
000000f0: 3cde 6ab8 ea25 d8ab 2d8d 93b8 a49d 6739
00000100: 0000 0000 5b5a 88b7 4e1f c239 002b 8538
00000110: 2f62 d1ad 3252 9cb7 6e92 3cb7 7c83 3d2d
00000120: ea5f ccb8 4d29 34b9 0000 0000 53b6 44b9
00000130: dfab 64b9 b817 59b8 a190 ddab 8e4e acb6
00000140: c31c 8938 1df4 c3ab 5460 9637 43ad e938
00000150: 0000 0000 a2d4 f738 d8f7 29b7 7235 9638
00000160: b15e 7b2d a7e4 1c38 6c42 2037 e7c6 252d
00000170: 4547 a5b8 92f4 efb8 0000 0000 57e2 58b9
00000180: 575f 45b9 0257 84b8 5ca8 dfac 0a5e 40b8
00000190: b164 54b9 0e4b 8fab ace2 b338 2868 6e38
000001a0: 0000 0000 8320 dd37 4e93 abb8 1ee6 8fb6
000001b0: 1e89 702e ea2c 4d37 ce3d 96b9 e415 f32c
000001c0: b476 9cb9 d79a 86b9 0000 0000 5047 15ba
000001d0: 7b60 1db9 6d57 7eb8 7057 6fae afde cab8
000001e0: 4d2d 0d39 d899 e92c 913b a0b7 7852 40b9
000001f0: 0000 0000 5b3d e7b8 3497 2fb9 e8f4 96b8
00000200: 505d 0f2d b6fc 01b7 caa3 efb8 34e8 642d
00000210: 5df9 f6b8 64d0 13b9 0000 0000 1420 80b9
00000220: d495 ab39 370e 7eb8 b7ff 0dae e5d2 63b8
00000230: 129f 9d37 683e 81ad 64f4 42b9 3190 df39
00000240: 0000 0000 b04b b438 1e31 1539 59ea 1e39
00000250: 8724 a62d b774 a238 f152 8639 6cdc a92d
00000260: b570 22b9 6cf2 d1b9 0000 0000 14af 8bb9
00000270: 4d9e 12ba edae 59b9 0e86 e7ac 4118 a9b7
00000280: ffe8 c8b9 0687 a3ad 92b7 cb38 827b 153a
00000290: 0000 0000 2ea4 e439 05d9 8e3a 3d70 2039
000002a0: c0a7 9bad e142 2839 29bb 3939 61d9 38ac
000002b0: 3332 c2b8 2f5e edb7 0000 0000 c3b8 53b9
000002c0: 2ca1 1aba 732e 47b8 18e5 be2d e93b 0db8
000002d0: 33fe 8139 3ffa 99ac b7a2 9938 cfbe 9b39
000002e0: 0000 0000 0c1b c838 be57 f0b8 80e2 cd38
000002f0: 29b1 4e2e 675c ac38 cb6c c239 e6c4 8dad
00000300: 3ac5 3f36 b1da 8a39 0000 0000 1ca8 e638
00000310: 17fb c6b8 de16 9237 4653 642d 034b ea38
00000320: 3004 8738 1487 562d 9bf2 43b5 2c08 4839
00000330: 0000 0000 37d7 a336 7933 0e39 6539 1338
00000340: e3cd 16ac cce1 bab7 fcf7 3a39 cc80 272e
00000350: 3c8c cab9 8575 d7b9 0000 0000 b84f 70ba
00000360: 375c 6aba f9bf 70b9 7cbb 342d 246b 0eb9
00000370: c2e1 8e38 9a45 562b 0834 54b7 7b86 9438
00000380: 0000 0000 e060 8037 534c 0cb8 9a9f d937
00000390: 956d ce2a 3cf7 5137 842f 9fb8 3e84 3c2c
000003a0: d543 52b8 3052 bfb8 0000 0000 922b 51b8
000003b0: 578c f4b7 9099 a837 7450 a0ac 31ba d437
000003c0: e4f2 4438 62e7 47ab 289d 5337 b7ae 7638
000003d0: 0000 0000 dc6f bb37 7fa0 2c37 a254 1b38
000003e0: 77ab 70ad bc03 03b7 3999 1bb8 efc3 14ae
000003f0: 190b 7139 c2a2 413a 0000 0000 360b 303a
0.00024575982 7.0090904e-12 -6.180901e-05 3.150712e-05 0.0 -0.00026859925 -0.0006029657 -2.9857893e-05
3.904857e-11 -2.7833132e-06 0.00010206441 -4.225924e-12 7.768477e-05 8.820263e-05 0.0 2.0050255e-05
3.1042346e-05 -7.069117e-05 8.1614385e-12 -5.914437e-05 9.600981e-05 2.0001507e-11 -5.015479e-05 -4.693277e-05
0.0 -0.00019180957 -0.00016131876 -7.3859075e-05 -2.278701e-11 -7.928782e-05 0.0002931181 4.499877e-12
-9.478198e-05 0.00016206512 0.0 -6.0852974e-05 -0.00014968221 -5.4171705e-05 -8.724322e-12 -4.2971624e-05
-1.945581e-05 -2.1259659e-12 4.7237398e-05 6.303178e-05 0.0 9.245467e-05 4.2725515e-05 7.3065436e-05
3.10952e-12 2.2633962e-05 -0.00011061399 -1.0044872e-11 5.81738e-05 0.00012841613 0.0 4.1379055e-05
-0.00021798757 4.2274773e-05 1.4213062e-11 -2.0711048e-05 -5.599692e-05 -1.5358246e-12 -7.035802e-05 0.00022088602
0.0 -1.6254538e-05 0.00037025887 6.3499436e-05 -2.3804151e-11 -1.8634924e-05 -1.12397665e-05 1.07726016e-11
-9.7453434e-05 -0.00017181523 0.0 -0.00018759938 -0.00021807801 -5.175892e-05 -1.5743137e-12 -5.1351444e-06
6.538026e-05 -1.3923338e-12 1.792625e-05 0.00011142578 0.0 0.00011817484 -1.0130891e-05 7.162512e-05
1.4288724e-11 3.7406247e-05 9.552208e-06 9.423329e-12 -7.881088e-05 -0.00011441963 0.0 -0.00020683683
-0.00018822901 -6.310457e-05 -6.356733e-12 -4.5863948e-05 -0.00020255406 -1.0181593e-12 8.577606e-05 5.6840625e-05
0.0 2.6360392e-05 -8.181353e-05 -4.2885213e-06 5.4691467e-11 1.222941e-05 -0.00028656278 6.9089057e-12
-0.0002984308 -0.00025673836 0.0 -0.00056945253 -0.00015008629 -6.063974e-05 -5.441997e-11 -9.673589e-05
0.00013463684 6.6393384e-12 -1.9101224e-05 -0.00018341269 0.0 -0.00011026367 -0.00016745628 -7.198175e-05
8.1493284e-12 -7.747838e-06 -0.00011426916 1.3011859e-11 -0.000117766416 -0.00014096644 0.0 -0.00024437963
0.00032727292 -6.0571558e-05 -3.228681e-11 -5.431743e-05 1.8789931e-05 -1.4693316e-11 -0.00018592324 0.00042641305
0.0 8.597167e-05 0.00014228045 0.00015155356 1.8888236e-11 7.746502e-05 0.00025620268 1.9310963e-11
-0.0001549151 -0.00040044205 0.0 -0.0002664259 -0.00055930467 -0.00020759898 -6.580298e-12 -2.0157664e-05
-0.00038320568 -1.8590917e-11 9.713987e-05 0.0005702303 0.0 0.00043609872 0.0010898417 0.00015300601
-1.7695956e-11 0.00016046643 0.00017712697 -2.6268642e-12 -9.259991e-05 -2.829646e-05 0.0 -0.00020191357
-0.000589865 -4.7488556e-05 2.1702237e-11 -3.3672815e-05 0.0002479419 -4.3763044e-12 7.3259165e-05 0.00029706067
0.0 9.541781e-05 -0.00011460435 9.817351e-05 4.6996327e-11 8.2188104e-05 0.0003708362 -1.6117285e-11
2.8576019e-06 0.0002648435 0.0 0.000109985674 -9.488145e-05 1.7415205e-05 1.297879e-11 0.000111719615
6.4380816e-05 1.2194485e-11 -7.29962e-07 0.0001907653 0.0 4.882833e-06 0.0001356135 3.5100984e-05
-2.1430572e-12 -2.2278073e-05 0.00017830724 3.80858e-11 -0.00038632925 -0.00041095554 0.0 -0.00091671525
-0.00089401327 -0.00022959699 1.0273445e-11 -0.00013582088 6.813138e-05 7.6124664e-13 -1.2648299e-05 7.082239e-05
0.0 1.53039e-05 -3.3449684e-05 2.5942736e-05 3.666899e-13 1.25149345e-05 -7.590561e-05 2.6789816e-12
-5.0131075e-05 -9.122898e-05 0.0 -4.987006e-05 -2.9152417e-05 2.0098669e-05 -4.5564056e-12 2.5359072e-05
4.695625e-05 -7.102011e-13 1.2613171e-05 5.8813686e-05 0.0 2.2344226e-05 1.0289367e-05 3.70337e-05
-1.3680493e-11 -7.809078e-06 -3.709758e-05 -3.3825328e-11 0.00022987685 0.00073866185 0.0 0.0006715538

exp_avg_sq f4 [128, 10]
00000000: fd55 0935 4f0b 951b 024f 1235 84bb e934
00000010: 0000 0000 e0c7 9135 dffb c535 2b49 8333
00000020: beea 991d 0d41 0633 5550 cf31 4d46 9d18
00000030: 61d8 6531 e6ad e631 0000 0000 e889 8d31
00000040: 661d a131 5ca8 9230 455d 861b 2110 6530
00000050: 8aeb aa33 0a55 d81a d65c 8433 dbd0 1234
00000060: 0000 0000 a667 0c34 2aff 6634 6e45 9732
00000070: cf67 5d1c 301f 3232 93c6 8333 8cf9 221a
00000080: 9b12 7633 891a 8033 0000 0000 d2c1 8d33
00000090: 829a 0133 b11d ac31 d0d8 db1c 46bb a431
000000a0: b327 0032 5ea3 2c19 e89a 4132 da36 1032
000000b0: 0000 0000 015d b732 81db b232 39b6 f330
000000c0: c9f0 281b 9eee 8330 7d1e 4734 7896 0d1b
000000d0: fe59 9334 36a1 ad34 0000 0000 d3c5 9534
000000e0: 5113 7934 b657 cf32 b6f1 281d 06d3 6532
000000f0: c65d 6c34 f3cb 9b1a 28c2 ff33 a724 db33
00000100: 0000 0000 0297 c034 87ed 2235 3196 9c32
00000110: 4405 561c 6077 1332 973c 7532 59fe ea19
00000120: 5df5 e332 b700 bb32 0000 0000 1f1a 6d33
00000130: fff3 4033 7a8f 7c31 c964 751b 17d6 0831
00000140: ae60 3133 55cf d71a 8bde d933 0ad9 9a33
00000150: 0000 0000 61c2 6134 51e4 5634 fb70 7832
00000160: d404 b11b f09b bb31 526a 8533 19e4 c41a
00000170: 1985 f233 74de 9233 0000 0000 c573 6b34
00000180: 301a 0734 1ef9 3132 41e2 5a1c 4d4b f531
00000190: 8f3c 6034 8b8a 711b 8c6d 0035 f5c5 8f34
000001a0: 0000 0000 1359 2735 599a 5b34 de23 eb32
000001b0: 9e87 c61d 1698 cc32 f9b4 3434 dd04 451c
000001c0: 4ac4 1535 9086 1335 0000 0000 d896 8235
000001d0: c1ab 5b35 5297 f233 88e9 941d bc84 0033
000001e0: fbc4 8234 b32c 901a c7af 0134 294f 4234
000001f0: 0000 0000 5143 c334 b332 6435 666b df32
00000200: 3396 221b fdc2 f731 ef19 be34 fa5e ba1b
00000210: 9cfd 2735 ee56 f234 0000 0000 2d5c 6a35
00000220: 84e6 3035 8ebd 7c33 2942 6a1d 529c d932
00000230: 3809 c733 150e 5f1b d40a 9f34 060d 6f34
00000240: 0000 0000 4d4b 9234 f482 7834 1de1 0833
00000250: ddc1 fc1c 2aad 7532 cb5a 8434 ed9b 0c1b
00000260: f30b a033 52cd 4d34 0000 0000 136d cb34
00000270: a6de 7835 1c54 0133 0baa 0e1c 0d7b 4c32
00000280: d668 9c35 8a0f c81b cd81 c934 516a 5b35
00000290: 0000 0000 f008 b235 3273 7f36 2f93 0234
000002a0: 756e 281d d682 6c33 e977 da34 9d5f 5b1b
000002b0: 01e9 e634 2308 d734 0000 0000 0633 3d35
000002c0: 478c 8135 dad5 3333 459b 4a1d e102 ca32
000002d0: a771 2f35 8786 0d1c a2b4 4435 f7f2 ef34
000002e0: 0000 0000 e7f5 e635 dfd2 0e36 31b8 a933
000002f0: 00fc 7a1d fe63 1a33 864e d734 1cf3 411b
00000300: 7104 e733 7e44 cd34 0000 0000 3779 f034
00000310: 4475 d035 a95a 6333 20c5 061d 8437 c032
00000320: e079 0635 1320 c01a f3b3 9634 470c 7334
00000330: 0000 0000 1044 5d35 2991 8c35 19d0 0533
00000340: 6fc9 431c 7316 b732 ccb0 3635 7a34 231c
00000350: 480c 8035 3f45 3435 0000 0000 b870 0b36
00000360: 9086 d135 7db9 9933 3345 d51d 9b5e 9e33
00000370: 84ea 1733 b3ad 0a19 a0ef bf32 857d 9032
00000380: 0000 0000 231f 8733 d0be eb33 125e 1e31
00000390: 2b0f 701b 5f7d e430 f67f c332 3ffe 1319
000003a0: 8979 4532 0ffd e632 0000 0000 0343 4f32
000003b0: a8f4 9532 243b ac31 0e95 a71b 43b0 d030
000003c0: 0b40 0532 cdf3 5c19 b7aa d132 fbc8 2432
000003d0: 0000 0000 e82a c032 2ea4 d931 e6fb ed30
000003e0: 5529 241c 9630 c130 4270 3f35 8f55 dd1b
000003f0: 569c 0835 7d42 0435 0000 0000 d30f c335
5.1161607e-07 2.465729e-22 5.450421e-07 4.3536068e-07 0.0 1.0861513e-06 1.4750948e-06 6.113472e-08
4.074148e-21 3.125847e-08 6.0336256e-09 4.0654534e-24 3.3446883e-09 6.713651e-09 0.0 4.119318e-09
4.689059e-09 1.0670749e-09 2.2228714e-22 8.3332635e-10 7.959086e-08 8.9472894e-23 6.163616e-08 1.3673291e-07
0.0 1.3076223e-07 2.1513247e-07 1.7610287e-08 7.3256936e-22 1.0368055e-08 6.136283e-08 3.3702397e-23
5.729326e-08 5.965291e-08 0.0 6.60108e-08 3.0175677e-08 5.0092344e-09 1.4548249e-21 4.7943187e-09
7.459607e-09 8.925183e-24 1.12693e-08 8.394375e-09 0.0 2.1346297e-08 2.0821746e-08 1.7732368e-09
1.3974436e-22 9.599324e-10 1.8544411e-07 1.1711866e-22 2.7446362e-07 3.2341057e-07 0.0 2.789735e-07
2.319696e-07 2.4137858e-08 2.2359576e-21 1.33775355e-08 2.2013327e-07 6.4435995e-23 1.19096796e-07 1.0204649e-07
0.0 3.587266e-07 6.069535e-07 1.822909e-08 7.0813466e-22 8.583669e-09 1.42746535e-08 2.4297763e-23
2.6537856e-08 2.176999e-08 0.0 5.520462e-08 4.4925397e-08 3.6752383e-09 2.029849e-22 1.99123e-09
4.1298954e-08 8.925688e-23 1.014533e-07 7.210663e-08 0.0 2.1025473e-07 2.0013364e-07 1.4461189e-08
2.9285314e-22 5.4601443e-09 6.212635e-08 8.143221e-23 1.12932135e-07 6.839119e-08 0.0 2.1928197e-07
1.2582382e-07 1.0359399e-08 7.2422576e-22 7.138999e-09 2.0883657e-07 1.9979818e-22 4.784313e-07 2.6779858e-07
0.0 6.234197e-07 2.0452116e-07 2.7373911e-08 5.255039e-21 2.3817886e-08 1.6829644e-07 6.518812e-22
5.5792464e-07 5.495758e-07 0.0 9.729656e-07 8.183379e-07 1.1296528e-07 3.941674e-21 2.9923044e-08
2.435771e-07 5.962922e-23 1.2078009e-07 1.8096456e-07 0.0 3.637056e-07 8.5010396e-07 2.6009456e-08
1.3448858e-22 7.2108137e-09 3.5409127e-07 3.0832496e-22 6.25814e-07 4.5139262e-07 0.0 8.7305926e-07
6.5900554e-07 5.884572e-08 3.1003846e-21 2.5333211e-08 9.2683365e-08 1.8450678e-22 2.9623936e-07 2.2263347e-07
0.0 2.7249408e-07 2.314444e-07 3.1869707e-08 1.6726074e-21 1.430025e-08 2.4652977e-07 1.1630911e-22
7.452754e-08 1.9166808e-07 0.0 3.7891058e-07 9.2711196e-07 3.011165e-08 4.7203634e-22 1.1902341e-08
1.1653417e-06 3.3097266e-22 3.753361e-07 8.173857e-07 0.0 1.3264635e-06 3.8065014e-06 1.2160739e-07
2.229172e-21 5.5067026e-08 4.069291e-07 1.814615e-22 4.301037e-07 4.005279e-07 0.0 7.0482236e-07
9.652075e-07 4.1871182e-08 2.681475e-21 2.3517204e-08 6.5357966e-07 4.682686e-22 7.3278545e-07 4.4694e-07
0.0 1.7207902e-06 2.1282392e-06 7.90318e-08 3.3217505e-21 3.594686e-08 4.0104004e-07 1.6043139e-22
1.07575836e-07 3.823406e-07 0.0 4.479168e-07 1.5531336e-06 5.293501e-08 1.7836664e-21 2.2376987e-08
5.009624e-07 7.946116e-23 2.8070608e-07 2.2635605e-07 0.0 8.242796e-07 1.047306e-06 3.115574e-08
6.4780435e-22 2.1314213e-08 6.8057557e-07 5.4e-22 9.540317e-07 6.715599e-07 0.0 2.0778225e-06
1.5610876e-06 7.158358e-08 5.645218e-21 7.374657e-08 3.5370718e-08 7.169511e-24 2.2344295e-08 1.6820886e-08
0.0 6.292091e-08 1.0977749e-07 2.3045499e-09 1.9857236e-22 1.6624816e-09 2.2759178e-08 7.6510665e-24
1.1494543e-08 2.6890602e-08 0.0 1.20642225e-08 1.745714e-08 5.0125823e-09 2.7724157e-22 1.5184088e-09
7.756181e-09 1.14229686e-23 2.4408434e-08 9.591754e-09 0.0 2.2371253e-08 6.3341963e-09 1.7315613e-09
5.431647e-22 1.4056407e-09 7.13164e-07 3.6616674e-22 5.0891447e-07 4.9270585e-07 0.0 1.4533238e-06

exp_avg f4 [128]
00000000: ae63 1bb8 9922 5fb7 2b91 0ab8 e6f8 43b9
00000010: 98c7 db35 3608 4238 c86c d035 233e 83b8
00000020: 3409 4d38 cd57 c9b8 ce39 b438 a1e6 6ab9
00000030: a2f2 5f38 5263 90b7 9569 13b7 f915 82b8
00000040: 78df 9a38 f106 2eb7 3818 1839 8072 e637
00000050: 3970 e336 571b 8ab9 e92b 0136 6d46 6d36
00000060: bc65 2cb7 b008 3f39 a0d7 e8b8 dfff 8eb9
00000070: e822 63b5 a549 bab8 72b3 31b7 bad8 1bb9
00000080: b142 8937 0b53 2c38 db88 86b9 1857 f737
00000090: 9f96 9b38 ebaf adb8 305d 0238 b4b0 85b8
000000a0: 2c11 f837 ce88 2ab8 8e3a 0439 c57e af37
000000b0: 37d5 beb7 79fc 8a38 6324 5e38 ae95 3fb7
000000c0: 3f2e 43b7 6303 dcb7 be4c 3738 ac81 24b8
000000d0: 1f9c 7737 5784 86b8 188b c537 50e3 6ab8
000000e0: a7ac 9a32 34fd a638 9e50 5a37 3cb1 88b6
000000f0: e342 1738 02f0 e7b8 ea0d 9237 a5fa 1937
00000100: a5b4 eb37 8928 31b8 7566 d0b7 c7cd 2cb9
00000110: 7dab 44b8 57ad a538 299e ceb8 4e2b 8bb7
00000120: 2be4 9937 0107 55b8 c825 27b8 544f cdb8
00000130: f807 b736 cf3e deb8 490a f638 5dca 2639
00000140: 1a85 97b7 30f0 1ab9 37bb 7f39 7ff0 17b8
00000150: eea6 9639 2af8 98b8 6c2a e237 d97a a6b7
00000160: f0e1 84b8 39d4 e7b8 2cb6 ceb7 0fe2 61b7
00000170: 0431 8337 363a 8738 b945 1c37 ecdf 0238
00000180: 9c9d dd38 7ff9 a238 2b2e 8f39 6042 a237
00000190: b09f e5b8 4177 a738 336d b7b7 7fed 3438
000001a0: d8b3 c738 5b24 3cb9 5362 2fb9 4653 83b9
000001b0: 6fb8 c838 b55b 0739 c8ba 2cb9 a605 81b8
000001c0: 6341 e237 214d 81b8 a262 1339 610b 4837
000001d0: bfe0 88b8 4b68 96b8 4e76 59b8 cf1e fab6
000001e0: 84cc 2d39 6281 bb37 d8a2 56b8 1155 bdb8
000001f0: c8f6 98b8 427b edb7 fe4d 14b9 1ea5 07b7
-3.7047714e-05 -1.3299891e-05 -3.3036962e-05 -0.00018689371 1.6374861e-06 4.626085e-05 1.5528867e-06 -6.258141e-05
4.888438e-05 -9.600781e-05 8.593836e-05 -0.00022401895 5.3393313e-05 -1.7212387e-05 -8.7864655e-06 -6.202976e-05
7.3849165e-05 -1.0372824e-05 0.00014504872 2.7471455e-05 6.7781916e-06 -0.0002634178 1.9248057e-06 3.5356745e-06
-1.0275686e-05 0.00018218416 -0.00011102785 -0.0002727499 -8.4614885e-07 -8.8828885e-05 -1.05918025e-05 -0.00014862689
1.6362728e-05 4.1085335e-05 -0.00025660437 2.948525e-05 7.419031e-05 -8.28205e-05 3.1081203e-05 -6.374848e-05
2.95719e-05 -4.0658568e-05 0.00012610314 2.0920657e-05 -2.2749051e-05 6.6273795e-05 5.2962812e-05 -1.1419337e-05
-1.1633673e-05 -2.622762e-05 4.370207e-05 -3.9221413e-05 1.4758697e-05 -6.414268e-05 2.3549e-05 -5.600165e-05
1.8006473e-08 7.9626596e-05 1.3012583e-05 -4.0737486e-06 3.60635e-05 -0.00011059643 1.7411036e-05 9.177868e-06
2.8098302e-05 -4.223784e-05 -2.4843242e-05 -0.00016479856 -4.6889752e-05 7.9001e-05 -9.852305e-05 -1.6590257e-05
1.834527e-05 -5.078968e-05 -3.985109e-05 -9.789938e-05 5.4547527e-06 -0.00010597484 0.0001173211 0.0001590638
-1.8062583e-05 -0.00014776061 0.00024388438 -3.6225185e-05 0.00028734602 -7.294149e-05 2.6961054e-05 -1.9845947e-05
-6.3363346e-05 -0.00011054468 -2.4641944e-05 -1.3463678e-05 1.5639242e-05 6.448144e-05 9.314558e-06 3.120296e-05
0.00010567458 7.771234e-05 0.00027309483 1.9342813e-05 -0.00010949315 7.985393e-05 -2.186615e-05 4.313653e-05
9.522558e-05 -0.0001794262 -0.00016725929 -0.0002504831 9.5710966e-05 0.00012908767 -0.0001647278 -6.1522514e-05
2.6971748e-05 -6.165566e-05 0.00014055756 1.1923578e-05 -6.5268476e-05 -7.1719835e-05 -5.184701e-05 -7.454167e-06
0.00016574754 2.2352386e-05 -5.1173236e-05 -9.028067e-05 -7.2938914e-05 -2.8309998e-05 -0.00014143434 -8.085071e-06

exp_avg_sq f4 [128]
00000000: 0b01 e433 9e69 c730 5ff2 f432 5df9 4132
00000010: f17b 3431 681b 2833 3364 0333 0e34 bf31
00000020: 91d2 c232 9f54 a032 35bf 6933 f28f 4034
00000030: 1d71 2733 b908 d133 96d2 3833 aa22 4333
00000040: 88ca 4334 6e02 9d33 96b0 2134 addc 9933
00000050: c579 8533 681a 2434 03f2 b231 bfac 9931
00000060: 22b0 7331 afc0 f533 aa7c 8333 13ce dd33
00000070: 71c1 fa33 be97 0534 8536 8133 0941 c333
00000080: 4cc8 6230 7282 8433 4521 a633 7fba 7433
00000090: 1b8e 2533 1101 d533 3a3b 8b33 8f2c 4c33
000000a0: 6694 d133 2b4a e132 ed63 cf33 5023 0f33
000000b0: e0ab f832 e5d5 4b33 10f5 1a33 18ef a132
000000c0: c85a e531 e6d1 a031 6b64 0532 be08 5633
000000d0: 50fe 3732 0495 c232 7b82 5f32 ef55 e633
000000e0: a834 0234 31ce 3532 f32d 7332 79a3 c031
000000f0: 1a9b 5d32 8bab f133 af4e aa31 a38a 4b32
00000100: af80 bc32 6383 d533 cb93 ec30 afb8 f532
00000110: b733 5733 a5cc 2533 cbef 9233 5b00 9033
00000120: 0fe3 f231 b7c4 4b32 aaed d032 3cbc 0633
00000130: 20d1 2033 9922 8733 aa79 0433 7c79 3e33
00000140: 975e 3a31 fcdf 0133 93fa 8434 1990 0a33
00000150: 8486 7434 3c29 9a31 c934 fd32 a388 1732
00000160: eb78 1c33 2f76 e633 78b5 eb31 ef83 4e32
00000170: ab21 8032 e11e fa31 8a49 2d33 e585 2a34
00000180: 2f4d 1533 5f4d 4832 35c7 7f34 273c 2233
00000190: 29b2 2b33 1067 3633 0b49 4b33 fd5e 5233
000001a0: 94b4 0134 0ad9 8c33 415b 2f34 f50f c333
000001b0: 14c6 b632 4165 dd33 e8be ea33 1826 0732
000001c0: 6d52 0f34 e857 5531 e240 0e34 d3c8 7b33
000001d0: f2c1 fa31 e077 0e33 c334 b432 6a3b ee32
000001e0: 8209 0134 bd0d 7f32 8663 a732 31cc 5433
000001f0: fce4 0632 50f9 b131 fb9e 9a32 9771 0333
1.0617267e-07 1.4509174e-09 2.8515556e-08 1.1290777e-08 2.62639e-09 3.9140474e-08 3.0591945e-08 5.5647496e-09
2.2680327e-08 1.8664933e-08 5.442344e-08 1.793376e-07 3.8985593e-08 9.7339075e-08 4.3032365e-08 4.5433502e-08
1.823447e-07 7.311324e-08 1.5058535e-07 7.1647584e-08 6.215445e-08 1.5283297e-07 5.2079954e-09 4.472525e-09
3.5461274e-09 1.14437505e-07 6.122839e-08 1.0328599e-07 1.1676719e-07 1.2441794e-07 6.016948e-08 9.092225e-08
8.250296e-10 6.170457e-08 7.736029e-08 5.6980294e-08 3.85463e-08 9.9187794e-08 6.483465e-08 4.7537977e-08
9.7593144e-08 2.6227175e-08 9.657365e-08 3.33269e-08 2.894916e-08 4.7459157e-08 3.6078802e-08 1.8851594e-08
6.675098e-09 4.6804756e-09 7.764451e-09 4.983371e-08 1.0709826e-08 2.2652337e-08 1.3009976e-08 1.0725841e-07
1.212635e-07 1.0582469e-08 1.4154909e-08 5.60652e-09 1.2899159e-08 1.12536405e-07 4.9565965e-09 1.18476775e-08
2.1944599e-08 9.9424845e-08 1.7213265e-09 2.8605738e-08 5.0105623e-08 3.860318e-08 6.842273e-08 6.705587e-08
7.0689405e-09 1.1860883e-08 2.4322464e-08 3.1370504e-08 3.74431e-08 6.292721e-08 3.0844298e-08 4.434831e-08
2.712033e-09 3.0238866e-08 2.4769233e-07 3.2261685e-08 2.2773207e-07 4.4866777e-09 2.947708e-08 8.820424e-09
3.6431555e-08 1.0731707e-07 6.8600308e-09 1.2020776e-08 1.4916472e-08 7.279468e-09 4.0346585e-08 1.5881194e-07
3.4761964e-08 1.1659124e-08 2.3821197e-07 3.7773273e-08 3.9976076e-08 4.2468912e-08 4.7331053e-08 4.8980827e-08
1.2079755e-07 6.558737e-08 1.6331343e-07 9.083298e-08 2.1277664e-08 1.03095324e-07 1.09312e-07 7.866696e-09
1.3347899e-07 3.1045548e-09 1.3248385e-07 5.862314e-08 7.2980066e-09 3.3170977e-08 2.0978751e-08 2.7733865e-08
1.201752e-07 1.4846077e-08 1.9486617e-08 4.9545807e-08 7.851892e-09 5.1797215e-09 1.8000256e-08 3.0604124e-08
