2D/Assets/NN Model/MoveToGoalClone.onnx (onnx, 77110 bytes, 7 tensors)

network_body._body_endoder.seq_layers.0.weight f4 [128, 10]
0.40858507 0.06081678 0.3220249 0.2679773 -0.17118716 -0.29831085 -0.37489104 -0.09010636
-0.0048186365 -0.042694274 -0.50200886 0.3009276 -0.048193283 0.46260193 0.49063045 0.35808524
0.40524232 0.035312615 0.09052568 -0.13401702 -0.5059509 0.15979056 0.05176143 -0.27353013
-0.13059092 -0.3950259 -0.21856433 -0.044852972 -0.20446208 0.4206135 -0.2805066 -0.04378591
-0.23716389 0.2742174 -0.09039433 -0.06464715 0.60310614 0.035699554 0.21706127 0.49776796
0.34939265 0.61330885 0.37146735 0.32118207 0.35512108 0.29548162 0.03462124 0.12678273
0.026563773 -0.26038352 -0.13569461 -0.8376236 0.78364396 -0.16957211 -0.039991643 0.2332388
0.67147434 -0.28809795 -0.027555466 -0.25707838 -0.32988366 0.4978194 0.21327545 -0.059676614
0.41162482 0.49521002 -0.70021874 0.05050745 -0.20817322 -0.09078295 0.3412679 0.17195465
0.33553705 0.00260496 0.105922714 0.20819002 -0.20684801 0.337564 0.024141539 -0.00798993
0.09269617 -0.012426602 0.05459215 -0.5231133 -0.08483107 -0.215561 -0.3268237 0.111263804
-0.15866324 0.012578517 0.07889656 -0.042489886 0.06573386 -0.25260222 -0.11237319 0.17666693
0.22437151 0.19611411 -0.5246074 0.071292385 -0.28739187 -0.33801144 0.38790223 -0.2576315
-0.3267293 0.17483461 0.20856315 -0.16231264 0.31987396 0.21513602 -0.23868844 -0.04249262
-0.16615129 -0.27882037 -0.17296454 0.45237878 0.08092451 0.13120452 -0.10085414 0.21975385
-0.08628728 0.5122288 -0.58306706 0.63275295 0.15432107 -0.07363582 -0.24027812 -0.0633776
-0.061123267 -0.3752131 0.1255911 0.12587294 0.22005108 -0.13831256 -0.038488686 -0.43706656
0.026199648 0.024560848 0.080178455 -0.4330091 0.19923437 0.3533618 -0.08600863 0.5236715
-0.07940704 0.18671477 -0.050539646 0.016176697 -0.24557413 -0.24875723 0.2042655 0.10951632
-0.19406739 -0.5662947 -0.030363336 0.82753384 0.09719409 -0.12973721 -0.757253 0.33606136
-0.31820312 -0.49295232 0.17406327 0.21817754 0.61808616 -0.10331779 0.21166357 -0.6613443
-0.04266464 -0.05120935 0.21069989 -0.41623712 0.034940384 0.2541906 -0.7436931 -0.26912233
0.12741864 0.12833819 -0.3318136 0.23670112 0.5498858 0.026691703 -0.60152924 0.077129155
-0.49376234 0.06220381 -0.22874197 -0.13469732 -0.19332226 -0.3671869 -0.06700397 -0.062445402
0.05343207 0.097286694 -0.08552257 -0.5692055 0.28622487 0.0067589986 0.36750793 -0.17924587
-0.16959816 -0.45379648 -0.26734462 -0.5186105 -0.040831808 0.19439958 0.22381279 -0.3681706
-0.2302327 0.06959816 -0.32389468 -0.5207695 -0.17069654 0.03301729 -0.08274669 -0.013601403
0.008237034 0.42525542 0.4125901 -0.18479535 0.035953715 0.0069559277 0.14906824 -0.016441174
-0.012110836 -0.084311455 -0.31139064 0.7084151 0.3480284 0.37352365 -0.34948936 0.0814739
0.4499323 -0.31308213 -0.10614722 -0.4450551 0.46850938 -0.5791184 -0.4681552 0.24264558
-0.025574686 -0.2461326 0.08592547 -0.27917665 -0.24150097 0.1179534 -0.031086225 -0.036120307
0.1163509 0.23616786 0.15413214 0.064627886 -0.1285066 -0.25020584 0.20784697 0.17349662
00000000: 1032 d13e 041b 793d 73e0 a43e 5234 893e
00000010: b04b 2fbe 33bc 98be b8f1 bfbe af89 b8bd
00000020: a7e5 9dbb 31e0 2ebd a783 00bf 2f13 9a3e
00000030: 5266 45bd 29da ec3e ea33 fb3e f356 b73e
00000040: ec7b cf3e f6a3 103d 8765 b93d c23b 09be
00000050: 0086 01bf 23a0 233e cb03 543d 240c 8cbe
00000060: a0b9 05be d640 cabe 54cf 5fbe c0b7 37bd
00000070: 825e 51be a75a d73e 909e 8fbe db58 33bd
00000080: 17db 72be 3966 8c3e aa20 b9bd ba65 84bd
00000090: 2a65 1a3f b239 123d 4f45 5e3e 71db fe3e
000000a0: 98e3 b23e cf01 1d3f f830 be3e fa71 a43e
000000b0: 6ed2 b53e 5e49 973e 00cf 0d3d 55d3 013e
000000c0: 459c d93c fd50 85be 87f3 0abe 806e 56bf
000000d0: e49c 483f 50a4 2dbe 47ce 23bd 27d6 6e3e
000000e0: bee5 2b3f 9381 93be 00bc e1bc c79f 83be
000000f0: 83e6 a8be 2fe2 fe3e e164 5a3e 776f 74bd
00000100: 7dc0 d23e 2b8c fd3e 8941 33bf e6e0 4e3d
00000110: 5c2b 55be 69ec b9bd abba ae3e e114 303e
00000120: 83cb ab3e fab7 2a3b 02ee d83d c42f 553e
00000130: f7cf 53be 30d5 ac3e 7ac4 c53c 32e8 02bc
00000140: 7dd7 bd3d f298 4bbc 059c 5f3d c1ea 05bf
00000150: e9bb adbd 06bc 5cbe 7055 a7be 47de e33d
00000160: 9e78 22be 2016 4e3c 8594 a13d e009 2ebd
00000170: 799f 863d 1455 81be ea23 e6bd 2de8 343e
00000180: a5c1 653e 23d2 483e ac4c 06bf be01 923d
00000190: 0725 93be d60f adbe 1f9b c63e 47e8 83be
000001a0: 1049 a7be d807 333e 9491 553e 4935 26be
000001b0: 85c6 a33e 9e4c 5c3e be6a 74be be0c 2ebd
000001c0: 9023 2abe 8bc1 8ebe 9e1d 31be 319e e73e
000001d0: c0bb a53d 7a5a 063e 9e8c cebd 2707 613e
000001e0: 63b7 b0bd 6d21 033f e243 15bf 19fc 213f
000001f0: 5806 1e3e 60ce 96bd 780b 76be 1dcc 81bd
00000200: 645c 7abd ee1b c0be f49a 003e d6e4 003e
00000210: 1255 613e cfa1 0dbe 50a6 1dbd 30c7 dfbe
00000220: a5a0 d63c d533 c93c 9a34 a43d 5eb3 ddbe
00000230: 1804 4c3e d6eb b43e 4b25 b0bd 560f 063f
00000240: 28a0 a2bd 2832 3f3e a902 4fbd fe84 843c
00000250: c977 7bbe 37ba 7ebe fa2a 513e 184a e03d
00000260: 9ab9 46be b1f8 10bf 88bc f8bc 42d9 533f
00000270: b20d c73d d5d9 04be 55db 41bf 3c10 ac3e
00000280: 85eb a2be 3f64 fcbe a43d 323e ef69 5f3e
00000290: e53a 1e3f 4798 d3bd 56be 583e dc4d 29bf
000002a0: 1ec1 2ebd e5c0 51bd b6c1 573e 081d d5be
000002b0: a61d 0f3d 4525 823e ac62 3ebf 67ca 89be
000002c0: 087a 023e 166b 033e 79e3 a9be c761 723e
000002d0: 51c5 0c3f 8fa8 da3c d2fd 19bf e4f5 9d3d
000002e0: 6bce fcbe 6cc9 7e3d 563b 6abe 18ee 09be
000002f0: 45f6 45be ecff bbbe 6139 89bd c0c6 7fbd
00000300: 96db 5a3d 3f3e c73d 7526 afbd 74b7 11bf
00000310: 118c 923e 977a dd3b 002a bc3e 3b8c 37be
00000320: 24ab 2dbe 0358 e8be 65e1 88be a8c3 04bf
00000330: 413f 27bd af10 473e 2e2f 653e db80 bcbe
00000340: 1fc2 6bbe 7b89 8e3d 86d5 a5be 2651 05bf
00000350: 13cb 2ebe 233d 073d 1977 a9bd 6bd8 5ebc
00000360: a0f4 063c 14bb d93e 023f d33e fe3a 3dbe
00000370: 3444 133d 8dee e33b 58a5 183e a4af 86bc
00000380: 876c 46bc 7cab acbd 986e 9fbe b15a 353f
00000390: c730 b23e 7e3e bf3e 45f0 b2be cadb a63d
000003a0: 875d e63e 4d4c a0be b763 d9bd 43de e3be
000003b0: 76e0 ef3e 1a41 14bf 0ab2 efbe 1578 783e
000003c0: 0182 d1bc 2f0a 7cbe b1f9 af3d 3ef0 8ebe
000003d0: 084c 77be 8d91 f13d 8aa8 febc e3f2 13bd
000003e0: 6149 ee3d fdd5 713e d1d4 1d3e a05b 843d
000003f0: 3c97 03be fb1a 80be d6d5 543e 19a9 313e

network_body._body_endoder.seq_layers.0.bias f4 [128]
-0.014129687 0.0016154359 0.007919779 -0.005834041 -0.0043574083 0.01508637 -0.0011096612 -0.013864214
0.029192397 0.01033941 -0.002375432 0.012864255 0.0043299305 0.044203956 0.012917401 0.025322609
0.005007465 -0.0043925312 -0.01485797 0.012325807 0.023105191 0.01790328 -0.031484634 0.034383636
0.024666779 0.0069225375 0.020804914 -0.013399769 0.0015379664 0.000530662 -0.021825157 -0.04366072
-0.017098628 0.017756287 0.018817764 -0.02293247 0.01052943 0.0011502416 0.0127071785 0.025633242
0.02344696 -0.0035564038 -0.010069243 0.018621478 -0.0051739537 -0.0049295155 -0.0013425106 -0.012244657
0.00976095 -0.022430627 0.020247137 0.034794774 0.038248114 0.044104822 -0.042648666 -0.030580936
0.00011057885 -0.014334531 -0.024612235 0.02149958 0.019837396 0.004623476 -0.006055515 -0.007047333
0.014521167 0.049657628 -0.009928793 -0.024670307 0.013855604 0.010141727 -0.008865566 0.045462023
0.004937328 0.019278513 0.00024353959 0.0035592213 -0.0065341974 0.04325879 0.013236741 0.0059296815
0.025215114 0.005578263 -0.010267975 0.02224039 0.01508439 0.013232194 -0.009833967 0.036944922
0.038938582 0.021272616 0.013553153 -0.001090332 0.0047475277 0.017543854 0.015575456 0.034086294
0.021718219 -0.01645358 0.009994543 0.03581165 0.0036569303 -0.003316668 -0.0041591786 0.012876597
-0.00704788 0.022442631 -0.030877879 0.026783008 0.003012047 0.01342155 -0.0015511132 -0.00025609066
0.022749132 0.010773382 0.0005337411 -0.006328325 0.020869305 0.011656404 0.03357477 0.016173571
-0.021401502 0.0004638986 -0.014774295 0.011859464 -0.013782593 0.035090722 0.013930115 0.022039639
00000000: 3480 67bc 09bd d33a f6c1 013c 7c2b bfbb
00000010: 97c8 8ebb d22c 773c 0d72 91ba ba26 63bc
00000020: e524 ef3c a166 293c 23ad 1bbb 99c4 523c
00000030: 17e2 8d3b 350f 353d 82a3 533c 5c71 cf3c
00000040: a915 a43b 39ef 8fbb d86e 73bc 2ef2 493c
00000050: 1947 bd3c e6a9 923c 08f6 00bd dbd5 0c3d
00000060: fc11 ca3c 74d6 e23b 116f aa3c b48a 5bbc
00000070: 9795 c93a 201c 0b3a acca b2bc 95d5 32bd
00000080: 6c12 8cbc a275 913c b627 9a3c e0dc bbbc
00000090: a183 2c3c b4c3 963a c531 503c cefc d13c
000000a0: d713 c03c 8e12 69bb 77f9 24bc 128c 983c
000000b0: 458a a9bb c687 a1bb 2ef7 afba d09d 48bc
000000c0: 64ec 1f3c 6fc0 b7bc 53dd a53c f784 0e3d
000000d0: 0eaa 1c3d 42a7 343d 5eb0 2ebd df84 fabc
000000e0: 91e6 e738 61db 6abc 999f c9bc e31f b03c
000000f0: 0982 a23c 8780 973b 576d c6bb 50ed e6bb
00000100: 30ea 6d3c cc65 4b3d 60ac 22bc 6219 cabc
00000110: 9e02 633c 7c29 263c e140 11bc 6336 3a3d
00000120: 4fc9 a13b f9ed 9d3c a95e 7f39 d341 693b
00000130: d21c d6bb 2130 313d eade 583c c64d c23b
00000140: ed8f ce3c ddc9 b63b 023b 28bc 7a31 b63c
00000150: 8424 773c d8cb 583c a61e 21bc 8f53 173d
00000160: 107e 1f3d e943 ae3c 0b0e 5e3c 79e9 8eba
00000170: 2691 9b3b 21b8 8f3c 3330 7f3c 129e 0b3d
00000180: 68ea b13c a9c9 86bc 27c0 233c 3daf 123d
00000190: 1ca9 6f3b 755c 59bb b849 88bb 5df8 523c
000001a0: e7f1 e6bb 9cd9 b73c 9bf3 fcbc 0a68 db3c
000001b0: c365 453b 10e6 5b3c b94e cbba e843 86b9
000001c0: 635c ba3c d782 303c c2ea 0b3a d65d cfbb
000001d0: 1bf6 aa3c 80fa 3e3c b385 093d 707e 843c
000001e0: 3452 afbc 6b37 f339 e20f 72bc 334e 423c
000001f0: 63d0 61bc 4abb 0f3d 233b 643c 798c b43c

network_body._body_endoder.seq_layers.2.weight f4 [128, 128]
-0.008160178 -0.06436513 -0.044754 0.0101957945 0.0955254 0.16612668 0.0046275593 -0.06414631
0.19432168 0.035555214 -0.020344052 0.03341346 0.019060975 -0.124996506 0.0614515 0.12528995
-0.12742183 -0.044061445 -0.05504403 -0.20905977 0.0060074795 -0.0062181326 0.011574745 -0.0133125
0.06727102 -0.014094307 -0.043289732 0.10246846 -0.010849374 0.17156729 0.05914341 0.13081841
-0.07530193 0.09758044 -0.06472569 -0.008601929 -0.062039148 0.1530986 0.08105537 0.15806596
0.141463 0.08432773 -0.108791955 0.060946915 0.07804195 -0.03472952 -0.050026774 0.0395199
-0.21176285 -0.21851149 0.084968254 -0.14037676 0.19826306 -0.009910976 0.051196318 0.08961024
-0.054898504 0.012771205 -0.04660001 -0.112567894 0.005123099 -0.057897214 0.02177258 0.0068285987
-0.062285833 -0.0033355355 0.10291149 0.18253332 0.007357447 0.06700076 0.11956508 -0.09889614
-0.06697505 -0.09590092 0.0761531 -0.07547047 0.10482592 -0.07956618 -0.14474514 0.042582963
0.03737784 -0.009521428 0.20080034 0.12295728 0.16696471 -0.12611122 -0.04981987 -5.6060693e-05
0.011797805 0.032908887 0.103136644 -0.052092206 0.029356236 -0.057823103 -0.115776666 0.050487127
0.08289838 0.09399635 0.060178105 -0.075839564 0.03130435 0.1900124 0.10750752 0.07356852
-0.1144141 -0.004955544 -0.004072348 0.0023081356 0.026151229 -0.082114264 0.0013717131 0.096955694
-0.06793006 -0.05559433 -0.095076844 0.0127933 0.077722944 -0.12608315 0.009729304 0.12211888
0.1343674 -0.03282424 0.0107450085 -0.088808216 0.008544319 0.07182324 0.082742475 0.15788549
0.08321683 -0.07891651 0.025748126 -0.09245396 0.040178534 0.040003754 -0.0010272305 -0.09399258
-0.011970474 0.046195317 -0.07282611 0.06907468 0.098471835 0.07769677 -0.102413006 -0.019269137
-0.0303119 -0.0039290953 0.08224088 0.008614542 -0.046767853 -0.027138453 0.02650756 0.17736788
-0.14251988 -0.08955522 0.09784178 0.08165446 0.039249163 0.02451314 0.0893474 -0.013638123
0.07073099 0.030224903 0.070259616 -0.09307549 0.067933775 -0.045141228 0.15100184 -0.036756083
0.059492614 -0.17514107 -0.03666033 -0.08483621 -0.0042977845 -0.012721014 -0.028845612 0.15927646
-0.009200722 -0.062177535 0.13189769 0.024405465 0.03549929 -0.03650213 0.039883975 0.102237515
-0.101761796 0.017091818 -0.08156539 0.03829074 -0.12446774 -0.044342108 -0.014326344 0.06478424
0.009608566 -0.1998016 -0.06958554 -0.028786642 -0.10501742 0.05084791 0.07978699 -0.14425696
-0.10909531 0.016864553 0.16289705 -0.10611271 0.003459346 0.059359297 0.051814314 0.025645373
0.29049358 -0.012921689 0.055891458 -0.020844243 0.19224358 -0.11578582 -0.057227142 -0.12247543
0.08177377 0.014966976 0.02645774 0.010346565 -0.11002383 -0.055444628 0.13465588 -0.12352067
0.064572744 -0.17777598 0.10459137 -0.00801288 -0.06265858 -0.054179702 -0.08125598 0.01324933
-0.024704916 0.059672534 -0.090567686 0.08595318 -0.03355913 -0.10852785 -0.055860806 -0.0028941901
0.11275091 -0.033019815 0.14707585 -0.13795432 0.037420116 0.15962067 -0.074765824 -0.04095921
0.01310819 -0.084861614 -0.0019838845 0.039765775 -0.06342285 -0.026445204 0.03180474 0.105879016
00000000: 44b2 05bc ded1 83bd f84f 37bd 430c 273c
00000010: d2a2 c33d 1d1d 2a3e c8a2 973b 245f 83bd
00000020: 43fc 463e 58a2 113d 92a8 a6bc 8ddc 083d
00000030: c325 9c3c 2bfe ffbd 91b4 7b3d 024c 003e
00000040: de7a 02be c679 34bd d975 61bd c413 56be
00000050: 64da c43b 7ac1 cbbb 00a4 3d3c ac1c 5abc
00000060: 63c5 893d cfeb 66bc 9350 31bd fcda d13d
00000070: 93c1 31bc 56af 2f3e 5c40 723d 43f5 053e
00000080: e637 9abd 41d8 c73d e78e 84bd 1bef 0cbc
00000090: c31c 7ebd e1c5 1c3e 5c00 a63d 0bdc 213e
000000a0: addb 103e 04b4 ac3d 51ce debd 79a3 793d
000000b0: 75d4 9f3d 8b40 0ebd e0e8 4cbd 9edf 213d
000000c0: 5cd8 58be 7ac1 5fbe d603 ae3d edbe 0fbe
000000d0: 7905 4b3e a561 22bc 3bb3 513d 9385 b73d
000000e0: 41dd 60bd 513e 513c a7df 3ebd ff89 e6bd
000000f0: abdf a73b a125 6dbd 695c b23c 70c2 df3b
00000100: 6e1f 7fbd 0099 5abb 42c3 d23d 04ea 3a3e
00000110: bd16 f13b b237 893d 89de f43d 0f8a cabd
00000120: 372a 89bd b467 c4bd 28f6 9b3d 4390 9abd
00000130: f9ae d63d 98f3 a2bd 1238 14be 796b 2e3d
00000140: 8219 193d c3ff 1bbc 9b9e 4d3e 07d1 fb3d
00000150: ccf8 2a3e 4d23 01be ec0f 4cbd b622 6bb8
00000160: 954b 413c 78cb 063d 4e39 d33d a35e 55bd
00000170: 7d7c f03c ebd7 6cbd 511c edbd 97cb 4e3d
00000180: a0c6 a93d 2981 c03d 517d 763d c651 9bbd
00000190: fd38 003d 9c92 423e e72c dc3d 18ab 963d
000001a0: f151 eabd 1e62 a2bb 5571 85bb 1744 173b
000001b0: 1a3b d63c 862b a8bd 0ecb b33a b590 c63d
000001c0: ea1e 8bbd e1b6 63bd a6b7 c2bd fd9a 513c
000001d0: 352d 9f3d f11b 01be a967 1f3c 7719 fa3d
000001e0: 9c97 093e b672 06bd d50b 303c 15e1 b5bd
000001f0: 79fd 0b3c 1018 933d e374 a93d bcac 213e
00000200: 966d aa3d fb9e a1bd bced d23c 8058 bdbd
00000210: 3f92 243d fada 233d 23a4 86ba 2f7f c0bd
00000220: cf1f 44bc 4d37 3d3d db25 95bd 0777 8d3d
00000230: 9aab c93d 7c1f 9f3d e9bd d1bd 4fda 9dbc
00000240: a950 f8bc a4bf 80bb e86d a83d 0224 0d3c
00000250: a68f 3fbd 7651 debc 6226 d93c ed9f 353e
00000260: bbf0 11be ba68 b7bd 4561 c83d 743a a73d
00000270: bbc3 203d c8cf c83c c5fb b63d 6f72 5fbc
00000280: 69db 903d 379a f73c 46e4 8f3d 5d9e bebd
00000290: dd20 8b3d 02e6 38bd 3aa0 1a3e 8c8d 16bd
000002a0: 87ae 733d 2e58 33be 2429 16bd 9bbe adbd
000002b0: 6ed4 8cbb cd6b 50bc a24d ecbc 5e19 233e
000002c0: a0be 16bc dfad 7ebd 3010 073e f8ed c73c
000002d0: b467 113d 4283 15bd 615d 233d e761 d13d
000002e0: 7d68 d0bd 2404 8c3c c10b a7bd c0d6 1c3d
000002f0: f1e8 febd 12a0 35bd 0bb9 6abc 9aad 843d
00000300: 3f6d 1d3c ca98 4cbe dd82 8ebd f7d1 ebbc
00000310: 6013 d7bd e645 503d 5d67 a33d 19b8 13be
00000320: 5d6d dfbd 8827 8a3c 7cce 263e 9f51 d9bd
00000330: 32b6 623b bc22 733d 3f3b 543d 3f16 d23c
00000340: 93bb 943e 7eb5 53bc 71ee 643d 8cc1 aabc
00000350: 80db 443e 1e21 edbd 0267 6abd 66d4 fabd
00000360: 0279 a73d 0c38 753c e7bd d83c a484 293c
00000370: 2c54 e1bd e819 63bd 3be3 093e 68f8 fcbd
00000380: b73e 843d e80a 36be 0034 d63d 7448 03bc
00000390: 2453 80bd 89eb 5dbd 8969 a6bd b813 593c
000003a0: f761 cabc 306b 743d 8d7b b9bd 3908 b03d
000003b0: 4c75 09bd d943 debd 4dce 64bd 74ac 3dbb
000003c0: f3e9 e63d c93f 07bd 0d9b 163e e643 0dbe
000003d0: d645 193d 9a73 233e d31e 99bd d8c4 27bd
000003e0: bcc3 563c edcb adbd 0f04 02bb 70e1 223d
000003f0: d7e3 81bd 9da3 d8bc b045 023d 19d7 d83d

network_body._body_endoder.seq_layers.2.bias f4 [128]
-0.0039264862 0.013616631 0.02208504 0.009454981 -0.003466854 -0.0061836853 0.0057627307 -0.00044868133
0.015355853 0.021737825 0.013754342 -0.004453948 0.01969184 0.0154567035 0.020613162 0.0047959615
-0.023149006 0.010549501 -0.0034107827 0.015354442 0.010479955 0.043744467 0.029551635 0.014614151
0.02116449 -0.0016858884 -0.0005987307 0.005736676 0.0055508036 0.0068681235 0.0062864665 -0.0049397326
0.031574905 0.0013234776 -0.005395397 0.01514539 0.00063840183 0.020947954 0.001176529 0.0037162076
0.01418658 0.019034391 0.019584049 0.029752454 0.01127615 0.0001464739 0.029892698 -0.0037757412
0.0044434885 0.00084376254 0.003906092 0.005174427 -0.010448913 -0.0048916414 0.0035986945 -0.008131997
-0.020020569 0.0055158604 0.0040099616 0.005539037 -0.0061984155 0.010121993 0.021113466 0.025511218
0.017378079 0.0018164559 0.0005939316 0.010956231 0.018656129 0.01854335 -0.0054460797 -9.483962e-05
0.0066582337 0.013853451 0.008307421 0.009729483 0.0029843252 0.016017243 0.000234742 -0.00050630065
0.011814055 0.018091854 0.0048769834 0.0144768525 -0.0024364823 0.0022656352 -0.0012917414 0.015517899
-0.0005035008 -0.0009392681 -0.001011449 -0.0034546715 0.02513543 5.9039983e-05 -0.0011756857 0.0015533033
0.0019799313 0.011716969 -0.0003834792 0.019056136 0.008214527 0.0429903 -0.0023702858 0.02772705
-0.0043440326 -0.0035508838 0.038633887 0.020867882 -0.0068913978 0.011066387 0.006366516 0.0049966355
0.007117732 0.030067103 0.018920349 0.0015816136 0.019417971 0.009356793 0.00038186283 0.009691054
0.018264925 -0.0035552275 -0.017526226 0.001626301 0.030001892 0.008124938 0.012092204 0.0026784798
00000000: c1a9 80bb 4a18 5f3c b0eb b43c 11e9 1a3c
00000010: 2934 63bb 83a0 cabb 4ad5 bc3b fd3c ebb9
00000020: 1e97 7b3c 8613 b23c e459 613c 6cf2 91bb
00000030: c850 a13c 1d3e 7d3c efdc a83c 7127 9d3b
00000040: fca2 bdbc d0d7 2c3c 7087 5fbb 3391 7b3c
00000050: 1eb4 2b3c 662d 333d 4516 f23c 3170 6f3c
00000060: 2761 ad3c 07f9 dcba 23f4 1cba bafa bb3b
00000070: 84e3 b53b ff0d e13b b4fe cd3b 7bdd a1bb
00000080: b054 013d 8a78 ad3a dfcb b0bb 5f24 783c
00000090: 6c5a 273a 0b9b ab3c c335 9a3a 9e8b 733b
000000a0: d46e 683c 03ee 9b3c ba6e a03c 6bbb f33c
000000b0: 9abf 383c ca96 1939 88e1 f43c 6d72 77bb
000000c0: af9a 913b f22f 5d3a 59fd 7f3b 3d8e a93b
000000d0: eb31 2bbc 104a a0bb 13d8 6b3b 113c 05bc
000000e0: 2d02 a4bc 64be b43b ff65 833b cf80 b53b
000000f0: 141c cbbb b7d6 253c 26f6 ac3c e7fc d03c
00000100: 795c 8e3c 2516 ee3a 13b2 1b3a c381 333c
00000110: bdd4 983c 39e8 973c 0775 b2bb a2e4 c6b8
00000120: 502d da3b 96f9 623c d91b 083c 6968 1f3c
00000130: ab94 433b 9836 833c 1325 7639 43b9 04ba
00000140: bd8f 413c 5e35 943c 1acf 9f3b 5230 6d3c
00000150: 64ad 1fbb 0d7b 143b a64f a9ba c93e 7e3c
00000160: 5efd 03ba 3739 76ba 9992 84ba c567 62bb
00000170: d1e8 cd3c b3a1 7738 7719 9aba 3698 cb3a
00000180: bcc1 013b 88f8 3f3c b50d c9b9 9d1b 9c3c
00000190: 3996 063c 9916 303d cc56 1bbb d723 e33c
000001a0: 6358 8ebb f2b5 68bb 913e 1e3d 1ff3 aa3c
000001b0: 3cd1 e1bb cb4f 353c 359e d03b d1ba a33b
000001c0: dd3b e93b 494f f63c d9fe 9a3c 254e cf3a
000001d0: 7012 9f3c 3c4d 193c c334 c839 3ac7 1e3c
000001e0: 53a0 953c d2fe 68bb 2993 8fbc 9b29 d53a
000001f0: 87c6 f53c 761e 053c 611e 463c 6f89 2f3b

action_model._continuous_distribution.log_sigma f4 [1, 2]
0.008943777 -0.008817473
00000000: eb88 123c 2a77 10bc

action_model._continuous_distribution.mu.weight f4 [2, 128]
-0.016451672 -0.015232955 -0.030089907 -0.007300069 -0.021508519 0.0013042971 0.046966307 -0.00796048
0.06689668 -0.044294134 -0.06062569 -0.001986654 -0.033891074 0.01735479 0.053430386 -0.008508384
0.017267402 0.0041620433 0.012849916 -0.03352547 0.006668075 -0.028914496 -0.053612817 0.0010780062
-0.019445082 0.039633323 -0.008663037 -0.0144102285 -0.032832775 -0.013530614 0.0073733027 -0.0074135396
-0.020520274 -0.009195646 -0.0019965386 0.03994774 -0.0018088403 -0.0317405 0.019119672 0.03578181
0.031967923 0.06897836 -0.01529475 -0.037204284 -0.0061121234 -0.009717468 -0.050662253 0.0053706397
0.023880186 -0.018514318 -0.0044232397 -0.0007919794 -0.010677129 0.0004902783 -0.0038254932 -0.009938537
-0.035274696 -0.002187645 0.0368837 -0.0138356155 0.017711453 0.037368514 -0.032992925 -0.016012153
-0.051326964 -0.0014245833 -0.02685949 0.04319418 0.06116449 -0.023362558 -0.0020328667 -0.026460243
-0.00479256 -0.015340566 0.006221531 0.031416252 -0.037429266 0.010452826 0.019521406 0.021912249
-0.013032171 0.0121828895 0.015303497 0.013451039 -0.0028624542 0.003011416 0.003790994 -0.046828702
0.04840604 0.015825978 0.0031506636 -0.0031213884 0.014426629 -0.009053711 0.026336836 0.02758973
-0.0024030965 -0.027044972 0.037998974 0.006596501 -0.035962783 -0.056279715 -0.02347029 -0.050044082
-0.0077901226 -0.011427382 0.013180644 -0.0035621193 0.024060242 -0.019215483 0.021069072 -0.01789672
-0.012669423 0.027210321 -0.03946516 -0.013801122 -0.0066169067 -0.017215747 -0.014588118 0.021135464
-0.035185102 0.014983391 -0.022040376 -0.008920426 -0.005722449 0.0296137 -0.03733771 0.022561612
-0.0024367836 -0.037195478 -0.013028973 -0.027333556 -0.017120615 -0.005090859 -0.024425969 0.022847304
-0.003284391 -0.047021776 0.042272437 -0.033804994 0.026586972 -0.041522507 0.015855333 0.004890872
-0.01798166 0.01911374 -0.027696839 0.0123893125 -0.03558856 -0.0449462 -0.016749578 0.043010514
-0.06125585 -0.002628428 0.00012176339 -0.027687902 0.007842034 0.021989621 -0.012221927 -0.010369112
-0.04070477 -0.03461675 -0.011148384 -0.011077718 0.0055481726 0.03913816 -0.01763803 -0.0072627226
0.015503254 -0.00060384884 -0.047996234 -0.031687587 -0.045416243 0.01858655 -0.026244497 0.019635204
-0.0050947387 -0.019088509 -0.035798095 0.014532393 -0.029506601 0.0055055423 -0.006069069 0.0012017625
-0.013280144 0.021315057 -0.029068826 0.024253866 0.0049951575 0.004981593 -0.009093277 0.04237902
-0.020054888 0.0016014676 0.002590898 -0.025244888 -0.069473766 0.03644247 -0.0027468987 0.0021206925
-0.022059934 -0.011075835 -0.020984802 -0.008286616 0.008827748 0.04327076 -0.024580965 -0.02609873
0.035530392 0.043562666 0.01242675 -0.010633981 0.0017229597 -0.015673878 -0.017333869 -0.013655852
0.028957771 0.012669419 0.02647305 -0.041519668 0.06741863 0.017352862 -0.007079002 -0.007096839
0.02886903 0.004619795 -0.010800263 -0.017681036 0.023854988 -0.015094054 -0.0027825371 0.05548466
0.012221436 -0.023724893 0.039920334 -0.04060893 0.0056505837 -0.0358713 0.0018067975 -0.013573385
-0.005254295 -0.03145863 0.026776586 0.0193643 -0.040721383 0.038872886 0.0038149664 0.004571354
0.05238907 -0.016066989 -0.005053807 0.01092748 -0.023077277 0.017760005 0.008146249 -0.0038189774
00000000: a8c5 86bc a593 79bc 1c7f f6bc 6b35 efbb
00000010: a232 b0bc f3f4 aa3a be5f 403d ac6c 02bc
00000020: 2001 893d c46d 35bd a552 78bd 8632 02bb
00000030: 5ed1 0abd a22b 8e3c d2d9 5a3d c066 0bbc
00000040: 5e74 8d3c c061 883b 7488 523c 0152 09bd
00000050: de7f da3b 18de ecbc 1d99 5bbd e34b 8d3a
00000060: 4b4b 9fbc 8d56 223d 69ef 0dbc e118 6cbc
00000070: a97b 06bd 82af 5dbc bf9b f13b 47ed f2bb
00000080: 221a a8bc 56a9 16bc 5cd8 02bb 3ea0 233d
00000090: 9c16 edba 5402 02bd dca0 9c3c f28f 123d
000000a0: ccf0 023d 8744 8d3d d596 7abc 8563 18bd
000000b0: 3548 c8bb 0436 1fbc 3983 4fbd 31fc af3b
000000c0: 61a0 c33c 57ab 97bc d3f0 90bb d69c 4fba
000000d0: 20ef 2ebc 0586 003a 20b5 7abb 3fd5 22bc
000000e0: 337c 10bd 985e 0fbb 5d13 173d c7ae 62bc
000000f0: 9c17 913c ba0f 193d 9723 07bd eb2b 83bc
00000100: 393c 52bd 15b9 baba 6f08 dcbc 61ec 303d
00000110: 9e87 7a3d d662 bfbc d839 05bb 27c3 d8bc
00000120: e80a 9dbb ff56 7bbc fcdd cb3b 54ae 003d
00000130: 6e4f 19bd 5442 2b3c 5beb 9f3c 5181 b33c
00000140: e384 55bc be9a 473c 85bb 7a3c bf61 5c3c
00000150: 0398 3bbb 2d5b 453b 5372 783b 74cf 3fbd
00000160: 6945 463d 7ba5 813c 5d7b 4e3b 3590 4cbb
00000170: ab5d 6c3c 0456 14bc 59c0 d73c dc03 e23c
00000180: 457d 1dbb 6b8d ddbc d0a4 1b3d 7627 d83b
00000190: b64d 13bd 8f85 66bd c444 c0bc 06fb 4cbd
000001a0: 4944 ffbb ea39 3bbc a1f3 573c 7272 69bb
000001b0: fc19 c53c ca69 9dbc 0c99 ac3c 249c 92bc
000001c0: 6993 4fbc 2ee8 de3c 38a6 21bd 1a1e 62bc
000001d0: a3d2 d8bb 0a08 8dbc 0003 6fbc 4824 ad3c
000001e0: 411e 10bd e67c 753c 058e b4bc fa26 12bc
000001f0: 6283 bbbb 6e98 f23c 6def 18bd 21d3 b83c
00000200: 72b2 1fbb 495a 18bd 7977 55bc 9fea dfbc
00000210: 8840 8cbc 38d1 a6bb f818 c8bc 452a bb3c
00000220: f03e 57bb e899 40bd dd25 2d3d 1b77 0abd
00000230: eccc d93c 8113 2abd 0be3 813c 9c43 a03b
00000240: 464e 93bc 6b94 9c3c 7be4 e2bc 8bfc 4a3c
00000250: 4fc5 11bd 8219 38bd 6936 89bc cb2b 303d
00000260: 6ae7 7abd b441 2cbb 395b ff38 bdd1 e2bc
00000270: e07b 003c 9423 b43c 7a3e 48bc 35e3 29bc
00000280: 0bba 26bd 4bca 0dbd b6a7 36bc 517f 35bc
00000290: 72cd b53b 564f 203d a17d 90bc 22fc edbb
000002a0: 5c01 7e3c 9c4b 1eba b397 44bd d8ca 01bd
000002b0: 6206 3abd d242 983c b3fe d6bc 02da a03c
000002c0: c4f1 a6bb 815f 9cbc 06a1 12bd 4619 6e3c
000002d0: d4b7 f1bc d667 b43b 0adf c6bb 7584 9d3a
000002e0: f694 59bc ea9c ae3c bf21 eebc 0bb0 c63c
000002f0: 6bae a33b a23c a33b f8fb 14bc a095 2d3d
00000300: 264a a4bc 56e8 d13a 0ecc 293b 5ece cebc
00000310: 4348 8ebd b344 153d 5005 34bb 51fb 0a3b
00000320: 09b7 b4bc 6b77 35bc 52e8 abbc 96c4 07bc
00000330: 42a2 103c ae3c 313d 055e c9bc 01cd d5bc
00000340: 5188 113d c46e 323d 9199 4b3c 263a 2ebc
00000350: efd4 e13a 8166 80bc c2ff 8dbc cbbc 5fbc
00000360: d938 ed3c 6593 4f3c 02de d83c 8710 2abd
00000370: c712 8a3d 9727 8e3c f9f6 e7bb 9a8c e8bb
00000380: be7e ec3c a661 973b 96f3 30bc d2d7 90bc
00000390: 896b c33c 0d4d 77bc 3a5b 36bb e243 633d
000003a0: 6b3c 483c b55a c2bc 8183 233d 8d55 26bd
000003b0: 8828 b93b c9ed 12bd 10d2 ec3a e762 5ebc
000003c0: 392c acbb c4da 00bd 925a db3c e1a1 9e3c
000003d0: 77cb 26bd 2d39 1f3d 8404 7a3b 4ccb 953b
000003e0: ec95 563d eb9e 83bc 689a a5bb 2c09 333c
000003f0: 8f0c bdbc 6e7d 913c d877 053c cf47 7abb

action_model._continuous_distribution.mu.bias f4 [2]
-0.0012796557 0.002739811
00000000: 1fba a7ba 678e 333b
