3D/results/MoveToGoal/MoveToGoal.onnx (onnx, 75062 bytes, 7 tensors)

network_body._body_endoder.seq_layers.0.weight f4 [128, 6]
000000 f1 2c f0 3c 95 89 95 3e 76 79 0b 3f d5 d2 14 bf
       0.029318305 0.2920653 0.5448221 -0.58134204
000010 c0 0c b2 bd 61 0d cd 3c 5a ff e0 be 2d b9 8a 3e
       -0.08693838 0.025030794 -0.43944818 0.27094403
000020 52 c7 b4 3e a2 53 80 be c3 76 93 3c 0e 4d 81 3c
       0.3530832 -0.25063807 0.018000966 0.015783813
000030 8a e5 ee 3e 03 96 87 be 0e 69 9c ba 7e 4b c7 be
       0.466595 -0.26481637 -0.0011933164 -0.38924783
000040 2e 9b 93 be 21 30 84 be d7 67 1f be 9e d0 19 bf
       -0.2882933 -0.2581797 -0.15566956 -0.6008395
000050 5a 3c 31 3f 42 f3 36 bd ba 4f 13 3f 32 72 02 3f
       0.69232714 -0.044665582 0.5754353 0.509555
000060 b8 78 aa 3e 93 d3 9b be e5 bc ef 3e 2c d0 f7 bd
       0.33295226 -0.30434856 0.46823803 -0.121002525
000070 21 b4 f5 3e 34 68 2d 3f 97 0b bc bd 3d db 11 bd
       0.4798899 0.67737126 -0.09181898 -0.035609473
000080 74 32 12 be 65 73 72 3f 93 02 2d 3b 18 30 a8 bd
       -0.14277059 0.9470733 0.002639924 -0.08212298
000090 6b 83 1b 3e f2 29 38 3e b1 3d 23 bf 9d b2 85 be
       0.1518685 0.17984751 -0.6376601 -0.26112834
0000a0 a9 53 b0 3d 99 c8 f8 bd 09 0b 24 3f 8e d6 0a be
       0.08609707 -0.12147636 0.6407934 -0.13558409
0000b0 ae f1 76 be 4d eb 2b bf 76 14 9f 3c 00 6e 9e bf
       -0.24115631 -0.67155915 0.019418936 -1.2377319
0000c0 55 e2 b1 3e de ec 2e 3e 45 a0 af 3e dd be 01 3e
       0.3474299 0.17082545 0.34301963 0.12670465
0000d0 00 3c 42 3f a9 ef 14 be 5c 97 6c 3e 07 e3 8c 3c
       0.758728 -0.14544548 0.23104614 0.017198099
0000e0 b6 45 95 be 20 76 cd bb e8 76 4e bf ce a9 9f 3e
       -0.29154748 -0.006270185 -0.80650187 0.31184238
0000f0 00 9c 23 be ea cd 55 bf 1c 52 5c be 15 c8 04 3f
       -0.15977478 -0.83517325 -0.21515697 0.518678
000100 c5 91 73 3e b3 1b ca bd a8 1a e8 bd cf 6e 5a 3e
       0.23786075 -0.098685645 -0.11333209 0.21331333
000110 45 fe 2c bf 32 42 00 3e 51 b5 85 be 16 7b 27 bd
       -0.67575485 0.12525252 -0.26114896 -0.04088887
000120 34 f1 5b 3e c1 e6 54 3e 19 5a fa bd 53 ef 8c 3e
       0.2147873 0.2079115 -0.12224216 0.2752634
000130 fd 7d 06 bf 8f cc e0 bb e3 03 e7 3e 03 08 d7 bd
       -0.5253599 -0.006860323 0.45120153 -0.10499575
000140 19 5d 82 3e 58 17 b2 3e 37 0f 04 3e bf b7 e0 3d
       0.25461653 0.34783435 0.12896429 0.10972547
000150 c0 a0 8b 3e f1 2f c1 3e db 92 04 bf 52 98 93 3e
       0.2727108 0.3773189 -0.51786584 0.2882715
000160 6f ed c6 bd 00 01 be be 42 a7 f4 be 34 d7 b2 3e
       -0.097132556 -0.37110138 -0.47783858 0.34929812
000170 64 e3 c1 be d1 8d 6e 3e db 69 c7 be 6f 8f 0b 3f
       -0.37868798 0.23296286 -0.3894795 0.5451574
000180 73 8a 62 3e d0 ca 74 bf db 80 b5 bc 5a a8 1f bd
       0.22123127 -0.9562197 -0.02215617 -0.038978912
000190 f4 49 eb 3c 4a 51 25 3f 13 bb ca 3e 6e de de be
       0.028721787 0.6457716 0.3959585 -0.43529075
0001a0 87 8e bf 3c 50 ba 05 be a7 b6 ec 3e 5c 27 cc 3e
       0.023383392 -0.13059354 0.46233103 0.3987378
0001b0 43 02 64 be e9 04 59 3e 26 35 61 be 3c 47 fa 3e
       -0.22266488 0.2119328 -0.21992931 0.48882473
0001c0 77 40 03 bd 44 c8 44 3e 96 78 a5 be ac a5 c4 3e
       -0.0320439 0.1921702 -0.32318562 0.38407648
0001d0 25 cf 92 3f dc 48 04 3f 1c 3e 97 3d aa 16 af 3e
       1.1469465 0.51673675 0.07384893 0.3419698
0001e0 82 47 95 bd 9f 3f 60 be 2d 61 fd 3e db 65 08 3f
       -0.0728903 -0.2189927 0.49488202 0.5328042
0001f0 e1 76 19 3e 5d 7b 2c 3d c0 fc 11 3d 25 17 92 bd
       0.14986755 0.042109836 0.03564143 -0.07133321
000200 f7 d5 ba 3c 51 b3 42 3f c9 e7 ec be 0a ae 19 3f
       0.022807105 0.76054865 -0.46270588 0.6003119
000210 41 ac f7 3d b5 5b 25 3f a8 54 1a 3e 43 66 c0 be
       0.12093402 0.6459306 0.15071356 -0.3757802
000220 5f 58 40 3f bb de aa bd b8 3e 2c 3e 9d ab 14 3e
       0.75134844 -0.08343264 0.168208 0.1451859
000230 82 f2 25 3f 31 9f 06 bf 26 48 e7 bc bc 24 84 3e
       0.6482316 -0.52586657 -0.028232645 0.25809276
000240 df fd 03 bc 2e 23 12 3f 5e 64 e1 be 6c 26 5b bd
       -0.008056133 0.5708493 -0.44021887 -0.05350344
000250 15 ef 26 3f 04 41 ad 3e 93 7d 09 bf de d1 2e bf
       0.6520856 0.33838665 -0.53707236 -0.6828898
000260 7d 0d c7 3c d3 b0 2a bf 8b 65 3c 3d 64 f0 07 3f
       0.024298424 -0.6667606 0.045995276 0.5310118
000270 2b 5d c3 bd ac ad 8b be c2 f8 52 3e f1 51 26 3f
       -0.09539255 -0.2728094 0.20602706 0.6496878
000280 ab 67 ff 3e bf 79 1f 3c b1 c6 04 bf 1e 0c 1b 3d
       0.4988378 0.009733616 -0.5186568 0.037853353
000290 7a d1 3d 3e 4f 42 72 3e c5 d3 ac 3c d0 e6 14 bd
       0.1853694 0.23658107 0.021097073 -0.036352932
0002a0 ee e9 9a 3e db b8 a2 3d 8a 92 0f bf ef c5 56 be
       0.302566 0.07945415 -0.56082976 -0.20973943
0002b0 89 d3 b2 bd 5e 61 ee be c3 a1 68 3d a6 f8 e0 3e
       -0.087317534 -0.4655866 0.056794893 0.43939704
0002c0 98 00 2f 3e c5 3f c0 3e ed 44 d9 3e 82 4f c7 3e
       0.1709007 0.37548652 0.424354 0.38927847
0002d0 e5 f8 90 3e 26 90 fa 3d 4b 98 50 3e 82 c8 e4 3d
       0.2831489 0.122345254 0.20370595 0.11171056
0002e0 0b 9e 5c bd a1 bb 11 3f b5 59 66 bf 25 3a fd 3e
       -0.05386166 0.56926924 -0.8998063 0.49458423
0002f0 92 e8 a4 3e 59 09 23 bf 4b 4b 36 3e 93 d9 cf bd
       0.32208687 -0.6368614 0.1780216 -0.10148921
000300 48 e8 12 be 30 80 53 3e f4 ca 08 bd f4 90 19 3e
       -0.14346421 0.20654368 -0.033396676 0.14996701
000310 9b 5c 28 bf 54 a4 87 be d4 83 2f bf 6d f8 8c 3e
       -0.65766305 -0.2649256 -0.6856053 0.27533284
000320 cf 9e c4 3e 4b a5 c5 be 3c 27 59 3f b1 ef 50 be
       0.3840241 -0.3860267 0.8482549 -0.20403935
000330 5d 91 21 bf fd da 54 bd 7d 03 69 be e4 3e a8 be
       -0.6311243 -0.051966656 -0.22755237 -0.32860482
000340 16 51 99 bd f9 9f ab be ea 79 85 3e ca e6 ec bd
       -0.07486169 -0.33520487 0.26069576 -0.11567457
000350 8c 48 70 3f 3b 7a 75 be f0 ec 93 3d 40 97 3f 3f
       0.938607 -0.23972408 0.072229266 0.74840164
000360 83 2c d6 3c e8 ed 15 3e fc ec 37 3e 54 98 50 3e
       0.026144272 0.14641535 0.17961496 0.20370609
000370 92 43 a7 3e ad c5 18 be e5 80 1b 3f aa 98 8c bd
       0.3266874 -0.14919157 0.6074355 -0.06865056
000380 16 b8 7a 3e 77 d9 d4 3d 29 d7 79 be 68 6e 40 bf
       0.24484286 0.103930406 -0.24398483 -0.75168467
000390 c8 d1 44 be 23 10 ff 3e 33 97 e9 3d b7 7e 6d bf
       -0.1922065 0.49817 0.11405792 -0.92771477
0003a0 b2 9e 01 3f d4 dd 8f bd 16 ba 0c bf f3 78 ef be
       0.50632775 -0.07024732 -0.54971445 -0.46771964
0003b0 bb 73 0a 3f 88 22 1b be 7b b1 de 3c af be 06 3f
       0.5408284 -0.15149891 0.027184239 0.5263471
0003c0 f9 62 3f 3e e0 7b f9 3e aa d6 5c bf 64 e8 b3 3d
       0.18690099 0.48727322 -0.8626505 0.08784559
0003d0 d8 67 27 bf 07 e2 38 bf d2 c1 57 3f f7 d4 c9 bd
       -0.6539283 -0.7221989 0.8428012 -0.09855073
0003e0 0e 4a ad 3d e8 aa 49 be 95 a8 bc 3d c5 7f 1f bf
       0.084613904 -0.19694102 0.09211842 -0.62304336
0003f0 75 dc a6 be 5a c9 14 3f 2d 97 ab bd 44 50 2b bf
       -0.3259007 0.5811974 -0.08378444 -0.6691935

network_body._body_endoder.seq_layers.0.bias f4 [128]
000000 f7 36 8e 3a 77 64 5d 3a 57 98 ae ba d2 2b ab 3b
       0.0010850121 0.00084454514 -0.0013320547 0.0052237296
000010 67 c3 ab 3b 84 d6 fa 39 83 7e f8 bc 07 d5 3d 3c
       0.0052417996 0.00047843542 -0.030333763 0.011586434
000020 5c 71 e8 38 c2 3e ba 3b d2 6b df 3b 94 3a c9 bc
       0.00011083737 0.005683751 0.006818273 -0.024564065
000030 0c b5 44 3b b3 82 a9 bb ea 3f 3a 3b a3 39 bb ba
       0.003001514 -0.0051730513 0.0028419443 -0.0014284145
000040 fd 76 0d 3b c4 d5 6e 3c 16 9c 13 3c a3 8f ac bb
       0.0021585815 0.014577333 0.009009382 -0.0052661463
000050 a4 db ae bb c5 25 3a bc 43 f0 08 3b d3 83 45 bc
       -0.005336242 -0.011361544 0.002089516 -0.012055355
000060 53 66 40 3c a4 dc ee ba c3 0b af 3b e8 d0 66 3c
       0.011743146 -0.0018223715 0.0053419783 0.014087893
000070 b2 be e7 3b 7e d3 b6 bb e1 58 4b 3c 44 99 54 3c
       0.007072293 -0.005579411 0.012411327 0.0129759945
000080 aa 95 ab bc 03 cf 94 3c d0 e7 7b bc f6 5f e4 bb
       -0.020945389 0.018165117 -0.015375093 -0.0069694472
000090 5d 7a c2 3c da ee ae 3c 5a 78 41 bb 98 a1 87 3c
       0.023739988 0.021354128 -0.0029521198 0.016556546
0000a0 88 86 08 3d 25 5a 09 3d 50 86 74 bc 3f 5b ab bb
       0.033331424 0.033533234 -0.014924601 -0.0052293832
0000b0 de 28 b9 bc 44 10 cd 3a fd 59 40 3d b7 b6 52 3c
       -0.022602495 0.0015645106 0.04696082 0.012860945
0000c0 e6 2e 88 bc 7a b9 47 3b 7c ce b5 ba b7 b5 56 bb
       -0.016623925 0.0030475543 -0.0013870741 -0.003276212
0000d0 fe 4b d8 bc 4e 8d 55 3b 5c 03 c9 3b 5a 32 e8 3b
       -0.026403423 0.0032585445 0.0061344337 0.0070860805
0000e0 0c 00 d1 3a 74 3a d7 3c e5 24 be 3c ab c9 77 3c
       0.0015945449 0.02627299 0.023210952 0.015123765
0000f0 ac f5 ad 3c 82 6f 0a 3c 80 39 54 bb ef b0 85 bc
       0.02123531 0.008449437 -0.0032382905 -0.01631972
000100 6c 66 10 3d cb b2 9d 3c e8 32 40 3c e5 fc 98 3c
       0.035253927 0.019250294 0.011730887 0.018675277
000110 d1 83 d8 3b 8c 2c 2a bc 21 60 d5 bc 9b 8a dd 3c
       0.0066075106 -0.010386597 -0.026046814 0.027043631
000120 60 9e 72 3c cb a2 09 3d 78 59 f6 bb 9e 59 93 3c
       0.014808267 0.033602517 -0.0075179897 0.017987069
000130 ee 79 06 3b 49 c1 80 ba 6f 10 a1 3c bc d0 1b 3c
       0.0020519453 -0.0009823228 0.019661156 0.009510215
000140 02 cb c4 3b 91 3f b6 3b d3 d6 1d 3c 72 ea 24 b8
       0.0060056457 0.005561777 0.009633738 -3.931899e-05
000150 c2 62 06 3b 73 de 7f bc 3f 27 9e 3c 98 90 c3 bc
       0.0020505642 -0.015617001 0.019305823 -0.023872659
000160 8e 41 2d b9 b5 72 c4 bc 20 f1 85 3b a2 df 6e bc
       -0.00016522987 -0.023980478 0.004087582 -0.014579685
000170 48 63 51 3c 32 8f 80 bb 87 5f c0 3b f6 bf 8b 3c
       0.012780018 -0.00392332 0.0058707627 0.017059308
000180 e1 1e 7e bc 11 dd 11 3c 3d 4e 6d 39 52 4b 36 bc
       -0.015510292 0.008902804 0.00022631227 -0.011126356
000190 10 92 87 3a ee 5a ab bb ed b3 53 3b be 11 21 bb
       0.0010343213 -0.0052293455 0.003230329 -0.0024577226
0001a0 54 da 4a 3d de 63 01 bd 8a 81 8b 3c 11 74 3e 3c
       0.04952462 -0.03158938 0.017029542 0.011624352
0001b0 54 90 f1 3c a8 0a 32 bc c1 37 dd 3b ad 6b 9d 3b
       0.029487766 -0.010866798 0.006751031 0.0048040957
0001c0 89 64 84 3a bf e2 8a 3c 43 70 04 3d 80 19 52 bb
       0.0010100763 0.016953824 0.032333624 -0.0032058656
0001d0 65 b3 6b 3c ad 58 b3 bb 93 80 90 bc 6d de 92 3c
       0.014386033 -0.0054732175 -0.017639434 0.017928327
0001e0 57 5b 35 3c 85 29 0f bc 7a c0 59 3c 4d fd c2 3b
       0.01106914 -0.008737926 0.013290519 0.005950606
0001f0 67 88 a9 3c 0f 07 89 3b 70 0d 62 3c 00 ab 79 bb
       0.020694925 0.0041817497 0.013797149 -0.0038096309

network_body._body_endoder.seq_layers.2.weight f4 [128, 128]
000000 c9 8c c9 3c 8e a0 0c 3e f7 b9 8b bd bc ae e1 3c
       0.024603264 0.13733122 -0.06822579 0.02754914
000010 3f 0d 11 3e 84 9a c6 3d 5d 56 08 3e b7 21 72 bc
       0.14165209 0.0969744 0.13314195 -0.014778546
000020 1e f6 8d bc 53 82 bb 3c 35 93 cf 3c 1d 61 05 be
       -0.017329272 0.022889292 0.025338748 -0.13025327
000030 b2 5b 34 3b e7 47 5a 3d ef 69 9d 3d 42 27 48 bd
       0.0027520475 0.053291228 0.07686221 -0.048865564
000040 9a 04 d1 bd 06 f0 36 3d 73 a7 bc 3d e1 16 4b bd
       -0.10205956 0.044662498 0.09211626 -0.049582366
000050 69 08 a2 bd b2 df 82 bc cc 90 4f bd ed 51 fd 3d
       -0.0791176 -0.015975807 -0.0506752 0.12369142
000060 2e df 62 be 7c a2 ae bd 7f bd dc bd 94 c0 d3 3d
       -0.22155449 -0.08527085 -0.10778331 0.10339466
000070 26 3d 1b 3e e7 87 35 3d db 26 8e bd e9 aa 47 3d
       0.15160045 0.04431906 -0.06941005 0.048746977
000080 bf 09 02 bd f3 91 f3 ba 7c c2 ed bc e9 9b 3e 3c
       -0.031747576 -0.0018582925 -0.029023401 0.011633852
000090 d5 e4 d7 3c 00 87 3d 3b b2 36 18 3d 98 8d 0f bd
       0.026354233 0.0028919578 0.037161537 -0.035047144
0000a0 e8 00 3b bd a7 4a 27 3d 7e b4 9e bd a6 ea 86 bd
       -0.04565516 0.04084268 -0.0774927 -0.065877244
0000b0 af ea c7 3d c0 79 9b 3d 5a 17 1f be cd 64 39 3d
       0.09761559 0.07591581 -0.15536252 0.045262147
0000c0 e3 81 11 bd f6 7e e2 3c dc f3 91 3d 76 c2 04 3d
       -0.03552426 0.02764843 0.071265906 0.032412015
0000d0 6c 31 b4 3d de bd a3 3d f7 40 8a bd c3 22 7a bd
       0.08798489 0.07995199 -0.06750672 -0.061068308
0000e0 ea 4d cd ba a5 b7 59 bc 1b 04 85 bc cb 93 2c bd
       -0.0015663479 -0.013288413 -0.01623731 -0.042133134
0000f0 30 2f c4 3c 81 c1 19 3c c2 af 11 be cf ca c3 3d
       0.023948282 0.009384514 -0.14227203 0.09560167
000100 5e 15 8e bc e0 1c 90 3d fc 2d 5d bd ad fd 6c bb
       -0.017344173 0.070367575 -0.053998932 -0.0036161945
000110 66 c5 ca bc 6e 43 c9 3d ce f4 b3 3d 0a 36 b7 bd
       -0.02475233 0.09827314 0.08786927 -0.08945854
000120 cf cc 90 bd 09 c3 5a bd f2 ec b9 bd 27 ef 4e be
       -0.07070314 -0.053408656 -0.09078397 -0.20208417
000130 54 b1 25 bb 15 b5 a1 bc cb a3 c9 bd 7e a3 c3 bd
       -0.0025282698 -0.019739667 -0.09845694 -0.09552668
000140 40 4c 87 3d d6 6f 87 3d 0d 5e 82 3d 69 3e 7b bc
       0.066063404 0.06613128 0.06365595 -0.015334704
000150 37 8d 1c 3d 74 9f d0 b8 ab 02 41 bd 92 fa cc 3d
       0.03822061 -9.947913e-05 -0.047121685 0.1000873
000160 e0 1b a6 bd 12 89 79 3d 1b 39 33 be e2 eb 63 bd
       -0.081107855 0.060921736 -0.17502253 -0.055644877
000170 3f 8a 51 be 2e 83 dd 3d 27 e3 55 3d 27 87 1f bc
       -0.20462893 0.10816036 0.052218582 -0.009736813
000180 f6 74 ce 3c bb 2b 67 bd 32 58 91 3d 5d 1c 53 3d
       0.025202256 -0.05643819 0.070969 0.05154072
000190 e6 db 8a bb ac 83 e3 3d df 6f 0c bc a5 a9 9e 3d
       -0.0042376397 0.11109099 -0.008571594 0.07747201
0001a0 14 f6 13 3d ba 4d 79 3d f0 2e d3 3d 7b ca 17 3d
       0.03612335 0.06086514 0.10311687 0.037058335
0001b0 7a 92 0e be 56 b5 7e 3d c1 d6 cf 3d 81 39 d9 bd
       -0.13923064 0.062184654 0.10148383 -0.10606671
0001c0 f9 22 31 3d 1b f3 16 3d 59 b1 f8 3d 7d 30 ca ba
       0.043246243 0.036852937 0.121432014 -0.0015425828
0001d0 ba 8e 2f 3e e5 97 26 bd d5 4c 90 bc cb 01 92 bd
       0.1714429 -0.0406722 -0.017614761 -0.07129248
0001e0 76 3e d2 bc 3d c6 e9 bb c3 41 dc 3d f6 74 15 3e
       -0.02566455 -0.0071342275 0.107547306 0.14595398
0001f0 bb c1 15 bd 51 2d 6d 3c 3f 0f 0a bd f6 12 d2 3c
       -0.03656171 0.014476136 -0.033705946 0.025643807
000200 8c 9f fa 3b 36 6f e6 3d ba ab 02 be b1 4e 20 3e
       0.007648414 0.112516806 -0.12760821 0.15655018
000210 a0 2e 8b bd 76 cd ee 3d 2d d3 81 3d ce 38 0d 3d
       -0.067960024 0.11660282 0.06339107 0.034478
000220 8a f0 24 3d e1 28 b2 bd a0 2b 36 bd 1a c0 0d bd
       0.04026846 -0.08699203 -0.044475198 -0.03460703
000230 e2 57 df 3c 87 58 94 3d 55 5f fd 3c f2 78 14 3c
       0.027263585 0.07243448 0.030929247 0.009062039
000240 ec 49 a6 bd d2 56 46 ba 88 67 a1 3d c6 39 04 3d
       -0.08119568 -0.0007566038 0.07881075 0.03228166
000250 3d 35 6d bc 96 bc 68 3d 6b 68 0f be 39 70 fd bd
       -0.014478025 0.056820475 -0.14004676 -0.123749204
000260 84 e2 01 bd 85 9a 14 be ff 04 b9 bd 7e b6 29 be
       -0.031710163 -0.1451207 -0.09034156 -0.16573521
000270 f0 22 17 3e 9d 77 03 bd 5b 9d f3 3d 07 0d d9 bd
       0.14759421 -0.032096494 0.118952475 -0.10598188
000280 b9 75 a8 3d a7 55 e1 bb b9 0b 7e 3d 0d f0 c2 bc
       0.08225579 -0.0068766656 0.0620229 -0.023796106
000290 14 d2 3e 3e d2 5d 91 3d 5d 0b 21 bb 25 2d e8 3d
       0.18634826 0.07097973 -0.0024573423 0.11336736
0002a0 8a 99 86 3c ac 05 69 bd 80 56 c4 3d aa 44 46 3d
       0.016430635 -0.056890175 0.09586811 0.048405327
0002b0 87 2a ac 3d bd ef ba bc 00 bc 23 bb 52 04 4f bd
       0.08406549 -0.022819394 -0.0024983883 -0.05054123
0002c0 a1 ef 09 be 38 1a a3 3d 89 60 dd 3d 09 ba 40 bd
       -0.13470317 0.07963985 0.10809428 -0.047052417
0002d0 19 e9 07 3e a5 c0 d3 bc 26 46 06 3d 71 6e b0 3d
       0.13272513 -0.025848696 0.032781743 0.08614815
0002e0 60 2a ea 3d f6 5f f9 bd 79 97 45 be d7 d9 df bd
       0.11433864 -0.12176506 -0.19296063 -0.109302215
0002f0 5d 40 76 bd a4 aa fc bd 2b 34 ba 3d cd 1e 67 3d
       -0.060119975 -0.123372346 0.090919815 0.05642586
000300 c6 45 62 3d b7 d0 15 be 53 38 b4 bc 41 1d 59 3d
       0.055242322 -0.146304 -0.021999514 0.053006414
000310 f5 23 5d bd cf c6 03 be 5f bf 74 3c 00 94 54 be
       -0.05398937 -0.12868808 0.014938205 -0.20759583
000320 96 2b 47 be 14 04 dd bd 2e 41 ea bc c4 77 a2 bd
       -0.1945022 -0.107917935 -0.028595533 -0.07933
000330 d1 a9 a9 3d 47 c5 6b bd 9e 75 49 3e 88 ed 57 bd
       0.08284343 -0.057561185 0.19673774 -0.05271676
000340 8e 9b a0 bb 82 90 9d 3d 99 f8 cc bd 1f b2 ae 3d
       -0.004901356 0.07693578 -0.10008354 0.08530068
000350 f4 55 a9 3d 4e 8d fc bb 1a 79 e5 bd 40 f7 15 3e
       0.082683474 -0.0077072745 -0.11204739 0.146451
000360 bb 6b b0 3c 14 6a 69 3d f7 b6 10 3b b1 87 aa 3d
       0.021535745 0.05698593 0.0022081712 0.08326662
000370 63 2b 82 3d ac ec 16 3d 78 46 c0 3d fa f4 3f bc
       0.063559316 0.0368468 0.09388441 -0.011716122
000380 73 6f e1 bd f0 12 b1 bd e6 4f b7 bd 32 79 9b 3c
       -0.110075854 -0.0864619 -0.08950786 0.018978689
000390 65 cf 97 3d 41 25 d3 bd 72 5f d7 bd b6 d6 eb 3a
       0.07412604 -0.1030984 -0.105162516 0.0017993066
0003a0 a7 23 f7 bc d6 bd 33 bc 7c 34 8a 3d 43 4f 30 3e
       -0.030168368 -0.010970553 0.06748292 0.17217736
0003b0 93 e9 8b 3d 02 39 85 3c 88 a9 ab bd e1 1f 7b be
       0.0683166 0.016262535 -0.08381945 -0.2452388
0003c0 9b 03 f0 3d 0b b4 0f be 11 3c c2 3c 36 b6 aa bd
       0.11719438 -0.14033525 0.023710283 -0.08335535
0003d0 5e 31 95 bb 5f b0 9c 3d c2 64 23 3d c8 3c c8 bc
       -0.004553004 0.076508276 0.039891012 -0.024443045
0003e0 90 94 ee bc 4b 0c 30 3d 8f 04 19 be 82 7e d7 3d
       -0.029123574 0.042980473 -0.14943145 0.10522176
0003f0 57 af 71 3d 2d e6 bd bd 99 98 c2 bd 97 db cf bd
       0.059005108 -0.09272418 -0.09501762 -0.10149305

network_body._body_endoder.seq_layers.2.bias f4 [128]
000000 d4 05 52 bb a7 e1 1e bc fe 82 92 3b 11 a8 a8 bb
       -0.003204693 -0.009697354 0.004471182 -0.005146988
000010 c8 72 f4 39 3a 18 b3 bb 13 45 1b 3c 7a 4b b3 3c
       0.00046624825 -0.0054655345 0.009476918 0.021886576
000020 ea be e7 3a 91 08 6d 3c 07 80 1b 3b f8 c9 de 3a
       0.0017680798 0.014467374 0.0023727433 0.0016997447
000030 e6 f2 5e ba 8c f0 78 3b 15 6b 07 3c c6 12 2d bb
       -0.00085048226 0.0037985174 0.008265276 -0.0026408895
000040 ca 1f 15 bb fa 44 5c bc 15 29 da 3c ed a2 d3 3b
       -0.0022754543 -0.01344418 0.026630918 0.0064586313
000050 63 52 39 bb 95 f1 8f bb 11 b9 f1 3b ae 42 e7 3b
       -0.0028277866 -0.0043928125 0.007376798 0.0070575094
000060 c1 af 9f 3a 70 ef e5 3b c4 93 0f bc c1 76 b5 3c
       0.0012183116 0.0070170686 -0.008763257 0.022151353
000070 4c 84 e1 bb a5 b6 83 3c 64 cc c0 3c db bb 29 bb
       -0.006882226 0.016078303 0.023534961 -0.0025899324
000080 45 55 3b 3c 1c 8a 8d bb 13 94 8f 3c e7 6b a1 3a
       0.011433904 -0.0043194424 0.017526662 0.0012315483
000090 08 db 8c 3b b9 f8 c4 3a 44 e5 32 3a 08 8a aa bb
       0.0042985715 0.0015027738 0.00068243244 -0.005204443
0000a0 53 d4 69 3c 46 3d 6b 3c 30 91 8b 3b 96 03 50 3c
       0.014271813 0.01435787 0.004259251 0.012696167
0000b0 4f e1 0f bb b7 4e 61 3c 7e 58 24 3b 59 87 95 3c
       -0.0021954363 0.013751677 0.002507716 0.018253015
0000c0 f1 8d 50 bb 33 72 9b bb 38 92 18 3c 03 f3 97 3b
       -0.0031822885 -0.004743838 0.009312205 0.0046371236
0000d0 68 c0 08 3c c2 b6 d6 bb ad ac 81 3b 74 f4 e4 bb
       0.0083466545 -0.006552548 0.003957352 -0.006987149
0000e0 05 4b 44 ba ef c3 23 3b fc e8 29 3c 28 98 36 39
       -0.00074879854 0.0024988612 0.010370489 0.00017413555
0000f0 91 87 87 3b 8f 11 93 3c 80 e2 3a bb b1 83 71 3c
       0.004136034 0.017952709 -0.0028516352 0.01474087
000100 39 31 30 3c 22 97 91 3b f8 da 1a 3c 0f 71 31 bb
       0.010753923 0.0044430653 0.00945162 -0.0027075445
000110 53 15 50 3c ae 0c 27 bc fd 1d 4d 3c bd 25 04 3c
       0.012700397 -0.010195894 0.012519357 0.008065638
000120 47 bd ec 3b a4 5c 7a 3b 14 b8 c8 ba 4b 83 10 bc
       0.007224712 0.003820219 -0.0015313649 -0.008820365
000130 ae 62 11 bc de d6 85 3c a7 6c 33 3b ad c0 c6 3c
       -0.008873625 0.016337808 0.0027377994 0.024261797
000140 48 41 e0 3b fd 7f f0 bb 26 ba f6 bb 7f 05 11 3c
       0.0068437196 -0.007339476 -0.007529515 0.008851408
000150 7a 1c 5f 3c 84 c1 fe bb 30 79 25 bb 0e 6f 3a 3c
       0.013617629 -0.0077745337 -0.0025249235 0.011379017
000160 ab 97 d4 3b bb 04 37 bb ff 86 88 bc 9f 1d 21 bc
       0.006487807 -0.0027926404 -0.016665934 -0.009833722
000170 44 fd c6 ba 14 cc 59 3c a7 8e 34 3c e4 d2 ca b9
       -0.001518168 0.013293285 0.011020339 -0.00038685568
000180 9a fb 07 3c d1 eb 92 38 58 6e 92 bb 97 35 bc 38
       0.008299733 7.005747e-05 -0.0044687204 8.9745205e-05
000190 ab 33 9b bb 39 0e f3 3b 97 f4 1b bc eb 55 3b bc
       -0.004736384 0.007417467 -0.009518764 -0.011434059
0001a0 a0 fb 01 bc a9 51 4e 3c 6c 35 37 3b f2 33 a7 3b
       -0.007933527 0.0125927115 0.0027955426 0.005102628
0001b0 29 91 01 3c a5 80 1d 3c 60 79 9f 3c 08 96 52 3c
       0.007908144 0.009613191 0.019467056 0.012853153
0001c0 c3 c5 45 bb 00 4b 95 bb 51 f7 bd 3a 7a 05 94 bb
       -0.003017769 -0.00455606 0.0014493262 -0.0045172544
0001d0 72 74 5f 3b be c1 06 3c e7 71 4e bb 33 1d 77 3b
       0.0034096506 0.008224903 -0.0031500997 0.0037706613
0001e0 23 30 25 bc 90 0c 14 bc 77 b0 4e 3c f4 99 dd bb
       -0.0100822775 -0.009036198 0.012615315 -0.0067627374
0001f0 b4 08 12 ba d7 d9 f9 3b 15 d7 ec 3c cc cb 83 3b
       -0.0005570755 0.0076248455 0.028911153 0.004022097

action_model._continuous_distribution.log_sigma f4 [1, 2]
000000 2a f2 d1 bc b7 3b b9 bc
       -0.025628168 -0.022611482

action_model._continuous_distribution.mu.weight f4 [2, 128]
000000 0d ab 86 bb 84 23 2a bc 39 5c 75 bc af 00 9a bb
       -0.0041097463 -0.010384444 -0.014975601 -0.0046997885
000010 5c 2f 31 3b 84 9a 16 bc ae 25 9e 3c 48 64 87 bc
       0.0027036285 -0.009192113 0.019305076 -0.01652731
000020 15 dd 05 3d 6a c2 07 bd c6 4f e2 3c 27 6c e9 3c
       0.032681543 -0.033144392 0.02762593 0.028493954
000030 65 79 b2 bc 9e 63 21 3c 9c d4 93 bc 02 d6 b7 3c
       -0.021786401 0.009850411 -0.018045716 0.022440914
000040 b2 1b 93 bc 3a 70 b2 bc cc 99 00 3d d0 38 88 3c
       -0.017957542 -0.02178203 0.031396672 0.016628653
000050 3c 1c 6e 3c d4 bc 6a 3c 7a 87 4c bd b1 62 ff bc
       0.014533099 0.014327247 -0.049933888 -0.03117499
000060 db 15 5e 3c 9d e7 2a bd 4a 7d d9 bc 4f 26 65 3c
       0.013555015 -0.04172479 -0.026549 0.013986184
000070 25 f6 b3 3a 67 ed 1d bd c0 0e dd 3c 46 74 39 bc
       0.0013729973 -0.038556483 0.026984572 -0.011319226
000080 7b dd 31 3d 67 0c 0d 3c 7f ed ab 3c 4d 39 ef bb
       0.04342411 0.008608914 0.02098727 -0.007300532
000090 5b 85 8b 3c 21 ed 5e 3c 7e bf ad bb 4b b1 13 bc
       0.017031362 0.013606341 -0.0053023687 -0.009014438
0000a0 ec 2c d9 3c 60 ee 0a bd 55 8f 64 3c 96 ea bd 3c
       0.026510678 -0.03391874 0.013950189 0.023183148
0000b0 04 43 c6 bb 11 c4 0c 3d 39 20 6d 3a cd 62 2b bc
       -0.0060504694 0.03436667 0.0009045634 -0.010460568
0000c0 2d 5f 76 ba 68 a9 3a bc d6 07 1f bd 3c 90 52 3c
       -0.00093983376 -0.011392929 -0.038825832 0.012851771
0000d0 7b ad 14 bd bb 12 66 bc 2e d4 26 bd 48 4c c6 3b
       -0.036298256 -0.014042552 -0.040729694 0.006051574
0000e0 00 2a 9f 3c 66 b5 48 bc 02 e5 4c bc 49 e4 b1 3c
       0.019429207 -0.01225028 -0.012505772 0.0217153
0000f0 2d 77 77 3c 3d 36 74 bd 67 6b 29 3a e1 ca 7e 3c
       0.015104097 -0.05962204 0.00064628426 0.0155513
000100 4d 32 1e 3d 46 40 86 bc 16 d8 14 3c 05 c0 d5 bc
       0.03862219 -0.01638807 0.009084722 -0.026092539
000110 e5 2c 6e 3b 0a 8e e7 3b b3 4c 0c bd a6 ce 1c bd
       0.0036342677 0.007066493 -0.034252834 -0.038283013
000120 68 bc 22 bc e9 92 a5 3c 2d d1 b3 bc 4f c7 9f bc
       -0.009932615 0.020211654 -0.021950329 -0.019504217
000130 d4 61 81 bc 87 6d 33 bd 02 45 dd bc fb ec 31 3b
       -0.015793718 -0.043805625 -0.027010445 0.0027149308
000140 62 ee 46 ba 77 a2 d8 ba c3 40 20 bc ba 18 e8 ba
       -0.00075886224 -0.001652791 -0.009781065 -0.0017707564
000150 53 cb 48 bd e7 f0 18 bc a4 2f cc 3b 50 43 1a 3d
       -0.04902203 -0.009334779 0.006231265 0.03766185
000160 96 9e 4e 3c fa 4f 9e 3c 89 ad a2 3c c2 e7 12 bb
       0.012611052 0.019325245 0.019858139 -0.002241597
000170 19 70 2f bc a0 e5 f7 3c df 52 47 3c 07 1b d9 bc
       -0.0107078785 0.03026086 0.012165754 -0.026502145
000180 96 76 29 bc 4d 5a 6c 3c 8f f0 3a bc e5 3b 45 bc
       -0.0103432145 0.014425826 -0.011409893 -0.012038206
000190 65 42 eb 3a 1a 0f e5 3c e9 69 a8 bc fa c8 af 3b
       0.0017948864 0.027961303 -0.020558314 0.0053645344
0001a0 fe e9 1c bd 31 ed 8d 3c 5c f4 6b bc b4 14 e5 bc
       -0.03830909 0.017325016 -0.0144015215 -0.027963974
0001b0 cc 65 1f 3c 90 fc 04 3c a3 ee 06 bd 2f 71 3f bd
       0.00972886 0.008116856 -0.032942425 -0.0467388
0001c0 ab a7 bd bc 2e fc 91 bc ac 68 3b bd 33 11 14 bc
       -0.02315124 -0.017820444 -0.04575412 -0.009037304
0001d0 ea 22 e0 bc 95 3a df 3c fb a4 68 bc d8 4b b9 3c
       -0.027360398 0.027249614 -0.014199491 0.022619173
0001e0 44 66 3f bb 19 37 2a bc eb 80 a9 3c 16 48 2f 3b
       -0.0029205242 -0.010389113 0.020691356 0.0026745847
0001f0 06 40 18 bc 3a 91 46 bb 04 0c 4b 3c f5 c6 6e ba
       -0.009292608 -0.0030298964 0.0123930015 -0.00091086264
000200 c4 08 ae bc 4c 06 aa b7 f5 e7 c7 3c 72 59 35 bb
       -0.021244414 -2.0268511e-05 0.024402598 -0.0027671722
000210 ea 87 80 3c d8 30 6b 3c 34 10 c5 3c 52 43 72 3d
       0.015689809 0.014354907 0.024055578 0.059146233
000220 89 69 fd bc bf b1 29 bc e5 0d a3 bb f3 f9 ab bc
       -0.030934112 -0.010357319 -0.0049760216 -0.020993209
000230 7a 28 18 3c 83 d4 8b 3c ab a2 78 bc 6a 6c 17 3d
       0.009286994 0.017069107 -0.015175502 0.036968626
000240 67 7d 3b bc 0f 8d 8d 3c 08 4b d3 3c 96 a4 22 bd
       -0.0114434725 0.017279176 0.025792614 -0.039707743
000250 d8 1a 72 bc ff 39 6f b8 6b c5 f5 bb 6d b1 88 bc
       -0.014776908 -5.7036053e-05 -0.0075003407 -0.016686166
000260 d8 ab e8 bb 5d 4f c3 bc 99 2d ee bb ca b7 b0 bd
       -0.0071005635 -0.023841554 -0.0072686193 -0.08628805
000270 8b 7f bd bc 3b a5 5b bc c6 b9 55 3c 7f 12 98 3a
       -0.023132106 -0.013406093 0.01304478 0.0011602192
000280 0f bc 5a bb 48 f0 8c bb 16 0a a1 3a 26 ad 9f 3c
       -0.0033376252 -0.0043011047 0.0012286331 0.019491743
000290 f8 46 b8 3c 62 0e d0 ba bd e1 72 3c ec 05 00 ba
       0.022494778 -0.0015873427 0.014824328 -0.0004883695
0002a0 16 b2 d9 3c d7 43 06 3b 2a 3a 80 3c 29 7d b6 3c
       0.026574176 0.0020487213 0.015652735 0.022276478
0002b0 ce 7e ca 3b 9a 1c cc 3c 1f b6 20 bd 2a 50 3f bd
       0.006179667 0.024915982 -0.039236184 -0.04670731
0002c0 53 bb 89 3b 68 00 6f bb 95 da b0 bb f1 fd 6b 3c
       0.004203239 -0.0036468748 -0.0053971508 0.014403806
0002d0 26 93 88 3c 1b 6c 83 bc 6c 42 1f 3c 99 0c 68 bc
       0.016671728 -0.01604276 0.009720426 -0.01416316
0002e0 6f a3 f6 bc ca ce 56 bd 65 70 25 3d bc 8a 39 bd
       -0.030107228 -0.052443303 0.04039039 -0.045298323
0002f0 cb 1b 8a 3c 57 9b e8 ba c8 69 c6 bc 40 d6 2c 3d
       0.016858956 -0.001774649 -0.024220362 0.042196512
000300 00 4e 62 bd 4e b5 c8 3c d3 b7 e8 3c fe ef 63 bc
       -0.055250168 0.024500515 0.028407967 -0.013912199
000310 b1 d0 43 3d 0b 56 cd 3c 9c 61 29 3d 14 ae 3b 3d
       0.047806446 0.025065443 0.041352853 0.04582031
000320 1e ac 6e 3d 58 16 33 3c 37 27 bf 3b 95 72 80 bc
       0.058269612 0.01093062 0.005833532 -0.015679637
000330 36 f9 8c 3b cb 60 35 3d 14 d2 f8 3c 4b 3f 71 bd
       0.004302169 0.044281762 0.03037361 -0.05889825
000340 3b ef 58 bd d7 e3 86 bc 5b 2a 39 bc 05 bb 2b 3d
       -0.052962523 -0.016466064 -0.011301602 0.041926403
000350 16 87 e9 3a 75 80 ad bc c5 82 82 bc 6d 25 8d 3d
       0.0017816748 -0.021179417 -0.015931496 0.06891904
000360 0c 5b 2f 3c 23 ea 8c bc 38 33 6c 3a a5 71 86 bc
       0.01070286 -0.017201489 0.0009010318 -0.016411612
000370 3a c2 c2 bc a0 ba 9c bc ed 5e 28 3d 7d 95 b3 bb
       -0.023774255 -0.019131958 0.041106153 -0.005480467
000380 4d 21 f9 3b 13 8f 0b bc e7 32 cc bc 6f bb 4b bc
       0.0076028467 -0.008517998 -0.024926616 -0.012434824
000390 2b 0c e4 bc ce b1 be 3c 0e f7 05 bd fa bc 07 bd
       -0.027837833 0.023278143 -0.032706313 -0.033139206
0003a0 a3 48 c4 bc 41 4d 91 3b a2 8a 3e 3c ad db 58 3c
       -0.023960417 0.004434258 0.011629732 0.013235969
0003b0 6c e1 dc bc 38 70 08 3c 7e 68 1b 3d ee 6f 0e bb
       -0.026962958 0.008327536 0.03794145 -0.0021734196
0003c0 ba 20 a8 3c 09 4c fb ba ad 18 1f 3b 39 72 2b bd
       0.020523418 -0.001917244 0.0024276183 -0.041856978
0003d0 7f 04 21 bc f9 8c 84 ba a5 1e 89 3c 54 c7 03 3c
       -0.009827732 -0.0010112814 0.016738245 0.008043129
0003e0 1f 55 fd bc 3b 53 02 bc 42 72 4d 3c 2d 45 aa 3b
       -0.030924378 -0.007954414 0.012539448 0.0051962347
0003f0 e7 b0 55 3c ca cf 49 bc 82 7d 3e 3d d8 c5 b1 3c
       0.013042665 -0.012317607 0.046506412 0.021700785

action_model._continuous_distribution.mu.bias f4 [2]
000000 eb 36 50 3b 2a 7f a3 3b
       0.0031771015 0.0049895244
