3D/results/Test3/MoveToGoal.onnx (onnx, 75062 bytes, 7 tensors)

network_body._body_endoder.seq_layers.0.weight f4 [128, 6]
-0.49431744 0.30967885 0.30159658 -0.27759382 0.40987816 -0.25671342 -0.25396276 -0.09962079
-0.6206568 -0.03270703 0.07079393 -0.23459746 -0.31566322 -0.19917572 -0.2661191 -0.6627961
0.034242604 -0.15958436 -0.0018186898 0.23889838 -0.84259963 0.18427753 -1.0309025 -0.094899386
0.6120617 -0.76168793 -0.23595017 -0.41836715 0.0513476 -0.096438 -0.41013345 -0.27583903
-1.1448324 -0.29390815 -0.03851896 0.9254751 0.1032433 0.3955805 0.4306557 -0.41609374
-0.36688763 0.36931494 0.30489296 -0.6512385 0.7363471 -0.1432204 0.5629904 -0.03909379
-0.13168089 0.9013943 0.4697049 0.2711593 0.1526075 -0.2710652 0.11206766 0.390722
0.45982572 0.16006047 -0.59180623 0.24741861 -0.6637062 0.14474383 -0.16076753 0.04185408
-0.43674245 0.36266148 -0.5432496 -0.10488621 -0.2215865 -0.5557668 0.08472295 1.0987927
-0.5011905 -0.5531704 -0.19532584 0.042013887 0.029464172 0.832341 -0.21478723 0.5938465
-0.040534563 0.15382442 -0.33267415 -0.016979607 -0.42652017 0.13998966 0.53509945 0.02258843
0.061325103 0.4037052 0.19336498 -0.56199676 -0.41283762 -0.21332614 -0.107542485 0.35441953
-0.1593529 0.425417 0.22605559 0.61530954 -0.26078874 -0.5042276 -0.14750421 -0.17856614
-0.5673044 -0.22101812 -0.5268733 -0.62751436 -0.20416632 0.3600932 -0.049382437 -0.2934221
-0.27392372 -0.4799051 -0.114684135 0.5058634 -0.30340597 0.39833474 0.60461456 0.08907457
0.24031034 -0.08354356 0.27360973 0.118613176 -0.12936361 -0.006977707 0.20694806 0.08751156
-0.22032303 0.9000343 0.71254134 -0.505635 0.70362854 0.48660982 0.4280151 -0.25596702
0.09922188 -0.057712186 -0.93942046 -0.52092016 0.2207683 0.47110504 -0.76433164 0.020160021
0.15467766 0.47643176 0.23360404 -0.6052231 0.08310852 -0.074190825 0.4212927 0.37858373
-0.030943543 -0.32974508 -0.7159444 -0.8454963 -0.09585069 0.27081734 -0.19008854 0.0706521
-0.21460421 0.38814583 0.12789804 0.2629545 -0.4214614 -0.94506323 0.2550357 -0.17999782
0.2658195 -0.020541286 0.13975418 0.12848991 -0.30856574 0.46170548 -0.06391507 0.43835247
-0.66820437 0.57768476 -0.18399657 0.32112026 0.19842076 0.36030322 -0.030089656 0.3754317
0.89060664 -0.04651131 0.6342974 -0.23951153 -0.2265352 0.33986932 -0.7826105 0.011499297
0.25056463 -0.041001175 -0.16704422 -0.036181208 0.060290772 -0.21368048 -0.20037568 -0.014734756
0.44967884 -0.0759146 0.042240743 -0.5907079 0.063874945 -0.053491566 -0.29243597 -0.22477522
0.45284235 0.21356814 0.12902339 0.014735797 -0.4200662 -0.26248637 0.45417997 0.32849514
-0.53569514 -0.0691261 -0.20156357 0.08515078 0.06620426 0.13332391 0.015606352 0.99120694
-0.28198957 0.23658635 -0.5377655 0.013744033 0.11485443 0.27608615 -0.22470222 -0.2674831
0.16954179 0.18665175 0.66221446 0.31015202 -0.9096006 0.42878476 -0.5235943 0.836513
0.54407376 -0.20726152 -0.45431402 0.91086847 0.018916322 0.39060813 0.34473264 0.42287657
-0.014107756 0.29589576 -0.25849003 0.32616824 0.42751262 -0.07596258 0.1298111 0.27933577
00000000: 2d17 fdbe 3a8e 9e3e de6a 9a3e c720 8ebe
00000010: 8ddb d13e f16f 83be 6807 82be fc05 ccbd
00000020: 5de3 1ebf cff7 05bd 68fc 903d 513a 70be
00000030: 9c9e a1be b8f4 4bbe c340 88be 01ad 29bf
00000040: f941 0c3d 156a 23be 1a61 eeba c7a1 743e
00000050: 9cb4 57bf 40b3 3c3e 9df4 83bf 9c5a c2bd
00000060: 13b0 1c3f fbfd 42bf ec9c 71be 3834 d6be
00000070: dc51 523d 4981 c5bd 03fd d1be c63a 8dbe
00000080: de89 92bf 217b 96be 0fc6 1dbd f0eb 6c3f
00000090: 3971 d33d 8789 ca3e e77e dc3e 3d0a d5be
000000a0: b2d8 bbbe d916 bd3e ee1a 9c3e 91b7 26bf
000000b0: 3e81 3c3f 5ea8 12be 2420 103f cf20 20bd
000000c0: 5bd7 06be c7c1 663f 297d f03e 64d5 8a3e
000000d0: 2445 1c3e 0fc9 8abe bb83 e53d b70c c83e
000000e0: 476e eb3e e4e6 233e 9d80 17bf 4e5b 7d3e
000000f0: a6e8 29bf ba37 143e 3ea0 24be 2f6f 2b3d
00000100: b59c dfbe c4ae b93e 6812 0bbf 95ce d6bd
00000110: 92e7 62be bc46 0ebf 3a83 ad3d 3da5 8c3f
00000120: 054e 00bf 939c 0dbf 7f03 48be c116 2c3d
00000130: d95e f13c 4d14 553f 2ff1 5bbe 5306 183f
00000140: 9207 26bd 2684 1d3e 4454 aabe d118 8bbc
00000150: da60 dabe 7359 0f3e 47fc 083f 5f0b b93c
00000160: 0830 7b3d 73b2 ce3e 7801 463e 05df 0fbf
00000170: 745f d3be 2b72 5abe 3c3f dcbd 7a76 b53e
00000180: 682d 23be 42d0 d93e 1e7b 673e ed84 1d3f
00000190: 1a86 85be 0f15 01bf 580b 17be 0bda 36be
000001a0: dc3a 11bf 9352 62be 2be1 06bf c8a4 20bf
000001b0: fa10 51be 235e b83e 3d45 4abd 6c3b 96be
000001c0: bb3f 8cbe 1fb6 f5be 84df eabd 4480 013f
000001d0: 0758 9bbe 88f2 cb3e 05c8 1a3f ba6c b63d
000001e0: ea13 763e e318 abbd 9316 8c3e 77eb f23d
000001f0: e577 04be 40a5 e4bb 31ea 533e 4339 b33d
00000200: 5c9c 61be a668 663f 1c69 363f 4c71 01bf
00000210: 0021 343f ec24 f93e cc24 db3e 1c0e 83be
00000220: d734 cb3d 9d63 6cbd dc7d 70bf 065b 05bf
00000230: 1611 623e ae34 f13e 3dab 43bf a126 a53c
00000240: d263 1e3e ddee f33e e635 6f3e e7ef 1abf
00000250: cd34 aa3d 5cf1 97bd adb3 d73e bad5 c13e
00000260: 507d fdbc 59d4 a8be 2248 37bf 7272 58bf
00000270: 5e4d c4bd 92a8 8a3e 92a6 42be 0cb2 903d
00000280: 35c1 5bbe 0dbb c63e b4f7 023e f9a1 863e
00000290: cac9 d7be aaef 71bf 0a94 823e 5951 38be
000002a0: 7e19 883e 3346 a8bc b81b 0f3e dc92 033e
000002b0: 54fc 9dbe a964 ec3e e7e5 82bd bc6f e03e
000002c0: 710f 2bbf 26e3 133f 9969 3cbe e069 a43e
000002d0: d02e 4b3e aa79 b83e 957e f6bc 9538 c03e
000002e0: ccfe 633f a582 3ebd 5061 223f 8342 75be
000002f0: d8f8 67be 5a03 ae3e 2959 48bf 8c67 3c3c
00000300: 024a 803e d9f0 27bd a40d 2bbe bf32 14bd
00000310: 75f3 763d 0ecf 5abe 482f 4dbe 0c6a 71bc
00000320: 4e3c e63e 1d79 9bbd a104 2d3d a238 17bf
00000330: ded0 823d f919 5bbd 2bba 95be 7a2b 66be
00000340: f4da e73e 9bb1 5a3e b51e 043e 6a6e 713c
00000350: eb12 d7be 9d64 86be 478a e83e 8430 a83e
00000360: 5123 09bf fc91 8dbd ae66 4ebe 8863 ae3d
00000370: 1996 873d 1086 083e c9b1 7f3c bdbf 7d3f
00000380: f060 90be b143 723e 00ab 09bf a72e 613c
00000390: cd38 eb3d 2a5b 8d3e 5718 66be 8bf3 88be
000003a0: 5d9c 2d3e a321 3f3e e386 293f 3fcc 9e3e
000003b0: 96db 68bf ad89 db3e 470a 06bf b725 563f
000003c0: 6b48 0b3f 5d3c 54be d99b e8be ad2e 693f
000003d0: 67f6 9a3c cafd c73e cc80 b03e 4783 d83e
000003e0: 3824 67bc a67f 973e ce58 84be 86ff a63e
000003f0: efe2 da3e 4592 9bbd 33ed 043e 1905 8f3e

network_body._body_endoder.seq_layers.0.bias f4 [128]
-3.368338e-05 -0.0002581145 -0.0012107607 0.0006398912 0.0053253267 -0.00345498 -0.0017123445 -6.5749715e-05
0.0035085331 0.00072286325 -0.0019152698 -0.0030606303 0.0005565401 0.00074366946 0.0013964992 -0.002182845
0.00090262905 -0.0024525144 0.002511648 -0.0007408698 0.0020274597 0.0007582939 -0.0010019568 0.0048182383
0.0033348058 -0.00017561475 0.00035249392 -0.0016688895 0.0009800525 0.0016778206 -0.0011462378 0.0013368849
-0.00051097374 0.00056343555 0.0027151336 0.000965759 -0.0029278186 0.0015148968 -0.0018097064 -0.002282801
0.001643989 -0.0014620977 -0.0012220016 -0.0019245885 -0.00051449443 -0.0029307695 -0.0018044609 0.002140717
0.0019278442 -0.0012675261 0.0020134805 0.0013966032 3.9633e-05 0.00033424486 0.0017944648 -0.0036598924
0.0023982676 -0.0024110954 -0.0005354719 0.0005941607 -0.00023685567 -0.00029067878 0.0011556428 0.0010836823
-0.002896705 0.0010197341 -0.0046276147 0.0027699212 0.0032886195 -0.002610549 -0.002414213 0.00073447893
0.0020321775 0.0018490506 -0.0006002093 0.0005117491 0.0019391539 -0.0025886025 0.0017643239 -0.0011353387
0.0005931236 -0.0017248795 -0.0023384118 -0.0022597956 0.001847419 0.0028053392 0.0042371075 -0.0019578557
-0.0051044268 -0.0008974993 0.0026734446 -0.00093036593 -0.00024073699 0.0035358525 0.00036931317 0.002437499
0.0011717188 0.00096638885 0.00010853726 -0.0023387433 0.00021148326 0.00045582137 0.0007426939 0.00091928104
-0.00060218247 -0.0002883822 0.0014837349 -0.0016369149 0.00013196042 -0.0014404054 -0.004821032 0.0013442034
-0.0007804507 -0.0024636707 -0.0002173983 -0.004693523 0.0007285521 -0.001583978 0.00086359115 -0.0010180668
6.7105306e-05 -0.0011398786 -0.003193212 -0.0010357448 0.0016605549 -0.0022426676 -0.0037565655 0.0036431067
00000000: 4147 0db8 8b53 87b9 63b2 9eba 5fbe 273a
00000010: 1480 ae3b f26c 62bb bf70 e0ba 1ce3 89b8
00000020: 6bef 653b 887e 3d3a ca09 fbba db94 48bb
00000030: c6e4 113a d0f2 423a bd0a b73a 100e 0fbb
00000040: 699e 6c3a 5dba 20bb 769a 243b ee36 42ba
00000050: 21df 043b 3ec8 463a 1754 83ba 50e2 9d3b
00000060: c28c 5a3b 3a25 38b9 efce b839 a4be daba
00000070: 1b75 803a 51ea db3a 5c3d 96ba 6a3a af3a
00000080: def2 05ba 85b3 133a 62f0 313b fd2a 7d3a
00000090: a5e0 3fbb 808f c63a ac33 edba 0c9b 15bb
000000a0: 1e7b d73a dca3 bfba 922b a0ba 7942 fcba
000000b0: 23df 06ba 2712 40bb a983 ecba 464b 0c3b
000000c0: b8af fc3a 1e23 a6ba 99f4 033b 3a0e b73a
000000d0: 9c3b 2638 963d af39 3f34 eb3a ceda 6fbb
000000e0: 412c 1d3b 7803 1ebb e95e 0cba 73c1 1b3a
000000f0: 765c 78b9 3f66 98b9 f078 973a 580a 8e3a
00000100: a5d6 3dbb 99a8 853a 3fa3 97bb 9187 353b
00000110: e185 573b bf15 2bbb c637 1ebb 0c8a 403a
00000120: 482e 053b d85b f23a 5d57 1dba e726 063a
00000130: 352b fe3a 8ba5 29bb e340 e73a a5cf 94ba
00000140: da7b 1b3a 5a15 e2ba 0a40 19bb 1419 14bb
00000150: 1825 f23a c8d9 373b 6fd7 8a3b 5e4f 00bb
00000160: 0943 a7bb 2946 6bba f534 2f3b cde3 73ba
00000170: 586e 7cb9 c3b9 673b 60a0 c139 72be 1f3b
00000180: 5c94 993a 4255 7d3a 7f9e e338 9a45 19bb
00000190: 9bc1 5d39 4ffb ee39 58b1 423a e8fb 703a
000001a0: c8db 1dba 0132 97b9 e279 c23a c08d d6ba
000001b0: db5e 0a39 fccb bcba bff9 9dbb fb2f b03a
000001c0: 2997 4cba 8975 21bb 69f5 63b9 20cc 99bb
000001d0: 4efc 3e3a 7b9d cfba 9f62 623a a770 85ba
000001e0: e3ba 8c38 fb67 95ba 3545 51bb d4c1 87ba
000001f0: faa6 d93a b8f9 12bb b630 76bb 30c1 6e3b

network_body._body_endoder.seq_layers.2.weight f4 [128, 128]
0.044703577 -0.08543549 0.03690201 0.030757356 -0.004837784 0.07250631 -0.07543003 -0.08639189
0.08554049 0.08419726 -0.061879154 0.09738331 -0.25237402 -0.023352485 -0.0016035239 -0.0743541
0.05585226 0.021598147 0.006102433 -0.14465117 -0.039338708 -0.026720885 -0.06282438 -0.10960468
-0.12660052 0.026966354 0.06659373 0.05212748 -0.10370698 0.06454596 0.059158266 0.114174835
0.048773915 -0.08914817 -0.012460463 -0.079311125 -0.2637076 -0.1453843 -0.045786865 0.013562362
0.0008095831 0.10653666 -0.019351274 -0.04429614 0.07030679 -0.1808499 -0.11488234 0.1322325
-0.02398519 0.009431149 0.0090944115 0.085142754 0.14522399 0.0007587005 -0.14230165 0.0078112176
-0.1901111 0.1561116 -0.046421524 0.009029967 -0.06301032 0.045172393 0.003657197 0.017904328
0.04205371 -0.011225088 -0.0049279556 0.07023141 0.12576544 -0.034770355 -0.07920731 0.09762442
-0.1377004 0.025214896 -0.013887397 -0.022435121 -0.10158195 0.043745145 0.21196507 -0.09152238
0.07428116 -0.1372561 -0.007980039 -0.068084694 -0.01968344 -0.0887311 0.048707604 0.12473634
-0.14961807 0.09227868 0.19892222 0.031998478 0.005983166 -0.12864594 0.034743633 -0.04884588
0.06168847 -0.011839092 0.004884185 0.033039793 0.1860206 0.1793522 -0.1547343 -0.16032796
-0.11717414 0.07546806 0.16554667 0.12486851 0.052768998 0.0011916105 -0.16790214 0.15391453
-0.07108828 0.1109241 -0.08197417 -0.10681055 -0.14013089 0.19104439 0.01381987 0.12406336
-0.02601304 0.1250928 0.076409265 0.041969795 -0.20055783 0.05801348 -0.05704263 0.11392658
-0.065196805 -0.05290702 0.06357208 0.088741966 0.041099913 -0.014512906 -0.031451855 -0.09729902
-0.040739637 -0.085628614 -0.01829629 -0.027089369 0.041718394 0.096972935 -0.13257624 0.022391658
0.13029113 -0.055903964 -0.120247625 -0.07480777 0.06752308 0.017030323 -0.19698301 0.0228299
0.0166826 0.00887056 -0.09680582 0.07499708 -0.01211502 0.13250026 0.025888124 -0.03816623
-0.20216401 -0.036230642 0.15767407 0.030760296 -0.019961677 0.09817947 -0.039192013 0.057108868
0.14568806 0.063993365 -0.07009037 -0.08860229 0.102170646 -0.11994324 0.025308158 -0.055381835
-0.10371177 -0.14865698 -0.0225911 0.057311732 0.018090745 -0.024840482 -0.014683463 -0.08423188
0.013733173 -0.05575202 0.12205104 -0.12246541 0.011348734 -0.12137818 -0.050524145 -0.069422476
0.12000455 0.183179 -0.0077704904 0.11486912 0.015572399 0.03603961 0.015607747 0.0052651656
0.0041800207 0.127854 0.041578796 -0.086699866 0.15642866 0.055976346 -0.06195423 -0.07568395
0.04505885 -0.13420102 -0.0069524227 -0.018278802 -0.07657676 -0.04658197 -0.027408203 0.07559413
0.016253898 -0.007453222 -0.106275454 0.0016547049 -0.030780364 0.03223347 0.02250331 0.058364842
-0.033156596 -0.04358658 -0.06854969 -0.044997692 0.15021737 -0.057216756 -0.007882039 -0.17519079
-0.1508682 -0.09942203 -0.04770593 0.111531354 0.05077699 -0.14161398 0.090654 -0.0027038855
-0.0665696 0.014517379 0.09272257 -0.07252611 0.044472553 -0.0464813 0.021074558 -0.024747608
-0.069084235 0.004453446 -0.13195212 -0.077766255 0.073852755 -0.2654149 -0.036930785 0.1311129
00000000: 191b 373d cdf8 aebd 9026 173d daf6 fb3c
00000010: 4686 9ebb 307e 943d 0f7b 9abd 3bee b0bd
00000020: da2f af3d 9d6f ac3d ff74 7dbd e770 c73d
00000030: 2b37 81be b64d bfbc 552d d2ba f646 98bd
00000040: 57c5 643d 99ee b03c ebf6 c73b 701f 14be
00000050: a021 21bd c2e5 dabc 12aa 80bd 6b78 e0bd
00000060: 91a3 01be 8be8 dc3c 4b62 883d a083 553d
00000070: 5364 d4bd ac30 843d f04f 723d 7fd4 e93d
00000080: 28c7 473d 5193 b6bd f826 4cbc df6d a2bd
00000090: af04 87be 9fdf 14be 028b 3bbd ab34 5e3c
000000a0: 343a 543a e42f da3d 9086 9ebc df6f 35bd
000000b0: 02fd 8f3d b730 39be 6f47 ebbd f567 073e
000000c0: 977c c4bc 1b85 1a3c ba00 153c 535f ae3d
000000d0: 99b5 143e 87e3 463a 86b7 11be 3ef5 ff3b
000000e0: 7cac 42be b8db 1f3e 7f24 3ebd 6df2 133c
000000f0: 8e0b 81bd b006 393d 96ad 6f3b 19ac 923c
00000100: 8340 2c3d 6ee9 37bc b07a a1bb 7cd5 8f3d
00000110: a8c8 003e 5c6b 0ebd 7137 a2bd 50ef c73d
00000120: 5501 0dbe 788f ce3c f787 63bc dcc9 b7bc
00000130: 330a d0bd 1c2e 333d 5f0d 593e 1670 bbbd
00000140: b920 983d dd8c 0cbe b6be 02bc fd6f 8bbd
00000150: 2a3f a1bc a7b8 b5bd a081 473d c475 ff3d
00000160: 7b35 19be 9bfc bc3d 44b2 4b3e d610 033d
00000170: 6f0e c43b c3bb 03be 574f 0e3d 9e12 48bd
00000180: 0dad 7c3d c0f8 41bc 830b a03b bc54 073d
00000190: 2f7c 3e3e 1aa8 373e ab72 1ebe 032d 24be
000001a0: fff8 efbd 008f 9a3d 1185 293e 10bb ff3d
000001b0: 4e24 583d d02f 9c3a 8aee 2bbe c59b 1d3e
000001c0: bb96 91bd 2d2c e33d 13e2 a7bd 7dbf dabd
000001d0: 797e 0fbe 24a1 433e bc6c 623c ee14 fe3d
000001e0: 4d19 d5bc 5418 003e 767c 9c3d 85e8 2b3d
000001f0: 085f 4dbe 8b9f 6d3d 88a5 69bd 5752 e93d
00000200: e785 85bd 08b5 58bd 1432 823d 59be b53d
00000210: 6258 283d 8ac7 6dbc a9d3 00bd b544 c7bd
00000220: 9bde 26bd 0e5e afbd 1ae2 95bc 86ea ddbc
00000230: e8e0 2a3d bf99 c63d 11c2 07be b66e b73c
00000240: 0a6b 053e 8efb 64bd 6344 f6bd d134 99bd
00000250: 8a49 8a3d 2d83 8b3c eab5 49be c505 bb3c
00000260: f3a9 883c d355 113c 2142 c6bd 1298 993d
00000270: 147e 46bc 26ae 073e 5513 d43c 3154 1cbd
00000280: 1504 4fbe 9566 14bd 5075 213e 04fd fb3c
00000290: ac86 a3bc 5112 c93d ce87 20bd fdea 693d
000002a0: 402f 153e f40e 833d 8a8b 8fbd 1e75 b5bd
000002b0: d83e d13d cda4 f5bd 0e53 cf3c 10d8 62bd
000002c0: d666 d4bd 8939 18be f810 b9bc b5bf 6a3d
000002d0: 0b33 943c 447e cbbc e892 70bc c481 acbd
000002e0: 1a01 613c 3b5c 64bd e5f5 f93d 25cf fabd
000002f0: 0af0 393c 2095 f8bd 68f2 4ebd 5f2d 8ebd
00000300: f2c4 f53d 4793 3b3e 999f febb 8040 eb3d
00000310: 6023 7f3c 459e 133d a3b7 7f3c 6987 ac3b
00000320: 8ef8 883b 29ec 023e 874e 2a3d b38f b1bd
00000330: d62e 203e 7447 653d b8c3 7dbd 3000 9bbd
00000340: a18f 383d fe6b 09be 26d1 e3bb 6dbd 95bc
00000350: 47d4 9cbd bccc 3ebd 2b87 e0bc 18d1 9a3d
00000360: e526 853c 283a f4bb f2a6 d9bd afe2 d83a
00000370: 1a27 fcbc 3e07 043d dd58 b83c f90f 6f3d
00000380: 36cf 07bd d787 32bd c863 8cbd 804f 38bd
00000390: 95d2 193e 1e5c 6abd ab23 01bc 3765 33be
000003a0: 327d 1abe c79d cbbd 4b67 43bd 8d6a e43d
000003b0: 88fb 4f3d 4103 11be cea8 b93d ac33 31bb
000003c0: a455 88bd 4dda 6d3c 55e5 bd3d 9288 94bd
000003d0: da28 363d 2d63 3ebd 8da4 ac3c 7fbb cabc
000003e0: 097c 8dbd 36ee 913b 751e 07be ea43 9fbd
000003f0: 1d40 973d 76e4 87be bc44 17bd 7642 063e

network_body._body_endoder.seq_layers.2.bias f4 [128]
-0.0016706669 0.0012132179 0.00070922246 -0.00071455806 -0.00050869543 0.0008652515 0.0012855702 0.00121072
0.0009240996 0.0001027926 0.0015865933 0.00081807753 -0.0011249589 0.0028881954 0.0014289977 -0.002638193
0.0003651626 0.0005046087 0.0008227158 0.002425635 0.0022479077 -0.0017639726 0.00092086045 -0.0016373498
-0.0013844699 -0.0014610111 0.0019144536 -0.0013607614 -0.0025827275 -0.0022674038 -0.002205116 -0.0037604743
0.004747443 -0.0012742763 0.00052084716 0.0009687153 -0.001029571 -0.0012355837 -2.1694234e-06 -0.002777139
-0.0020491586 -0.0019175621 -0.0014517346 -0.00027426204 -0.002892929 -0.0013544424 -0.0010419582 0.0020805807
-0.002867738 0.0013056237 -0.002899721 0.0005363844 0.00034352223 0.0004658366 -0.0010755105 -0.0008797738
-0.0005261098 0.0023446006 -0.001504994 -0.00015876512 -0.0001902886 0.00050601823 0.0011469828 -0.00019678603
0.00056467514 -0.0013136014 -0.0010945546 0.00021844113 0.00061946345 -0.0022553247 0.00080534234 0.000821782
0.00061360473 -0.005882278 -0.002314453 0.00032414828 0.0019384276 -0.0004925505 -0.0012458183 0.00061592873
0.0008022745 -0.0010927863 -0.0007137705 0.0009006512 -0.0014902797 0.00044517528 -0.0011569067 -0.0013652324
-0.0010713489 0.0011058149 -0.0023933586 0.00031310233 -0.00035498635 0.0009906486 -0.0024565996 -0.0007732725
0.00093776913 -0.0030365398 0.0013017559 -0.0015214193 0.00072378677 0.003115902 0.00011884045 0.00062864594
-0.0010723848 -0.001467147 0.0001453753 -0.00013769919 0.00043819164 -0.00024825905 0.00048756055 -6.819584e-05
-0.0018232184 0.0009812157 0.0007907931 -0.0011997281 -0.0017374752 0.0003958705 5.057554e-05 -0.0012517464
0.001140502 0.0025629257 -0.0012921782 -0.001412109 -0.0011837804 -0.00017385746 -0.002269008 -0.001331055
00000000: 47fa daba d604 9f3a 1deb 393a 2e51 3bba
00000010: f959 05ba 0cd2 623a 9480 a83a 06b1 9e3a
00000020: 463f 723a 5b92 d738 3df5 cf3a 4174 563a
00000030: 5b73 93ba e147 3d3b 354d bb3a 89e5 2cbb
00000040: 4b73 bf39 b747 043a 86ab 573a 67f7 1e3b
00000050: a251 133b 1935 e7ba e665 713a 589c d6ba
00000060: 1a77 b5ba 667f bfba 67ee fa3a 935b b2ba
00000070: fa42 29bb b998 14bb b583 10bb 4a72 76bb
00000080: 7090 9b3b 9e05 a7ba 7689 083a 62f1 7d3a
00000090: acf2 86ba 4ff3 a1ba 6996 11b6 a900 36bb
000000a0: 2d4b 06bb b556 fbba 2148 beba d4ca 8fb9
000000b0: 4b97 3dbb 8c87 b1ba 5192 88ba 5a5a 083b
000000c0: a9f0 3bbb 7621 ab3a 3f09 3ebb 269c 0c3a
000000d0: c61a b439 883b f439 25f8 8cba 9fa0 66ba
000000e0: a2ea 09ba dfa7 193b 3843 c5ba 307a 26b9
000000f0: 3588 47b9 4fa6 043a 5b56 963a 5958 4eb9
00000100: b506 143a 262d acba 2877 8fba 580d 6539
00000110: 7d63 223a 12ce 13bb 9c1d 533a db6c 573a
00000120: 51da 203a 20c0 c0bb 14ae 17bb 72f2 a939
00000130: d612 fe3a 811e 01ba ba4a a3ba 4776 213a
00000140: bb4f 523a d33b 8fba 541c 3bba ae19 6c3a
00000150: 7d55 c3ba 6a66 e939 59a3 97ba 99f1 b2ba
00000160: 816c 8cba fef0 903a e5d9 1cbb e227 a439
00000170: 761d bab9 a7d8 813a e7fe 20bb 70b5 4aba
00000180: 9fd4 753a af00 47bb ae9f aa3a 5c6a c7ba
00000190: 82bc 3d3a 2934 4c3b fb39 f938 b7cb 243a
000001a0: 438f 8cba 494d c0ba e36f 1839 5863 10b9
000001b0: 16bd e539 c428 82b9 459f ff39 5d04 8fb8
000001c0: 0ff9 eeba 239c 803a 3a4d 4f3a 3240 9dba
000001d0: febb e3ba d78c cf39 1321 5438 a411 a4ba
000001e0: e67c 953a c2f6 273b 4e5e a9ba 8416 b9ba
000001f0: 1429 9bba 824d 36b9 a3b3 14bb cb76 aeba

action_model._continuous_distribution.log_sigma f4 [1, 2]
-0.005193144 -0.0035562026
00000000: 402b aabb 2e0f 69bb

action_model._continuous_distribution.mu.weight f4 [2, 128]
0.017850563 -0.005375775 -0.035612125 -0.015463326 0.019199856 -0.024028672 -0.0303576 0.006313171
-0.014951683 0.00133152 -0.016158175 0.0119522875 -0.00845956 0.03682392 -0.019728476 0.0053967373
-0.00846326 -0.03174362 -0.006362167 0.005356475 0.013068922 0.016425733 0.012655266 0.028542392
0.01302342 0.010220927 -0.027085725 0.022108888 0.012641531 -0.028142145 0.042122215 -1.5308215e-05
-0.029312413 -0.003674544 0.014119032 0.012240384 0.029928088 0.015171932 -0.003597876 -0.022041794
0.016060894 0.0053790784 0.004041707 0.01814788 0.02268813 0.011802949 0.014142743 0.0126184765
0.021350356 -0.015915796 0.01634899 -0.018869083 -0.0036528816 0.005606275 -0.010468971 -0.009538085
0.0020999995 -0.0039925254 -0.0037273627 0.025491476 -0.001101786 -0.019542443 0.011404042 0.025214273
0.009675028 0.030158037 -0.001809987 0.012436317 -0.009347836 0.030020693 -0.02103312 -0.039362714
0.004370778 0.007812203 0.007900974 -0.0015471941 0.0041243653 0.016026333 -0.025289895 -0.015628517
-0.007300886 -0.0003188557 0.0126958825 -0.023905743 0.023389267 0.002767579 -0.0026268426 0.006044923
0.017808218 0.0060428362 0.036975313 0.0068099406 0.029512603 0.010653101 0.020669581 -0.02145426
-0.020009695 0.005472927 -0.008175016 0.02674063 -0.0093696285 -0.01766017 0.009399352 -0.009230293
-0.008769079 0.022431117 -0.0114083765 0.017941723 -0.0056386697 0.0057372465 -0.01611899 0.03645513
-0.01623342 -0.014509455 -0.036426645 0.010858798 -0.0034431021 0.006270462 0.014415709 -0.012204504
0.025143152 0.041526623 0.015188371 0.011707593 -0.007344593 3.048455e-05 -0.023488013 -0.022459863
-0.013529783 0.006808747 0.0048489906 -0.02416895 0.019171217 0.024572888 -0.006236516 0.0070738145
0.020824913 -0.005351176 0.0136878425 -0.00847764 -0.0152597325 0.008236256 0.006861413 -0.012950091
-0.0037955835 -0.0241178 -0.02380161 0.0025274223 0.0028831072 -0.0131600965 0.055335756 0.0066060433
-0.014465634 0.0074510635 0.0021189875 0.0011016432 0.008787936 -0.00525729 -0.0029436408 -0.005693411
-0.0047575445 -0.01502845 0.016891705 0.024023747 -0.00457231 0.0027930294 -0.0014236964 0.0021944107
-0.0043141544 0.0009569872 -0.0032003676 -0.002838465 -0.036601473 -0.013476034 -0.031486012 0.011144015
0.016577566 -0.012337094 0.0059222807 -0.00774895 0.0034779757 -0.0041194223 -0.017504321 -0.020891549
0.0017045332 0.010612857 -0.0058488995 -0.008796687 -0.009744754 0.002012761 -0.0001726615 0.024622587
0.011528843 -0.008302429 -0.036656998 -0.0011050004 -0.0068895225 -0.019279547 -0.018154323 -0.0105517665
0.012868179 0.0061852043 0.009963773 0.013136682 -1.553342e-05 -0.025417874 -0.030872704 0.005195732
0.017450493 -0.010834332 -0.0044200555 0.044467453 -0.03824533 0.008872964 -0.01091185 0.00620847
0.008456769 -0.016307179 -0.016205851 0.008043802 0.007889056 0.010999891 0.013953417 -0.0220168
0.015218401 -0.007035991 0.012445045 -0.008391778 0.0030079975 0.013053364 0.013493573 0.034317482
-0.023877274 -0.012427873 -0.004856052 0.01416889 -7.3427465e-05 0.024255456 0.0015524137 -0.015538986
0.019555481 0.00023650938 0.0058282358 0.01629813 -0.007451631 0.008208531 -0.030587055 -0.02241052
-0.0044154217 0.024692558 -0.00070735003 0.01056443 -0.011965923 0.019495478 -0.0068421476 0.0056311465
00000000: 583b 923c 4527 b0bb 05de 11bd e459 7dbc
00000010: 0449 9d3c c7d7 c4bc 80b0 f8bc b7de ce3b
00000020: e7f7 74bc 6686 ae3a 265e 84bc 87d3 433c
00000030: f799 0abc aed4 163d 9d9d a1bc 1dd7 b03b
00000040: 7ca9 0abc 9905 02bd ba79 d0bb 5e85 af3b
00000050: 081f 563c 428f 863c 0858 4f3c bcd1 e93c
00000060: 2f60 553c ad75 273c e2e2 ddbc b31d b53c
00000070: 6d1e 4f3c 5b8a e6bc 5888 2c3d 246a 80b7
00000080: 9620 f0bc 9ed0 70bb 8353 673c e48b 483c
00000090: c02b f53c b293 783c 58ca 6bbb fe90 b4bc
000000a0: 2392 833c fb42 b03b 4c70 843b ddaa 943c
000000b0: 75dc b93c 2861 413c f7b6 673c babd 4e3c
000000c0: f1e6 ae3c d861 82bc 51ee 853c 5693 9abc
000000d0: 2f65 6fbb d8b4 b73b 0c86 2bbc a145 1cbc
000000e0: 25a0 093b bbd3 82bb c546 74bb 80d3 d03c
000000f0: ce69 90ba 7917 a0bc 05d8 3a3c 2a8e ce3c
00000100: 0284 1e3c fd0d f73c 163d edba b2c1 4b3c
00000110: aa27 19bc f5ed f53c a64d acbc cc3a 21bd
00000120: be38 8f3b 82fd ff3b 1673 013c 38cb caba
00000130: af25 873b a849 833c c12c cfbc 6007 80bc
00000140: 453c efbb 162c a7b9 6402 503c fad5 c3bc
00000150: d99a bf3c 4560 353b 1b27 2cbb 7d14 c63b
00000160: 8ae2 913c fc02 c63b 6d73 173d ec25 df3b
00000170: 6ac4 f13c 588a 2e3c 4153 a93c d8c0 afbc
00000180: 5feb a3bc 3d56 b33b 81f0 05bc 2a0f db3c
00000190: 1283 19bc 10ac 90bc bdff 193c a83a 17bc
000001a0: 2fac 0fbc 76c1 b73c 33ea 3abc 85fa 923c
000001b0: 97c4 b8bb 83ff bb3b f90b 84bc f951 153d
000001c0: f3fb 84bc 11b9 6dbc 1b34 15bd 1ae9 313c
000001d0: aba5 61bb 7378 cd3b de2f 6c3c 66f5 47bc
000001e0: 03f9 cd3c d217 2a3d a5d8 783c 34d1 3f3c
000001f0: e9aa f0bb 13b9 ff37 ef69 c0bc bffd b7bc
00000200: 06ac 5dbc e91b df3b 48e4 9e3b f6fd c5bc
00000210: f50c 9d3c 154d c93c b05b ccbb 75cb e73b
00000220: 0299 aa3c eb58 afbb f942 603c cde5 0abc
00000230: f503 7abc 5df1 063c b4d5 e03b 9e2c 54bc
00000240: 53bf 78bb b192 c5bc 98fb c2bc 1ca3 253b
00000250: 83f2 3c3b 729d 57bc bfa7 623d 8277 d83b
00000260: 4401 6dbc 0d28 f43b b6de 0a3b 0365 903a
00000270: 46fb 0f3c 5845 acbb 19ea 40bb cb8f babb
00000280: 2de5 9bbb e339 76bc 7960 8a3c 73cd c43c
00000290: 51d3 95bb 420b 373b 539b baba 1ad0 0f3b
000002a0: c05d 8dbb 53de 7a3a 42bd 51bb 8a05 3abb
000002b0: 6deb 15bd 95ca 5cbc 7af7 00bd 6395 363c
000002c0: adcd 873c 8621 4abc b10f c23b e7ea fdbb
000002d0: c0ee 633b 38fc 86bb 3965 8fbc c124 abbc
000002e0: a56a df3a 8ce1 2d3c 20a8 bfbb fb1f 10bc
000002f0: 76a8 1fbc 87e8 033b 780c 35b9 4fb5 c93c
00000300: 79e3 3c3c e906 08bc a625 16bd a9d5 90ba
00000310: 81c1 e1bb 24f0 9dbc 60b8 94bc 51e1 2cbc
00000320: 0ed5 523c 41ad ca3b 183f 233c 3d3b 573c
00000330: c44d 82b7 2539 d0bc c1e8 fcbc f640 aa3b
00000340: 56f4 8e3c 7b82 31bc 1dd6 90bb 8123 363d
00000350: 23a7 1cbd e95f 113c 9ec7 32bc 6c70 cb3b
00000360: 438e 0a3c a296 85bc 22c2 84bc 27ca 033c
00000370: 1941 013c e338 343c df9c 643c 935c b4bc
00000380: 9a56 793c 2c8e e6bb 4de6 4b3c ab7d 09bc
00000390: d321 453b c7dd 553c 2614 5d3c 7d90 0c3d
000003a0: 469a c3bc 479e 4bbc 841f 9fbb a224 683c
000003b0: 12fd 99b8 61b3 c63c 5c7a cb3a 3b97 7ebc
000003c0: d132 a03c 81ff 7739 c9fa be3b a883 853c
000003d0: d02c f4bb 137d 063c b491 fabc 4496 b7bc
000003e0: 3eaf 90bb 0c48 ca3c 756d 39ba 6e16 2d3c
000003f0: b80c 44bc fbb4 9f3c 1834 e0bb 7b85 b83b

action_model._continuous_distribution.mu.bias f4 [2]
-0.0011880214 0.00092373876
00000000: 62b7 9bba 0f27 723a
