3D/results/MoveToGoal2/MoveToGoal/MoveToGoal-41337.onnx (onnx, 75062 bytes, 7 tensors)

network_body._body_endoder.seq_layers.0.weight f4 [128, 6]
-0.60545236 -0.32643822 -0.3232056 0.26272935 0.7086658 -0.31470048 -0.37736332 -0.4208462
-1.1900616 0.20121449 -0.29547065 0.42322946 -0.2821583 -0.1852835 -0.576683 -0.22574899
0.1712074 -0.4857206 0.20835392 0.6861881 0.011071989 0.72812974 0.023279581 0.32796732
-0.44057372 -0.13129152 0.024615537 -0.17142639 -0.5085637 -0.8133361 0.031194257 0.27909946
-0.05667302 0.1923204 -0.22126548 -0.22670446 -0.59628046 -0.060667943 0.26189914 -0.42575556
-0.13448109 0.28763974 -0.8299943 -0.22172451 0.02618213 0.057445303 0.48741123 -0.03343442
-0.15126258 -0.41071203 0.34026623 0.33314982 -0.3945949 -0.2348397 0.38671407 -0.114934005
-0.7773333 0.65174675 -0.05640642 -0.31415254 0.668532 -0.23808002 0.6636223 0.021742474
-0.20528351 -0.17382719 -0.10518365 -0.49210754 0.77599806 -0.15781909 -0.8200801 0.32747135
-0.4368824 -0.40187895 0.10378501 0.74475706 0.009354389 -0.025835969 -0.35267133 -0.040458072
0.11760036 0.24092336 0.25388354 -0.0058194464 -0.6194024 0.5425558 0.25659457 -0.18556748
0.41881612 -0.18627918 -0.12865886 0.33318567 0.06420573 0.32432044 -0.22532523 -0.68484664
-0.036586102 0.70550317 -0.12737143 0.2889829 -0.23317449 0.3373775 0.75662565 0.6434169
-0.5877881 -0.16105369 0.42571416 0.034410145 0.71385837 0.06637813 -0.22332247 -0.14717254
-0.120240286 -0.12924914 0.027093086 -0.5121533 0.0026129247 -0.5189381 -0.5638402 -0.8338474
-0.19852114 -0.9340072 -0.6073193 0.26784015 0.098214984 -1.1897345 0.2638433 0.18995039
-0.26089433 0.081600636 -0.20780407 0.045396917 0.28563774 0.55885 0.3522818 0.39400938
0.06642986 -0.5423827 -0.32231405 -0.16835785 -0.11714457 -0.34023687 0.16337186 -0.042299252
-0.21692479 -0.3436414 0.28814664 -0.18505171 0.22108969 -0.020920698 -0.28304154 -0.34943187
0.16143061 0.57987213 0.14014211 -0.27177784 -0.05101347 0.18492012 0.022850007 -0.6844315
-0.29553866 -0.99508476 0.05883376 0.3652113 -1.6677027 -0.050415613 0.999761 0.012486606
0.36783406 0.68857586 0.04417084 0.52140933 -0.00927387 -0.29079303 -0.8181639 -0.07440839
-0.13924524 -0.11443025 -0.5218454 0.3278426 0.08675948 -0.6714242 -0.04757689 -0.49580967
-0.34246662 0.11315725 -0.35812253 0.16897361 0.32695523 -0.09980012 0.10900389 -0.06510032
0.18811075 0.15295438 0.30243987 0.27479246 -0.08060297 0.6674612 0.30834237 0.35940653
-0.52365375 0.59874296 0.6397446 0.020380152 -0.44983196 0.41950718 0.3265897 0.06511441
0.5517207 -0.51289684 0.1893514 -0.6413249 0.32076097 -0.3205952 0.008858557 0.5590049
0.121299505 0.008817057 -1.2297431 -0.12571523 0.7607425 -0.45498738 0.067259 -0.7923033
0.27504486 0.28433025 0.19127478 -0.78265446 -0.1745085 -0.069547914 0.029015105 0.043392073
-0.08335659 -0.053886022 -0.0042245053 0.14039654 -0.38146228 -0.38791576 0.10333583 -0.38516268
0.09055056 -0.08459862 -0.49025026 0.44396356 -0.36805016 0.60952497 0.5799776 0.4523479
-0.6732527 0.05533607 0.5567848 -0.30003726 0.7441552 -0.87774414 -0.19878474 -0.34035185
00000000: edfe 1abf e922 a7be 347b a5be 7684 863e
00000010: 1f6b 353f 6c20 a1be c435 c1be 2779 d7be
00000020: f053 98bf 2c0b 4e3e ee47 97be 88b1 d83e
00000030: 0d77 90be f5ba 3dbe 7fa1 13bf be2a 67be
00000040: fe50 2f3e 5fb0 f8be bb5a 553e 06aa 2f3f
00000050: 4a67 353c b666 3a3f d2b4 be3c 55eb a73e
00000060: e192 e1be 4971 06be 86a6 c93c 668a 2fbe
00000070: 3b31 02bf cb36 50bf 198b ff3c 20e6 8e3e
00000080: f821 68bd a4ef 443e 6b93 62be 3725 68be
00000090: d6a5 18bf f37e 78bd a517 863e a2fc d9be
000000a0: 69b5 09be 8445 933e 827a 54bf c00b 63be
000000b0: e87b d63c c44b 6b3d f78d f93e 88f2 08bd
000000c0: 94e4 1abe d948 d2be 6037 ae3e 9d92 aa3e
000000d0: 5808 cabe d179 70be 63ff c53e 8562 ebbd
000000e0: 51ff 46bf e0d8 263f 6b0a 67bd 9ad8 a0be
000000f0: ea24 2b3f 40cb 73be 27e3 293f 461d b23c
00000100: d735 52be c1ff 31be 876a d7bd 85f5 fbbe
00000110: cfa7 463f 549b 21be c5f0 51bf 53aa a73e
00000120: 0daf dfbe 14c3 cdbe 3c8d d43d 66a8 3e3f
00000130: 2743 193c f4a5 d3bc 5691 b4be 5db7 25bd
00000140: 75d8 f03d 9db4 763e 06fd 813e 0eb1 bebb
00000150: 2891 1ebf f0e4 0a3f 5d60 833e 6705 3ebe
00000160: 116f d63e f8bf 3ebe 26bf 03be 5097 aa3e
00000170: 4b7e 833d 540d a63e a8bb 66be 1c52 2fbf
00000180: 4fdb 15bd db9b 343f a86d 02be 91f5 933e
00000190: 4bc5 6ebe bebc ac3e 38b2 413f f8b6 243f
000001a0: 4879 16bf 42eb 24be 35f7 d93e a7f1 0c3d
000001b0: 6cbf 363f 42f1 873d a5ae 64be 66b4 16be
000001c0: 8a40 f6bd e359 04be 52f2 dd3c 7b1c 03bf
000001d0: 9a3d 2b3b 21d9 04bf d557 10bf 0677 55bf
000001e0: 2049 4bbe 191b 6fbf 4779 1bbf 5822 893e
000001f0: f024 c93d 3849 98bf 7816 873e 5b82 423e
00000200: f193 85be 3c1e a73d 97ca 54be 1ef2 393d
00000210: 1c3f 923e cb10 0f3f 485e b43e 99bb c93e
00000220: 610c 883d 98d9 0abf 5906 a5be 0066 2cbe
00000230: 7ee9 efbd 8733 aebe f44a 273e fb41 2dbd
00000240: 8821 5ebe c4f1 afbe f587 933e 327e 3dbe
00000250: 5665 623e e261 abbc d2ea 90be bce8 b2be
00000260: 114e 253e 8072 143f 6a81 0f3e 7726 8bbe
00000270: 80f3 50bd b35b 3d3e f02f bb3c e736 2fbf
00000280: d850 97be e0bd 7ebf abfb 703d fafc ba3e
00000290: 4877 d5bf 9a80 4ebd 56f0 7f3f 9f94 4c3c
000002a0: bf54 bc3e 8246 303f 7cec 343d 157b 053f
000002b0: 6ef1 17bc d3e2 94be 3073 51bf 6d63 98bd
000002c0: 4e96 0ebe 685a eabd a997 05bf fcda a73e
000002d0: f4ae b13d 75e2 2bbf fcdf 42bd c4da fdbe
000002e0: c957 afbe fdbe e73d d65b b7be 6b07 2d3e
000002f0: ad66 a73e 0164 ccbd 6e3d df3d 5153 85bd
00000300: 1ba0 403e 13a0 1c3e 66d9 9a3e 99b1 8c3e
00000310: 2c13 a5bd bdde 2a3f 0ddf 9d3e 2204 b83e
00000320: 2c0e 06bf 3847 193f 4dc6 233f 47f4 a63c
00000330: 6050 e6be a5c9 d63e c436 a73e b45a 853d
00000340: 913d 0d3f 354d 03bf 55e5 413e de2d 24bf
00000350: c83a a43e 0e25 a4be 7b23 113c f21a 0f3f
00000360: e06b f83d 6b75 103c 3968 9dbf 7ebb 00be
00000370: 05c0 423f 1bf4 e8be 16bf 893d 64d4 4abf
00000380: aed2 8c3e bc93 913e 89dd 433e 0b5c 48bf
00000390: 5bb2 32be 236f 8ebd 16b1 ed3c e3bb 313d
000003a0: dcb6 aabd 97b7 5cbd b86d 8abb 1cc4 0f3e
000003b0: 064f c3be e59c c6be bca1 d33d 0b34 c5be
000003c0: 9272 b93d 0b42 adbd 1502 fbbe 314f e33e
000003d0: 1271 bcbe d409 1c3f 6979 143f 259a e73e
000003e0: 4a5a 2cbf 13a8 623d 7389 0e3f 7c9e 99be
000003f0: f580 3e3f d7b3 60bf 3a8e 4bbe 9942 aebe

network_body._body_endoder.seq_layers.0.bias f4 [128]
-0.002902857 -0.0036921033 0.013463064 0.0014543348 -0.0022787668 -0.00083117 -0.00025846448 -0.00035789356
-0.000523587 0.016268367 -0.0067107035 0.0028689697 -0.0020802554 0.002778839 -0.007883185 0.0013564631
0.005891327 0.0010571562 0.013659647 0.00101488 -0.010812881 0.011744905 0.0016377209 -0.000733941
-0.0058773817 0.005483438 -0.002760801 -0.0020299165 -0.0031152945 0.0033512947 -0.0039229365 -0.004910449
0.0004128273 -0.007440541 -0.0074964664 0.00036208337 0.0023918992 -0.0031419003 -0.0020689382 0.007790575
0.003959593 0.013051932 -0.0034446998 0.0011850636 0.009628404 0.0009077194 -0.014164621 -0.0063621323
-0.0011797437 0.0039285864 -0.0077398405 -0.0008404181 0.004346314 -0.0011682698 0.005772669 -0.005770087
0.0017948776 -0.005142876 -0.0007454345 0.0050294055 -0.0007017348 0.0015986193 0.0071320226 0.00028718248
-0.011511623 -0.006556648 -0.004707372 0.0041338466 0.004644786 0.0021784627 -0.0058436957 -0.0031059089
0.0055915937 -0.006981994 -0.0055615506 -0.0036834858 -0.003405126 0.01462663 0.00198004 0.00027748104
0.013037663 -0.008258501 -0.0027952932 0.008422662 -0.0110740755 0.005220108 0.0041650957 0.0067522097
-0.012255112 0.000116471594 -6.605912e-05 -0.001544082 0.006397925 -0.00076106616 -0.008980818 0.005476809
0.019310579 0.0044273273 -0.0022297364 -0.006441023 -0.002100017 -0.0028266925 -0.007694128 0.0026859732
-0.0029646514 0.0019290136 0.0057397857 0.001741702 0.00561886 0.00023776124 -0.0039553964 0.005985957
-0.0023441499 0.0036451693 0.004771506 -0.011466767 0.0010489669 0.01684827 -0.004911918 0.0018333213
-0.0013828686 -0.0021027527 0.0009723684 0.018250586 0.001682669 -0.0044635553 0.0019496097 -0.0016734317
00000000: dc3d 3ebb 37f7 71bb 2f94 5c3c 619f be3a
00000010: 5d57 15bb e0e2 59ba 8482 87b9 a9a3 bbb9
00000020: 5441 09ba 3d45 853c 76e5 dbbb 5305 3c3b
00000030: e554 08bb 2f1d 363b 7928 01bc 59cb b13a
00000040: 080c c13b 4790 8a3a b6cc 5f3c b905 853a
00000050: 8328 31bc b46d 403c cba8 d63a f265 40ba
00000060: 0d97 c0bb 69ae b33b 8eee 34bb 5908 05bb
00000070: f829 4cbb 65a1 5b3b fa8b 80bb d5e7 a0bb
00000080: be70 d839 c8cf f3bb eba4 f5bb 02d6 bd39
00000090: 69c1 1c3b 57e8 4dbb 0697 07bb 1448 ff3b
000000a0: 79bf 813b c5d7 553c 79c0 61bb 2354 9b3a
000000b0: 74c0 1d3c 05f4 6d3a ba12 68bc 6f79 d0bb
000000c0: a1a1 9aba 5fbb 803b 7d9e fdbb 814f 5cba
000000d0: 866b 8e3b a120 99ba a828 bd3b ff12 bdbb
000000e0: 1942 eb3a 9285 a8bb 4369 43ba b6cd a43b
000000f0: a0f4 37ba c388 d13a beb3 e93b fb90 9639
00000100: 3f9b 3cbc 26d9 d6bb 4c40 9abb 3875 873b
00000110: 4a33 983b 8ac4 0e3b 797c bfbb 818c 4bbb
00000120: b039 b73b 36c9 e4bb ab3d b6bb a366 71bb
00000130: 8928 5fbb 88a4 6f3c 8fc3 013b e07a 9139
00000140: ec9b 553c aa4e 07bc 3d31 37bb 34ff 093c
00000150: 0a70 35bc 710d ab3b 5b7b 883b a441 dd3b
00000160: aac9 48bc 3642 f438 3889 8ab8 cb62 caba
00000170: afa5 d13b 4982 47ba 4824 13bc ce76 b33b
00000180: 3831 9e3c 1d13 913b c520 12bb 380f d3bb
00000190: 70a0 09bb 0840 39bb 061f fcbb 2707 303b
000001a0: 994a 42bb f5d6 fc3a d014 bc3b d249 e43a
000001b0: 6a1e b83b 8c4f 7939 459c 81bb d925 c43b
000001c0: 4fa0 19bb cbe3 6e3b 4b5a 9c3b 1bdf 3bbc
000001d0: 7d7d 893a 6205 8a3c 28f4 a0bb 0e4c f03a
000001e0: 5f41 b5ba 56ce 09bb 8ae6 7e3a 4182 953c
000001f0: 018d dc3a 0443 92bb 0c8a ff3a 0d57 dbba

network_body._body_endoder.seq_layers.2.weight f4 [128, 128]
0.06955366 -0.0304614 -0.019222492 0.13264757 0.16366482 0.02751203 -0.07739382 0.037389897
0.08800344 0.025468161 -0.021791438 0.019145492 0.069444865 0.07182823 -0.0824293 0.10867006
-0.0862676 -0.23026545 -0.024343943 -0.067438126 -0.053789377 0.00063728116 0.115952946 0.030198244
0.122586615 0.010822455 -0.119262785 0.063097976 0.11028555 0.10926346 0.042498406 0.04802346
-0.12207842 -0.009850142 0.088259816 0.02158178 -0.07538304 -0.12498845 0.08326977 -0.13991323
0.13784088 -0.067957394 -0.056611203 0.104723476 -0.035707857 0.038522832 -0.1638479 -0.10506849
-0.02042707 0.027092684 0.0061763558 -0.051173214 -0.10431139 0.05687838 -0.05064615 -0.09294252
-0.11697532 -0.038325436 -0.038488325 -0.100071765 0.03817123 -0.104385525 -0.10765084 -0.08380013
-0.02930256 -0.009818465 0.098105185 0.037150048 0.16501889 -0.049165376 0.16439222 0.00948305
-0.039222047 0.1083452 0.0060355053 0.055248953 0.15353887 -0.06454991 0.01686667 -0.12852384
-0.06837215 -0.058899328 0.16817339 0.17569678 0.0024759057 0.021370348 -0.0124460645 -0.13077651
0.0063332524 -0.14057565 0.044368062 0.093176655 0.070110574 -0.067386545 0.08118611 0.032509502
0.061394844 0.028797513 -0.037671417 -0.022534713 -0.03839212 -0.046286564 -0.109520346 -0.060858272
-0.082898065 -0.022783173 0.020369673 0.019643018 0.21907543 0.21691859 0.23303393 -0.19559242
-0.20335053 -0.060463123 -0.21499488 0.07730705 0.08601878 0.042132203 -0.08274853 -0.08188002
0.028686505 -0.026633412 -0.049518105 -4.0346124e-05 0.14804702 0.04010803 0.010501003 -0.03991157
0.08388312 -0.046363305 -0.046122923 0.062087268 -0.16792071 -0.15357548 -0.02133676 -0.08855145
0.035117764 -0.03560189 -0.022886721 0.0138072455 0.18408293 0.027068494 0.18963702 0.14175984
-0.09621114 -0.11110758 -0.039815787 0.044649094 -0.1019811 0.036492646 0.17062366 -0.12374375
0.004925491 0.037572987 -0.0012846336 -0.018657131 0.07978668 0.20979773 0.048179932 -0.007241676
0.11230313 0.09047467 -0.028260127 -0.02035665 -0.10293844 -0.16072766 0.025719471 0.023673993
-0.00841296 -0.030839514 -0.04349543 0.30379584 -0.19171366 0.011007478 0.04436094 -0.025059553
0.18375668 0.09113995 -0.0014195907 0.1545798 0.039133646 -0.082370564 0.039844163 -0.096090004
-0.007290248 0.024907697 -0.037387047 0.20569308 -0.048974816 -0.0107390545 -0.021291386 -0.08010524
-0.06897788 0.087730035 0.014458393 0.021174688 -0.031768393 0.0020578403 -0.03534451 -0.049401637
-0.044297874 0.014266413 -0.17999975 0.0010047574 0.005774363 -0.09393589 0.08313203 0.09266944
-0.07922636 0.055472206 -0.047832824 -0.01308292 0.011615665 0.03991745 -0.13322042 0.050104257
0.05090479 -0.0056169718 0.086776316 -0.08629998 0.070566006 0.1065021 -0.06450475 -0.055418544
-0.009943948 -0.0074450755 -0.0017782649 0.13705178 -0.07295841 -0.0448113 -0.03903117 0.016919352
-0.036953278 0.07722268 0.017037556 -0.047698632 0.0806592 -0.08461423 0.08717661 -0.08262072
0.1082631 0.028675498 0.13415113 -0.08720885 -0.12653127 -0.045193523 -0.058134757 -0.049501978
0.074016005 -0.010637068 -0.053475693 0.0592929 0.019934041 0.08890997 -0.0815205 0.022957344
00000000: 2672 8e3d 308a f9bc 7d78 9dbc c4d4 073e
00000010: c097 273e e960 e13c a780 9ebd 2626 193d
00000020: 263b b43d 9ba2 d03c f583 b2bc 02d7 9c3c
00000030: 1c39 8e3d ae1a 933d b1d0 a8bd 698e de3d
00000040: 11ad b0bd b5ca 6bbe f36c c7bc 001d 8abd
00000050: 4052 5cbd 370f 273a bd78 ed3d 4f62 f73c
00000060: b10e fb3d ab50 313c 0c40 f4bd 8339 813d
00000070: 64dd e13d 85c5 df3d cf12 2e3d 3fb4 443d
00000080: 4004 fabd 7d62 21bc 90c1 b43d 46cc b03c
00000090: 6c62 9abd f2f9 ffbd 5789 aa3d 6a45 0fbe
000000a0: 2926 0d3e 3f2d 8bbd 26e1 67bd 4379 d63d
000000b0: 6742 12bd 1eca 1d3d bec7 27be 262e d7bd
000000c0: ac56 a7bc 7af1 dd3c 0763 ca3b 019b 51bd
000000d0: 36a1 d5bd 4ef9 683d 5672 4fbd a658 bebd
000000e0: c290 efbd 22fb 1cbd efa5 1dbd 6df2 ccbd
000000f0: 7059 1c3d 14c8 d5bd 0b78 dcbd 679f abbd
00000100: ec0b f0bc a1dd 20bc 5feb c83d a62a 183d
00000110: b6fa 283e a261 49bd 6f56 283e cb5e 1b3c
00000120: 4ca7 20bd 17e4 dd3d 7dc5 c53b ba4c 623d
00000130: 4b39 1d3e be32 84bd f92b 8a3c c19b 03be
00000140: b306 8cbd 6c40 71bd a535 2c3e dbe9 333e
00000150: ce42 223b de10 af3c 94ea 4bbc 47ea 05be
00000160: 2c87 cf3b 10f3 0fbe 49bb 353d 67d3 be3d
00000170: 2296 8f3d f501 8abd e744 a63d af28 053d
00000180: 2979 7b3d c3e8 eb3c 584d 1abd b89a b8bc
00000190: 0e41 1dbd fb96 3dbd 344c e0bd 8646 79bd
000001a0: 76c6 a9bd c7a3 babc 4dde a63c 65ea a03c
000001b0: 4f55 603e e81f 5e3e 72a0 6e3e 6149 48be
000001c0: 1f3b 50be 2ea8 77bd 9e27 5cbe 2953 9e3d
000001d0: 9d2a b03d d192 2c3d 1078 a9bd b6b0 a7bd
000001e0: f6ff ea3c 502e dabc 7fd3 4abd 5239 29b8
000001f0: a399 173e 5148 243d 660c 2c3c 507a 23bd
00000200: eaca ab3d 73e7 3dbd 64eb 3cbd 384f 7e3d
00000210: 68f3 2bbe e442 1dbe 6eca aebc 765a b5bd
00000220: a5d7 0f3d 4ad3 11bd ef7c bbbc c937 623c
00000230: 3c80 3c3e bfbe dd3c 3530 423e 7e29 113e
00000240: 590a c5bd 5f8c e3bd e115 23bd f8e1 363d
00000250: 78db d0bd 5079 153d f8b7 2e3e 5d6d fdbd
00000260: 0366 a13b 22e6 193d 2761 a8ba d7d6 98bc
00000270: 3367 a33d 37d5 563e 5258 453d 954b edbb
00000280: 2fff e53d c94a b93d c881 e7bc fdc2 a6bc
00000290: 64d1 d2bd cb95 24be a4b1 d23c f6ef c13c
000002a0: 83d6 09bc 26a3 fcbc 4428 32bd 218b 9b3e
000002b0: 9650 44be b658 343c d1b3 353d b149 cdbc
000002c0: b62a 3c3e 95a7 ba3d 8f11 baba 2b4a 1e3e
000002d0: 9a4a 203d e6b1 a8bd a233 233d d6ca c4bd
000002e0: 08e3 eebb 3a0b cc3c 2923 19bd 35a1 523e
000002f0: d199 48bd dcf2 2fbc 466b aebc 370e a4bd
00000300: 4644 8dbd ceab b33d e5e2 6c3c 8a76 ad3c
00000310: 931f 02bd d5dc 063b 68c5 10bd 5f59 4abd
00000320: b071 35bd acbd 693c db51 38be 10b2 833a
00000330: de36 bd3b 7661 c0bd 2041 aa3d 7ac9 bd3d
00000340: 6e41 a2bd d336 633d 5aec 43bd be59 56bc
00000350: a14f 3e3c 7b80 233d ef6a 08be 1f3a 4d3d
00000360: 8b81 503d 930e b8bb c8b7 b13d 0bbe b0bd
00000370: e984 903d c61d da3d 111b 84bd 8efe 62bd
00000380: f1eb 22bc d2f5 f3bb ab14 e9ba 4d57 0c3e
00000390: 386b 95bd 0e8c 37bd 26df 1fbd 749a 8a3c
000003a0: 525c 17bd ed26 9e3d 5892 8b3c a45f 43bd
000003b0: a730 a53d 3a4a adbd a789 b23d 0d35 a9bd
000003c0: 0bb9 dd3d e1e8 ea3c ea5e 093e 8e9a b2bd
000003d0: 6a91 01be d81c 39bd b61e 6ebd 96c2 4abd
000003e0: b495 973d 1947 2ebc 5409 5bbd 1ddd 723d
000003f0: b74c a33c 6e16 b63d 38f4 a6bd 0a11 bc3c

network_body._body_endoder.seq_layers.2.bias f4 [128]
-0.005288042 0.0014028414 0.0034153454 0.0013683211 -0.0055327197 0.0013399498 0.005657818 -0.014082627
0.001159621 -0.0021828231 -0.003017479 0.0028190434 0.00018718085 0.010684877 -0.003775002 -0.0029573056
0.006902761 0.002742862 -0.0037931192 0.0021227617 0.00017732375 -0.0003404462 0.0017192323 0.0034580498
0.0028333468 0.0023939824 0.0009892342 -0.0034128944 0.0066877636 -0.002630502 0.0021900428 0.0012211985
0.0016100799 0.0025123723 0.005829352 0.008383288 0.0018152326 -0.00018450302 0.0021668116 -0.004410974
0.0023599272 -0.0014376012 0.009113295 0.0027248359 -0.0029723484 0.0016858906 -0.0037517329 -0.0024904362
-0.0024321442 -0.0068703596 -0.0026767103 -0.008228928 -0.0002229734 0.0023413429 0.0022351237 -0.0031107871
-0.0036525188 -0.001282429 0.002479579 -0.0074295057 0.00035375476 0.006180322 -0.00036897225 -0.0004883842
-0.003978049 -0.0026920442 -0.0042006164 0.0062087406 0.008423622 -0.0038659882 0.0020129397 -0.0075141704
0.005958604 -0.0064390698 0.0022426962 -0.0011605212 0.0071610278 -0.0028563482 -0.002070903 0.0047617923
-0.003171652 -0.014290713 0.008145549 0.003159284 -0.0013805842 0.0031036006 -0.0021931871 0.0066814823
0.0015359527 -0.00020220931 -0.0024694076 0.0014368261 0.00052338175 -0.00096877525 0.0015480336 -0.0022221848
0.002621092 -0.006062863 -0.0019911993 -0.002902301 -0.005961011 -0.0022741973 -0.0024830683 0.0025421376
-0.008221093 -0.0016022796 0.0009969386 0.008006941 4.5223394e-05 -0.0043963646 -0.003919747 -0.007656263
-0.0022149263 -0.00084046426 -0.0026722567 0.0027498766 0.0021457314 0.0017398248 -0.0010518931 0.00040015235
0.0029245003 0.0021322994 0.0020708067 0.00394134 -0.0072601577 -0.0023762088 -0.0031751264 -0.00018486826
00000000: 5047 adbb 8cdf b73a fdd3 5f3b 3d59 b33a
00000010: d14b b5bb 41a1 af3a 3865 b93b d2ba 66bc
00000020: 6dfe 973a b20d 0fbb e6c0 45bb b3bf 383b
00000030: fa45 4439 9f0f 2f3c 0666 77bb 5bcf 41bb
00000040: 8e30 e23b 97c1 333b fb95 78bb 081e 0b3b
00000050: fbef 3939 ea7d b2b9 dd57 e13a 73a0 623b
00000060: acaf 393b 5ce4 1c3b 31a9 813a deaa 5fbb
00000070: 0725 db3b 8064 2cbb d286 0f3b 9f10 a03a
00000080: 5109 d33a 9da6 243b 2604 bf3b 0f5a 093c
00000090: 19ed ed3a 2777 41b9 1101 0e3b ef89 90bb
000000a0: 02a9 1a3b e46d bcba ee4f 153c 2993 323b
000000b0: bbcb 42bb 1af9 dc3a a2df 75bb 9636 23bb
000000c0: 9c64 1fbb c120 e1bb bf6b 2fbb a0d2 06bc
000000d0: f7cd 69b9 3771 193b 277b 123b 59de 4bbb
000000e0: 195f 6fbb 2d17 a8ba 6f80 223b 3673 f3bb
000000f0: 2978 b939 4c84 ca3b 9e72 c1b9 e906 00ba
00000100: 4b5a 82bb 026d 30bb 53a5 89bb b172 cb3b
00000110: 3b03 0a3c 855c 7dbb 86eb 033b 6e39 f6bb
00000120: 6540 c33b d5fe d2bb 33fa 123b a11c 98ba
00000130: 0ea7 ea3b 9231 3bbb fdb7 07bb cf08 9c3b
00000140: 7edb 4fbb 9823 6abc e974 053c fd0b 4f3b
00000150: b8f4 b4ba c765 4b3b 93bb 0fbb 56f0 da3b
00000160: 0552 c93a 2608 54b9 c9d5 21bb e253 bc3a
00000170: 8e33 093a 68f5 7dba 63e7 ca3a 13a2 11bb
00000180: a0c6 2b3b fbaa c6bb c87e 02bb 8834 3ebb
00000190: 9654 c3bb b30a 15bb f9ba 22bb fe99 263b
000001a0: c3b1 06bc 9503 d2ba b5ab 823a 8b2f 033c
000001b0: 40ae 3d38 610f 90bb 3971 80bb 64e1 fabb
000001c0: 4c28 11bb 9a52 5cba 0721 2fbb 4637 343b
000001d0: 669f 0c3b d50a e43a addf 89ba 8acb d139
000001e0: f9a8 3f3b 0cbe 0b3b 5fb6 073b 5b26 813b
000001f0: 9ee6 edbb 2bba 1bbb c815 50bb 32d9 41b9

action_model._continuous_distribution.log_sigma f4 [1, 2]
-0.007378915 0.0011158059
00000000: d3ca f1bb 3c40 923a

action_model._continuous_distribution.mu.weight f4 [2, 128]
0.011871291 -0.0069023794 0.00770341 0.0025720624 0.0094813965 0.011531889 0.014427817 0.02057368
0.010640413 -0.011841639 -0.01389941 0.00016133541 -0.0076692826 0.0008040836 -0.004254443 -0.011647335
-0.01817628 -0.0057290606 0.0018972607 0.018723372 -0.009393711 -0.0410762 -0.004851581 0.029995363
-0.010272196 0.02593037 0.0025833983 -0.016790858 0.0020342125 -0.0038362348 0.021675924 -0.03881251
0.023347752 -0.002527488 0.011246485 -0.012075977 0.032272145 -0.019321648 -0.014220343 -0.023852153
-0.014340931 0.0044553014 0.00021450345 0.02097249 -0.015693242 -0.0018043657 -0.017398445 -0.0069138724
-0.0017833142 -0.006772417 0.00865922 0.00568383 0.005045381 0.019772572 0.014154314 -0.012113906
-0.013352345 -0.0150456205 0.014458039 -0.0052674282 -0.021193502 -0.039209638 -0.020880034 0.0096786665
-0.0072268783 -0.0017828989 -0.01214666 -0.023309715 0.00784601 -0.0007313742 0.004303086 0.010850994
-0.0010567012 0.00017383383 0.029355971 -0.031904526 -0.016354123 -0.048112307 -0.0083777215 0.017722746
0.0021093015 0.0011838807 0.015345477 0.011759851 0.016135508 0.009794107 -0.049987778 0.01173091
0.013752711 -0.0002759036 -0.008976159 0.008703499 -0.030967744 0.02266329 0.03634593 -0.012186748
-0.008947885 -0.009281836 0.0055612177 -0.010263586 0.015675507 -0.023937998 0.026862718 0.029365249
-0.014976632 0.010259095 0.05170384 -0.012038862 0.015499889 0.005508652 -0.057704445 -0.00866423
-0.002848815 -0.05238237 0.030320847 0.030487277 0.01486039 0.023453949 -0.021275707 0.0048299637
0.006339225 0.00055577315 -0.027253347 0.010564944 -0.009056117 -0.04069879 -0.008501409 -0.012456775
0.0254578 -0.024472732 0.01786905 -0.0047384067 -0.0017820665 -0.026866328 -0.022001773 0.010759517
0.0032940474 0.013301696 -0.022225354 0.02148691 -0.024691772 0.023826215 0.007212508 0.009860993
-0.035807833 -0.027140623 0.0051566055 -0.024229966 0.028278995 -0.018607236 -0.013795313 -0.029473906
-0.030563125 -0.014418203 0.0026046033 0.00092627475 -0.014635347 0.025630934 -0.034400545 0.005016177
-0.015140041 -0.013237444 -0.021723276 -0.0019498804 0.014508794 0.0037458735 -0.04584882 0.008793057
0.030632095 0.010684971 -0.030810889 -0.010147366 0.015524814 -0.007973806 0.0012137725 -0.0068742605
0.023417503 0.004887744 -0.0010320378 -0.023806192 0.021553934 -0.01997687 -0.019627674 0.010456613
0.01609271 0.018586392 -0.0022926424 0.01425856 -0.0128253605 -0.024193885 0.009187384 0.023433661
0.009366674 -0.01081529 -0.00043790857 0.019384818 0.01616183 0.006122257 -0.029502252 -0.010502695
-0.020697983 0.015997576 -0.0126422085 -0.009234114 0.037764676 0.021631815 0.027749034 -0.013038444
0.015656712 -0.0042371377 0.032664653 -0.020171208 0.011900564 0.017479202 0.005524002 0.012506205
-0.032098845 -0.037115533 0.01985855 -0.018367607 0.012766721 0.023575153 -0.010089336 -0.006825246
0.034885935 -0.01226887 -0.0015964397 0.0032520392 0.0004836414 0.026492346 0.025136953 -0.0050406503
0.017097356 0.011880069 -0.0018755808 -0.02317903 -0.0008944301 0.0069824643 -0.03987087 0.03204076
0.022045119 0.007994213 -0.0038685899 0.0070727486 -0.018704198 -0.012373194 -0.023015747 -0.009639612
-0.028394567 -0.02407542 -0.04069811 -0.022969367 -0.024713947 0.011287725 -0.007875284 0.022570517
00000000: ce7f 423c 5b2d e2bb e36c fc3b 0c90 283b
00000010: dc57 1b3c 40f0 3c3c a762 6c3c 228a a83c
00000020: 2055 2e3c 6f03 42bc 5aba 63bc 252c 2939
00000030: 9b4e fbbb 23c9 523a db68 8bbb 77d4 3ebc
00000040: 6ce6 94bc d8ba bbbb 81ad f83a c261 993c
00000050: 14e8 19bc 843f 28bd 03fa 9ebb d6b8 f53c
00000060: b64c 28bc ed6b d43c 3b4e 293b fb8c 89bc
00000070: 6c50 053b 5769 7bbb b591 b13c def9 1ebd
00000080: c943 bf3c 36a4 25bb 2d43 383c 52da 45bc
00000090: cc2f 043d 6f48 9ebc 71fc 68bc 9765 c3bc
000000a0: 39f6 6abc c7fd 913b 55ec 6039 80ce ab3c
000000b0: 1d8f 80bc 7780 ecba 2f87 8ebc c48d e2bb
000000c0: 18be e9ba 27eb ddbb 67df 0d3c 6c3f ba3b
000000d0: b953 a53b 17fa a13c 7fe7 673c 6879 46bc
000000e0: cbc3 5abc e881 76bc 69e1 6c3c 649a acbb
000000f0: ff9d adbc 499a 20bd 9b0c abbc 4593 1e3c
00000100: 73cf ecbb 29b0 e9ba c902 47bc 04f4 bebc
00000110: 8d8c 003c b1b9 3fba e700 8d3b 5ec8 313c
00000120: 0281 8aba 2a47 3639 ef7b f03c 52ae 02bd
00000130: 15f9 85bc 6911 45bd b642 09bc 4b2f 913c
00000140: 353c 0a3b 722c 9b3a 986b 7b3c 64ac 403c
00000150: 9d2e 843c 7677 203c fcbf 4cbd 0133 403c
00000160: 0d53 613c 28a7 90b9 bd10 13bc 1f99 0e3c
00000170: 11b0 fdbc 5da8 b93c 78df 143d edaa 47bc
00000180: 269a 12bc d812 18bc e03a b63b 9a28 28bc
00000190: ec69 803c 9f19 c4bc 340f dc3c 648f f03c
000001a0: 8c60 75bc c315 283c 68c7 533d a63e 45bc
000001b0: 3ff3 7d3c ec81 b43b 7f5b 6cbd 6af4 0dbc
000001c0: 2fb3 3abb e58e 56bd 6d63 f83c 74c0 f93c
000001d0: fe78 733c 7f22 c03c 644a aebc ac44 9e3b
000001e0: 46b9 cf3b 4eb1 113a 6942 dfbc 9618 2d3c
000001f0: 1c60 14bc c6b3 26bd 7e49 0bbc 8017 4cbc
00000200: e08c d03c 0a7b c8bc 1d62 923c a344 9bbb
00000210: 3b94 e9ba c616 dcbc 103d b4bc af48 303c
00000220: f2e0 573b 5bef 593c f211 b6bc 5105 b03c
00000230: 6646 cabc 322f c33c e756 ec3b 0190 213c
00000240: 3cab 12bd 0356 debc bef8 a83b ec7d c6bc
00000250: 5aa9 e73c 346e 98bc bd05 62bc 4373 f1bc
00000260: 855f fabc 543a 6cbc feb1 2a3b 3fd1 723a
00000270: 18c9 6fbc f7f7 d13c 96e7 0cbd be5e a43b
00000280: ef0d 78bc dde1 58bc 03f5 b1bc 2193 ffba
00000290: 4bb6 6d3c 547d 753b f9cb 3bbd c110 103c
000002a0: 29f0 fa3c 0410 2f3c 1e67 fcbc 2341 26bc
000002b0: ca5b 7e3c 91a4 02bc 7217 9f3a 7a41 e1bb
000002c0: 10d6 bf3c 5e29 a03b 7145 87ba 3405 c3bc
000002d0: e091 b03c 88a6 a3bc 37ca a0bc 3752 2b3c
000002e0: dcd4 833c 7d42 983c 2840 16bb bc9c 693c
000002f0: 7621 52bc 4132 c6bc ae86 163c f3f7 bf3c
00000300: ae76 193c 9d32 31bc 1897 e5b9 e9cc 9e3c
00000310: d065 843c 379d c83b b5ae f1bc 7f13 2cbc
00000320: d18e a9bc 590d 833c 4421 4fbc ae4a 17bc
00000330: 22af 1a3d 3435 b13c f151 e33c 339f 55bc
00000340: 8142 803c b0d7 8abb 5fcb 053d 173e a5bc
00000350: 95fa 423c 8b30 8f3c b002 b53b d3e6 4c3c
00000360: 147a 03bd 7506 18bd 66ae a23c aa77 96bc
00000370: 822b 513c ae20 c13c be4d 25bc 50a6 dfbb
00000380: 8ee4 0e3d 5f03 49bc a13f d1ba 2a20 553b
00000390: 4091 fd39 7a06 d93c 03ec cd3c 0a2c a5bb
000003a0: c10f 8c3c 9fa4 423c 0cd6 f5ba f3e1 bdbc
000003b0: 3078 6aba 28cd e43b a34f 23bd 2c3d 033d
000003c0: f797 b43c 29fa 023c 2b88 7dbb 84c2 e73b
000003d0: 8c39 99bc f0b8 4abc 858b bcbc 77ef 1dbc
000003e0: b99b e8bc d139 c5bc 10b3 26bd 412a bcbc
000003f0: e774 cabc 26f0 383c 5607 01bc cee5 b83c

action_model._continuous_distribution.mu.bias f4 [2]
0.0028147695 -0.001837888
00000000: ff77 383b 4ae5 f0ba
