3D/results/MoveToGoal3/MoveToGoal/checkpoint.pt (torch, 442210 bytes, 36 tensors)

network_body._body_endoder.seq_layers.0.weight f4 [128, 6]
000000 bb ec 75 bf ea c2 0c bf dc b2 da 3e 84 38 e2 be
       -0.9606435 -0.54984915 0.42714584 -0.44183743
000010 1c 3f 89 be 6b 26 83 bd 77 ff 34 bf 31 ac be bb
       -0.2680596 -0.06403812 -0.7070231 -0.0058188667
000020 b7 97 7f be 28 53 20 bf f5 29 f7 be 41 2e 05 3e
       -0.24960218 -0.62626886 -0.48274198 0.13005926
000030 f6 9c 3e bd 49 26 21 be 26 63 27 be d3 1b 69 be
       -0.04653641 -0.15737261 -0.16346416 -0.2276452
000040 f2 55 1f 3e c9 0e ff 3e 8d de 1c 3e d1 7b ff bd
       0.1556013 0.49815968 0.15319271 -0.12474788
000050 3a a9 76 3e 72 7c f1 be 7c 1b 12 be 35 da 0d bf
       0.24087992 -0.47165257 -0.14268297 -0.5541108
000060 0d 9e 91 3f 18 c8 73 be 9c 39 46 3e 8a d3 f4 3d
       1.1376358 -0.23806798 0.19357914 0.119544104
000070 9e 14 d2 be f4 87 cd bc 57 b9 85 be bf 0e 3e 3f
       -0.41031355 -0.025089242 -0.26117966 0.7424125
000080 3a e9 94 bd 23 4a 67 3e b2 ad 80 3e c5 61 a7 be
       -0.07271047 0.22586875 0.2513252 -0.3269178
000090 9d 6a 95 3d 88 ee 66 3f ec ae ae be c6 c1 11 bf
       0.072957255 0.9020772 -0.3411783 -0.569363
0000a0 f8 66 ae 3e 74 57 f3 3e 50 40 22 3f 27 c8 b4 be
       0.34062934 0.4752766 0.63379383 -0.35308954
0000b0 ae b5 3e be 8d 44 33 be 6e 66 33 be 02 20 68 3e
       -0.18623993 -0.17506619 -0.17519543 0.2266846
0000c0 af d6 95 3e 9c c2 a3 3e c5 de 38 be a5 bf 9c bd
       0.29265353 0.31984413 -0.1805373 -0.07653741
0000d0 5c 6d 8f be f0 89 9c 3d 93 08 df 3d 88 d4 9c 3e
       -0.28013122 0.07643497 0.10890307 0.30630898
0000e0 66 39 84 3e 9f 21 01 bf c3 6c 49 bf 49 9b 3c be
       0.25825042 -0.50441927 -0.7868158 -0.18418612
0000f0 99 c5 cb 3e d6 3f e6 be 91 45 05 3f 6a c2 91 bd
       0.39799193 -0.44970578 0.52059275 -0.0711716
000100 64 89 e7 3d a9 63 0c 3f 11 3d 15 3e 53 25 8f 3e
       0.11305502 0.5483957 0.14574076 0.27958164
000110 69 50 d4 3e bb f9 83 bf 4e d4 53 3e 67 ee 4a be
       0.41467598 -1.0310587 0.20686457 -0.19817506
000120 ee 5c 98 3e 98 c5 5a be 00 85 52 3f 45 66 03 bd
       0.297584 -0.21364439 0.8223419 -0.032079954
000130 98 fd fa bd 22 c4 07 3e 5d 4c 30 bf 88 73 39 be
       -0.122554004 0.13258412 -0.6886652 -0.18110478
000140 af 39 13 bd 7e 4c c1 be ae 74 39 be 2c 8f 7d 3e
       -0.035943683 -0.3775367 -0.18110916 0.24761647
000150 c4 ce c1 3e b1 77 07 be a7 38 e1 3e fe 73 3a 3f
       0.37853062 -0.13229252 0.43988535 0.7283324
000160 be 19 8d 3e 1f 9e fd be b1 59 55 bd e5 c9 e2 3e
       0.27558702 -0.495347 -0.05208749 0.44294658
000170 99 6b 57 3d 0a f1 32 bf f8 23 e8 3c 11 37 25 3e
       0.052592847 -0.69899046 0.028337464 0.16134287
000180 b3 32 d0 3e bb f8 44 be ac f9 ba 3d fc ad a9 3f
       0.4066368 -0.19235508 0.091296524 1.3256221
000190 52 d1 93 bd 66 7b e7 3e b5 9a ff 3e 4b 7f a6 3d
       -0.07217659 0.45211333 0.4992272 0.08129748
0001a0 24 64 cf be c5 40 d5 bc c8 70 2a be 6d 47 aa bc
       -0.4050609 -0.026031861 -0.16644585 -0.020786012
0001b0 01 c5 13 bf 2d 6c 9c 3e 34 91 1d 3f 42 cf 88 be
       -0.5772248 0.30551282 0.6154969 -0.26720625
0001c0 b2 8d 4f 3f 0d e9 79 be 71 4b 82 3e 8b 3a a7 3d
       0.81075585 -0.24405308 0.25448182 0.08165463
0001d0 ff 3d d9 be 23 06 22 3d ac a0 26 3e 01 41 fa 3d
       -0.42430112 0.039556634 0.16272229 0.1221943
0001e0 a3 68 9c bd f2 7d 1d 3f 08 bb 97 be 17 af b6 be
       -0.07637145 0.615203 -0.2963488 -0.35680458
0001f0 cb b1 dd bd 49 76 51 3f 00 b8 86 3e 6f a1 e7 bd
       -0.10824927 0.81821114 0.26312256 -0.11310088
000200 72 b8 f7 be 16 2e 4a 3f 9a 65 41 be 07 67 f5 3e
       -0.48382908 0.7897657 -0.18886414 0.47930166
000210 47 54 8a 3d 16 77 13 3e dd 98 9b 3e a8 6c 21 3f
       0.06754356 0.14400896 0.30390063 0.6305642
000220 1e 1f e9 3e 97 94 75 be a1 e3 35 3e 06 c8 8d be
       0.45531553 -0.23982464 0.17762615 -0.27691668
000230 3e fa 67 3d 51 e3 a8 3e 25 34 ff be 37 b4 11 3e
       0.056635134 0.3298593 -0.4984447 0.14228903
000240 e0 62 06 3f 90 38 d1 3e 1e 02 d7 bd d2 3b 50 3d
       0.5249462 0.40863466 -0.10498451 0.0508383
000250 1c 16 b7 3e ed da 9d be 6d 74 1d 3e ed be 06 be
       0.35759056 -0.3083109 0.15376444 -0.1315877
000260 5a ef da bd b3 12 26 3f a3 e0 a4 3d 15 28 d8 3e
       -0.10690184 0.6487228 0.080506586 0.4221808
000270 49 43 8a be 3e 4b 48 3e 0f 9a 51 be 23 12 b8 3e
       -0.2700446 0.19559953 -0.20468925 0.35951337
000280 02 2c 0a bf 30 8d aa bd 4b 58 bb 3c a7 9b 27 bf
       -0.539734 -0.08327711 0.02286925 -0.6547188
000290 bb 1d d8 be c0 10 05 3e b2 c2 62 be a3 9a b8 3d
       -0.42210183 0.12994671 -0.22144583 0.090138696
0002a0 96 aa 3f 3f 41 5e 28 3e 21 47 a2 3d 55 4e 5b be
       0.7486967 0.16442205 0.07923723 -0.214166
0002b0 7f 7a 3f be df c9 61 3e 72 ee 19 bf 30 8b 04 bf
       -0.18699072 0.22049664 -0.60129464 -0.51774883
0002c0 5b 84 ae be 67 a8 12 be ce d1 67 3e 40 4e 0a 3e
       -0.34085354 -0.14322053 0.22638628 0.13506413
0002d0 58 eb 41 3e fa ce a4 3f 64 0a bb be 7f 48 d4 3e
       0.18937433 1.2875664 -0.36531365 0.4146156
0002e0 d8 dd 05 3f a6 f4 ff 3e 37 f4 19 3f 26 47 c8 3e
       0.5229163 0.4999134 0.6013827 0.39116782
0002f0 ae af 74 3e c0 9b a6 be a9 ed cb 3c 19 c7 87 be
       0.23895141 -0.32540703 0.024893599 -0.26519087
000300 1a 42 be 3e 76 d5 11 3f 45 39 96 be 41 ab ac 3e
       0.37159806 0.5696634 -0.29340568 0.33724406
000310 d2 9e 76 be 6f eb 38 3e 91 9d 20 3f 2a d6 b9 be
       -0.24084023 0.18058561 0.6274043 -0.36296207
000320 86 3a 98 bf 46 bf a6 bb 0c a6 81 be 07 f1 82 3e
       -1.189286 -0.0050887195 -0.25321996 0.25574514
000330 e1 e5 04 3f bc 0d 43 3f d3 3d c9 be bf 47 81 bf
       0.5191327 0.7619283 -0.3930498 -1.010002
000340 c8 2a cc be db ca 41 3d 11 7b 4b bf 00 e7 ec 3e
       -0.3987639 0.0473126 -0.7948466 0.4626999
000350 6d bb bc bd 94 2b 20 bc ba 1d fd 3e 31 af fc 3e
       -0.09215436 -0.009776015 0.49436742 0.4935241
000360 48 cb 08 3f 1c 63 8b 3e 24 e2 47 be 5e bd aa bc
       0.5343518 0.27224052 -0.1951986 -0.02084225
000370 6c 0f 88 bd 10 9d 50 bd f0 64 0e 3f ff 3d 70 3e
       -0.066435665 -0.050931036 0.5562277 0.2346115
000380 52 2c 45 be fc 4f 01 bf f0 4c fd 3e a4 90 0f 3e
       -0.19255188 -0.5051267 0.4947276 0.1402002
000390 42 08 46 bf 0c 72 e6 3e 06 c9 c2 3d f7 e6 a4 3e
       -0.7735635 0.45008886 0.095109984 0.32207462
0003a0 1d cb ff 3e 0f 5d 55 be 7c 18 1b 3f ad 14 2c be
       0.4995965 -0.2083628 0.60584235 -0.16804762
0003b0 10 7b e9 bd 2f f1 87 bc 99 7e f8 be ca b5 11 bf
       -0.114004254 -0.016594497 -0.48534086 -0.56918013
0003c0 d3 cc c0 3e ac 1e 86 be 41 5a 0d be 08 a5 a3 be
       0.37656268 -0.26195276 -0.1380396 -0.31961846
0003d0 d4 c9 cf bd da 61 f8 3d 87 3d a6 be 0f 46 8a be
       -0.101459175 0.12128039 -0.32468817 -0.27006575
0003e0 ba 86 a1 3d 5f a0 f1 3e f1 b4 ec be e9 2e 38 be
       0.07887025 0.47192666 -0.46231797 -0.17986645
0003f0 53 22 29 3e 7e 60 87 bf 71 ff 1d 3e 4d 9d 04 3d
       0.16517 -1.0576322 0.15429474 0.032376576

network_body._body_endoder.seq_layers.0.bias f4 [128]
000000 90 b0 88 3c dc 9f 9c 3a 2b 83 4b 3b 9b 53 3f bc
       0.016685754 0.0011949497 0.0031053524 -0.011677648
000010 0c 00 ec bc dc 02 99 3c f1 4b ab 3b cc 0c a3 3c
       -0.028808616 0.018678121 0.005227559 0.019903563
000020 c8 f6 99 3b 1f b6 fb 3b 52 d4 55 3b 33 de 93 3c
       0.004698608 0.0076816226 0.0032627773 0.018050289
000030 82 4d 03 3d 02 14 26 3c 89 22 8c 3c 34 b2 d9 b9
       0.03205634 0.010136606 0.017106311 -0.00041522237
000040 b8 74 11 39 a8 8b e3 bb d6 4e 93 3a af 4b 4a 3c
       0.00013871759 -0.0069441386 0.0011238705 0.012347146
000050 79 0c 64 bb ea e1 f4 3b bf fb 83 3b 03 3f 6d bc
       -0.0034797473 0.00747322 0.004027813 -0.014480355
000060 6f 9a 1a 3d ab cc 40 3c 28 9b 91 3c 59 15 3e 3c
       0.037744936 0.011767547 0.01777418 0.011601769
000070 df 74 db 3c df b0 0b 3c 04 36 96 3a 74 2d cc bb
       0.026789127 0.008526056 0.001146019 -0.0062310044
000080 07 aa 9d 3c 32 f5 0d 3d 05 fd 83 3c be ba 03 3a
       0.019246114 0.034657665 0.01611186 0.000502508
000090 50 61 c3 bb e6 c9 fa 3a 1f c3 77 3b e3 cc fc 3b
       -0.0059625283 0.0019133657 0.003780551 0.007714854
0000a0 6c 63 3f 3c b8 67 8e 3c 30 c4 23 bc a2 8e fb 3c
       0.011681419 0.017383441 -0.009995505 0.030707661
0000b0 4b 1e 70 3c 5c d0 f5 3b 4c 73 4b 3c 47 2f 40 3b
       0.01465566 0.007501645 0.012417626 0.0029325054
0000c0 72 1d 34 3c de af 8e bb b1 92 b6 3b 80 6f fa 3a
       0.010993348 -0.004354461 0.005571686 0.0019106716
0000d0 be 30 02 bc 2c 26 84 3c 0d a6 f4 3c ae 0f eb bc
       -0.007946191 0.016131483 0.029864335 -0.028694
0000e0 84 7e 74 b9 46 2b 6f 3c 1b ec 98 3a 9c 3f 90 3b
       -0.00023316784 0.01459772 0.0011667045 0.004402114
0000f0 ef bd 5f 3b bd 05 af 3b e0 79 70 bc 76 45 07 3c
       0.003414031 0.00534126 -0.014677495 0.008256307
000100 3d 91 bb 3b 0f ae 5d 3b af d1 61 3c cc 67 ec bb
       0.005724101 0.003382567 0.013782903 -0.007214522
000110 a0 bb 73 3c a0 dc 5d 3b d8 f5 48 bc 9a 0a c6 bb
       0.014876276 0.0033853427 -0.012265645 -0.0060437443
000120 2e 0d c5 3c ce 19 6e bb 1e 57 33 3d 01 0a fe 3b
       0.024054136 -0.0036331299 0.043784253 0.0077526574
000130 b9 33 01 3b da 15 f1 3b 19 9f 1d 3c f9 97 68 3c
       0.0019714667 0.0073573412 0.009620451 0.014196389
000140 6d c2 ad bc 03 0a e1 3b 42 3c 22 bc 57 60 10 bc
       -0.021210873 0.0068676486 -0.009902062 -0.008812032
000150 63 f8 63 b9 a7 51 9c bb 63 f3 21 3d 25 a2 29 3c
       -0.00021740938 -0.004770476 0.039538752 0.0103536
000160 7f 27 86 3c 9b b0 83 3b 82 28 42 3c 76 0a 84 3b
       0.016376255 0.0040188557 0.011850478 0.0040295674
000170 a5 af b8 bc 19 1e ba 3c 24 e8 04 bd c6 dc d0 3b
       -0.022544691 0.02271943 -0.03244795 0.0063739745
000180 73 d2 86 3b d9 6b d2 3c 76 f9 28 3b f0 f8 f7 bb
       0.004114443 0.025686191 0.0025783456 -0.0075675175
000190 29 19 e6 3b 63 b8 12 bc 1d 82 3b 3c e8 a9 91 bc
       0.0070220423 -0.008955094 0.011444596 -0.017781213
0001a0 68 77 13 bc 58 a8 e3 bb 5d 28 03 bc e2 b0 2e 3c
       -0.009000637 -0.0069475584 -0.008005229 0.010662289
0001b0 d6 77 19 bd e5 e9 d6 bb d1 4b 81 bb d8 66 c6 3b
       -0.0374678 -0.006558644 -0.0039458056 0.0060547404
0001c0 a4 c0 92 3c ea 24 ad 3a ce f2 d0 3b af f5 37 3c
       0.017914124 0.0013209854 0.006376601 0.011228009
0001d0 fe 46 ac 3c b5 c0 01 bc 92 e0 8a 3b ac ba 21 3c
       0.021029945 -0.00791948 0.0042381966 0.009871166
0001e0 8b 4a 5e 3c 5c c6 00 b9 8e ab 78 bc 55 43 87 ba
       0.013567577 -0.00012280926 -0.015177621 -0.0010319749
0001f0 e1 1f 0f bc e1 86 60 bc 5d 0a 5f 3b 05 98 87 3b
       -0.008735628 -0.013704033 0.0034033277 0.004137995

network_body._body_endoder.seq_layers.2.weight f4 [128, 128]
000000 5a 0d bb bd 91 b4 57 bd f3 68 16 3e ea 30 35 bc
       -0.09133406 -0.052662436 0.14688472 -0.011059025
000010 b8 05 8b bd 6c a1 8c bd 1a 1c 18 be 38 1c 15 3e
       -0.067882 -0.06866726 -0.1485447 0.14561546
000020 30 ba 93 3d 02 b6 f4 3c 0a 2f 02 be 9a f7 49 3c
       0.07213247 0.029871944 -0.12713256 0.012327099
000030 a0 21 47 3d ac ee 04 bd 1a ea 4e 3d 91 85 11 bd
       0.04861605 -0.032454178 0.050516225 -0.03552777
000040 e2 16 89 3d fd 4b 83 3d 72 c7 3b 3d f5 29 01 bd
       0.06693818 0.06410978 0.045844503 -0.031534154
000050 43 17 0d 3e e9 58 e6 bd 68 f0 97 bd 9b 41 50 be
       0.13778405 -0.11247427 -0.07418901 -0.20337527
000060 50 63 12 3e cf 27 8c 3d 35 9d a2 3d 2c 49 49 3d
       0.14295697 0.068435304 0.07940141 0.049142048
000070 2c 55 09 3e de be 05 be 19 77 2a bd 8c c7 89 3d
       0.13411397 -0.13061091 -0.041617487 0.06727514
000080 1f 5e 9f bd 70 f9 8e 3d 98 24 4a 3d a1 9f 34 3e
       -0.07781624 0.0698117 0.049351305 0.17639019
000090 a2 35 02 bd 18 d6 05 3e dc de 35 bb 86 5a 1b 3e
       -0.03178943 0.13069952 -0.0027751243 0.1517125
0000a0 af 0c cd 3d 08 dc b3 3d b5 ba 50 3d 34 9c 1b bd
       0.10012185 0.08782202 0.050959308 -0.037990764
0000b0 86 fc 79 3e 49 94 dc bd 0f 3b d2 bd 3d c2 c3 bd
       0.24412736 -0.10770471 -0.10265171 -0.095585324
0000c0 05 84 bb 3b 19 20 5b be 9d 02 45 bd a5 15 4d bd
       0.005722525 -0.21398963 -0.048098195 -0.05006947
0000d0 2c e4 fa 3d 52 13 a3 bd 6d a4 eb bd 4c 2a a7 bc
       0.122505516 -0.079626694 -0.11505971 -0.02040591
0000e0 32 21 3f bd 00 b6 9f bd 9f 63 31 be c7 fc 88 bc
       -0.046662517 -0.077983856 -0.17323159 -0.016722096
0000f0 54 01 9f bd d7 75 1b 3e 01 2a 46 3e e7 50 72 3b
       -0.07763925 0.15181671 0.1935196 0.003697449
000100 56 09 15 be 4e 94 af bd ca 8c 32 3d 50 4e a2 bc
       -0.14554343 -0.08573209 0.0435913 -0.019812733
000110 24 6f 89 3c 89 1b 12 be 09 23 c5 3d a7 9a 5a 3b
       0.016776629 -0.14268316 0.09625823 0.003335634
000120 4d 81 c3 bd c8 35 16 3c 6a 86 db ba 21 0c de bd
       -0.095461465 0.009168096 -0.0016748433 -0.10842157
000130 b8 1d 31 3e 3c 4a 26 be ac 84 99 3d e3 48 f3 3c
       0.17296493 -0.16239256 0.07496008 0.029697841
000140 d2 b1 46 3d 98 71 6d bc ea ad cf 3c a0 63 36 bd
       0.048509426 -0.014492415 0.025351483 -0.044528604
000150 0d 4e 16 be 9e 59 f2 bd 1b f1 43 3d 07 cf 05 be
       -0.14678212 -0.11833499 0.047837358 -0.13067256
000160 42 cf 40 bd c0 a2 81 bd 98 b2 6d 3d ad f9 8c 3d
       -0.047072656 -0.0632987 0.05803165 0.068835594
000170 0c 84 3e 3c 7b ab bb 3d 9b 81 86 3d ec a4 61 be
       0.011628162 0.09163567 0.06567689 -0.22035569
000180 9b 26 03 3e e2 3c 38 bd c3 d4 33 bd 16 e7 c1 3c
       0.12807696 -0.044979937 -0.043904077 0.02366976
000190 6e c7 cf 3c c4 b4 14 bc 51 75 ed 3c 23 99 af 3d
       0.02536365 -0.009076301 0.028986605 0.085741304
0001a0 4c 93 1b be 4f 29 87 3d 9b 30 50 3c 40 42 b4 3d
       -0.15192908 0.06599676 0.012706901 0.08801699
0001b0 e7 2b 5b 3e 4c 50 8e 3d 40 c4 c8 3c f1 40 fc bc
       0.21403466 0.06948909 0.024507642 -0.030792685
0001c0 93 c5 96 3c f4 5a 7d be 6a 72 10 be 26 55 d9 bc
       0.018404758 -0.24741727 -0.14106146 -0.02652986
0001d0 44 5e 84 3d 16 b7 82 3d fc ef 29 3d 45 fa a5 3c
       0.06463292 0.06382577 0.041488633 0.02026094
0001e0 3f db d1 3d f3 5e 7a bd 94 0c d4 3d 11 cd 8c bd
       0.10246896 -0.061125707 0.103539616 -0.06875051
0001f0 8f 24 43 bc 9b b2 11 3d bd 22 d4 3c 6d 89 20 be
       -0.011910572 0.035570722 0.02589547 -0.15677424
000200 8b 0d 10 3e c5 4d fc bd 4f 02 c6 3d 32 16 e9 bc
       0.14067666 -0.12319521 0.09668409 -0.028452966
000210 43 7f a0 3c a6 a5 83 bd f4 e3 33 3c 04 f0 b9 bc
       0.019591933 -0.06428079 0.010979641 -0.022697456
000220 eb 0a c9 3d 93 94 05 3e 77 79 88 3d 0a 26 a4 3d
       0.098165356 0.13044958 0.066637926 0.08015068
000230 91 d4 63 3e 09 16 09 3c 9f 81 1a bd 31 77 9c bd
       0.22249056 0.00836707 -0.037721273 -0.076399215
000240 fc ad c9 3d ab 7a 19 bd 11 08 85 3b 0a 55 1b 3b
       0.09847638 -0.0374705 0.0040597995 0.002370181
000250 e0 f8 03 bd ff 7b 8f 3d f3 44 20 3e fe 3e 6f bd
       -0.032219768 0.07006072 0.15651302 -0.058409683
000260 89 99 03 be f8 e9 0e bd c3 3a 8b 3d 83 31 00 be
       -0.12851538 -0.0348911 0.06798317 -0.12518887
000270 39 e3 ea bb a4 de 1f 3e 7b 0c 03 bd 3c f6 03 be
       -0.0071682003 0.15612274 -0.031994324 -0.128869
000280 4d f1 52 3d 72 0c 92 bd 80 17 df 3d 28 e1 0d 3d
       0.051499654 -0.0713128 0.10893154 0.034638554
000290 2b ff 99 bd 35 fa f2 bd 6c 6a 2b 3e c9 f7 cc 3c
       -0.075193726 -0.118641295 0.16739815 0.025020497
0002a0 ed 46 cf 3c 68 70 b7 3c d6 32 39 bd ef e7 2c be
       0.025302375 0.022392467 -0.045214497 -0.1688535
0002b0 4d 09 a0 3c 84 16 ff 3d 79 4f 81 3d 36 e5 20 3d
       0.019535685 0.124554664 0.06313986 0.039281093
0002c0 50 37 0b 3b 5b c1 5f bd c6 7c 51 3d 2f 94 cd 3d
       0.0021242686 -0.054627758 0.051144384 0.100380294
0002d0 94 e5 cb 3b 49 0f 35 3c 67 3a ed bc f3 5e 32 3d
       0.006222436 0.011051008 -0.028958512 0.043547582
0002e0 06 8b ab 3d 34 cf 0b 3c 4e 67 f9 3c ff c9 43 3d
       0.08376126 0.008533288 0.030444767 0.04780006
0002f0 1f 88 3b 3e aa fe 29 3c 40 5f 9e 3c ab fd 19 3d
       0.18313645 0.010375658 0.019332528 0.037595432
000300 75 67 1d 3c af 6e ff bb 3c f2 f2 3b 97 d4 37 3c
       0.009607186 -0.007795177 0.0074141305 0.011220119
000310 89 a5 22 bd c1 55 af 3c 13 23 07 3d 2e 2b 3d 3e
       -0.039708648 0.021403195 0.032992434 0.18473503
000320 7a a9 59 3d 67 51 fc bc 6e 59 ca bc e2 23 3c bd
       0.05314014 -0.030800534 -0.024700847 -0.045932658
000330 35 ab 75 3d 87 53 aa 3d 72 05 a1 bd 35 32 18 3e
       0.05997773 0.08316713 -0.07862367 0.14862902
000340 b3 cc af 3d 13 d0 ba 3d 6c 83 8a bc d4 e9 7e 3d
       0.08583965 0.09121718 -0.01690837 0.062234715
000350 4f 8e cd bd ba c7 09 3d 2e cc 5a 3e 5c 89 6e bc
       -0.10036909 0.03363774 0.21366951 -0.014559116
000360 8b 5c 05 3d be 03 ec bd 75 b4 40 be 40 02 fb 3d
       0.03255896 -0.11524151 -0.18818839 0.122562885
000370 ae 21 9c bd b3 8b 03 be 85 88 e2 3d 18 29 ea bd
       -0.076236114 -0.1284626 0.11061195 -0.11433619
000380 c7 7a da bd 0d bf ed bd 46 fe 29 3e 9b ed 8f 3d
       -0.10667949 -0.11608706 0.16600904 0.070277415
000390 3a 21 b7 ba 3a fd 83 bd a4 ee d0 3d 75 d7 85 bd
       -0.0013971694 -0.064447835 0.10201767 -0.06535236
0003a0 09 34 92 bc 8c 7d 99 3d d8 e6 9e bd 22 c0 87 3d
       -0.017847078 0.07494649 -0.07758874 0.06628443
0003b0 01 ef 79 bd 01 e2 47 3d c1 2c 98 bd 4f 92 b1 bc
       -0.061018948 0.04879952 -0.07430411 -0.02167621
0003c0 15 ec 86 3d c3 97 e4 bd f4 23 d3 bd 26 be 86 3d
       0.06587998 -0.11161759 -0.10309592 0.06579237
0003d0 b6 bc c3 3c 01 2e d4 bd 17 73 83 bd d8 04 37 bd
       0.023893695 -0.10360337 -0.06418436 -0.044682354
0003e0 99 70 1a 3d d6 ab 8c bd 35 55 85 bd d0 57 0f 3d
       0.037705038 -0.068687126 -0.065103926 0.034995854
0003f0 f1 95 28 3d 20 cf 41 3d 66 05 a7 bc 40 e4 20 3d
       0.04115862 0.04731667 -0.020388316 0.039280176

network_body._body_endoder.seq_layers.2.bias f4 [128]
000000 d2 8a df bb 8e dd cb 3b 71 11 0d 3c 72 01 16 bc
       -0.0068219686 0.0062214797 0.008610115 -0.009155618
000010 65 8e ed b9 aa 48 40 3c 85 3d bd 3b 4a d9 e4 b9
       -0.00045310255 0.011736074 0.005775156 -0.00043649442
000020 05 c2 ad 3c 37 9c ff 3a da 16 67 3b 8d 37 64 39
       0.02121068 0.0019501512 0.0035261423 0.00021764469
000030 83 31 cb 3b c6 b6 fd 3b 9d f6 5b b9 2a c4 0b 3c
       0.0062009706 0.0077427356 -0.00020977338 0.008530656
000040 55 51 42 bc 50 99 5b 3c d1 48 3a 3b 8d 4b bf 3c
       -0.011860211 0.013403252 0.002842475 0.023351455
000050 28 07 1b 3c 44 b9 ac bb 5a af b2 3b 9a 12 ac 3c
       0.009462155 -0.005271109 0.0054530324 0.021004964
000060 da 2f 88 3c 03 2a 05 3c f4 06 74 3c ae a5 19 bb
       0.01662438 0.008127692 0.014894236 -0.00234447
000070 7f 18 51 3c 89 8a 01 3c 80 32 99 3c 2d fc 6f 3c
       0.012762188 0.0079065645 0.018700838 0.014647526
000080 09 1e ed 3b de 47 11 3c e4 48 60 bc 05 1f 34 3b
       0.0072362465 0.008867232 -0.0136892535 0.002748431
000090 6f e7 ad 3c 62 33 5a 3c 3f 8a 27 3c 08 77 53 bc
       0.02122852 0.013317915 0.0102258315 -0.012906797
0000a0 9f e9 5f bb bf 9c a7 3c 64 03 98 3c 5a f8 15 bc
       -0.0034166349 0.020460485 0.018556304 -0.00915345
0000b0 80 6c 2e ba b4 0d d4 ba 74 c6 65 3c 7d 4f a0 bb
       -0.0006653741 -0.00161784 0.014024366 -0.0048922882
0000c0 2c 80 b3 ba 8f 77 ef 3b 31 14 a2 3c b2 7e 26 bb
       -0.0013694814 0.0073079537 0.019785019 -0.0025405106
0000d0 bc d1 4b 3c 0c 05 41 bb e8 f4 26 3c 80 3c 24 bc
       0.012440141 -0.002945247 0.010190226 -0.01002419
0000e0 9a 75 5c 3c 8b 05 50 3c a6 7e 23 3c a1 e4 8c 3c
       0.013455773 0.012696634 0.009978926 0.017198863
0000f0 13 6a bf bb c5 84 c3 3a e5 64 4c 3c 05 dd 6a 3b
       -0.0058415025 0.0014916888 0.012475227 0.0035837304
000100 94 c9 0c 3c ae 36 a3 3c e5 02 00 bb c7 7a 83 3b
       0.008592982 0.019923534 -0.0019532975 0.004012439
000110 5e 9f ac 3a fd b1 3b bb 72 48 7f 3c 9a fa 8e 3c
       0.0013170054 -0.0028640025 0.015581237 0.01745348
000120 27 de 9f 3b c4 64 c7 bb 85 c6 7f bc 55 b6 1e bc
       0.0048787775 -0.0060850102 -0.015611296 -0.009687026
000130 83 f5 3f 3c 5e 9a 95 3c da 93 09 3c 53 1e 56 3c
       0.011716249 0.018262085 0.008397067 0.013068753
000140 6a 64 14 3c 6d 5b 87 3b e2 7a 26 3b 1c 61 22 3c
       0.009057144 0.004130772 0.0025402834 0.009910848
000150 f1 37 54 3b 8e 57 33 3b 6e bd d8 bb 97 57 9d 3b
       0.0032381976 0.002736542 -0.0066143787 0.0048017013
000160 2e 54 26 3c f8 9d a6 bb 3f 96 41 bb d0 5a 9a 3a
       0.010151906 -0.0050847493 -0.0029539017 0.0011776332
000170 7f 77 f2 3b 28 55 c3 bb 25 47 07 3c 0d fc b5 3a
       0.007399499 -0.005961079 0.008256708 0.0013884321
000180 b2 70 b6 39 27 37 71 3c 10 f7 98 3c 3c cf fd 3a
       0.0003479771 0.014722622 0.018672496 0.0019364129
000190 c0 1f 5d bb 0b 4c a7 bb 8c 6f 4b 3b 32 03 41 bc
       -0.0033740848 -0.0051055006 0.003104183 -0.011780547
0001a0 50 d6 e2 3c 9a 58 8f bc 9a 34 74 bb ec 1d 50 bc
       0.027690083 -0.017498303 -0.0037262798 -0.012702446
0001b0 5d 76 a5 3b cd 09 e1 bb 84 84 13 3b be 6d 1b bc
       0.0050495104 -0.0068676234 0.0022509405 -0.009486614
0001c0 05 88 d8 bb c1 43 a1 bb 90 d9 83 3b b3 25 ab 3b
       -0.0066080117 -0.004921407 0.004023738 0.005223
0001d0 78 ea 10 3b 93 33 c2 3a b3 2b ba 3c e7 e1 b0 3b
       0.002211241 0.0014816396 0.022725916 0.0053980234
0001e0 15 2b b8 bb 82 45 c7 3b 8d a9 97 bb 58 ef 50 3c
       -0.00562037 0.006081284 -0.0046283663 0.0127523765
0001f0 8b 58 c6 b9 14 3a 53 3c 45 f0 a3 b9 9c 2b 6f 3a
       -0.00037831473 0.012892265 -0.00031268797 0.0009123625

action_model._continuous_distribution.log_sigma f4 [1, 2]
000000 13 c4 9d bc ec 24 1b bd
       -0.019258535 -0.03787701

action_model._continuous_distribution.mu.weight f4 [2, 128]
000000 f7 3c 8f bb 65 c4 9f 3b 27 71 8f bc 92 2f 13 3d
       -0.0043712812 0.004875707 -0.01751001 0.03593404
000010 33 67 00 bc cc d0 d9 bc 5b ef 17 bd 54 a9 8f 3c
       -0.007837105 -0.02658882 -0.0370935 0.017536797
000020 2d b1 5d 3c 51 e0 89 bc c2 04 85 bc 48 75 bf 3a
       0.0135310115 -0.016830595 -0.01623762 0.0014607096
000030 b7 3c 15 3d 4c 6b 94 bb 66 2a 03 3b 89 65 4b bd
       0.036434855 -0.0045293923 0.0020014285 -0.04965738
000040 c2 10 95 3c cb 9e 22 bd 94 df 25 bc db 9f 01 bc
       0.018196467 -0.039702218 -0.010124106 -0.007911648
000050 ab 9f e4 bc 8c 49 2b bb 3e ca de 3c 51 d6 07 3d
       -0.027908167 -0.0026136367 0.027196046 0.033163372
000060 e7 13 b0 bc 4a 44 0d 3b 6d 4f c1 bc 07 61 a7 3b
       -0.021493865 0.0021555596 -0.023597443 0.005108002
000070 c3 5e 42 bc a7 8c 00 bd 55 10 f9 3a 37 00 e9 3c
       -0.011863413 -0.031384137 0.001900206 0.028442485
000080 f2 45 80 3d dc 9a 38 3d 12 65 83 3c 85 f6 05 3d
       0.06263341 0.04506956 0.016039405 0.032705802
000090 5b 23 a7 bc ea 94 12 bd c5 a6 2a 3c 94 c4 1b 3c
       -0.020402601 -0.035786547 0.0104157375 0.009507317
0000a0 26 e8 71 b9 17 84 9f bb 04 d8 e2 bc 7a 73 9a 3c
       -0.00023070033 -0.0048680413 -0.027690895 0.018853892
0000b0 74 a6 21 3d 3d 10 20 ba d5 5e 81 bc e2 de 15 3d
       0.039465383 -0.00061059353 -0.01579229 0.03658951
0000c0 3e 5c 27 3c 58 9b bd 3c a6 4e 41 3d 5c 2f f5 3b
       0.010214863 0.023145363 0.047194146 0.0074824523
0000d0 fa 3a 01 3d 8e 55 66 3c 2c c0 ed 3b 07 03 9f 3c
       0.031550385 0.014058484 0.0072555747 0.019410623
0000e0 0b cf 81 3c d7 15 5e 3c 6b e5 20 3d 93 b2 2b 3d
       0.015845796 0.013555012 0.03928129 0.04191835
0000f0 50 b0 cc ba 76 4e be 3c 53 88 29 bc 13 ba 35 bc
       -0.001561651 0.023230772 -0.010347444 -0.011091727
000100 50 d9 34 3c 4c 38 8f 3c e3 17 e8 3c a3 8a 44 bd
       0.011038139 0.0174829 0.028331703 -0.047983777
000110 84 1e 03 bc 08 33 e4 bb b3 63 3b bc 88 50 b2 3c
       -0.008002881 -0.006964091 -0.011437344 0.021766916
000120 d2 ed 8f bc 19 40 dc 3c 05 e6 2f 3c 6e 03 43 3c
       -0.017569456 0.026886033 0.010735993 0.011902673
000130 bd 5b b9 bb 53 dd 41 bd b3 17 20 bd 0b cb a5 bb
       -0.005656688 -0.04733021 -0.0390851 -0.005059605
000140 c0 12 8d bc 6b 76 e5 3c 35 44 aa 3b e9 15 f9 3c
       -0.017220855 0.028010568 0.005196119 0.030405955
000150 2e 69 aa bc 95 22 8a bc a4 9b c2 3c 9c a3 30 3c
       -0.020802107 -0.016862193 0.023755856 0.010781195
000160 d5 60 e3 bc c9 0b 03 3c 09 d5 08 3c 5e 6c 02 bc
       -0.027756134 0.007998415 0.008351573 -0.007960407
000170 26 a6 10 bd 5b a1 35 3c 24 38 c2 bc c5 76 bd 3c
       -0.0353147 0.011085833 -0.02370841 0.023127923
000180 76 03 dd bb 4f 70 0d 3d 9d 97 d6 bb 05 02 ac 3c
       -0.0067447973 0.034530934 -0.0065488354 0.020997057
000190 91 61 32 3b 17 e7 a4 3b 36 cb e2 3c 0f 3b 86 3c
       0.0027218799 0.005032431 0.02768479 0.016385583
0001a0 13 a7 10 bc a8 65 8d 3c 6d 4d f9 3b b1 9e fc 3c
       -0.008828896 0.017260388 0.007608107 0.030837389
0001b0 53 c1 f7 36 8d c4 d3 39 aa 90 42 bc e7 0b dd 3c
       7.3836795e-06 0.00040391498 -0.011875311 0.026983215
0001c0 0e 8a 8c 3c 65 a3 8b 3c 7b 26 9f bc 34 53 9b bc
       0.017155673 0.017045686 -0.019427529 -0.018960573
0001d0 cc c3 99 bc 4c 2e ca 3b 86 82 d0 3a 31 c1 2b bc
       -0.018770121 0.00617007 0.001590804 -0.010483072
0001e0 8f eb 0d bd e7 b5 3f bb 0d d7 89 3c 3c aa 51 bd
       -0.034648474 -0.002925271 0.016826177 -0.05118774
0001f0 0f 37 8d bb 22 09 5b bd d4 da a2 3c ae 69 24 3d
       -0.004309542 -0.053475507 0.019879736 0.040139847
000200 96 a2 a9 bc d7 85 bb bc 4f 64 67 bb 0e 8e 4b 3c
       -0.02070741 -0.022890968 -0.0035307591 0.012424005
000210 08 39 68 bc fe ed 85 bd 88 b3 46 3d 46 a4 49 3c
       -0.014173754 -0.06539534 0.048511058 0.012307232
000220 be d6 0f bd c1 8c 1b bc 92 f6 b5 bb e0 0e 0e bd
       -0.035116903 -0.009494008 -0.005553075 -0.034682155
000230 75 91 76 bd 97 bd fc 3c 2a a6 cf 3c da b8 b6 bc
       -0.060197312 0.030852122 0.025347788 -0.022304941
000240 2b 87 43 3c 64 b9 ba bc 32 0c 96 bc 33 1d 17 3d
       0.011934082 -0.02279348 -0.018316362 0.03689308
000250 9e 4e 11 3d 34 02 58 bc 53 79 b3 bb 83 4a d0 bc
       0.035475366 -0.013184119 -0.0054771095 -0.025426155
000260 7b d5 d8 bc 92 1b ce bc 82 3f 12 3c ef 66 2f bc
       -0.026468983 -0.02515963 0.008926274 -0.010705694
000270 95 fa 60 bd ab d6 8b bc bf 42 e2 3c 45 9c 95 bd
       -0.054926474 -0.017070135 0.027619718 -0.07305197
000280 1e 52 26 3c 42 dd ea bc 4a ac 95 3c 15 f1 8d b9
       0.010151414 -0.028669957 0.01827063 -0.00027073236
000290 26 41 1f bc a0 87 82 bc 53 38 bf bc 28 ff 8b 3d
       -0.009720122 -0.015933812 -0.023342287 0.068357766
0002a0 bc ba ef bc 17 1a 97 bc aa 43 5e bd 2d 15 35 bc
       -0.029263847 -0.018445058 -0.05426375 -0.011052412
0002b0 65 17 32 bd 1f ae 0c bc ea a9 ff bc e3 d2 42 3b
       -0.043479342 -0.008586436 -0.031208951 0.002972775
0002c0 2a b2 c0 3c 8f 01 12 bd 9b 62 9b bb c2 93 02 3d
       0.023522455 -0.035646018 -0.0047419793 0.031879194
0002d0 6e 12 7c bc d7 bc f0 3a 14 02 b6 3d eb 55 c0 bb
       -0.015385253 0.0018366826 0.08887115 -0.005869617
0002e0 50 aa 90 3d 37 06 52 3d 28 3f de 3c df 27 92 bd
       0.070637345 0.05127546 0.027129725 -0.07136511
0002f0 bb 42 6a 3c ab b0 41 bc 12 13 11 3a 27 dc 08 3d
       0.014298136 -0.011821906 0.0005534153 0.03341308
000300 7a 21 0c bd 1a 76 45 3d fd 7d 78 3c b4 48 a3 3c
       -0.034211613 0.048208334 0.015166757 0.019932128
000310 cf ee bf 3c 3a 0e 6b 3c 66 59 73 3d 01 2a b1 ba
       0.023429302 0.014346654 0.05941143 -0.0013516546
000320 3c 44 53 3d 2b 2c 3f bc a6 d7 64 3c 5b 8d 21 3b
       0.051578745 -0.011668245 0.01396743 0.0024650905
000330 6a 29 80 bb 25 cf 1a bd c3 c9 7e 3b 9b 56 f5 bc
       -0.003911187 -0.037795205 0.0038877584 -0.029948523
000340 5b 6e d6 3b 98 5f 0a bd 11 bf 22 3d bc 37 34 3a
       0.006543917 -0.03378257 0.039732996 0.000687476
000350 58 30 d6 3b 0e 61 2b bd 75 0c 76 bc c3 f1 c9 bc
       0.0065365247 -0.041840605 -0.015017618 -0.024651414
000360 2e 8a 17 3d 48 82 20 3b 38 3b 94 bc ed 6e 7e ba
       0.036997013 0.0024491716 -0.018094644 -0.000970586
000370 2e eb 98 3c 07 94 56 3b c0 f1 e7 bc 44 06 53 3d
       0.01866683 0.003274204 -0.028313518 0.051519647
000380 ea 65 bb bc 6a ec 1d bd 7e 12 8b 3d cd 0f c3 3c
       -0.022875745 -0.03855554 0.067906365 0.023811245
000390 28 ca ae 3c b3 78 7a 3c 53 0e e1 3b 40 59 54 bc
       0.02133663 0.015287566 0.0068681627 -0.012960732
0003a0 a3 19 01 3d 2b 87 d0 3c 9a c4 17 3c a3 dc 3b 3b
       0.03151859 0.025455078 0.009263182 0.0028665445
0003b0 78 99 e4 bc ec a8 9e bc db ea bc bc 88 b4 87 bc
       -0.02790521 -0.019367658 -0.023061207 -0.016565576
0003c0 f2 60 a4 bb 6d 7d 8d 3c ed 5c 0b bc fc 16 d7 3c
       -0.0050164396 0.017271722 -0.008506042 0.026256077
0003d0 10 f6 38 3c 84 07 0a 3c b3 75 46 3d 02 1f 66 bd
       0.011289135 0.008424643 0.04845209 -0.056181915
0003e0 89 d5 9d 3c ac 8b a8 3c a3 4d 7f bc d7 33 e4 bc
       0.01926686 0.020574413 -0.015582475 -0.02785675
0003f0 a3 f6 ce bb 41 11 cb bb 2d a5 7b bb 1f dd 63 3c
       -0.0063160225 -0.006197125 -0.0038398013 0.0139077

action_model._continuous_distribution.mu.bias f4 [2]
000000 2a 59 91 bb d9 61 16 bb
       -0.004435678 -0.0022946505

exp_avg f4 [128, 6]
000000 fb 07 63 ba 3a f7 57 ab 2b 7d 92 b9 41 3f 4d ba
       -0.0008660552 -7.672644e-13 -0.00027940547 -0.0007829555
000010 c5 45 82 b6 9f 33 29 3b 69 1a 56 39 9c c7 a8 ac
       -3.882424e-06 0.0025818122 0.00020418469 -4.7970083e-12
000020 bb 25 b2 39 13 02 c1 38 3e 02 f5 34 b0 1c 9f b9
       0.00033978917 9.2033435e-05 4.5636438e-07 -0.00030348217
000030 89 fa 8e 39 48 c4 48 aa 4e 1f 02 39 4f e3 74 39
       0.00027271014 -1.7831667e-13 0.00012409428 0.00023354332
000040 da 6e 9b 35 79 e1 49 ba b7 4f 23 b8 ac e4 2f 2a
       1.1580662e-06 -0.00077011395 -3.893647e-05 1.5622459e-13
000050 ed f1 c3 b7 4f eb ff b7 43 6f 22 b4 89 f9 d2 38
       -2.3358467e-05 -3.0507943e-05 -1.5127902e-07 0.0001006006
000060 f7 33 0a b8 22 26 3f ab 11 b4 1b b7 55 35 90 b7
       -3.295016e-05 -6.790975e-13 -9.280645e-06 -1.7190972e-05
000070 a1 0f b7 b3 d1 c3 6d 38 71 fe 3e 36 16 04 9c 27
       -8.5244444e-08 5.668757e-05 2.846031e-06 4.330313e-15
000080 95 a7 22 36 86 08 99 36 83 43 c2 32 ad 50 7c b7
       2.4237427e-06 4.5607476e-06 2.2615273e-08 -1.5039154e-05
000090 65 eb af b9 98 a0 de 2b 97 9a 40 b9 7b d7 90 b9
       -0.00033553984 1.5818622e-12 -0.00018368136 -0.00027626366
0000a0 80 dd b7 b5 2e cf 6e 3a 6f 7a b0 38 0b ae 9a aa
       -1.3699027e-06 0.00091098517 8.415139e-05 -2.7476662e-13
0000b0 df 7a 4e 38 95 f9 0c 39 e5 f4 32 35 14 6f e8 b9
       4.922866e-05 0.00013444417 6.6666536e-07 -0.00044333248
0000c0 f3 18 3e 3a fb 50 05 ac 8a 01 b8 39 d3 68 47 3a
       0.00072516425 -1.894539e-12 0.00035096362 0.00076068676
0000d0 79 22 7d 36 a3 63 24 bb c4 a7 8f b8 7c ee ed 29
       3.7720004e-06 -0.0025083802 -6.85002e-05 1.0566285e-13
0000e0 14 8c 95 b7 f4 50 7d b8 52 c8 a0 b4 2f d4 50 39
       -1.7827413e-05 -6.0395294e-05 -2.9948075e-07 0.0001991547
0000f0 d4 64 97 ba 97 9d 0c 2d 31 07 57 ba a5 00 84 ba
       -0.0011550435 7.993071e-12 -0.0008202671 -0.0010070993
000100 1e 91 a7 b6 fd a3 59 3b 81 38 d3 b9 9d 23 60 2c
       -4.9938817e-06 0.0033209317 -0.00040287155 3.1852084e-12
000110 7e 50 91 b9 3e 1c b7 b9 bc 71 e8 b5 da f3 96 3a
       -0.00027716527 -0.00034925522 -1.7318448e-06 0.0011516765
000120 46 de 78 b9 43 2a 8b 2c cf 53 4f b9 d2 d4 6b b9
       -0.00023733926 3.9553096e-12 -0.0001977228 -0.00022490628
000130 46 af 95 b5 2a 6a 42 3a 48 12 ab b9 69 ee 41 aa
       -1.1152376e-06 0.00074163324 -0.00032629282 -1.7224559e-13
000140 d1 f0 c7 b8 08 e3 a2 b9 a9 c5 ce b5 dd 47 86 3a
       -9.533915e-05 -0.000310682 -1.5405723e-06 0.0010244806
000150 f4 3f 54 36 e9 06 42 29 53 7b d4 35 19 5e 09 37
       3.1627687e-06 4.3082647e-14 1.5831123e-06 8.187745e-06
000160 9e 60 2e 33 79 7c e2 b7 aa 28 b0 b9 f6 d7 f8 2b
       4.0600405e-08 -2.6999262e-05 -0.00033599633 1.7681401e-12
000170 24 2b 58 b9 86 9f 9a b9 31 48 c4 b5 bd ef 7e 3a
       -0.00020615436 -0.00029492023 -1.4624148e-06 0.0009725055
000180 af ea c3 b7 ce 0f 78 2b 75 18 1a b8 55 64 97 b7
       -2.3355095e-05 8.812923e-13 -3.673924e-05 -1.8047323e-05
000190 17 2e c0 b3 d4 9b 79 38 5a 66 f8 38 6d 66 c7 ab
       -8.9490804e-08 5.9511352e-05 0.00011844626 -1.4168229e-12
0001a0 c6 63 aa 38 1e 37 16 39 c1 af 3e 35 46 ab f7 b9
       8.124816e-05 0.00014325647 7.103627e-07 -0.0004723912
0001b0 55 b7 cd b9 5e 9e 57 ab 7a 38 f8 b8 f2 ba 9a b9
       -0.0003923724 -7.6603123e-13 -0.00011836081 -0.00029512454
0001c0 f9 6a c4 b5 f1 1c 7f 3a a7 81 76 3a 5d 21 11 ac
       -1.4634271e-06 0.00097317906 0.0009403475 -2.062426e-12
0001d0 9f ae f2 39 58 2e 7d 3a 5a b2 a0 36 a8 b7 50 bb
       0.0004628794 0.000965809 4.7891344e-06 -0.003184775
0001e0 33 f2 16 3a fd fb 12 ac fa ae b1 39 cc dc 10 3a
       0.00057581364 -2.088773e-12 0.00033890438 0.00055260654
0001f0 3d e4 37 36 f1 d7 ee ba 7e 95 3d 3a 6a 4d 30 29
       2.7401977e-06 -0.0018222315 0.0007232054 3.9146996e-14
000200 15 56 9d 39 4b 21 51 3a b4 bc 84 36 16 67 2c bb
       0.0003000951 0.00079776783 3.9558745e-06 -0.0026306561
000210 0a d8 2b b8 89 2e 9b 29 3a e7 a0 b7 27 ae 11 b8
       -4.097078e-05 6.891455e-14 -1.918116e-05 -3.4732886e-05
000220 fe ed 38 b4 1d 31 f0 38 bc e1 a2 38 e5 7e cd aa
       -1.7222916e-07 0.0001145324 7.766808e-05 -3.6503366e-13
000230 93 07 11 38 9a d9 85 38 7e e9 a9 34 c5 af 5c b9
       3.4577748e-05 6.382466e-05 3.164859e-07 -0.00021046314
000240 e8 e4 53 36 77 91 b6 a7 a9 70 98 36 ae f9 c6 36
       3.157469e-06 -5.067286e-15 4.5430684e-06 5.9299264e-06
000250 60 95 fc 32 06 08 a4 b7 90 15 17 3a c6 12 9c ab
       2.9404589e-08 -1.955406e-05 0.0005763406 -1.1089677e-12
000260 a3 f5 9a 39 e9 98 21 3a 97 22 4d 36 b6 37 05 bb
       0.00029556183 0.0006164448 3.0567514e-06 -0.0020327396
000270 e5 77 92 39 87 b3 23 ab 50 21 28 39 23 45 76 39
       0.00027936618 -5.8158377e-13 0.00016034138 0.00023486144
000280 71 4f 9c 35 2a 05 4b ba 0e f2 12 3a 20 11 08 ac
       1.1646026e-06 -0.0007744605 0.0005605527 -1.9336269e-12
000290 15 00 a7 39 25 b5 07 3a 27 45 2c 36 d1 bf df ba
       0.00031852783 0.0005176834 2.567025e-06 -0.0017070716
0002a0 7e ea 61 39 93 30 03 2b 16 ad 60 38 16 60 9a 39
       0.00021545027 4.660796e-13 5.356696e-05 0.0002944476
0002b0 a2 f7 c3 35 21 87 7e ba 51 e5 88 b9 45 78 93 ab
       1.4600703e-06 -0.0009709467 -0.00026110795 -1.047836e-12
0002c0 6e 38 27 b8 a7 37 61 b9 a8 f2 8e b5 2b aa 39 3a
       -3.9868457e-05 -0.00021478404 -1.0650447e-06 0.0007082547
0002d0 c7 ca 74 3a 5f 54 ae ab 1e a5 d3 39 a8 a8 79 3a
       0.00093380775 -1.2386861e-12 0.00040368078 0.0009523728
0002e0 0c 76 9e 36 54 d0 4d bb 19 13 f0 b6 50 14 26 aa
       4.7225094e-06 -0.003140469 -7.1547806e-06 -1.4750809e-13
0002f0 95 e9 ae b5 d7 02 9d b6 33 50 c7 b2 d6 6f 81 37
       -1.3031992e-06 -4.679295e-06 -2.320312e-08 1.5430076e-05
000300 cd 38 0e 3a ed c0 e9 ab 06 e5 8d 39 40 40 20 3a
       0.0005425334 -1.6609193e-12 0.00027064251 0.00061130896
000310 14 6d 4b 36 95 1b 04 bb 26 ba da 3a b7 90 f7 ac
       3.031285e-06 -0.0020158042 0.0016687557 -7.036229e-12
000320 9e 1b 78 3a 94 63 e3 3a 83 53 10 37 7a 74 bb bb
       0.00094645645 0.0017348402 8.602513e-06 -0.005720672
000330 6d 11 48 3a f1 da 9c ab 51 92 b4 39 04 b3 55 3a
       0.0007631991 -1.1145235e-12 0.0003444129 0.00081519806
000340 21 a3 87 36 5f 2b 30 bb 2a c0 87 39 00 70 fc ab
       4.042304e-06 -0.002688132 0.0002589238 -1.7936763e-12
000350 b6 a7 66 39 f1 91 56 39 9c 30 88 35 29 e3 30 ba
       0.00021996986 0.00020462998 1.0146937e-06 -0.00067477167
000360 da 28 1f 38 47 42 7d ab d8 8c 0d 38 24 60 50 38
       3.79466e-05 -8.9975634e-13 3.374819e-05 4.9680602e-05
000370 1c 42 84 34 d9 c7 2b b9 ef cc 88 39 0f d4 6d ab
       2.4635017e-07 -0.0001638228 0.0002609263 -8.4493605e-13
000380 31 0e 14 39 8f 17 99 39 9a 56 c2 35 7c 69 7c ba
       0.00014119667 0.00029199987 1.4479331e-06 -0.00096287555
000390 eb 9d 1b b9 13 93 44 ab 6e 3a 03 b8 72 99 f8 b8
       -0.00014840781 -6.9837295e-13 -3.128725e-05 -0.00011854143
0003a0 ea c9 1d b5 c1 f0 cc 39 49 ae 14 37 8e 29 0d 29
       -5.878088e-07 0.00039089288 8.862066e-06 3.1344332e-14
0003b0 7f 62 27 36 45 0e 29 37 5b 9a 56 33 be 5d 0b b8
       2.4942271e-06 1.0076507e-05 4.9966143e-08 -3.3227487e-05
0003c0 e3 76 7a 39 a4 f9 8b 2b e4 ee 8e 38 a1 a2 9c 39
       0.00023886147 9.945833e-13 6.8155845e-05 0.00029875807
0003d0 0c d6 c6 35 83 20 81 ba 07 d4 0b b8 fb 4d 6c aa
       1.4814445e-06 -0.0009851608 -3.333765e-05 -2.0988066e-13
0003e0 d6 14 ca b4 cd bb f3 b7 48 b3 1a b4 d9 ed c8 38
       -3.7640592e-07 -2.9055309e-05 -1.440759e-07 9.581046e-05
0003f0 bc 14 39 b9 d2 be f6 2b d7 ab 14 b9 ff de 2e b9
       -0.00017650699 1.7532315e-12 -0.00014178395 -0.00016677006

exp_avg_sq f4 [128, 6]
000000 73 38 19 35 83 a0 84 1a ad 07 25 33 48 ae 92 34
       5.7079086e-07 5.485324e-23 3.8424037e-08 2.7321425e-07
000010 af 5d ec 2c 87 5e 47 36 2e 57 34 36 ce 88 c4 1b
       6.7179244e-12 2.9708333e-06 2.6872835e-06 3.2513888e-22
000020 d5 8a d4 34 78 c8 92 35 da 87 ec 2d 1d 82 47 37
       3.958909e-07 1.0936192e-06 2.6890424e-11 1.1891619e-05
000030 24 da 35 34 ff 1c a3 19 2b 4d 80 33 32 9f 86 33
       1.6936298e-07 1.6865516e-23 5.974501e-08 6.268819e-08
000040 12 ef d8 2b 9a fa 36 35 f6 1a 65 31 65 ad 41 17
       1.5414078e-12 6.8164957e-07 3.3339211e-09 6.258052e-25
000050 f1 46 6e 30 94 69 c1 30 dc d5 1b 29 90 71 83 32
       8.668471e-10 1.4072605e-09 3.4602407e-14 1.530205e-08
000060 4d 92 ac 30 a9 6a 56 18 63 01 0d 30 26 b8 4b 31
       1.2556228e-09 2.7712701e-24 5.129747e-10 2.9645064e-09
000070 c8 23 a4 29 bb 72 0a 33 89 2f e7 32 af 58 a0 17
       7.28927e-14 3.2234976e-08 2.6913556e-08 1.0362145e-24
000080 52 d8 93 31 07 8d 51 31 9f d6 a8 29 47 69 0e 33
       4.302856e-09 3.0493668e-09 7.4979296e-14 3.31577e-08
000090 f9 f3 c1 34 a3 b6 7f 1a 91 d8 e5 33 cf 9b 18 34
       3.6126565e-07 5.2880297e-23 1.0703037e-07 1.4212786e-07
0000a0 18 eb 75 2c 2d 6d cf 35 e4 fe ba 31 7d 20 02 19
       3.4947097e-12 1.5454476e-06 5.44229e-09 6.7274034e-24
0000b0 fb 67 05 31 80 40 7a 32 bd a1 c9 2a 70 12 2a 34
       1.9413153e-09 1.4566581e-08 3.5817e-13 1.5839191e-07
0000c0 26 a7 65 34 3f 17 a0 1a 3c d8 42 33 1e 79 1d 34
       2.1388095e-07 6.6212005e-23 4.536581e-08 1.4665827e-07
0000d0 cb c1 7d 2c c4 09 d6 35 d3 d9 30 32 62 b3 7d 17
       3.606104e-12 1.5947085e-06 1.0294076e-08 8.197512e-25
0000e0 38 46 55 30 5b c9 a2 31 dd 28 03 2a a6 42 5d 33
       7.7588735e-10 4.737712e-09 1.1649315e-13 5.151619e-08
0000f0 e1 5a 28 36 e1 c4 5c 1c 44 6e 15 35 96 b1 cd 35
       2.508685e-06 7.3046354e-22 5.5667283e-07 1.5325375e-06
000100 0d bb 25 2e 3e ca 8b 37 67 6d e9 33 c9 cf ac 1a
       3.768279e-11 1.6664268e-05 1.0869808e-07 7.147323e-23
000110 ba 1c a1 32 5f 21 e7 33 ae 39 3a 2c ab 13 9d 35
       1.875593e-08 1.0762846e-07 2.6464208e-12 1.1703136e-06
000120 8b ff 5a 33 53 34 84 1a 08 38 9b 31 75 67 99 33
       5.0989495e-08 5.4678455e-23 4.5174637e-09 7.1434364e-08
000130 3a 33 f7 2b fb 81 50 35 32 b2 ed 33 3f 0e 4e 19
       1.7564624e-12 7.7675185e-07 1.1068586e-07 1.0652827e-23
000140 02 36 d4 32 b1 67 b1 33 1e f0 0e 2c 34 21 71 35
       2.4704608e-08 8.261066e-08 2.0312706e-12 8.9827813e-07
000150 06 97 14 2f 68 4b 08 16 fc d4 41 2e 3c 21 11 2f
       1.3514176e-10 1.1009787e-25 4.4072287e-11 1.319948e-10
000160 d6 dd 69 27 da 42 c5 30 12 29 af 34 60 84 9d 1a
       3.2455503e-15 1.4352637e-09 3.2626173e-07 6.514754e-23
000170 e0 5e f0 33 19 61 0a 34 16 fd 5e 2c fa 15 bc 35
       1.11931286e-07 1.2887575e-07 3.1688588e-12 1.4013488e-06
000180 89 68 6e 31 95 ec d1 18 e4 ac cc 30 3c e1 f4 31
       3.469298e-09 5.426412e-24 1.4892092e-09 7.126941e-09
000190 ac 4d 45 2a c0 6b a6 33 9b 0c 99 31 44 f9 0b 19
       1.7524063e-13 7.749577e-08 4.454319e-09 7.23647e-24
0001a0 c0 51 23 31 1b 43 08 32 b6 93 5b 2a 50 35 b9 33
       2.3766091e-09 7.9315e-09 1.9502355e-13 8.624431e-08
0001b0 44 ea 9f 33 a6 e3 3c 19 fe 0d d8 31 9a e6 0b 33
       7.446627e-08 9.7653454e-24 6.288018e-09 3.257319e-08
0001c0 c2 70 61 2b 67 27 be 34 0d 23 d2 34 16 9c f1 1a
       8.009254e-13 3.5418927e-07 3.914105e-07 9.9927434e-23
0001d0 24 6b c8 33 b5 f9 60 34 1e 44 b5 2c d5 e4 18 36
       9.3327145e-08 2.0952469e-07 5.151892e-12 2.2782963e-06
0001e0 22 56 52 35 6d 03 1a 1b c0 00 77 34 e1 dd 8a 34
       7.8356436e-07 1.2739688e-22 2.300394e-07 2.586594e-07
0001f0 1e c6 df 2c 8b bf 3c 36 69 cc 93 35 56 9c 12 1b
       6.3600366e-12 2.8125676e-06 1.1011845e-06 1.2127352e-22
000200 d5 5b 46 34 c5 96 e3 34 3a 5f 37 2d 84 ab 9a 36
       1.8473595e-07 4.2391744e-07 1.042349e-11 4.6095247e-06
000210 cf ac bf 30 06 8e a1 16 79 b9 bb 2f 89 b5 20 30
       1.3946194e-09 2.6100582e-25 3.4146888e-10 5.846564e-10
000220 5d 7c 81 28 ca 6f da 31 3b 38 a7 32 79 1a c0 18
       1.4375811e-14 6.357344e-09 1.946693e-08 4.9657567e-24
000230 53 86 1f 32 59 58 f0 32 51 a6 41 2b dd 56 a3 34
       9.28556e-09 2.7979853e-08 6.8798184e-13 3.0424317e-07
000240 cd 20 e0 2e e2 38 91 14 eb ed be 2d 5e 1b 57 2e
       1.0192167e-10 1.4663695e-26 2.1706156e-11 4.8909647e-11
000250 a1 50 ad 26 f4 2f 12 30 ba ab dd 34 0d d1 cb 1a
       1.2026141e-15 5.3182636e-10 4.1289405e-07 8.429657e-23
000260 ef 04 14 34 bd 8a 2d 34 4e d3 8b 2c 08 e1 eb 35
       1.3785369e-07 1.6162353e-07 3.974077e-12 1.7574357e-06
000270 b9 d3 99 34 6a 92 10 1a 2f 11 95 33 18 c3 a1 33
       2.865252e-07 2.9896774e-23 6.941479e-08 7.532634e-08
000280 94 55 02 2c 2b de 5b 35 37 dd 27 34 54 4c 85 1a
       1.8521617e-12 8.1907154e-07 1.5633564e-07 5.5130825e-23
000290 d9 36 24 33 1a c0 d1 33 c6 ff 28 2c 03 8c 8e 35
       3.823411e-08 9.767264e-08 2.4016219e-12 1.0620573e-06
0002a0 6f 33 9f 33 ca 4e 3d 1a 8d 78 0c 32 cd b5 95 33
       7.41337e-08 3.914793e-23 8.176483e-09 6.9714226e-08
0002b0 6b 3f f1 2b a5 7c 4b 35 e6 d0 57 34 08 3b 8c 19
       1.7141682e-12 7.5804775e-07 2.0099432e-07 1.4499503e-23
0002c0 0d a4 60 33 1b 3d 8e 33 37 35 e5 2b ea 54 41 35
       5.2303267e-08 6.623505e-08 1.6286199e-12 7.202167e-07
0002d0 c2 aa 82 35 ba 8b 14 1b d6 99 fb 33 42 73 d6 34
       9.735452e-07 1.2287421e-22 1.1716081e-07 3.9944467e-07
0002e0 2e c9 2c 2d ae bd 91 36 b6 ed 89 30 40 8a 1f 16
       9.821739e-12 4.3434184e-06 1.0035623e-09 1.2887542e-25
0002f0 6d c9 3f 2f 4e f5 4f 30 27 8e a7 28 30 54 0d 32
       1.744291e-10 7.565476e-10 1.8602373e-14 8.226422e-09
000300 01 a6 32 34 fb fa 73 1a 12 6e 1f 33 ab 3e 03 34
       1.6637934e-07 5.0453963e-23 3.712018e-08 1.2223124e-07
000310 ee 7d 53 2c 7e 63 b2 35 53 bb 6a 35 8e 3d d3 1b
       3.0054808e-12 1.329099e-06 8.7444386e-07 3.49468e-22
000320 d0 b9 8f 34 e7 02 1e 35 d3 9f 7e 2d 10 c5 d6 36
       2.6771022e-07 5.886381e-07 1.44737165e-11 6.400638e-06
000330 0e 3e b9 34 6c 85 bf 1a 48 14 2d 33 0d c9 61 34
       3.4504086e-07 7.9211303e-23 4.0298147e-08 2.10279e-07
000340 37 eb b5 2c c3 71 19 36 cf 10 26 35 6f 2c bb 1a
       5.1704435e-12 2.2864995e-06 6.186428e-07 7.7413174e-23
000350 76 ea 0b 34 de c6 77 34 32 a3 c7 2c bf 63 28 36
       1.303068e-07 2.3076015e-07 5.6740385e-12 2.509201e-06
000360 0a c2 c0 30 6d 0f 35 18 76 ae 61 30 be bc 37 31
       1.4024988e-09 2.340149e-24 8.2102447e-10 2.6737292e-09
000370 36 0a 94 29 8f bc f9 32 87 7c bc 32 4e 54 16 19
       6.5742916e-14 2.9073162e-08 2.1942709e-08 7.7718434e-24
000380 9a c0 ce 31 a6 3c 9a 32 c7 8a f8 2a be a3 51 34
       6.0172853e-09 1.795554e-08 4.4149946e-13 1.9524211e-07
000390 ee 40 b3 33 01 3a 63 18 f5 8f 25 32 ce 9d 9d 32
       8.347148e-08 2.9368347e-24 9.636996e-09 1.8348967e-08
0003a0 e9 fc fd 2a a5 3b 56 34 14 85 c0 2f 0d 48 99 15
       4.511732e-13 1.9952002e-07 3.5019154e-10 6.1909884e-26
0003b0 04 ab 47 2f 2b 0d 46 2f a4 92 9f 27 9d 98 06 31
       1.8159702e-10 1.8012673e-10 4.4290353e-15 1.9586317e-09
0003c0 bc fc 2f 34 ff ed 2b 1a f0 d5 2d 33 0a 0c d5 33
       1.6390089e-07 3.5554223e-23 4.0474276e-08 9.920775e-08
0003d0 c6 a7 2b 2c 8d c9 90 35 dc 12 d1 32 b1 da 8d 17
       2.4393695e-12 1.0787495e-06 2.4339379e-08 9.167117e-25
0003e0 ff 17 31 31 0a 03 96 31 db bb f1 29 a9 e5 4b 33
       2.577053e-09 4.36592e-09 1.0735138e-13 4.7473495e-08
0003f0 09 81 4b 33 62 1e ba 19 c2 9c 2b 32 68 fb 20 33
       4.7381977e-08 1.924422e-23 9.989153e-09 3.7481556e-08

exp_avg f4 [128]
000000 2f a0 29 3a cb 82 9f b8 00 63 4a b9 e0 80 d3 37
       0.00064707076 -7.606073e-05 -0.00019301102 2.5213172e-05
000010 60 5c 6e 37 90 f2 7c b6 67 68 6f 39 34 04 e9 b8
       1.4207413e-05 -3.7692116e-06 0.00022831709 -0.00011111089
000020 1c cd 24 ba 2a 5a 51 38 9f 2f 5a 3a b3 54 97 39
       -0.0006286667 4.9913455e-05 0.0008323136 0.0002886407
000030 e7 e6 42 39 04 9e 86 39 ca 0d e3 b6 52 93 7f 39
       0.000185873 0.00025676202 -6.7667324e-06 0.00024373576
000040 0d 3c 7a 37 2d 4a f8 b8 9e c0 7f 39 93 3d 51 ba
       1.4915143e-05 -0.00011839378 0.0002439045 -0.00079818926
000050 2f 71 ef b9 b4 d5 2c ba 38 cb f0 37 5c 3d 5d b8
       -0.0004566996 -0.00065931235 2.870486e-05 -5.274765e-05
000060 41 71 a4 b6 2f 8d 05 ba 6d 87 4b b9 61 4f e0 b9
       -4.9007654e-06 -0.00050945854 -0.00019410039 -0.0004278375
000070 71 2a 7f b9 4c 21 3a 39 61 54 4e ba e0 c2 81 36
       -0.00024334506 0.00017750746 -0.000787085 3.867186e-06
000080 58 70 04 ba be ec bb ba 67 9c 30 ba a3 54 31 b9
       -0.0005052141 -0.0014337522 -0.0006737173 -0.00016911565
000090 12 36 2c b8 6f 0b 7d b9 3c 74 cd 38 2a b7 0b b7
       -4.1058353e-05 -0.0002413222 9.796812e-05 -8.327692e-06
0000a0 5c 73 81 b9 c5 6e c9 37 82 85 10 39 74 64 22 b9
       -0.00024690747 2.4012648e-05 0.00013782646 -0.00015486946
0000b0 0a ec c0 b9 6a 1b f0 39 d1 73 6a 37 63 f0 0e b9
       -0.00036796957 0.00045796792 1.39744525e-05 -0.00013631726
0000c0 d9 b9 30 ba 0a 02 bf 39 08 64 82 b9 5a ca 0a b7
       -0.00067415606 0.00036431878 -0.0002487006 -8.272555e-06
0000d0 67 8e 73 b9 95 46 3d 3a 55 d0 2c 37 91 84 b2 35
       -0.00023227335 0.00072202954 1.0300505e-05 1.3300615e-06
0000e0 58 5a 37 39 b1 ca a8 39 06 95 99 b6 57 d5 4f 36
       0.00017485896 0.00032194474 -4.577104e-06 3.0969584e-06
0000f0 04 f7 41 3a c7 b0 f7 36 6c 4d 90 37 35 7c f9 39
       0.0007399174 7.381753e-06 1.720219e-05 0.00047585522
000100 17 eb 60 38 77 63 b8 39 be 5b d2 39 ef 6e 36 3a
       5.3624706e-05 0.00035169322 0.00040122675 0.00069592794
000110 f7 de b2 38 0d 33 3d 3a 36 91 0b 3a 9c ba 8b 38
       8.529232e-05 0.0007217385 0.00053240673 6.662795e-05
000120 a3 e8 9e b6 dc 73 03 ba cd 72 4f 37 d4 8c 79 b9
       -4.7358494e-06 -0.0005014518 1.2364891e-05 -0.00023798953
000130 8c 51 79 b7 5b a1 ae b9 5e cb 96 39 18 d6 c6 37
       -1.4860543e-05 -0.00033308085 0.0002876175 2.3703135e-05
000140 e9 b7 7b 37 d5 b9 e5 b9 77 14 e0 b8 03 fa f7 39
       1.5003586e-05 -0.0004381674 -0.00010684964 0.00047297784
000150 bc 8c 2e b8 9e d8 65 39 68 e1 95 38 f8 08 8e 39
       -4.1615902e-05 0.00021919838 7.146859e-05 0.00027091033
000160 28 41 2a ba 09 1e 11 ba ab a9 cc 39 0d b7 07 ba
       -0.00064946944 -0.00055357866 0.00039036325 -0.0005177118
000170 cd 20 39 b7 be b4 09 b6 2d b5 dd 36 0a 7f 5b 39
       -1.1034496e-05 -2.0519797e-06 6.607405e-06 0.00020932793
000180 c1 6a db b7 e5 d0 94 b8 06 00 2a b8 fe 1d 9a b7
       -2.6156546e-05 -7.0960996e-05 -4.053118e-05 -1.8372197e-05
000190 95 91 95 b6 5a ed dd b9 89 75 b3 39 87 fe 46 b8
       -4.457494e-06 -0.00042329245 0.0003422911 -4.7443926e-05
0001a0 91 3b 7b b7 a1 18 8e 37 68 63 de b9 b1 cc 48 39
       -1.4974635e-05 1.6939188e-05 -0.00042417203 0.0001914974
0001b0 a1 c8 93 37 b1 7a 9f 37 a2 98 7f ba d7 d1 24 b8
       1.761719e-05 1.901141e-05 -0.0009750222 -3.9296076e-05
0001c0 4b 40 42 31 b9 52 e4 b9 44 20 37 b9 63 2b e5 b8
       2.8267262e-09 -0.00043549182 -0.0001746426 -0.00010927652
0001d0 25 60 34 ba ba 58 ec 37 98 5f 03 ba 72 70 b3 b9
       -0.0006880782 2.8174709e-05 -0.0005011498 -0.0003422532
0001e0 43 78 21 b6 67 40 15 3a b4 79 29 b9 73 00 d3 37
       -2.406087e-06 0.00056934956 -0.00016162434 2.515337e-05
0001f0 a2 6d 8d b6 c0 3c e1 b3 e8 f0 88 b7 ee 66 b3 3a
       -4.2148904e-06 -1.0488429e-07 -1.6324644e-05 0.0013687292
