2D/results/SegundoTeste2D/MoveToGoal.onnx (onnx, 83254 bytes, 7 tensors)

network_body._body_endoder.seq_layers.0.weight f4 [128, 22]
000000 04 dd 6b be 75 38 a4 3e 5d d2 16 3d c4 87 89 3e
       -0.2303353 0.32074323 0.03682171 0.26861393
000010 ca 97 ae be 85 a8 81 bc 66 6c 1f bd 5b 54 93 be
       -0.3410018 -0.015827427 -0.038921736 -0.28775296
000020 48 2b 40 3e 00 40 f3 bd d2 32 43 3e 03 2d bd be
       0.1876651 -0.118774414 0.19062355 -0.36948404
000030 a9 96 89 be 40 e9 9d 3d 5f 55 88 3e 45 4a 92 be
       -0.26872757 0.077105045 0.26627633 -0.28572288
000040 83 c5 d4 bc 8c db be 3d 15 9b 21 be 35 19 31 3c
       -0.025973087 0.09319219 -0.15781815 0.0108092325
000050 b8 81 49 be 28 fb a3 3e b3 98 19 bd 2d cf 7b 3c
       -0.1967839 0.32027555 -0.03749914 0.015369219
000060 dd 99 db 3d b0 22 73 3e ce d0 b2 be 6b ad 6b bc
       0.107227065 0.23743701 -0.3492493 -0.014384608
000070 6a 23 9b 3d f8 c6 07 be cf 95 ea 3d 75 fb b7 3d
       0.07575114 -0.13259494 0.11454355 0.089835085
000080 85 16 ea bc 75 e1 91 be 9f 52 84 3e 40 d8 f7 3e
       -0.028575191 -0.28492323 0.25844285 0.48407173
000090 fe 2c d1 3c 83 74 93 be 48 a5 81 3e c7 7d b2 bd
       0.02553415 -0.2879983 0.25321412 -0.087153964
0000a0 88 34 c6 3e b5 12 ca bc 50 9d ad 3e d5 65 ee 3c
       0.38711953 -0.024667123 0.33909082 0.029101292
0000b0 5c 4f 3c bb 0d 55 23 3e 67 2f 56 3e a7 52 fd 3c
       -0.0028733825 0.15950413 0.2091652 0.0309232
0000c0 b0 11 fa 3e 17 cb 00 be 3d 80 d2 be f1 5e 5f 3d
       0.4884162 -0.12577473 -0.41113463 0.054533903
0000d0 a6 a3 4d 3e ac 37 76 3e 11 6d f5 bc b2 fe 91 be
       0.20081958 0.24044675 -0.029959233 -0.2851463
0000e0 20 94 41 be ae aa 68 3e 11 0f 1c 3e 05 a2 9b bd
       -0.18904161 0.22721359 0.15240122 -0.07599262
0000f0 85 c8 fb 3c 98 cb cb be 48 af e0 3d 1d 85 ab bc
       0.030735264 -0.39803767 0.10970932 -0.020937497
000100 f2 71 03 be a9 fe b5 3d 3b 94 d3 be 7e 47 22 3d
       -0.12836435 0.08886463 -0.41324028 0.03961896
000110 c4 0b b5 bb 57 75 ed 3d 84 4d a4 3e 0d 30 0a be
       -0.005525084 0.115946464 0.3209039 -0.13494892
000120 7b 74 b2 3e d8 4f 94 bd 0e 72 3b 3e 15 ae f7 3d
       0.34854493 -0.072417915 0.18305227 0.120937504
000130 7d ed d0 be 42 4c c9 3e e7 e2 c2 bd 52 5f 61 3e
       -0.4080619 0.39315993 -0.095159344 0.22009018
000140 40 23 11 3e 28 22 17 3e 9a 54 a9 3e 18 5f 99 be
       0.14173603 0.14759123 0.33072358 -0.29955363
000150 d5 c0 37 3c b2 dd b9 3d 62 93 ee be 20 f1 19 be
       0.011215408 0.09075488 -0.4659682 -0.15033388
000160 85 c9 b0 bd fa f6 15 be af dc d1 be 56 1f 8c be
       -0.08632187 -0.14644995 -0.4098868 -0.27367657
000170 40 9d 07 bd df 57 64 bc e9 e5 85 bd 2b d2 44 bd
       -0.03310895 -0.013936966 -0.065379925 -0.048051994
000180 c0 d2 17 3e ba 9a 15 3d 5b 88 f1 bd a2 2a 71 3d
       0.14826488 0.036524512 -0.11793586 0.05887855
000190 5b 55 1d be bb 87 b7 bd 07 5c bc bd 19 2b 01 bd
       -0.15364592 -0.089614354 -0.0919724 -0.03153524
0001a0 46 23 a7 be 57 68 16 3e ab 3b 83 be a7 3a e3 3c
       -0.326441 0.1468824 -0.2563146 0.027737929
0001b0 16 97 0c be 27 ee 83 bd 73 1f 2c bd 02 dc e6 bd
       -0.1372951 -0.06441908 -0.04202218 -0.11272432
0001c0 f9 60 e2 bd 38 6a 12 3e d2 53 95 3e 5e d6 e5 bd
       -0.11053652 0.14298332 0.29165512 -0.11222528
0001d0 d4 f9 00 3c 9c 3c 9c 3d 57 0e 15 3e 6c eb 44 3e
       0.007872064 0.07628748 0.14556251 0.19230431
0001e0 87 65 91 bb 69 82 a9 3c fd a7 8b 3d e2 45 20 be
       -0.004437152 0.020692067 0.068191506 -0.15651658
0001f0 76 f8 5e 3e 67 ad ea bd 47 a4 be bd 6f 9b d0 3d
       0.21774468 -0.11458855 -0.09308677 0.101858966
000200 0c 0b a7 bd e6 99 38 bb 4e dc 31 3e 0c d8 38 be
       -0.08156404 -0.0028167902 0.17369196 -0.18051165
000210 da ad 7b 3e 87 a2 d8 be f3 74 16 3e 69 60 04 be
       0.24578038 -0.423115 0.1469305 -0.12927403
000220 40 b7 59 3e 3b df d2 3d 7e 70 3d bc c0 a7 2f bc
       0.2126131 0.10296484 -0.011562465 -0.010721147
000230 a8 f1 8f be b3 c5 17 3d d9 79 36 bc ca c3 18 bd
       -0.28114057 0.037053775 -0.011137449 -0.037296094
000240 9d c7 a7 3d 79 d4 b1 bd ec 3b 8c bd f1 c4 81 be
       0.0819237 -0.08683104 -0.06847367 -0.25345567
000250 73 ec 56 3e d5 09 45 bd 41 82 8b 3e 89 f2 79 3e
       0.20988636 -0.04810508 0.27247813 0.24408926
000260 13 ff ec 3d 5a 38 28 be 56 96 39 bd ee 3b a4 be
       0.11572089 -0.16427746 -0.045309387 -0.32076973
000270 8a 07 45 be e3 c4 d4 3d 3b e7 77 be 76 1b 14 3d
       -0.19241157 0.10389116 -0.24209301 0.036159
000280 15 45 4d 3d 26 91 e7 3d 27 1e 62 be 95 e7 4a 3e
       0.05011471 0.11306982 -0.22081815 0.19814904
000290 33 5e 1b bd 19 1a b3 3c 5c 19 4d 3e 72 82 16 3d
       -0.037931632 0.02186303 0.20029205 0.036745496
0002a0 da 8e 88 3d a2 b5 44 3e c9 8d 77 3e 9a 98 a0 bc
       0.06667872 0.19209912 0.2417518 -0.019604016
0002b0 08 23 ac bd 09 ec 79 3d a5 24 91 bd b1 01 33 be
       -0.08405119 0.061016116 -0.070870675 -0.17481114
0002c0 1c 11 07 3e 4e 1f 39 3d 19 cb b9 3d b3 c2 22 bd
       0.1319012 0.04519587 0.09071941 -0.03973646
0002d0 54 19 51 be 84 40 30 be a5 e5 1b be a3 e0 cb 3d
       -0.20419818 -0.17212111 -0.15224321 0.099549554
0002e0 f5 99 e0 3d 98 80 b9 be 79 a9 83 bd 0c b5 0b 3e
       0.10966865 -0.36230922 -0.06428809 0.13643283
0002f0 cc 55 e4 3e 8e 93 c3 be 99 d7 7e 3e f8 03 84 3e
       0.44596708 -0.38198513 0.24886931 0.25784278
000300 7e 80 17 bd 62 1a 3c be 91 bd 02 3e 86 11 a3 bd
       -0.036987774 -0.18369439 0.12767626 -0.07962327
000310 61 18 0f be 42 8f b7 be 34 5c 05 3e 0a db 0f 3e
       -0.13974144 -0.35851485 0.13023454 0.140484
000320 85 45 71 3e 96 30 07 be 4a 47 ae bd 0f 8f 8a be
       0.23561676 -0.13202128 -0.08509691 -0.2706227
000330 0e fc b5 be f1 07 b8 3e 35 ad 74 3e 06 91 dd 3d
       -0.35543865 0.3594356 0.23894198 0.10818677
000340 a4 fb 0b be 97 3c 1a bb be 04 b5 ba e4 53 28 3d
       -0.13670212 -0.002353465 -0.0013810617 0.04109563
000350 64 ed 17 3e aa 54 a3 3e 28 b4 3f 3e 20 e1 c2 be
       0.14836651 0.3190053 0.18721068 -0.38062382
000360 a6 84 ae bd 2d b4 a8 3c a2 55 d1 3d 73 cf 17 be
       -0.085213944 0.020593727 0.10221411 -0.1482523
000370 5c e7 da 3c bf ba 9c 3e 51 98 98 3e 0c c6 81 bd
       0.026721649 0.30611226 0.29803708 -0.063366026
000380 5f fe c9 bd 63 38 dd 3d 5b fd 03 3d 3b 08 74 be
       -0.098629706 0.108017705 0.03222404 -0.23831265
000390 e7 f1 f4 3b dc 44 1c 3e c1 af 91 bc e5 67 d7 bd
       0.007475126 0.15260643 -0.017784001 -0.10517863
0003a0 ba a1 eb 39 14 c4 11 3e 02 47 1f be 49 f6 06 be
       0.0004494319 0.14234954 -0.15554431 -0.13179888
0003b0 c9 6d 1d 3e 9b 8e 0d 3d 83 42 f5 bd e4 ec 6a be
       0.15373911 0.034559827 -0.11975577 -0.22941929
0003c0 41 be 88 bd b8 4a 6b 3c 80 5a a9 3e c8 57 d0 3d
       -0.06676913 0.014361076 0.3307686 0.10172993
0003d0 4c c0 1b 3e eb eb 56 3e c5 c5 ee 3d 0b 94 cc bd
       0.15210074 0.20988433 0.11658815 -0.099891745
0003e0 e5 11 42 be 73 e5 4e 3e 24 17 db 3e 86 27 90 3d
       -0.18952139 0.20204715 0.42791092 0.070387885
0003f0 ff 29 83 be c9 3a a4 bd 80 cb 3c be c8 f2 98 3d
       -0.25617978 -0.08019025 -0.18437004 0.07468182

network_body._body_endoder.seq_layers.0.bias f4 [128]
000000 d5 f2 06 3d 01 51 2e bc 35 77 5a bc 39 3b 02 3b
       0.032946426 -0.01063943 -0.013334085 0.0019871725
000010 7d d2 ba bc 44 be 0f 3d a5 e0 2e bc 6f 79 1e ba
       -0.022805447 0.03509356 -0.010673677 -0.00060453167
000020 c3 7b a9 bb 7b b5 14 bd a0 ee a4 3c 72 02 45 3b
       -0.0051722242 -0.036305886 0.020133317 0.0030061272
000030 5f f2 f1 3b dc 1d 42 3a 0d 64 fa 3b 3e 22 b8 3c
       0.007383629 0.0007404962 0.0076413215 0.022477265
000040 58 54 88 39 97 87 6d bc ed 36 cd 3b 35 08 0e 3d
       0.00026002782 -0.014497659 0.006262651 0.034675796
000050 cd 6f ee 3c e2 1c d6 3c 55 cc 2e 3a fe 64 1f 3d
       0.029106045 0.02613682 0.0006668021 0.038914673
000060 28 6d 0d bd 4b 68 fd 3c b0 eb 15 b9 f2 a7 52 3c
       -0.034527928 0.03093352 -0.00014297548 0.012857424
000070 8a 89 65 3c 9d 27 4e bc 89 69 0e 3d 08 4c 8c 3a
       0.014009843 -0.012582687 0.034768615 0.0010703811
000080 c6 fa 8b 3c fd 41 e5 3c 6b d2 48 3c 03 05 8a bc
       0.017087352 0.027985567 0.012257199 -0.016848093
000090 9d a2 3d 3c d5 bf b8 3c 31 e3 6d 3c d7 17 ff 3c
       0.011574415 0.02255241 0.014519499 0.031139297
0000a0 48 5a a8 3c b6 15 ae 3b 22 95 81 3d 69 22 3a 3d
       0.020550862 0.0053126467 0.06327273 0.045442972
0000b0 a4 7b 9c bc 4b f5 06 3d 0a ff bf 3c 3f 91 98 bb
       -0.019101925 0.032948773 0.023437042 -0.0046559866
0000c0 d4 bf fc 3c e2 8a 0e bd 66 29 dd 3b a0 8d 4f bb
       0.03085319 -0.034800418 0.00674932 -0.0031670108
0000d0 cb 4b 28 bd 47 10 c4 3c 73 c2 00 3d cb 9c 97 3c
       -0.041087907 0.023933543 0.03143544 0.018507382
0000e0 bf 8b 13 bd d1 b3 eb bc 79 e4 18 3d 69 da 5d b9
       -0.036021944 -0.028772267 0.037327264 -0.00021157567
0000f0 01 59 eb 3c df 20 e7 3c de 42 0e bd 95 7f 32 3d
       0.028728964 0.028213916 -0.03473174 0.043578703
000100 3a 94 a6 bb e4 c1 90 bc 6b 9f 93 bb 1e c4 00 3c
       -0.005083588 -0.01767058 -0.004505088 0.007859258
000110 a5 be 19 3a 5e 21 92 bb c0 04 92 3c ef 26 21 3d
       0.0005864895 -0.004459544 0.01782453 0.03934377
000120 fd eb 2b bc 9c 9f c9 3c 5b 90 99 bc 95 e2 47 3c
       -0.010493276 0.02461224 -0.018745592 0.012200017
000130 70 c6 d0 bc bc 39 ab bb c6 7f fe 3c 6a 5e e6 bb
       -0.025485247 -0.0052253883 0.031066786 -0.007030298
000140 21 89 41 3d 54 74 c4 b9 97 b8 f0 3c a3 60 84 3d
       0.047249917 -0.00037470704 0.029384894 0.064637445
000150 8a 0b 3c 3d ed 69 a5 bb 2d 3e 27 bc 6f 47 b9 b8
       0.045909442 -0.0050480277 -0.010207695 -8.834793e-05
000160 42 ec 57 3c ef f5 90 3c 9e c2 90 bb 67 25 80 3c
       0.013178887 0.017695395 -0.0044177314 0.015642835
000170 02 8d 25 3c 60 7a cc 3c 37 e9 3f 3c aa 81 3b 3c
       0.01010442 0.024960697 0.011713318 0.011444489
000180 d4 f0 1f 3d e4 8b f0 3c e0 4f 6b 3c 34 d8 0c bd
       0.03904803 0.02936358 0.014362305 -0.034385875
000190 f0 8c 7c bc b3 15 06 3d 9c 4c 01 3d a0 76 e2 ba
       -0.0154144615 0.032735538 0.0315672 -0.0017277785
0001a0 c9 7d e1 3b d5 ed 8a 3c a7 74 b8 3c 99 79 19 bc
       0.00688145 0.01695911 0.022516562 -0.00936737
0001b0 83 ef 4f 3b 61 35 ba 3b 5e 46 c0 3c 26 bd 08 bd
       0.0031728453 0.005682633 0.023471054 -0.03338351
0001c0 37 34 01 3d 23 0d 2b 3b 1d a4 4a 3d 60 92 0c bc
       0.031543937 0.002610036 0.049472917 -0.00857982
0001d0 35 ac a0 bc ea c2 43 3b ed 93 94 bc 12 42 a6 bb
       -0.019613365 0.0029870817 -0.018136943 -0.005073794
0001e0 58 92 43 3d 3a 6d d1 3b 1b 74 35 bd 85 d9 49 3c
       0.047746986 0.0063911946 -0.04430018 0.012319927
0001f0 97 35 09 bd aa f6 59 bc 1a bb 2b bb b0 40 ed 3a
       -0.033498373 -0.013303438 -0.002620405 0.0018100943

network_body._body_endoder.seq_layers.2.weight f4 [128, 128]
000000 8a 35 52 bc c8 a8 10 be ef 2e 3f 3d 46 1c f7 bc
       -0.0128301475 -0.14126885 0.04667562 -0.030164849
000010 83 9a 7c bc 15 e3 71 bd c3 30 23 bd 32 26 00 bd
       -0.015417698 -0.059054453 -0.039841425 -0.031286426
000020 80 1e 46 3d 3f f8 1d be 3a 7e df 3c e4 38 bb 3b
       0.04836893 -0.1542673 0.02728187 0.005713569
000030 ae f3 5e 3d 66 e0 33 bd 44 db ff 3c 91 d9 81 3d
       0.05443161 -0.043915175 0.031232484 0.063403256
000040 ac a8 d5 3d e2 0e 9e 3d 2d 5d 89 bd e4 a8 71 3d
       0.10432562 0.077176824 -0.06707225 0.058998957
000050 64 d6 cc 3d 4b f8 86 bd 7d bb 5b 3d 9b 8e fe bd
       0.10001829 -0.06590327 0.0536456 -0.124295436
000060 ae 1c 78 3d df 37 bb bd 3d 35 97 bb ba f7 c9 bc
       0.060574226 -0.09141516 -0.004614501 -0.024654258
000070 ca 64 10 be cf fb a5 bd fb ff a8 3d 6d b9 99 bc
       -0.14100948 -0.08104669 0.082519494 -0.018765176
000080 aa 0c 41 3e 6a 7a 9c 3d 58 e2 f7 3d e7 6b 20 be
       0.18852487 0.07640536 0.121037185 -0.15666161
000090 ba 69 9b 3d 9f 46 0e 3d e5 2b 20 3d 3c 38 3f bd
       0.07588525 0.03473532 0.03910436 -0.04668449
0000a0 10 91 88 3c b2 e5 0f 3e e5 50 88 bd e9 94 43 bd
       0.016670734 0.14052466 -0.066560544 -0.047749434
0000b0 b9 42 f3 bd f7 6f 6d bd 47 c8 21 3d a2 aa 84 bd
       -0.11877961 -0.057968106 0.03949764 -0.06477858
0000c0 d4 98 49 3d 1a 56 b2 bd 59 16 73 3d 41 a9 76 bd
       0.049218014 -0.08707829 0.059347484 -0.060220007
0000d0 e7 66 04 3e f5 10 77 bc 97 94 d2 bc a6 a9 62 3e
       0.12929879 -0.015079726 -0.025705619 0.22135028
0000e0 da 9f 0b 3e 43 3d 74 3d c8 e5 13 bd 45 5b 5a bc
       0.13635197 0.059628736 -0.03610781 -0.013327424
0000f0 5d 14 1c 3e 7d 1d 3e be de 91 be bc 68 21 99 bd
       0.15242143 -0.18565936 -0.023262914 -0.07477075
000100 48 91 8e 3a f3 74 ab 3d 0e df 9e 3d cb 0e d4 bc
       0.0010877037 0.08371916 0.07757388 -0.02588596
000110 0f bf c1 3c 82 fc 6f bd ea 53 68 bb 4c 63 12 bd
       0.023650674 -0.05859042 -0.0035450407 -0.035739228
000120 fa 46 13 3e 9b fb 64 3d 34 e8 ad 3d 53 98 0a be
       0.14382544 0.055904012 0.08491555 -0.1353467
000130 86 9e 12 bd c9 43 00 3e 3e 46 78 bb 60 fa d8 bd
       -0.03579571 0.12525858 -0.0037883664 -0.1059463
000140 73 b7 21 3d 05 fe 65 bc 3d e6 93 bd 2a 12 1b bd
       0.03948159 -0.014037614 -0.07221649 -0.03785912
000150 7b fa 0e be 51 c6 47 3d c0 ba 87 39 d7 cc 91 bd
       -0.13962738 0.048773114 0.00025888346 -0.07119148
000160 7c 5c 85 bc 15 e4 f1 bd 25 36 f7 3d d7 5e da 3d
       -0.016279452 -0.11811081 0.12070874 0.106626205
000170 29 33 ed 3d 1d 77 89 3c 06 20 a1 3c 48 a7 a3 bd
       0.11582024 0.01678043 0.01966859 -0.07990891
000180 c2 78 8c bd 7c 58 fa 3d 5a f0 3e 3d a3 58 59 3c
       -0.0685897 0.12223908 0.046615936 0.013265762
000190 25 ad 15 3e 98 80 f1 3c bd f3 ba bc 0f 86 be bc
       0.1461683 0.029480264 -0.022821302 -0.023257283
0001a0 68 be 2e 3d 94 a7 11 bd 0a ff 7b 3b e4 d7 e4 3d
       0.042662054 -0.035560206 0.0038451576 0.1117399
0001b0 09 c6 4d bd b8 d3 e5 bd e6 6e 0b bd cd 23 a1 bd
       -0.05023769 -0.11222023 -0.034041308 -0.078681566
0001c0 15 a5 f8 3c a7 e0 ee 3d 1a 21 0d bd 41 68 78 3d
       0.030352155 0.11663943 -0.034455396 0.0606463
0001d0 c4 a9 8f 3d d3 37 f7 bc 8f 4e ef 3d c8 35 3b bd
       0.07014802 -0.030177986 0.11684906 -0.045705587
0001e0 69 51 a7 bd 91 ed 80 3d 0f 29 98 3d 6c 15 cc ba
       -0.08169825 0.06295312 0.07429706 -0.0015570349
0001f0 50 45 65 3d 8d ec 8a bd 96 a8 b9 3d c8 2d be 3d
       0.055974305 -0.067834 0.09065358 0.09286076
000200 7e 5f d8 3d 0c 28 a7 3d b5 5c 8f be 45 89 fa 3c
       0.10565089 0.08161935 -0.28000417 0.030583033
000210 09 28 68 be 00 67 01 be da 18 4a bd 65 1c c7 bd
       -0.22671522 -0.12636948 -0.049340107 -0.09722213
000220 10 f0 d7 3d ca 02 52 bd cc d5 31 3b 48 be fe 3d
       0.10543835 -0.05127219 0.002713549 0.12438637
000230 a9 0f cf 3d be 16 09 be 24 6f ad 3d da 6d 92 3d
       0.10110409 -0.13387582 0.08468464 0.07149859
000240 fb e1 0b 3c ed 54 13 3d d7 0f 00 3e 66 32 24 3e
       0.008537765 0.035969663 0.12506042 0.1603485
000250 5b 30 a6 3c 02 62 8f 3d ab 35 26 3d 10 d8 7f 3c
       0.02028673 0.070011154 0.040578526 0.015615478
000260 8e 03 88 bd 16 5d 83 3c e6 2d 6a 3d 01 b9 7e bc
       -0.06641303 0.016035598 0.05717268 -0.015547038
000270 0e d3 e9 bc fa 12 3f 3d 98 db bb 3d ab 7c b7 3d
       -0.028543022 0.046648957 0.091727436 0.089593254
000280 20 b9 db bc 5d e9 5d 3d fb 1a da bd 08 eb c5 3c
       -0.026821673 0.05417763 -0.10649677 0.024159923
000290 d5 29 ca bc ec b8 fc bd 45 84 27 3c 4b 12 bc 3d
       -0.02467815 -0.123399585 0.010224407 0.091831766
0002a0 ba 95 8c 3c d3 04 82 bd 3e 6a aa 3d 1c d9 06 be
       0.017161239 -0.063485764 0.08321045 -0.13168758
0002b0 0f 09 14 be 29 ef 89 3e b6 e7 52 39 81 30 43 be
       -0.1445658 0.26940277 0.0002011348 -0.19061472
0002c0 0a 89 f3 3d e7 5c 43 be e5 1a 0e 3d f9 60 b4 bc
       0.118913725 -0.19078408 0.034693617 -0.022018896
0002d0 93 99 88 3b 72 22 9d 3c 6c 70 eb bb 46 78 9a 3d
       0.004168698 0.019181464 -0.0071850326 0.075424716
0002e0 c6 f9 ad 3c 21 d4 02 be 6a ca 6c bd d1 2e 60 bc
       0.021237265 -0.12776233 -0.057810225 -0.013683037
0002f0 a0 f9 96 bd 88 53 be 3c eb 0a 34 be 4f 74 af 3d
       -0.07371831 0.02323319 -0.1758229 0.08567106
000300 a9 cb 59 be 85 98 14 3e 04 a9 4b 3d cc 3f 0f bd
       -0.21269096 0.14511307 0.049721733 -0.03497295
000310 0e f6 11 be a4 a6 5f 3d 18 4d ff 3a ba 9b 1d be
       -0.14254019 0.05460228 0.0019477932 -0.15391436
000320 69 98 11 3e 21 b6 87 3b a1 77 db bd 5b 67 62 bd
       0.14218296 0.0041415845 -0.10716177 -0.05527435
000330 98 25 eb bd 9c c7 fc bb f0 94 0d 3d 5d 29 f4 3c
       -0.1148178 -0.007714225 0.034565866 0.02980488
000340 a3 10 08 3e f9 9d f8 3d 58 d4 5b bc 04 5c 34 bd
       0.13287596 0.12139506 -0.013417326 -0.044033065
000350 45 c8 b0 bd d1 95 27 be 64 8e b8 bd aa 6b 2e be
       -0.086319484 -0.16365744 -0.09011534 -0.17033258
000360 8b 35 91 bd 4e 6e 55 3d a0 0a 15 3e e2 dd 90 bd
       -0.07090291 0.052107148 0.14554834 -0.07073571
000370 e3 cc 59 bc db ac 05 3d 0a 9c cb bb f4 f2 2c 3e
       -0.013293478 0.03263555 -0.0062136697 0.16889554
000380 46 ca 9e bd a3 26 5a 3e b7 28 c7 bd a0 47 ec bc
       -0.07753424 0.21303801 -0.097245626 -0.028842747
000390 90 a5 26 bd 37 de 98 3d 26 96 95 3d 19 e7 79 bd
       -0.040685236 0.07464259 0.07304029 -0.061011408
0003a0 32 30 1b be 50 98 8f bd 46 4a 2f 3c 1f 4c 16 bd
       -0.15155104 -0.07011473 0.0106988605 -0.03669369
0003b0 7f a0 91 3d fd 4a 7f bd 93 fa 8b bb 42 59 92 bd
       0.0711069 -0.062327374 -0.004271814 -0.07145931
0003c0 33 2b 55 3e e7 36 01 3d 68 44 d3 3c a2 83 14 3d
       0.2081726 0.0315465 0.025789455 0.036258347
0003d0 9b 4a 07 bd 46 a9 3b bc e9 29 91 bd 81 5f 11 3e
       -0.033030134 -0.011453932 -0.07088072 0.14196588
0003e0 c0 f2 bb 3d 8a 33 0f bd 96 86 d3 bb ed 10 b8 3c
       0.0917716 -0.03496126 -0.006455253 0.022469008
0003f0 3e af 8e bd 7e 2f a3 bc 74 4a 1e bc 6c 92 d4 3d
       -0.069670185 -0.019920107 -0.009661306 0.1037949

network_body._body_endoder.seq_layers.2.bias f4 [128]
000000 f2 e5 3c 3c a0 fe 95 3c 00 df 38 3c e4 4b 51 bb
       0.011529433 0.018309891 0.011283636 -0.0031936103
000010 d2 28 14 bc 72 7d cd ba 08 09 4b 3c 3d 41 20 3c
       -0.009042935 -0.0015677644 0.01239229 0.009781179
000020 37 18 ac bb fd bc 90 bb 0b da 2d ba 97 3a e0 3a
       -0.00525191 -0.0044170604 -0.0006631917 0.0017107305
000030 55 c9 04 3d 3c 7e 8d 3b a1 05 36 3c be dd 4c 3c
       0.032418568 0.004318027 0.0111097405 0.012504039
000040 07 78 e6 3b 20 f5 9c bc a6 2d 02 3c 7f a3 f6 3c
       0.0070333513 -0.019159853 0.007945454 0.030107258
000050 a4 41 b6 3c 47 1f 4a bb ee 64 83 3c 1f 7c d1 3b
       0.022248097 -0.0030841397 0.016039338 0.00639297
000060 6e d7 c5 3c f5 65 0d 3d 8c 0a 94 3b 79 f7 43 3b
       0.024150576 0.034521062 0.004517859 0.0029902144
000070 30 04 c2 3a 50 cf 11 bc 7f e4 0d bc 91 7f 52 3d
       0.0014802273 -0.008899525 -0.008660435 0.051391188
000080 b5 0a e3 bb 93 81 c0 3b 42 f1 3a 3d 10 ba 46 3d
       -0.0069287666 0.0058748215 0.045640238 0.048517287
000090 18 4f cd 3c 64 f9 0c 3c d9 67 5f 3c ef 21 24 bc
       0.025062129 0.008604381 0.013635599 -0.010017856
0000a0 eb 1f 97 3c 48 e8 45 3c fa 5e ac 3b 7f 0e e7 3c
       0.018447837 0.012079306 0.0052603455 0.028205154
0000b0 dc ee 41 3c 91 e3 6a 3c 25 5f c1 3c 8d 44 8d 3c
       0.011836734 0.014336483 0.023604939 0.017244602
0000c0 88 81 d9 bb 12 69 06 3d 78 52 30 bc da 3f 83 3b
       -0.006637756 0.032815047 -0.01076185 0.0040054144
0000d0 04 88 02 3d 91 9b 9f bb c3 94 55 3c 32 0e 00 3c
       0.031867996 -0.00487084 0.013035956 0.007815884
0000e0 0b 6a dc 3c 51 1e f2 3c 0f 6f 10 3d b9 15 83 3c
       0.026906034 0.029555472 0.035262164 0.01600157
0000f0 3a bc 35 3d 8c b7 12 3d 42 73 47 3c 5c 29 3e 3c
       0.04436896 0.035819575 0.012173476 0.0116065405
000100 2d b9 ac 3c ab 8e e0 3c 3b c3 30 3c 25 1a 85 3b
       0.021084392 0.02741178 0.010788734 0.0040619546
000110 45 43 de 3b 56 7d c4 3b d6 a2 83 3b 17 02 5b 3b
       0.0067829215 0.0059963865 0.0040172143 0.0033417994
000120 db fb 72 ba c7 07 65 3c 26 fb fd 3a a0 60 28 3c
       -0.0009269097 0.013978905 0.0019377216 0.010276943
000130 cb 62 b5 3b de 52 c0 3c 47 ba 41 3c af c9 8d ba
       0.0055354587 0.023477014 0.011824197 -0.0010817553
000140 8f ac 85 bb 80 5d 2a 3b 8e 85 0e 3c 8d 3a 45 3c
       -0.0040794085 0.0025995672 0.008698834 0.012037885
000150 5e b8 41 bb 66 29 89 3b 4c 2b a0 3c 65 7e d4 3b
       -0.0029559354 0.0041858433 0.019551896 0.006484794
000160 e4 df 5a 3c f9 d6 36 3c 70 17 b0 bb 33 33 0b 3d
       0.013359044 0.011159652 -0.0053738877 0.033984374
000170 57 09 fa 3c 62 3d b9 3b 18 82 58 3c d6 01 41 3d
       0.030522032 0.0056530694 0.0132146105 0.04712089
000180 84 ec 9a bb 8b db 00 3c 5a f8 31 bd e0 c7 69 bc
       -0.004727902 0.007864843 -0.043449737 -0.014268845
000190 11 33 1f 3d 15 19 dc 3c 34 d1 61 3c af 3a 08 3d
       0.03886706 0.026867429 0.013782788 0.03325909
0001a0 ef f3 ec 3c bc 46 c2 3b 06 3e 61 3c b8 28 ab bc
       0.02892491 0.0059288424 0.013747698 -0.02089344
0001b0 ac ff 85 3c 39 1d cb 3c fc 4f eb 3c fc 47 77 3c
       0.016357265 0.024794208 0.028724663 0.015092846
0001c0 67 e0 42 ba 67 a0 33 3a 0a ec 5a 3c 05 cc 89 3c
       -0.0007433951 0.000685221 0.01336194 0.016820917
0001d0 30 1c cd 3b 56 0d 84 3a 53 9f e6 3b f5 95 7b 3c
       0.0062594637 0.0010074775 0.007038036 0.015355577
0001e0 25 06 8b 3c 76 46 39 bc fe 52 85 3c 13 8f ef 38
       0.016970703 -0.011308303 0.016274925 0.00011423058
0001f0 65 6e ae 3c 2c 12 f1 bb 16 e9 40 3d b4 d6 41 3c
       0.021292875 -0.0073569026 0.047097288 0.011830974

action_model._continuous_distribution.log_sigma f4 [1, 2]
000000 78 8b 93 bc 88 a9 5a bc
       -0.01801084 -0.013346083

action_model._continuous_distribution.mu.weight f4 [2, 128]
000000 6e 7c e4 bc e6 34 00 3d 9f 56 11 3d 58 ce ed bc
       -0.027891364 0.031300448 0.035483 -0.029029056
000010 55 91 93 3b 00 2b d4 3b 9f fa de bc b3 6a 02 bd
       0.004503409 0.0064748526 -0.027219115 -0.031840038
000020 83 6e 06 bd e5 e1 bb 3b 59 7d 9c bc 85 c9 95 3c
       -0.032820236 0.005733716 -0.01910274 0.018284569
000030 63 8b 24 bd 2b 2a 3e 3c 71 5f 9f bb 71 3e 7c ba
       -0.040171992 0.011606733 -0.0048636724 -0.00096223416
000040 de df 87 3b fa c3 cf bb 83 5a 0e bd c9 af 6c bc
       0.00414656 -0.006340501 -0.034754287 -0.014446207
000050 20 78 b4 3c ff 93 37 bd 93 87 3d bd 59 e6 86 bc
       0.022029936 -0.044818874 -0.04627187 -0.01646726
000060 a6 c3 1b 3d ed 37 65 3d 15 10 2e bd d6 e7 9e 3c
       0.03802838 0.055961538 -0.042495806 0.019397657
000070 e9 e3 35 bc ff 90 2d bc 96 34 bf 3b 66 b9 6e 3d
       -0.011101701 -0.010593652 0.005835126 0.05828228
000080 c1 b9 d7 bb ae b4 ad 3c f7 0a 8c 3c a8 72 80 3d
       -0.006583423 0.021204319 0.017095072 0.06271869
000090 d1 1c 2d bd 2f 3b ee 3c d4 b1 da bc 08 41 a0 ba
       -0.04226381 0.029080955 -0.026696123 -0.0012226412
0000a0 39 28 00 3c 8d 95 a1 3c a1 bc 75 3b 5d cd 2e 3d
       0.00782209 0.019724632 0.0037496465 0.04267632
0000b0 19 c8 db 3b 96 d7 44 bd 42 1c 0f 3d 14 8f 14 bb
       0.006707203 -0.04805716 0.034939058 -0.002266829
0000c0 55 fc 5f bc a7 b0 41 3d 97 3a 0c bd a8 dd 9e ba
       -0.0136710005 0.04728761 -0.034235563 -0.0012120502
0000d0 11 4e 08 3c d1 d9 19 bc 1a 1a 3d 3c 9b c7 74 bd
       0.008319394 -0.00939031 0.011541868 -0.05976067
0000e0 61 d0 10 bd 35 61 86 bd 31 89 f2 bb f5 54 2a 3d
       -0.035354976 -0.065615095 -0.0074016084 0.041584928
0000f0 41 be 62 3d da 6c 84 3d 6b 90 06 bc 0e 1e e7 3c
       0.05535722 0.06466074 -0.008213143 0.028212573
000100 a6 05 92 bc 26 3a 46 bc e2 ec 6c 3c 75 76 f5 3c
       -0.017824959 -0.012098825 0.014460774 0.029963711
000110 41 61 f0 3c 54 60 6b bc a5 1d 88 3c ea aa bb 3c
       0.02934325 -0.014366228 0.016615698 0.022908647
000120 1c 6e af 3c 12 3e 1c 3d fc 81 42 bc 64 b4 60 bd
       0.021414809 0.038145132 -0.011871811 -0.054859534
000130 31 3c 8b 3c bc bc 85 3c 2e a9 46 bd 16 e6 85 3a
       0.016996475 0.016325347 -0.048501186 0.0010215666
000140 89 af c5 bc 76 b7 ef bb 9f d4 b7 bc 64 29 e6 bc
       -0.024131553 -0.0073155714 -0.022440253 -0.028095908
000150 6d 38 2f 3c a3 01 58 bd 6d 40 00 3d cf c1 4e bc
       0.010694605 -0.052735936 0.03131144 -0.01261945
000160 33 f3 19 bd 67 22 83 3d 19 b1 c6 bc ed c2 d0 3c
       -0.03758545 0.06403046 -0.024254369 0.025483573
000170 ba fb 9a 3b 58 b1 f1 bc 8d ae 3b 3d 13 6c 8f 3d
       0.004729715 -0.02950351 0.04582076 0.070030354
000180 80 a2 ab bc 48 85 f9 bc bd 54 55 bc 48 91 96 bc
       -0.02095151 -0.030459061 -0.013020691 -0.018379822
000190 f9 1f b9 3d 23 39 06 3d b0 76 98 bc 16 24 fd bb
       0.090393014 0.032769334 -0.018611282 -0.007725249
0001a0 2e 21 0d bd ea 3e 40 bc ea c2 33 3d 33 91 05 bc
       -0.03445547 -0.01173375 0.043887056 -0.008152294
0001b0 bf ee 14 3c 63 7f 00 3d b3 67 bf bc 50 9f 6e 3d
       0.009090125 0.031371485 -0.023364877 0.0582574
0001c0 46 2e 36 3d 22 9a ff 3a a5 5d f4 bc fa 70 aa bc
       0.044477724 0.0019500891 -0.02982981 -0.020805825
0001d0 c1 dc ba bc a9 f2 c9 bc 24 1e 6e bd 42 0e 90 3b
       -0.022810342 -0.024651842 -0.058134213 0.004396231
0001e0 af d0 4a bd de e5 b5 3b 5c 6a 31 bc 56 9c 24 3b
       -0.049515422 0.005551084 -0.010828581 0.0025117598
0001f0 e5 9f 3e bd c7 b7 ce 3b 81 d2 43 bd 8d d9 4b bc
       -0.046539206 0.006308529 -0.047808174 -0.012442005
000200 32 1f c1 3c b1 78 ee 3c b6 74 72 bc 8f 23 a2 bc
       0.023574445 0.029110285 -0.014798334 -0.019792346
000210 06 81 04 bd 84 e3 a1 3b ae f7 46 3d c8 bd 65 bd
       -0.03234961 0.004940452 0.04857605 -0.056089193
000220 5a 52 92 3b 6f a1 0e bd dc 7a 7f bc 99 9e f7 bb
       0.0044653835 -0.034821924 -0.015593257 -0.007556748
000230 1d 49 54 bd 5c 6d 1b 3b 43 ac bd 3c c9 5c 92 3c
       -0.05182754 0.0023716306 0.02315343 0.017866509
000240 99 e2 1a 3d 3d b6 c3 bc 03 04 13 3c 29 90 55 bd
       0.037813757 -0.023890609 0.008973124 -0.052139435
000250 2e d6 85 bd df 7f c7 bc b1 ab 27 3d 8b bd 4c bd
       -0.06534992 -0.024352966 0.040935222 -0.04998545
000260 02 86 9e bc 27 a5 1e bd 55 4b 67 39 77 4e 15 bd
       -0.01935101 -0.03873172 0.0002205794 -0.036451783
000270 b7 aa 47 bc bd 2e 51 bc fc 47 5d bb c3 c6 95 3a
       -0.012186698 -0.012767491 -0.003376483 0.0011427033
000280 06 07 75 bb 92 1b 3d 3b 28 b0 79 3d f6 37 10 bc
       -0.003738822 0.0028855545 0.06095901 -0.008802405
000290 15 2b fd 3c 94 58 e5 bc fc 86 67 3d cb 45 f7 bc
       0.030904332 -0.027996339 0.056525216 -0.030184647
0002a0 d8 71 f3 3c 93 6c 7e bd 8d e5 49 3c 25 c9 3a 3d
       0.02971737 -0.062115263 0.012322796 0.045601983
0002b0 48 36 42 3d 3a 2c 0c 3c a8 76 0c ba 0a 99 08 3d
       0.047415048 0.008555466 -0.00053582573 0.033349074
0002c0 1e 9e 69 bb fa 3d d6 3c c8 1b b3 bc 1e b7 10 3d
       -0.0035647224 0.0261526 -0.021863833 0.035330884
0002d0 95 be 01 3d 3e 60 68 3b ad bf 81 bd ae 48 f2 3c
       0.031675894 0.0035457755 -0.063353874 0.029575672
0002e0 24 c2 44 3d 5c 16 e6 3c 4a bc 22 3d bd 56 21 bc
       0.04803671 0.028086834 0.039730348 -0.00984734
0002f0 0a 84 13 3d c6 29 e6 bc f1 13 33 3d ae 33 89 bc
       0.036014594 -0.028096091 0.04372019 -0.016748276
000300 1c 54 3e 3d 84 01 ce bc 04 5a b3 3c af 55 cb bc
       0.04646693 -0.025147207 0.021893509 -0.02482113
000310 24 b4 39 3c 88 15 e5 bc 91 2f c8 bb af 8f 86 3b
       0.011334453 -0.027964368 -0.006109186 0.004106484
000320 b9 ce fd ba c3 a1 87 bd e8 97 14 bd a8 aa 1d bd
       -0.0019363976 -0.066226505 -0.03627768 -0.03849283
000330 0a a4 06 bb d6 1c 82 3d af 65 ee bb be 57 e8 3a
       -0.0020544552 0.06353156 -0.007275305 0.0017726345
000340 12 70 53 ba 47 d7 00 3c 96 29 17 3c 28 10 6a bd
       -0.0008065711 0.007863826 0.009226223 -0.057144314
000350 24 8c 5e bd 96 49 9b bb 3e a6 44 3c a7 0d 08 3d
       -0.054332867 -0.0047389967 0.012002526 0.033216145
000360 31 f7 1a bd ed 6c b3 bb 2f a6 de 3b 8b 6f 7f bd
       -0.037833396 -0.0054756314 0.006794713 -0.062362235
000370 2b 03 3d bd ae f4 4a bb ca 9b 14 ba 39 12 42 3d
       -0.0461456 -0.0030968594 -0.00056689663 0.04738066
000380 05 06 06 bd fc cf ef bc 60 af b2 3b 05 9b 6d bc
       -0.032720584 -0.02927398 0.0054530352 -0.014502292
000390 c7 b7 1d bc 6e 54 6a 3c c8 d0 ce bd 2d 60 32 3d
       -0.009626335 0.014302356 -0.100984156 0.04354875
0003a0 82 5a 81 3d 1f 1b b1 bc 84 28 59 3c 55 92 05 bb
       0.06316091 -0.021619378 0.013254289 -0.002038141
0003b0 4d a5 5c bd 1b 8f 30 3d f1 01 25 3d 22 ce 93 bc
       -0.05386858 0.043105226 0.040285055 -0.018042628
0003c0 0d 82 41 bc 92 fc 0b bb c5 2d 3c bc b5 9c e5 3c
       -0.011810792 -0.002136026 -0.011485522 0.028028825
0003d0 25 41 80 bc 67 58 97 3b 0c 62 8e bb 20 f3 33 bd
       -0.015656063 0.0046186927 -0.004345184 -0.043933034
0003e0 a9 c5 a4 bc b5 2b f3 bc 55 42 1c 3d a4 d6 4c 3c
       -0.020113783 -0.029683927 0.038149197 0.012502346
0003f0 1e 25 1b bd a9 07 69 bc d3 e1 58 bd 8a d2 36 3d
       -0.037877195 -0.014223018 -0.052949738 0.04463438

action_model._continuous_distribution.mu.bias f4 [2]
000000 28 df ac 3b bf ba cd 3b
       0.0052756257 0.0062783654
