3D/results/ppo/MoveToGoal/MoveToGoal-1024.pt (torch, 146005 bytes, 11 tensors)

network_body._body_endoder.seq_layers.0.weight f4 [128, 1]
-0.097070895 -0.124150716 -0.20695846 -0.24664402 0.250816 0.7081784 1.7270511 -1.5330378
1.3361635 0.9157548 -0.7011631 -1.1689794 -0.85601556 -0.8752003 -1.0407249 1.8907607
0.032259323 0.7389101 -0.702734 1.317089 -0.59134954 -0.9912078 0.18351433 -0.38112643
-0.816757 0.3633654 1.3293785 -1.1421857 0.58419967 -1.0468593 1.1738394 0.73928446
-0.4300802 -0.8441956 -0.81320524 -1.4993184 -1.8988328 -2.5294762 -1.4967306 0.5100161
1.205468 0.98718244 0.68476325 1.2419139 0.97030795 1.2867627 -0.6565397 -1.4455398
1.4986855 0.17392573 -0.6064216 -0.6057762 -0.07907682 -0.0442805 -1.731305 0.5260997
0.73953444 -1.9773941 0.27411717 0.3798909 -0.70969236 0.03283758 1.5154996 -0.791371
1.4791028 1.4314874 0.07942157 0.7802233 -0.5782776 0.34516042 0.8514703 -0.974265
1.0503632 0.8190889 -0.09870366 -0.4676062 -0.9516633 -1.3584087 -0.87753433 0.40107256
0.1057245 1.3939334 0.93712527 0.39663488 -1.4762113 -0.091076225 -0.2850746 -0.7176781
-1.2365497 0.5578285 -0.24623191 0.8154296 -0.29317605 1.6987674 0.6647805 -0.024357434
-1.3027362 -0.016504513 1.5120188 0.37481034 -0.0043363217 -0.50945175 0.385616 1.093877
-1.0383674 -1.3630438 -0.81480855 -0.8577514 -0.23878382 -1.255165 1.8097146 -0.021115309
0.24130102 0.10046847 -0.14042538 0.66244024 -0.25522652 -0.9578811 0.4617637 0.16949631
0.34487426 0.042783856 -0.19547208 -0.5839145 -0.96618986 -2.1308012 -0.6126038 0.14173524
00000000: 1bcd c6bd bb42 febd ebec 53be 4090 7cbe
00000010: f46a 803e 2e4b 353f 0310 dd3f 953a c4bf
00000020: 6807 ab3f e86e 6a3f 6d7f 33bf 1ea1 95bf
00000030: d623 5bbf 200d 60bf 7936 85bf 7204 f23f
00000040: 5a22 043d 3629 3d3f 60e6 33bf 5f96 a83f
00000050: af62 17bf cbbf 7dbf 2eeb 3b3e 0123 c3be
00000060: fd16 51bf 080b ba3e 1329 aa3f 2433 92bf
00000070: 1c8e 153f 7cff 85bf 5f40 963f bf41 3d3f
00000080: 7933 dcbe 341d 58bf 382e 50bf aae9 bfbf
00000090: f40c f3bf f0e2 21c0 de94 bfbf 6a90 023f
000000a0: c74c 9a3f fdb7 7c3f a54c 2f3f 09f7 9e3f
000000b0: 1a66 783f a4b4 a43f fc12 28bf 7307 b9bf
000000c0: edd4 bf3f 9619 323e 723e 1bbf 2614 1bbf
000000d0: 07f3 a1bd 785f 35bd 679b ddbf 78ae 063f
000000e0: 2152 3d3f 401b fdbf 1659 8c3e 0f81 c23e
000000f0: 66ae 35bf b380 063d e4fb c13f 4a97 4abf
00000100: 3e53 bd3f fb3a b73f c7a7 a23d b7bc 473f
00000110: 000a 14bf deb8 b03e f5f9 593f 6e69 79bf
00000120: 4d72 863f cfaf 513f 2525 cabd 146a efbe
00000130: 35a0 73bf 56e0 adbf 17a6 60bf 6259 cd3e
00000140: 1686 d83d 696c b23f 71e7 6f3f ba13 cb3e
00000150: 7ef4 bcbf 2c86 babd 4cf5 91be c1b9 37bf
00000160: 4347 9ebf d9cd 0e3f 3824 7cbe ffbf 503f
00000170: 2c1b 96be 3671 d93f 0e2f 2a3f 3e89 c7bc
00000180: 0fc0 a6bf 7934 87bc d589 c13f 24e7 bf3e
00000190: b417 8ebb 6e6b 02bf 766f c53e 2904 8c3f
000001a0: 39e9 84bf 3878 aebf 4b97 50bf 9995 5bbf
000001b0: bf83 74be 3fa9 a0bf baa4 e73f 03fa acbc
000001c0: 9d17 773e 6ac2 cd3d accb 0fbe af95 293f
000001d0: 0dad 82be b237 75bf 4b6c ec3e 7190 2d3e
000001e0: 5c93 b03e 203e 2f3d d529 48be 6c7b 15bf
000001f0: 3858 77bf 0c5f 08c0 9ad3 1cbf 0b23 113e

network_body._body_endoder.seq_layers.0.bias f4 [128]
0.0 0.0 0.0 0.0 0.0 0.0 0.0 0.0
0.0 0.0 0.0 0.0 0.0 0.0 0.0 0.0
0.0 0.0 0.0 0.0 0.0 0.0 0.0 0.0
0.0 0.0 0.0 0.0 0.0 0.0 0.0 0.0
0.0 0.0 0.0 0.0 0.0 0.0 0.0 0.0
0.0 0.0 0.0 0.0 0.0 0.0 0.0 0.0
0.0 0.0 0.0 0.0 0.0 0.0 0.0 0.0
0.0 0.0 0.0 0.0 0.0 0.0 0.0 0.0
0.0 0.0 0.0 0.0 0.0 0.0 0.0 0.0
0.0 0.0 0.0 0.0 0.0 0.0 0.0 0.0
0.0 0.0 0.0 0.0 0.0 0.0 0.0 0.0
0.0 0.0 0.0 0.0 0.0 0.0 0.0 0.0
0.0 0.0 0.0 0.0 0.0 0.0 0.0 0.0
0.0 0.0 0.0 0.0 0.0 0.0 0.0 0.0
0.0 0.0 0.0 0.0 0.0 0.0 0.0 0.0
0.0 0.0 0.0 0.0 0.0 0.0 0.0 0.0
00000000: 0000 0000 0000 0000 0000 0000 0000 0000
00000010: 0000 0000 0000 0000 0000 0000 0000 0000
00000020: 0000 0000 0000 0000 0000 0000 0000 0000
00000030: 0000 0000 0000 0000 0000 0000 0000 0000
00000040: 0000 0000 0000 0000 0000 0000 0000 0000
00000050: 0000 0000 0000 0000 0000 0000 0000 0000
00000060: 0000 0000 0000 0000 0000 0000 0000 0000
00000070: 0000 0000 0000 0000 0000 0000 0000 0000
00000080: 0000 0000 0000 0000 0000 0000 0000 0000
00000090: 0000 0000 0000 0000 0000 0000 0000 0000
000000a0: 0000 0000 0000 0000 0000 0000 0000 0000
000000b0: 0000 0000 0000 0000 0000 0000 0000 0000
000000c0: 0000 0000 0000 0000 0000 0000 0000 0000
000000d0: 0000 0000 0000 0000 0000 0000 0000 0000
000000e0: 0000 0000 0000 0000 0000 0000 0000 0000
000000f0: 0000 0000 0000 0000 0000 0000 0000 0000
00000100: 0000 0000 0000 0000 0000 0000 0000 0000
00000110: 0000 0000 0000 0000 0000 0000 0000 0000
00000120: 0000 0000 0000 0000 0000 0000 0000 0000
00000130: 0000 0000 0000 0000 0000 0000 0000 0000
00000140: 0000 0000 0000 0000 0000 0000 0000 0000
00000150: 0000 0000 0000 0000 0000 0000 0000 0000
00000160: 0000 0000 0000 0000 0000 0000 0000 0000
00000170: 0000 0000 0000 0000 0000 0000 0000 0000
00000180: 0000 0000 0000 0000 0000 0000 0000 0000
00000190: 0000 0000 0000 0000 0000 0000 0000 0000
000001a0: 0000 0000 0000 0000 0000 0000 0000 0000
000001b0: 0000 0000 0000 0000 0000 0000 0000 0000
000001c0: 0000 0000 0000 0000 0000 0000 0000 0000
000001d0: 0000 0000 0000 0000 0000 0000 0000 0000
000001e0: 0000 0000 0000 0000 0000 0000 0000 0000
000001f0: 0000 0000 0000 0000 0000 0000 0000 0000

network_body._body_endoder.seq_layers.2.weight f4 [128, 128]
0.008378747 -0.02307929 0.038618635 -0.09968071 -0.011793437 -0.038127974 -0.022930877 -0.11747562
-0.09945927 0.13094722 -0.12912099 0.033384398 0.058845285 -0.07850218 -0.008762234 -0.037907694
-0.121130675 0.16952369 -0.1377971 -0.032527782 0.11999457 -0.13341665 -0.064992025 0.1581732
0.08752754 -0.040603846 0.22143476 0.011870504 -0.07150316 0.031558976 -0.11195094 0.0049451287
-0.06603755 -0.13070591 0.14780949 0.046148714 0.02384852 -0.069577895 0.03825766 0.12329924
-0.04497836 -0.040444467 -0.08271178 0.12541188 -0.038423635 -0.11143977 0.01911931 -0.018380467
-0.100882895 0.024461174 -0.1340874 0.008506404 0.028283477 0.011235086 -0.027042475 -0.05348787
-0.009181452 -0.1471836 -0.095267355 0.0044330196 -0.03326157 -0.08500888 -0.00981535 -0.0435808
0.11965347 -0.044730987 0.0016561785 0.052850913 -0.08830456 0.0865355 -0.015429876 -0.0023797685
0.18368419 -0.0065330993 -0.0673173 0.010926892 -0.06291405 0.046678826 -0.064836614 -0.0022490222
0.03403278 0.11234574 0.011341825 -0.03322507 0.031340297 0.01686838 -0.17651992 0.041692063
-0.023544306 -0.011396646 -0.0060078683 0.08421523 -0.057432882 -0.05537068 0.062002897 -0.1383145
-0.0030498714 -0.045936313 -0.17037661 -0.03401869 -0.1507918 -0.035359718 -0.06795496 0.029517436
0.0066797524 -0.117639646 0.044545658 -0.08581329 -0.10616482 -0.04814765 -0.035373583 0.05913026
0.02090171 -0.056002494 0.062369764 0.16882008 0.10421305 -0.058874715 0.035740476 -0.08942852
-0.03170652 0.017954476 -0.14688155 -0.011555161 0.11472114 -0.16460225 0.07869555 -0.078983195
0.0630885 0.04634889 0.08748662 -0.10661494 -0.109174795 -0.022449637 0.022120265 0.029640866
-0.0050829765 -0.010283412 -0.1351289 -0.0023786414 0.13808165 -0.043712262 0.009749946 0.023181591
0.022494482 -0.14395037 0.040864278 0.027283048 0.12778962 0.07572163 0.20351912 0.12744056
-0.01489898 -0.017714651 -0.041395802 0.09369216 0.035709087 -0.05150979 -0.029250821 0.009594388
0.1123768 0.065626785 -0.039681308 0.112975575 -0.040746175 0.06910714 -0.14349614 0.028770719
0.11856608 -0.102205135 -0.00010634768 -0.027655924 0.03559226 -0.07199006 -0.09735538 -0.096900195
0.20703529 -0.023501325 -0.19290781 -0.010976593 -0.06504693 0.037613835 0.06775731 0.06551988
0.049984213 0.039089434 -0.21896145 0.063852586 -0.022637649 -0.0075645354 0.08069991 0.1098939
0.100263186 0.062200483 -0.029190993 -0.061747868 0.105339326 0.029846085 0.20709452 0.12757814
0.09570761 -0.019084591 -0.09298738 0.07159031 -0.06574279 0.019599203 0.120197445 -0.016197624
0.092422694 0.05703971 0.008226727 -0.00338984 0.10131931 0.097788945 -0.047652513 0.0002852865
0.082480624 0.13093935 0.108111784 0.28844908 -0.15287106 0.033503924 0.13888316 0.1759975
0.1037967 -0.086346366 -0.0745457 -0.003665745 0.046369903 0.030167231 -0.007026346 -0.041802317
0.036219187 0.12809408 -0.03576115 -0.18928428 0.03835814 0.18648924 0.15098771 -0.03924868
0.024459697 -0.098781146 -0.118331164 -0.11538737 -0.046439603 0.13515599 0.11943522 0.074290656
-0.0631782 0.038230512 0.14763144 -0.064829156 -0.07322648 0.091516085 0.09201075 0.025602909
00000000: 0347 093c c710 bdbc 932e 1e3d 6625 ccbd
00000010: 4339 41bc 142c 1cbd 89d9 bbbc 0f97 f0bd
00000020: 4db1 cbbd 0717 063e 4b38 04be 14be 083d
00000030: c107 713d c0c5 a0bd 798f 0fbc 1945 1bbd
00000040: 5c13 f8bd 9e97 2d3e af1a 0dbe da3b 05bd
00000050: b7bf f53d 609e 08be 8a1a 85bd 28f8 213e
00000060: a441 b33d 3850 26bd cbbf 623e 817c 423c
00000070: 4070 92bd fc43 013d 8946 e5bd bf0a a23b
00000080: b23e 87bd c5d7 05be 5f5b 173e 6f06 3d3d
00000090: f95d c33c db7e 8ebd 10b4 1c3d 5084 fc3d
000000a0: 3b3b 38bd 19a9 25bd cb64 a9bd f96b 003e
000000b0: 1a62 1dbd 893a e4bd 19a0 9c3c a292 96bc
000000c0: b19b cebd cd62 c83c 354e 09be 725e 0b3c
000000d0: c0b2 e73c 5e13 383c 2e88 ddbc 1916 5bbd
000000e0: cd6d 16bc 4cb7 16be 881b c3bd dd42 913b
000000f0: 493d 08bd 2319 aebd 90d0 20bc c881 32bd
00000100: e10c f53d d737 37bd 2114 d93a 337a 583d
00000110: 05d9 b4bd 8639 b13d 97cd 7cbc e4f5 1bbb
00000120: b517 3c3e 9c13 d6bb a7dd 89bd b506 333c
00000130: 15d9 80bd 4c32 3f3d 0fc9 84bd 5564 13bb
00000140: f565 0b3d 8615 e63d 10d3 393c 0317 08bd
00000150: af5e 003d 8f2f 8a3c a3c1 34be 4cc5 2a3d
00000160: fddf c0bc ffb8 3abc a7dd c4bb 0979 ac3d
00000170: be3e 6bbd 5ecc 62bd c0f6 7d3d 51a2 0dbe
00000180: 5ae0 47bb b727 3cbd 3577 2ebe 2f57 0bbd
00000190: 2a69 1abe 5ad5 10bd f82b 8bbd 8dce f13c
000001a0: d3e1 da3b 0eed f0bd 8275 363d e1be afbd
000001b0: f16c d9bd 7836 45bd e4e3 10bd 9232 723d
000001c0: 103a ab3c df62 65bd 7077 7f3d 2cdf 2c3e
000001d0: a76d d53d 9d26 71bd 9b64 123d 4d26 b7bd
000001e0: b2de 01bd 4415 933c 1e68 16be dc51 3dbc
000001f0: ebf2 ea3d 7e8d 28be 222b a13d f1c1 a1bd
00000200: 8b34 813d 55d8 3d3d 2f2c b33d ef58 dabd
00000210: 0997 dfbd 4de8 b7bc 8f35 b53c 67d1 f23c
00000220: 198f a6bb c27b 28bc 3b5f 0abe fbe2 1bbb
00000230: 4765 0d3e a10b 33bd 3dbe 1f3c 52e7 bd3c
00000240: 5946 b83c ba67 13be 4d61 273d b380 df3c
00000250: 48db 023e f113 9b3d 5167 503e c77f 023e
00000260: da1a 74bc 511e 91bc a58e 29bd ade1 bf3d
00000270: b143 123d eefb 52bd 6b9f efbc c831 1d3c
00000280: cf25 e63d 5667 863d de88 22bd bd5f e73d
00000290: 76e5 26bd 0b88 8d3d a7f0 12be 92b0 eb3c
000002a0: c6d2 f23d ed50 d1bd fa06 dfb8 ad8e e2bc
000002b0: 31c9 113d 866f 93bd 4262 c7bd 9c73 c6bd
000002c0: 0f01 543e da85 c0bc a089 45be 2bd7 33bc
000002d0: 5337 85bd f710 1a3d 58c4 8a3d 492f 863d
000002e0: 3fbc 4c3d 3e1c 203d 6e37 60be 25c5 823d
000002f0: 9772 b9bc ecdf f7bb ff45 a53d 0e10 e13d
00000300: c956 cd3d efc5 7e3d f321 efbc 55eb 7cbd
00000310: 25bc d73d c77f f43c 9610 543e d8a3 023e
00000320: 5a02 c43d 4a57 9cbc 2b70 bebd f19d 923d
00000330: 28a4 86bd 828e a03c 142a f63d e1b0 84bc
00000340: 1c48 bd3d 79a2 693d 65c9 063c 1428 5ebb
00000350: 8080 cf3d 9245 c83d 482f 43bd 8192 9539
00000360: 9aeb a83d f714 063e b669 dd3d 99af 933e
00000370: 3b8a 1cbe 693b 093d 6337 0e3e b038 343e
00000380: 5d93 d43d 5dd6 b0bd 6aab 98bd ff3c 70bb
00000390: 5eee 3d3d 4521 f73c 433d e6bb e838 2bbd
000003a0: 925a 143d 182b 033e 497a 12bd bdd3 41be
000003b0: 6d1d 1d3d 09f7 3e3e 869c 1a3e 39c3 20bd
000003c0: b45f c83c c54d cabd 9c57 f2bd 3750 ecbd
000003d0: 7437 3ebd 5566 0a3e 749a f43d b325 983d
000003e0: 9263 81bd 9997 1c3d b22c 173e 26c5 84bd
000003f0: c4f7 95bd c96c bb3d 2270 bc3d 31bd d13c

network_body._body_endoder.seq_layers.2.bias f4 [128]
0.0 0.0 0.0 0.0 0.0 0.0 0.0 0.0
0.0 0.0 0.0 0.0 0.0 0.0 0.0 0.0
0.0 0.0 0.0 0.0 0.0 0.0 0.0 0.0
0.0 0.0 0.0 0.0 0.0 0.0 0.0 0.0
0.0 0.0 0.0 0.0 0.0 0.0 0.0 0.0
0.0 0.0 0.0 0.0 0.0 0.0 0.0 0.0
0.0 0.0 0.0 0.0 0.0 0.0 0.0 0.0
0.0 0.0 0.0 0.0 0.0 0.0 0.0 0.0
0.0 0.0 0.0 0.0 0.0 0.0 0.0 0.0
0.0 0.0 0.0 0.0 0.0 0.0 0.0 0.0
0.0 0.0 0.0 0.0 0.0 0.0 0.0 0.0
0.0 0.0 0.0 0.0 0.0 0.0 0.0 0.0
0.0 0.0 0.0 0.0 0.0 0.0 0.0 0.0
0.0 0.0 0.0 0.0 0.0 0.0 0.0 0.0
0.0 0.0 0.0 0.0 0.0 0.0 0.0 0.0
0.0 0.0 0.0 0.0 0.0 0.0 0.0 0.0
00000000: 0000 0000 0000 0000 0000 0000 0000 0000
00000010: 0000 0000 0000 0000 0000 0000 0000 0000
00000020: 0000 0000 0000 0000 0000 0000 0000 0000
00000030: 0000 0000 0000 0000 0000 0000 0000 0000
00000040: 0000 0000 0000 0000 0000 0000 0000 0000
00000050: 0000 0000 0000 0000 0000 0000 0000 0000
00000060: 0000 0000 0000 0000 0000 0000 0000 0000
00000070: 0000 0000 0000 0000 0000 0000 0000 0000
00000080: 0000 0000 0000 0000 0000 0000 0000 0000
00000090: 0000 0000 0000 0000 0000 0000 0000 0000
000000a0: 0000 0000 0000 0000 0000 0000 0000 0000
000000b0: 0000 0000 0000 0000 0000 0000 0000 0000
000000c0: 0000 0000 0000 0000 0000 0000 0000 0000
000000d0: 0000 0000 0000 0000 0000 0000 0000 0000
000000e0: 0000 0000 0000 0000 0000 0000 0000 0000
000000f0: 0000 0000 0000 0000 0000 0000 0000 0000
00000100: 0000 0000 0000 0000 0000 0000 0000 0000
00000110: 0000 0000 0000 0000 0000 0000 0000 0000
00000120: 0000 0000 0000 0000 0000 0000 0000 0000
00000130: 0000 0000 0000 0000 0000 0000 0000 0000
00000140: 0000 0000 0000 0000 0000 0000 0000 0000
00000150: 0000 0000 0000 0000 0000 0000 0000 0000
00000160: 0000 0000 0000 0000 0000 0000 0000 0000
00000170: 0000 0000 0000 0000 0000 0000 0000 0000
00000180: 0000 0000 0000 0000 0000 0000 0000 0000
00000190: 0000 0000 0000 0000 0000 0000 0000 0000
000001a0: 0000 0000 0000 0000 0000 0000 0000 0000
000001b0: 0000 0000 0000 0000 0000 0000 0000 0000
000001c0: 0000 0000 0000 0000 0000 0000 0000 0000
000001d0: 0000 0000 0000 0000 0000 0000 0000 0000
000001e0: 0000 0000 0000 0000 0000 0000 0000 0000
000001f0: 0000 0000 0000 0000 0000 0000 0000 0000

action_model._discrete_distribution.branches.0.weight f4 [5, 128]
-0.0035597624 0.005081564 0.0039594807 -0.018067485 -0.00058798515 -0.015108379 -0.0032939818 -0.0020830024
-0.01505051 -0.0007467812 -0.007112574 0.01130923 -0.009494676 -0.010999362 0.01036543 -0.007937521
0.0005731835 0.005296809 0.0039950246 0.0102159 -0.01377244 0.0042819283 0.011810052 0.0073844367
-0.0029961567 0.0014690143 -0.0013647539 0.0061435457 -0.004193561 -3.4771132e-05 0.0014798054 -0.0010856692
-0.00778837 -0.0100349495 0.0032612183 -0.0010553433 0.011040182 0.009924779 0.0069184373 -0.010175378
-0.006449282 0.023064807 0.007838801 0.005936708 0.004608774 0.013392374 0.008742715 -0.009874655
-0.008451031 -0.0096784 -0.008533634 0.0054630353 -0.0018052318 0.010499989 0.0047581745 0.008303282
-0.0071627 -0.0071683885 0.0031401596 -0.012670213 -0.012276769 -0.006012091 -0.0038669463 0.0039597508
0.010309996 -0.0064926306 -0.0006528281 -0.010551328 -0.008021029 0.0024346493 -0.0049756207 -0.014284762
-0.021068132 0.0008270385 -0.006846296 0.008630264 -0.0033365022 -0.005620265 0.01092099 0.010953485
-0.0018172617 0.00906221 -0.010472002 -0.0054330225 0.0031750079 -0.0025805475 0.0089874845 -0.00038031707
-0.0045105997 0.003935015 -0.008494587 -0.009675006 -0.0033505566 -0.005641102 0.022087747 0.0034640138
-0.009664345 -0.0008615861 0.012675278 0.0075491564 -0.0020617323 0.010979308 -0.020840917 0.0027900832
-0.0015341713 0.006105768 0.01148456 0.001940744 0.002650605 -0.012716058 0.001034554 -0.0053045447
-0.013004637 0.0082454765 0.014395137 -0.00085527945 0.004183905 -0.00040209416 -0.0039451914 -0.0016244352
-0.011837374 0.0004005085 0.0056054047 0.0077591203 0.0031454067 0.007240963 0.0029660594 -0.005803551
-0.0059061153 0.008395028 0.017203338 -0.012410125 -0.004888295 0.007763605 0.006909539 0.004533992
0.0016404921 0.0015779187 -0.0011529344 -0.028827837 0.017149447 -0.015666975 -0.0023135163 -0.007949224
0.0043104165 -0.0014495464 -0.0042655654 0.013404043 -0.005291826 -0.00058259926 0.0069953823 -0.009003506
-0.004746129 -0.0114786625 -0.0043154233 -0.0024622139 0.0036757549 0.008445588 -0.021342067 -0.008082949
0.015277462 -0.02017433 0.005611145 0.0013872592 -0.0054084747 -0.0005981182 -0.0016816218 -0.0010785494
-0.001304319 -0.013156513 -0.019591583 0.008152199 -0.013152174 -0.0065073296 -0.00805459 -0.014327958
-0.000771906 0.02238393 0.0037896268 -0.008761016 -0.008137402 0.0070271767 -0.001387521 0.00082161615
-0.003958735 0.0032986004 -0.0036633785 -0.0035344379 0.015241938 0.013447612 -0.016708387 0.004331219
-0.0013491475 0.012022521 0.00049031794 0.0037967064 0.0017591438 0.00025108692 0.00069825473 0.010200988
0.0027053454 -0.0011174865 -0.013510451 -0.0150334565 -0.005092045 0.005102646 -0.0039336556 0.0027008557
0.011472302 0.018950576 0.0021661532 0.000431661 0.011961039 0.0023368422 0.013776644 -0.0094897
-0.001516524 0.000388089 -0.009803469 0.002223063 -0.004451805 0.012003858 -0.0011062028 0.008502653
0.0022747507 -0.0034075645 -0.014246012 -0.010130572 0.014069356 -0.017834546 0.005072799 0.011445368
0.015978893 -0.008817793 -0.010197985 0.005841005 -0.008007123 -0.00796661 -0.008242506 0.014289908
0.014708663 -0.011230798 0.0012596075 0.019397127 -0.0050221235 -0.0138483 0.008053473 0.0009027094
-0.0021082652 0.008367672 0.007575363 -0.0010439102 0.004683267 0.0036051588 -0.01485038 -0.0066432403
00000000: e74a 69bb 4083 a63b 88be 813b 4302 94bc
00000010: 0423 1aba 2289 77bc d8df 57bb fb82 08bb
00000020: 6a96 76bc a3c3 43ba 9810 e9bb 594a 393c
00000030: 8f8f 1bbc ab36 34bc c4d3 293c 600c 02bc
00000040: b241 163a db90 ad3b b2e8 823b 9760 273c
00000050: cda5 61bc 6b4f 8c3b f37e 413c 25f9 f13b
00000060: 2b5b 44bb f18b c03a 8be1 b2ba cc4f c93b
00000070: 246a 89bb 38d7 11b8 08f6 c13a 034d 8eba
00000080: 9535 ffbb a169 24bc 2aba 553b 7253 8aba
00000090: e1e1 343c 8a9b 223c 0fb4 e23b a1b6 26bc
000000a0: 8054 d3bb 68f2 bc3c 506e 003c b788 c23b
000000b0: 3305 973b b06b 5b3c 9b3d 0f3c 4ec9 21bc
000000c0: 3176 0abc 2792 1ebc a8d0 0bbc 4303 b33b
000000d0: 879d ecba 2508 2c3c 76ea 9b3b 7d0a 083c
000000e0: 15b5 eabb cde4 eabb 23cb 4d3b ba96 4fbc
000000f0: 8024 49bc 1301 c5bb 986c 7dbb ccc0 813b
00000100: 42eb 283c 22c0 d4bb 8d22 2bba 7adf 2cbc
00000110: a26a 03bc a38e 1f3b 880a a3bb a20a 6abc
00000120: 1397 acbc 9dcd 583a e556 e0bb f365 0d3c
00000130: 38a9 5abb 332a b8bb f4ed 323c 3f76 333c
00000140: 2f31 eeba aa79 143c c392 2bbc 7f07 b2bb
00000150: cb13 503b 671e 29bb 3e40 133c 4b65 c7b9
00000160: a7cd 93bb 4cf1 803b e12c 0bbc eb83 1ebc
00000170: 0395 5bbb fed8 b8bb 5df1 b43c 8204 633b
00000180: 3357 1ebc 10dc 61ba f8ab 4f3c ea5e f73b
00000190: 211e 07bb 8ee2 333c 92ba aabc d4d9 363b
000001a0: 3f16 c9ba e512 c83b bc29 3c3c 9060 fe3a
000001b0: c6b5 2d3b 0357 50bc df99 873a bfd1 adbb
000001c0: 6711 55bc 0918 073c 95d9 6b3c d534 60ba
000001d0: 2419 893b 2ad0 d2b9 aa46 81bb 00eb d4ba
000001e0: 8cf1 41bc 57fb d139 8bad b73b 3840 fe3b
000001f0: 2b23 4e3b 9a45 ed3b 3862 423b b72b bebb
00000200: 1688 c1bb 4d8b 093c 04ee 8c3c d653 4bbc
00000210: fe2d a0bb d765 fe3b 6a69 e23b e291 943b
00000220: c805 d73a 2ad2 ce3a 0f1e 97ba 5b28 ecbc
00000230: ff7c 8c3c 0758 80bc 5d9e 17bb 763d 02bc
00000240: 653e 8d3b b5fe bdba 28c6 8bbb a29c 5b3c
00000250: 0e67 adbb 93b9 18ba 8539 e53b 7183 13bc
00000260: 6a85 9bbb 0011 3cbc 6568 8dbb 185d 21bb
00000270: efe4 703b 5d5f 0a3c 8fd5 aebc 586e 04bc
00000280: 524e 7a3c a344 a5bc b2dd b73b b2d4 b53a
00000290: 9339 b1bb 08cb 1cba dd69 dcba 1d5e 8dba
000002a0: aff5 aaba 6a8e 57bc 877e a0bc cd90 053c
000002b0: 377c 57bc 703b d5bb 66f7 03bc d0bf 6abc
000002c0: bc59 4aba 815e b73c 635b 783b 5d8a 0fbc
000002d0: bd52 05bc 3b44 e63b 7bdd b5ba ba61 573a
000002e0: 47b8 81bb 552d 583b 4b15 70bb 07a2 67bb
000002f0: 52b9 793c 5f53 5c3c 07e0 88bc e6ec 8d3b
00000300: e1d5 b0ba 1cfa 443c ae88 003a 2ad2 783b
00000310: 1293 e63a 51a4 8339 150b 373a 0b22 273c
00000320: 2a4c 313b a078 92ba f05a 5dbc e34e 76bc
00000330: 2bdb a6bb 1934 a73b e5e5 80bb d700 313b
00000340: 52f6 3b3c 3d3e 9b3c 05f6 0d3b 8f50 e239
00000350: 3cf8 433c b525 193b 6fb7 613c b07a 1bbc
00000360: 1ac6 c6ba 6d78 cb39 bb9e 20bc cfb0 113b
00000370: 72e0 91bb d4ab 443c 02fe 90ba b64e 0b3c
00000380: fc13 153b 7251 5fbb 1b68 69bc b3fa 25bc
00000390: 2883 663c c119 92bc b939 a63b 5a85 3b3c
000003a0: 2be6 823c 8178 10bc 7315 27bc e765 bf3b
000003b0: 4f30 03bc 6286 02bc 930b 07bc 3820 6a3c
000003c0: 9bfc 703c 6201 38bc 6a19 a53a b9e6 9e3c
000003d0: a090 a4bb fbe3 62bc b7f2 033c cda3 6c3a
000003e0: d22a 0abb 8f18 093c c03a f83b d0d3 88ba
000003f0: 1776 993b 8744 6c3b 024f 73bc 8aaf d9bb

action_model._discrete_distribution.branches.0.bias f4 [5]
0.0 0.0 0.0 0.0 0.0
00000000: 0000 0000 0000 0000 0000 0000 0000 0000
00000010: 0000 0000

network_body._body_endoder.seq_layers.0.weight f4 [128, 1]
-0.08939963 1.3515782 0.67113024 0.52668256 1.042907 -0.5691062 0.84950525 0.6451472
-0.74543065 -0.6880995 0.88093024 1.3266721 -0.09151705 -0.37841108 -0.9141174 1.5447044
0.2894988 -0.12281377 1.0361998 -1.5909344 -0.42055196 -0.8237627 0.8945712 0.12952153
-2.0078824 -0.10592242 0.3019836 -0.88201666 0.009772288 -1.4129847 1.9225101 0.40798047
-0.3168688 -1.2387823 2.1528032 0.8633368 1.107791 0.45339295 -1.540355 -1.4512105
-0.82049865 0.90972877 -0.19673935 0.27145073 0.7580797 -1.0254924 0.6557471 0.6348283
-0.93865407 0.07786813 -0.6410376 -0.46510488 0.3054062 0.3773379 0.510296 -0.4969692
0.010323892 0.39117825 -1.5570948 -0.9290116 1.3613223 -0.097077 0.74258596 -1.2613077
-0.37382266 0.5619819 -0.7746494 -0.031217236 0.8286007 2.347646 -0.24726689 0.15859476
-0.9815064 -0.80771846 0.062497452 -0.48065698 -0.3575844 1.1486026 -1.443002 -0.7321404
0.080684334 0.720367 0.54465085 -0.6368683 0.2710561 2.1667254 0.19396636 -1.0402362
-0.40102926 -0.47777975 -0.26574278 0.3437549 -0.64843816 0.7348767 0.1871074 -3.441205
0.09352147 1.6826336 0.94443053 -0.5236315 0.1276281 -1.0361757 -1.2666364 1.6748921
0.41802934 0.87470645 -0.5507108 0.31658965 0.15762101 2.041105 0.17675525 1.077747
0.6464336 -0.9395604 0.14384755 0.37714133 0.51539385 0.19942446 -1.6382627 0.623915
0.48188618 -0.48992229 0.2629004 -0.21163121 -0.33103627 -0.12984908 -0.4735016 0.877098
00000000: 2717 b7bd 8400 ad3f 31cf 2b3f abd4 063f
00000010: fa7d 853f f2b0 11bf 2d79 593f 5e28 253f
00000020: 8bd4 3ebf 4a27 30bf a584 613f 64d0 a93f
00000030: 4b6d bbbd 19bf c1be 9903 6abf e0b8 c53f
00000040: 3039 943e c985 fbbd 32a2 843f bda3 cbbf
00000050: 9652 d7be 1de2 52bf 9e02 653f 4ba1 043e
00000060: 2581 00c0 dbed d8bd 989d 9a3e d8cb 61bf
00000070: f21b 203c afdc b4bf d014 f63f d1e2 d03e
00000080: a13c a2be 6b90 9ebf 87c7 0940 a403 5d3f
00000090: 18cc 8d3f 1f23 e83e 5a2a c5bf 44c1 b9bf
000000a0: 330c 52bf fce3 683f 0a76 49be 97fb 8a3e
000000b0: 8311 423f 5643 83bf 0bdf 273f 1c84 223f
000000c0: a24b 70bf 5379 9f3d 0a1b 24bf 3a22 eebe
000000d0: 345e 9c3e 6f32 c13e c2a2 023f bf72 febe
000000e0: 8b25 293c 8448 c83e e24e c7bf b4d3 6dbf
000000f0: cf3f ae3f 4ed0 c6bd 1d1a 3e3f 8872 a1bf
00000100: af65 bfbe 0cde 0f3f 6c4f 46bf 4abb ffbc
00000110: 2d1f 543f d53f 1640 8833 7dbe aa66 223e
00000120: 0144 7bbf a3c6 4ebf 54fd 7f3d ac18 f6be
00000130: 4d15 b7be 6905 933f 4ab4 b8bf 8e6d 3bbf
00000140: d43d a53d f969 383f 3d6e 0b3f cd09 23bf
00000150: ddc7 8a3e a1ab 0a40 1e9f 463e 7626 85bf
00000160: b553 cdbe 8c9f f4be 700f 88be a400 b03e
00000170: 0b00 26bf e120 3c3f 1599 3f3e b43c 5cc0
00000180: 2f88 bf3d 8a60 d73f 33c6 713f b70c 06bf
00000190: f1b0 023e 68a1 84bf 2421 a2bf dd62 d63f
000001a0: f107 d63e c3ec 5f3f 62fb 0cbf 0a18 a23e
000001b0: 6767 213e 77a1 0240 54ff 343e 9df3 893f
000001c0: ac7c 253f 0887 70bf c64c 133e ab18 c13e
000001d0: daf0 033f ed35 4c3e 98b2 d1bf e5b8 1f3f
000001e0: c9b9 f63e 18d7 fabe e29a 863e dab5 58be
000001f0: 967d a9be 28f7 04be cd6e f2be 7f89 603f

network_body._body_endoder.seq_layers.0.bias f4 [128]
0.0 0.0 0.0 0.0 0.0 0.0 0.0 0.0
0.0 0.0 0.0 0.0 0.0 0.0 0.0 0.0
0.0 0.0 0.0 0.0 0.0 0.0 0.0 0.0
0.0 0.0 0.0 0.0 0.0 0.0 0.0 0.0
0.0 0.0 0.0 0.0 0.0 0.0 0.0 0.0
0.0 0.0 0.0 0.0 0.0 0.0 0.0 0.0
0.0 0.0 0.0 0.0 0.0 0.0 0.0 0.0
0.0 0.0 0.0 0.0 0.0 0.0 0.0 0.0
0.0 0.0 0.0 0.0 0.0 0.0 0.0 0.0
0.0 0.0 0.0 0.0 0.0 0.0 0.0 0.0
0.0 0.0 0.0 0.0 0.0 0.0 0.0 0.0
0.0 0.0 0.0 0.0 0.0 0.0 0.0 0.0
0.0 0.0 0.0 0.0 0.0 0.0 0.0 0.0
0.0 0.0 0.0 0.0 0.0 0.0 0.0 0.0
0.0 0.0 0.0 0.0 0.0 0.0 0.0 0.0
0.0 0.0 0.0 0.0 0.0 0.0 0.0 0.0
00000000: 0000 0000 0000 0000 0000 0000 0000 0000
00000010: 0000 0000 0000 0000 0000 0000 0000 0000
00000020: 0000 0000 0000 0000 0000 0000 0000 0000
00000030: 0000 0000 0000 0000 0000 0000 0000 0000
00000040: 0000 0000 0000 0000 0000 0000 0000 0000
00000050: 0000 0000 0000 0000 0000 0000 0000 0000
00000060: 0000 0000 0000 0000 0000 0000 0000 0000
00000070: 0000 0000 0000 0000 0000 0000 0000 0000
00000080: 0000 0000 0000 0000 0000 0000 0000 0000
00000090: 0000 0000 0000 0000 0000 0000 0000 0000
000000a0: 0000 0000 0000 0000 0000 0000 0000 0000
000000b0: 0000 0000 0000 0000 0000 0000 0000 0000
000000c0: 0000 0000 0000 0000 0000 0000 0000 0000
000000d0: 0000 0000 0000 0000 0000 0000 0000 0000
000000e0: 0000 0000 0000 0000 0000 0000 0000 0000
000000f0: 0000 0000 0000 0000 0000 0000 0000 0000
00000100: 0000 0000 0000 0000 0000 0000 0000 0000
00000110: 0000 0000 0000 0000 0000 0000 0000 0000
00000120: 0000 0000 0000 0000 0000 0000 0000 0000
00000130: 0000 0000 0000 0000 0000 0000 0000 0000
00000140: 0000 0000 0000 0000 0000 0000 0000 0000
00000150: 0000 0000 0000 0000 0000 0000 0000 0000
00000160: 0000 0000 0000 0000 0000 0000 0000 0000
00000170: 0000 0000 0000 0000 0000 0000 0000 0000
00000180: 0000 0000 0000 0000 0000 0000 0000 0000
00000190: 0000 0000 0000 0000 0000 0000 0000 0000
000001a0: 0000 0000 0000 0000 0000 0000 0000 0000
000001b0: 0000 0000 0000 0000 0000 0000 0000 0000
000001c0: 0000 0000 0000 0000 0000 0000 0000 0000
000001d0: 0000 0000 0000 0000 0000 0000 0000 0000
000001e0: 0000 0000 0000 0000 0000 0000 0000 0000
000001f0: 0000 0000 0000 0000 0000 0000 0000 0000

network_body._body_endoder.seq_layers.2.weight f4 [128, 128]
-0.014649888 0.088470735 -0.25426692 -0.010879004 -0.13570964 -0.053934436 -0.0037895094 -0.09513576
0.018872371 0.16461979 -0.039997112 0.24982388 0.061619636 0.09020217 0.082836345 -0.15838897
0.07007823 -0.06309392 0.052479137 -0.09028644 -0.09255326 -0.064084195 0.02159899 0.12213642
-0.010821994 -0.038091645 -0.028525397 -0.100837745 0.0019408087 0.088514395 -0.0810118 0.04914122
0.09001795 -0.05549643 0.028928388 0.19418769 -0.003918542 -0.0016609273 -0.06691104 0.024614805
0.023660988 -0.0008432776 -0.004115633 0.08038948 -0.116502725 -0.035517454 -0.19984579 -0.00486031
-0.024641993 -0.11574077 0.008409518 0.010040195 0.09710259 -0.10725711 0.03253109 0.22973692
-0.06859739 -0.008191254 -0.0038616187 -0.06590785 0.09305785 -0.08534419 0.0028238595 0.15248282
-0.051804446 -0.03483717 0.049782738 0.010965329 0.06115476 -0.036484964 -0.12022936 -0.08200728
0.14446495 0.027554102 -0.05725948 0.05125936 -0.0082151275 0.0074953693 0.06955453 -0.24722241
-0.05321537 0.068720385 -0.033223987 0.06871683 -0.11705103 -0.19290197 -0.070969895 0.06291002
0.09158214 -0.12263249 0.03757407 -0.120813474 0.0779712 0.04052736 -0.13119818 -0.058031067
0.12841399 0.07053099 0.02349056 0.004716129 -0.10101477 -0.034958888 -0.03238375 0.13279624
-0.046758294 -0.09707128 0.024438323 -0.03844023 -0.044914667 0.014119946 -0.12553304 0.110628635
-0.018672884 -0.02782469 -0.022743234 -0.07049021 0.085269 0.10318734 0.03799383 -0.015440285
0.057803437 0.1949166 0.07918246 -0.18135357 0.047597747 0.042378206 -0.061202444 -0.009068042
-0.112117045 0.059468344 0.010990025 0.12411741 -0.0002849646 -0.0388741 0.05520657 0.16446595
0.09304378 0.013916915 -0.11115667 -0.07528411 0.09487853 -0.027776472 0.05462013 -0.13806975
0.015136146 0.09017757 0.073295996 -0.113100454 -0.14793916 -0.03706875 0.0913309 0.119523
0.13884722 -0.07944763 0.16231024 0.27798635 0.04984994 -0.16838871 -0.011775595 0.11523431
0.045121763 -0.05042 -0.07015216 -0.059560936 0.05657689 0.009142785 0.11064511 -0.06863578
0.012247467 -0.09017958 -0.086103424 0.13957144 -0.008358973 -0.02099757 -0.047078345 0.15751041
-0.020092333 0.07231964 0.12686414 -0.034823257 0.19644517 0.007592824 0.17223887 -0.097614594
0.046198793 -0.09802328 0.12720446 0.0627826 -0.08695162 -0.031358898 -0.06799803 0.018857757
-0.02443148 -0.06651377 -0.0880728 0.10612839 0.1250324 0.031279624 0.01134856 -0.013680838
-0.11291876 0.05374954 0.05978493 0.018168647 0.0017001984 -0.005625798 -0.13932705 -0.06311015
0.020252604 0.0074794963 0.17316082 0.016389625 -0.13348745 0.0656174 0.22114283 -0.002890477
-0.11856387 0.08677291 0.060410272 0.08526847 -0.067586645 -0.18958424 -0.04073432 0.008725238
0.07529429 -0.07358119 -0.04946358 0.080809034 0.030182388 0.028373595 0.019060856 0.056226656
-0.04740737 -0.108262494 -0.051667098 0.0026079197 0.009663659 0.046992406 -0.0053741187 0.016626418
0.1207513 -0.20314683 0.08407766 0.06326524 0.0041444344 0.030125458 -0.13278206 0.064571425
-0.102792084 -0.03740456 0.0017157624 -0.016452087 0.114874184 0.13853353 0.06159944 -0.035550304
00000000: 1506 70bc 2530 b53d 462f 82be da3d 32bc
00000010: 78f7 0abe 5bea 5cbd 6b59 78bb 8ad6 c2bd
00000020: 3b9a 9a3c 1792 283e 03d4 23bd d5d1 7f3e
00000030: df64 7c3d eabb b83d 1aa6 a93d b830 22be
00000040: 2d85 8f3d 6337 81bd 5df4 563d 19e8 b8bd
00000050: 908c bdbd 933e 83bd 5df0 b03c a922 fa3d
00000060: bc4e 31bc fc05 1cbd 18ae e9bc 0584 cebd
00000070: bc62 fe3a 0947 b53d 84e9 a5bd 4e48 493d
00000080: 555b b83d 3950 63bd 3afb ec3c 23d9 463e
00000090: 1d67 80bb 79b3 d9ba a808 89bd fda4 c93c
000000a0: b0d4 c13c 670f 5dba 6fdc 86bb 3da3 a43d
000000b0: fb98 eebd c07a 11bd 60a4 4cbe 3c43 9fbb
000000c0: 01de c9bc 7f09 edbd 13c8 093c a17f 243c
000000d0: b9dd c63d 9ea9 dbbd 523f 053d 2840 6b3e
000000e0: ca7c 8cbd 9c34 06bc 3613 7dbb b2fa 86bd
000000f0: 1d95 be3d efc8 aebd 8010 393b 7524 1c3e
00000100: e630 54bd 6cb1 0ebd fce8 4b3d eca7 333c
00000110: 6a7d 7a3d 4271 15bd d03a f6bd 6ff3 a7bd
00000120: 9fee 133e 24b9 e13c eb88 6abd 56f5 513d
00000130: be98 06bc b79b f53b 9b72 8e3d df27 7dbe
00000140: 5cf8 59bd 46bd 8c3d e015 08bd 69bb 8c3d
00000150: 73b8 efbd 1888 45be aa58 91bd f8d6 803d
00000160: 6b8f bb3d be26 fbbd 45e7 193d 0e6d f7bd
00000170: 5daf 9f3d 0400 263d d158 06be fcb1 6dbd
00000180: f57e 033e 8d72 903d 466f c03c c289 9a3b
00000190: d5e0 cebd 0d31 0fbd d3a4 04bd bdfb 073e
000001a0: a085 3fbd 4fcd c6bd e132 c83c 8173 1dbd
000001b0: 71f8 37bd 5957 673c bc8b 00be 4491 e23d
000001c0: e0f7 98bc 9bf0 e3bc 0550 babc 2c5d 90bd
000001d0: 83a1 ae3d e253 d33d 6b9f 1b3d 40f9 7cbc
000001e0: 4cc3 6c3d 3898 473e 6a2a a23d c0b4 39be
000001f0: dbf5 423d c594 2d3d 6aaf 7abd 2092 14bc
00000200: 9f9d e5bd 1495 733d 810f 343c 4531 fe3d
00000210: 4d67 95b9 733a 1fbd 4920 623d c369 283e
00000220: bd8d be3d c603 643c 1ca6 e3bd 8e2e 9abd
00000230: ad4f c23d 7c8b e3bc 5cb9 5f3d 2862 0dbe
00000240: 99fd 773c 05af b83d 361c 963d 36a1 e7bd
00000250: 5d7d 17be 67d5 17bd b20b bb3d 7ac8 f43d
00000260: f72d 0e3e 70b5 a2bd a834 263e 3a54 8e3e
00000270: 732f 4c3d 176e 2cbe 6dee 40bc f7ff eb3d
00000280: 99d1 383d 3485 4ebd f0ab 8fbd 2bf6 73bd
00000290: 2bbd 673d 9fcb 153c e799 e23d ea90 8cbd
000002a0: 9aa9 483c 12b0 b8bd fe56 b0bd d1eb 0e3e
000002b0: 13f4 08bc 1903 acbc 39d5 40bd 694a 213e
000002c0: ad98 a4bc 521c 943d ace8 013e d5a2 0ebd
000002d0: ec28 493e 39cd f83b 635f 303e 29ea c7bd
000002e0: f23a 3d3d 6ec0 c8bd e341 023e 2a94 803d
000002f0: b113 b2bd 3072 00bd 8d42 8bbd 957b 9a3c
00000300: 8724 c8bc 5f38 88bd 835f b4bd d759 d93d
00000310: 7e08 003e 101f 003d 50ef 393c 9825 60bc
00000320: f341 e7bd 7a28 5c3d 0be1 743d 6ad6 943c
00000330: 31d9 de3a 9d58 b8bb c0ab 0ebe e53f 81bd
00000340: cae8 a53c 9016 f53b 1251 313e 8943 863c
00000350: efb0 08be 6a62 863d 4473 623e 286e 3dbb
00000360: 9dd1 f2bd ffb5 b13d c370 773d 3ca1 ae3d
00000370: de6a 8abd 5f22 42be 08d9 26bd 4df4 0e3c
00000380: e533 9a3d bcb1 96bd 539a 4abd 357f a53d
00000390: 0e41 f73c be6f e83c 8325 9c3c ec4d 663d
000003a0: 3b2e 42bd bab8 ddbd e1a0 53bd a2e9 2a3b
000003b0: 5354 1e3c 1c7b 403d 6019 b0bb 2034 883c
000003c0: 754c f73d b905 50be e930 ac3d 3591 813d
000003d0: 09ce 873b aac9 f63c 05f8 07be 063e 843d
000003e0: a884 d2bd 8635 19bd 6fe3 e03a 87c6 86bc
000003f0: 2843 eb3d bcdb 0d3e b24f 7c3d 329d 11bd

network_body._body_endoder.seq_layers.2.bias f4 [128]
0.0 0.0 0.0 0.0 0.0 0.0 0.0 0.0
0.0 0.0 0.0 0.0 0.0 0.0 0.0 0.0
0.0 0.0 0.0 0.0 0.0 0.0 0.0 0.0
0.0 0.0 0.0 0.0 0.0 0.0 0.0 0.0
0.0 0.0 0.0 0.0 0.0 0.0 0.0 0.0
0.0 0.0 0.0 0.0 0.0 0.0 0.0 0.0
0.0 0.0 0.0 0.0 0.0 0.0 0.0 0.0
0.0 0.0 0.0 0.0 0.0 0.0 0.0 0.0
0.0 0.0 0.0 0.0 0.0 0.0 0.0 0.0
0.0 0.0 0.0 0.0 0.0 0.0 0.0 0.0
0.0 0.0 0.0 0.0 0.0 0.0 0.0 0.0
0.0 0.0 0.0 0.0 0.0 0.0 0.0 0.0
0.0 0.0 0.0 0.0 0.0 0.0 0.0 0.0
0.0 0.0 0.0 0.0 0.0 0.0 0.0 0.0
0.0 0.0 0.0 0.0 0.0 0.0 0.0 0.0
0.0 0.0 0.0 0.0 0.0 0.0 0.0 0.0
00000000: 0000 0000 0000 0000 0000 0000 0000 0000
00000010: 0000 0000 0000 0000 0000 0000 0000 0000
00000020: 0000 0000 0000 0000 0000 0000 0000 0000
00000030: 0000 0000 0000 0000 0000 0000 0000 0000
00000040: 0000 0000 0000 0000 0000 0000 0000 0000
00000050: 0000 0000 0000 0000 0000 0000 0000 0000
00000060: 0000 0000 0000 0000 0000 0000 0000 0000
00000070: 0000 0000 0000 0000 0000 0000 0000 0000
00000080: 0000 0000 0000 0000 0000 0000 0000 0000
00000090: 0000 0000 0000 0000 0000 0000 0000 0000
000000a0: 0000 0000 0000 0000 0000 0000 0000 0000
000000b0: 0000 0000 0000 0000 0000 0000 0000 0000
000000c0: 0000 0000 0000 0000 0000 0000 0000 0000
000000d0: 0000 0000 0000 0000 0000 0000 0000 0000
000000e0: 0000 0000 0000 0000 0000 0000 0000 0000
000000f0: 0000 0000 0000 0000 0000 0000 0000 0000
00000100: 0000 0000 0000 0000 0000 0000 0000 0000
00000110: 0000 0000 0000 0000 0000 0000 0000 0000
00000120: 0000 0000 0000 0000 0000 0000 0000 0000
00000130: 0000 0000 0000 0000 0000 0000 0000 0000
00000140: 0000 0000 0000 0000 0000 0000 0000 0000
00000150: 0000 0000 0000 0000 0000 0000 0000 0000
00000160: 0000 0000 0000 0000 0000 0000 0000 0000
00000170: 0000 0000 0000 0000 0000 0000 0000 0000
00000180: 0000 0000 0000 0000 0000 0000 0000 0000
00000190: 0000 0000 0000 0000 0000 0000 0000 0000
000001a0: 0000 0000 0000 0000 0000 0000 0000 0000
000001b0: 0000 0000 0000 0000 0000 0000 0000 0000
000001c0: 0000 0000 0000 0000 0000 0000 0000 0000
000001d0: 0000 0000 0000 0000 0000 0000 0000 0000
000001e0: 0000 0000 0000 0000 0000 0000 0000 0000
000001f0: 0000 0000 0000 0000 0000 0000 0000 0000

value_heads.value_heads.extrinsic.weight f4 [1, 128]
-0.036788803 -0.0059490893 0.11224352 -0.100058466 -0.21338439 0.19969283 -0.021063646 -0.067287646
0.05899421 0.20842986 0.02588537 0.20199664 -0.1469752 -0.08741622 -0.06831003 0.0048822286
0.02865172 -0.08472407 -0.04207032 0.07110218 -0.18212783 -0.1552304 0.04290107 0.15735099
0.13724515 -0.1765096 -0.08420132 -0.1420002 -0.14840573 0.14558378 0.009093007 0.15964365
0.16273363 0.20265819 -0.09690653 -0.08887679 0.20903254 0.06585907 0.09017005 -0.03822395
-0.06561109 -0.14935292 -0.17486069 -0.13351485 0.021371452 -0.081401676 -0.088018924 -0.21072811
-0.20703961 0.14582822 -0.039943416 -0.07742716 0.032255962 0.047814943 0.064251594 0.17284827
0.117292345 -0.054831073 -0.15419818 0.022686357 -0.044916693 0.15597518 -0.033300377 -0.13084038
-0.2073896 0.20842333 -0.021811325 -0.18775149 0.016756728 -0.13047275 0.080950215 -0.17521724
-0.1702394 -0.20812482 0.1300897 0.104402915 -0.12694794 0.17044558 -0.12345737 0.091769606
-0.13820988 -0.072234176 -0.13616475 -0.042340014 0.08329365 -0.13440861 0.10888382 0.21432774
0.1841048 -0.120955415 0.07940265 0.03602986 0.16953272 0.12355177 -0.20711453 -0.053326834
-0.14834268 0.09914163 -0.13221347 -0.19847232 0.029325124 -0.2097011 -0.20276177 0.20958483
0.0610434 0.10656945 -0.053507198 -0.085633904 0.15145653 -0.1376308 0.110059924 0.13452241
-0.049557537 0.16996214 0.21110137 -0.0915533 0.12562266 0.050871555 -0.1786105 0.13525414
0.19409518 -0.016578332 -0.01696248 -0.11751834 0.033736333 0.10609035 0.07895021 -0.16491091
00000000: dbaf 16bd 94f0 c2bb eedf e53d 74eb ccbd
00000010: 7081 5abe 477c 4c3e ab8d acbc 1bce 89bd
00000020: eaa3 713d a36e 553e 8e0d d43c 35d8 4e3e
00000030: ab80 16be 4607 b3bd 21e6 8bbd 1afb 9f3b
00000040: 03b7 ea3c d083 adbd ee51 2cbd 059e 913d
00000050: b87f 3abe b8f4 1ebe 08b9 2f3d 9e20 213e
00000060: fe89 0c3e efbe 34be be71 acbd 8068 11be
00000070: acf7 17be ea13 153e d6fa 143c a079 233e
00000080: a5a3 263e a185 4f3e ee76 c6bd 0905 b6bd
00000090: a00c 563e 1fe1 863d 13ab b83d b790 1cbd
000000a0: 1b5f 86bd f9ef 18be ae0e 33be 1eb8 08be
000000b0: 2f13 af3c ecb5 a6bd 4443 b4bd 1cc9 57be
000000c0: 3102 54be fe53 153e b59b 23bd 2292 9ebd
000000d0: d41e 043d 9ad9 433d 5796 833d 23ff 303e
000000e0: f836 f03d 8c96 60bd 21e6 1dbe bdd8 b93c
000000f0: 91fa 37bd f5b7 1f3e fa65 08bd 05fb 05be
00000100: f05d 54be ed6c 553e aaad b2bc ed41 40be
00000110: 6845 893c a69a 05be 3ac9 a53d 266c 33be
00000120: 3d53 2ebe ac1e 55be 3c36 053e 32d1 d53d
00000130: a4fe 01be 4989 2e3e 38d7 fcbd b4f1 bb3d
00000140: e486 0dbe 83ef 93bd c66e 0bbe b96c 2dbd
00000150: dc95 aa3d 69a2 09be 7bfe de3d bb78 5b3e
00000160: f885 3c3e 79b7 f7bd db9d a23d 0c94 133d
00000170: fc99 2d3e b608 fd3d d515 54be 3d6d 5abd
00000180: 25e7 17be c40a cb3d f862 07be 543c 4bbe
00000190: 3e3b f03c e3bb 56be c8a0 4fbe 689d 563e
000001a0: a508 7a3d 1541 da3d 5d2a 5bbd d460 afbd
000001b0: 6c17 1b3e 17ef 0cbe 1967 e13d 3ec0 093e
000001c0: d8fc 4abd 8e0a 2e3e f52a 583e 4c80 bbbd
000001d0: 3aa3 003e b15e 503d ace5 36be 1080 0a3e
000001e0: e3c0 463e 48cf 87bc e6f4 8abc 75ad f0bd
000001f0: 1c2f 0a3d e645 d93d a6b0 a13d 68de 28be
