3D/results/TestMoveToGoal/MoveToGoal/MoveToGoal-62965.pt (torch, 442588 bytes, 36 tensors)

network_body._body_endoder.seq_layers.0.weight f4 [128, 6]
000000 79 9f f3 3e 1a 39 be 3d cf 9d ac be 60 05 e4 bd
       0.47582605 0.09288235 -0.33714148 -0.11133838
000010 7d b1 e5 3d 06 98 eb be 40 e4 46 3d 2e db df be
       0.11215494 -0.46014422 0.04855752 -0.43721908
000020 85 38 8d bf 84 fa fe 3e c6 92 77 be 44 d3 19 be
       -1.1032873 0.49800503 -0.24177083 -0.15021998
000030 94 63 79 be 52 c0 01 3e e3 1a 5b bd 11 02 c3 bc
       -0.24354392 0.1267102 -0.053492438 -0.023804696
000040 9e c5 b2 3e a9 e3 16 bf 5c dd 54 3e 92 fa bd bd
       0.34916395 -0.5894113 0.20787567 -0.09276308
000050 33 f5 73 bf d4 b1 8e 3e 34 3a 76 3c b1 47 e4 bd
       -0.9529602 0.27870047 0.015028525 -0.111464866
000060 c9 53 9f 3e a6 b3 85 3d 1f e8 c9 be cc 5c 27 bf
       0.3111861 0.06528406 -0.39434907 -0.6537597
000070 7f 46 9b be 51 52 42 3e 75 0f d2 be b1 ad f1 be
       -0.30327222 0.18976714 -0.41027418 -0.4720283
000080 a4 d8 c0 3e fd 0b 3a be 65 91 0d 3c 2e 3e 14 bf
       0.37665284 -0.18168636 0.008640622 -0.5790738
000090 92 08 d6 3e cb 7d af 3e 29 03 1a 3e 9a e5 94 3e
       0.41803414 0.3427566 0.15040268 0.29081422
0000a0 40 28 bb be 6b be cf be 82 44 db 3e 77 d1 20 3f
       -0.36554146 -0.40574965 0.42825705 0.6281962
0000b0 8a 35 8b 3e 26 60 b2 be 7e bc 1f bd 53 37 37 3f
       0.27189285 -0.3483898 -0.03899812 0.71568793
0000c0 5c 30 9b bf d4 ee 0c 3e e3 86 ec bd 88 22 16 be
       -1.2124133 0.1376298 -0.11549165 -0.1466161
0000d0 6a 3f a9 3e 00 82 a7 be f6 02 0d 3f 32 de 3e 3c
       0.33056194 -0.3271637 0.55082643 0.011649655
0000e0 00 7c 3d be 4a 9e 6e be 3b e1 7a bd 40 6e 8f bf
       -0.18504333 -0.2330257 -0.061249953 -1.1205521
0000f0 8e 97 42 3f 4c 46 85 bd f1 63 14 3e 58 9f c1 bd
       0.76012504 -0.06507549 0.1449125 -0.094542205
000100 b1 23 03 3d 2c c7 9b bc be f9 0a 3f 86 17 6b 3e
       0.03201646 -0.019015871 0.54287326 0.22958192
000110 aa db 42 3d ad cb 45 bf 2d aa 0d be d0 af 65 bf
       0.04757277 -0.7726391 -0.13834448 -0.89721394
000120 61 cd fb 3c e9 4b 5c 3c 7b 19 a3 3d 02 93 1c 3f
       0.03073758 0.013445833 0.079638444 0.61161816
000130 f5 91 78 3e aa da 2b be f9 04 ac be 64 f8 b6 3e
       0.24274428 -0.16782632 -0.33597544 0.35736382
000140 9e 19 44 bf d0 12 06 3f f1 21 7e 3f 62 fb 53 bd
       -0.7660159 0.52372456 0.9927054 -0.05175341
000150 ea fc 0d bf f5 8d b4 3c 0f 60 5f be 17 f7 ba 3d
       -0.5546404 0.022040347 -0.21813987 0.0912916
000160 96 99 1c bc 08 da 4c be b1 ae 98 3d 4a 17 2d bf
       -0.009558102 -0.20005047 0.07455195 -0.6761366
000170 16 d9 0d bc 47 18 bb bd 06 5d 57 be 66 4d 9e be
       -0.008657714 -0.0913549 -0.2103158 -0.30918425
000180 5d bc 96 3d 43 1f c8 bd 30 8d d9 3d 62 e3 3c 3d
       0.07360146 -0.09771588 0.106226325 0.046115287
000190 b5 e9 0b 3e 1f 0c 09 be 6b 7b ac 3e f0 88 17 bf
       0.13663371 -0.1338353 0.3368791 -0.59193325
0001a0 cb 08 a5 3e f4 e0 93 bd d9 5f a4 3e ee f1 5d 3e
       0.3223327 -0.07220641 0.32104376 0.2167432
0001b0 53 d9 c0 bd 3e d9 44 be 47 4d 92 3e 8d a2 3c bd
       -0.09416451 -0.19223496 0.28574583 -0.046053458
0001c0 39 da b2 be e6 52 47 3f 3d d9 01 bd c7 75 f2 be
       -0.34932116 0.7786087 -0.031701315 -0.47355482
0001d0 27 34 a6 3e d9 f3 b0 be 67 ec dc be cf 6d 82 be
       0.32461664 -0.3456104 -0.4314911 -0.25474402
0001e0 b9 ef 4b 3f 44 27 57 3d df a5 f0 bd ce cb 33 be
       0.7966266 0.05252768 -0.117503874 -0.17558214
0001f0 6d b2 07 3e d7 9d 81 be 77 41 36 3f 86 06 bb 3d
       0.13251658 -0.25315735 0.7119364 0.091321036
000200 87 29 e5 bd 93 45 19 3e a8 66 03 be e1 19 16 bf
       -0.11189561 0.14967947 -0.12832129 -0.5863324
000210 2b d6 f0 bc fc b4 80 3e 29 59 1c bd 40 17 84 3e
       -0.029398998 0.2513808 -0.038170967 0.25798988
000220 06 f7 b6 be b4 f9 8b be 7e d8 d7 3c 81 96 54 be
       -0.3573534 -0.27338946 0.026348349 -0.20760538
000230 0c 05 a2 3e 5d ec f2 3e 13 0d 2e bf 52 d1 c8 3e
       0.31644475 0.47445956 -0.679887 0.392222
000240 1e 07 5e be ba e9 08 3e 88 47 29 be bd 1e 01 3f
       -0.21682402 0.1337041 -0.16531193 0.5043753
000250 b2 f8 7d bf 13 33 1d 3f b1 96 46 3e 4f ff 18 bf
       -0.99207604 0.6140606 0.19393422 -0.5976457
000260 89 d7 50 3f 7f c7 44 be 48 3a 49 3f 68 bf de be
       0.8157888 -0.19216727 0.78604555 -0.43505406
000270 79 39 59 bd 24 b0 f7 3d 1c ba 89 be 43 3e ba be
       -0.053033326 0.12094143 -0.26899803 -0.36375627
000280 21 a3 d3 bd c3 fb 75 3e 3a 05 7c bd 4a 00 ef 3d
       -0.10333849 0.2402182 -0.061528422 0.11669977
000290 b7 1e 38 3e ce 0d 87 be 3d 94 8c be 47 0b 93 be
       0.17980467 -0.2637772 -0.27456847 -0.2871954
0002a0 f2 5d 6a bc ba 10 18 be 94 17 a5 3e 32 4d 16 3d
       -0.014304625 -0.1485013 0.3224455 0.036694713
0002b0 5c 48 0b 3e 7c 3e 25 be af 3d a4 bd a1 08 04 3e
       0.13601822 -0.16137117 -0.08019578 0.12893917
0002c0 ce 22 b0 bd 26 3d e5 be 0e 39 4a be 50 7b 37 3e
       -0.086003885 -0.44773215 -0.19748327 0.17918134
0002d0 f0 48 a4 be b9 5e f0 bd 5d 6a 83 3e 5c a3 0e bf
       -0.32086897 -0.11736817 0.25667086 -0.55718017
0002e0 02 10 15 3e 6c 93 0f 3d 7f 41 a5 be 5f 39 13 bf
       0.14556888 0.0350527 -0.32276532 -0.57509416
0002f0 f9 63 39 3e 6b 60 01 bc f1 f6 52 3d a2 70 7d 3e
       0.18104543 -0.007896523 0.051505033 0.24749997
000300 b8 32 ed 3e 98 ca cf be 93 03 e0 bc a6 5b 05 bd
       0.46327758 -0.40584254 -0.027345454 -0.032558106
000310 36 4d 7a bf cc e4 36 be 3e 14 97 bf cb 54 e8 3c
       -0.97774065 -0.17860717 -1.1803052 0.028360745
000320 1e cf 25 bf 08 42 32 3f b9 ca 00 3f b1 ed ca be
       -0.6476916 0.69632006 0.5030933 -0.3963447
000330 ef 53 8e 3f 25 43 32 3f cc c9 d4 3e f0 62 46 be
       1.1119365 0.69633704 0.4156021 -0.19373679
000340 1b 6d 1e be 89 d8 c5 be 6d dc bb 3d 81 0e 5c 3e
       -0.15471308 -0.38641766 0.09172902 0.21489908
000350 99 07 a3 bd f1 b0 92 be 9c a2 dc 3e 63 6d 4b 3d
       -0.079604335 -0.2865062 0.4309281 0.049664866
000360 3d 8c 51 be 9e 98 b1 3e 16 08 1e 3f 42 20 a1 3e
       -0.20463653 0.3468675 0.6173109 0.31469923
000370 1b 8c fd 3e 33 43 28 3f 39 29 ac 3e 80 03 40 3f
       0.49520954 0.6572754 0.336252 0.7500534
000380 bb 51 b4 be 34 fc 4b 3f 12 79 ae be e8 e2 8b 3b
       -0.35218605 0.79681706 -0.34076744 0.0042689927
000390 56 28 33 3f d4 aa 3c be 56 25 06 bf 62 ea eb 3e
       0.6998342 -0.18424541 -0.5240072 0.46077257
0003a0 55 ac 92 bc 0b 30 8c be 21 da 21 3f 00 4f 79 be
       -0.01790444 -0.27380404 0.63223463 -0.24346542
0003b0 0b fa 7b 3e f7 d2 c2 3d 96 9b 01 3d e7 8f b0 3e
       0.24607103 0.095128946 0.03164252 0.3448479
0003c0 1d 82 30 3f 05 a6 54 be f9 83 f4 3e 29 cc f9 be
       0.6894854 -0.20766456 0.47756937 -0.48788574
0003d0 28 aa 0e bf 24 c0 2a be 6e 45 f0 bd a2 e0 5e be
       -0.5572839 -0.16674858 -0.11731993 -0.21765378
0003e0 8b e3 ca bd 8a 07 dd be b1 da 2f 3f aa f1 c0 3e
       -0.099066816 -0.43169814 0.6869307 0.37684375
0003f0 8e 6f d5 3c 00 44 03 3e 14 25 b5 bd cc 34 b1 3e
       0.02605417 0.12818909 -0.08844963 0.34610593

network_body._body_endoder.seq_layers.0.bias f4 [128]
000000 93 52 8d 3c 6c 5a 8d 3c fa 36 f0 3a de 80 a6 3c
       0.017251289 0.01725503 0.0018326931 0.02032512
000010 ca f3 21 3c 72 c7 7a 3c 5f ae b9 3c d2 9f 26 3b
       0.009884784 0.0153063405 0.022666154 0.002542485
000020 9f 27 98 3c c1 4c 36 3c 90 6a 38 3c 42 e6 b1 bc
       0.01857358 0.011126698 0.011255875 -0.02171624
000030 82 7c a5 3b 94 e9 07 3b 54 e7 92 bc a9 6c 03 3c
       0.005050243 0.0020738589 -0.017932571 0.008021512
000040 77 cf 6f bb be 10 61 ba 5b b5 d4 ba 38 6c a1 3c
       -0.0036592165 -0.00085855636 -0.0016228365 0.019704923
000050 d9 61 f4 3b 1e b2 83 3c 96 9d b8 3b 82 f3 b4 3b
       0.0074579534 0.016076144 0.00563402 0.0055221925
000060 4e 9f 3b 3b 6e 17 ff bb 3f c9 65 bb d2 31 8b 3c
       0.0028628889 -0.0077847755 -0.003506258 0.01699153
000070 d8 01 ba bb cd 04 3d bc 39 c8 2c 3c 6f a0 09 3c
       -0.0056764893 -0.011536789 0.010545784 0.008400067
000080 e0 77 67 3c c1 a0 50 3c 30 96 9c 3c 2a 60 88 3a
       0.0141277015 0.012733639 0.019114584 0.0010404636
000090 e3 0a a1 3b 78 a8 15 3c dc c0 94 3c d3 78 2d bc
       0.004914628 0.009134404 0.018158369 -0.010587889
0000a0 63 e1 9a 3c 4f eb 44 bc fa f8 ae 3c e5 39 59 3c
       0.0189063 -0.012018993 0.021358956 0.013258432
0000b0 81 13 88 3c 04 4a 46 3c 11 52 5a 3b 3a 2a f5 3b
       0.016610863 0.012102608 0.0033313076 0.0074818404
0000c0 2d f8 6d bc 52 a7 75 bb 6c d6 0e 3c bd ff 3e b8
       -0.014524502 -0.0037483764 0.008718114 -4.5537705e-05
0000d0 1a ac 68 bc bc a6 f4 3b 3d bd f6 3c 6d 88 28 ba
       -0.014201188 0.0074661653 0.030119533 -0.00064290204
0000e0 4b 97 31 bb 39 8a f5 3b 7a 8a ef 3b 52 4b f9 3b
       -0.0027098234 0.007493284 0.007310209 0.007607856
0000f0 0b 8c 8a 3c 87 8f d2 3b 84 7a c6 3b d3 8a b4 bb
       0.01691248 0.006425801 0.0060570855 -0.005509713
000100 9a 64 d1 ba cc f7 33 bc 23 8f 08 3c 6d 8d dc bb
       -0.0015975416 -0.010984372 0.008334908 -0.0067307265
000110 4a 75 87 3c d2 4e 3f 3c ec 07 e7 bc 7e 73 7d 3b
       0.01653542 0.011676507 -0.02820202 0.0038673575
000120 8b d3 19 bc 6a 2d 1a 3c a9 68 1a bc 57 a9 38 3c
       -0.009388815 0.009410242 -0.009424367 0.0112708425
000130 3b 9e a4 3a d7 63 92 3b c3 06 5e 3c e9 09 8f 3a
       0.0012559363 0.0044674682 0.013551417 0.0010912988
000140 54 2d c2 3a f8 33 5e 3c b6 97 13 3c 17 05 08 bc
       0.0014814534 0.013562195 0.009008339 -0.008301995
000150 58 59 9f bb aa 21 50 3c 51 c9 95 bb 33 cc 8d ba
       -0.0048629455 0.012703339 -0.004571118 -0.0010818302
000160 39 92 f3 b8 a8 33 0a 3c 22 d7 2e 3b 4e aa 4d bb
       -0.00011614379 0.008435167 0.0026678522 -0.0031382027
000170 ca 66 d9 3b 2a 3c 53 3b ed 57 0b bc cd 11 0a 3c
       0.006634568 0.0032231905 -0.00850485 0.008427096
000180 94 d5 7c 3b 8c 6d ef b9 3d a8 1d 3c 0d c1 1d 3b
       0.003857945 -0.0004566725 0.009622631 0.0024071366
000190 3f 6c 56 3b d2 93 a3 3b bc 3c 40 3c b8 02 05 3c
       0.0032718328 0.004991987 0.01173323 0.008118324
0001a0 f1 e8 7a bc cc a7 93 3c fa 0c fa 3b 32 38 49 3c
       -0.015314327 0.018024348 0.0076309415 0.012281464
0001b0 01 13 5d bc 37 09 1a bc 2f 40 8f bc 4f 93 1c bc
       -0.0134933 -0.009401611 -0.01748666 -0.0095566055
0001c0 5e f2 1c bb 55 33 b5 3c d3 f8 51 bc df cc b9 3a
       -0.0023948173 0.022119204 -0.012815672 0.0014175436
0001d0 85 6a 80 3b 74 0f 80 bb 91 fc f3 3b 50 9f 8e bc
       0.003918948 -0.003908092 0.0074458797 -0.01740995
0001e0 98 cb a6 ba c1 46 ca bb 78 8a 6a bc 11 d4 b3 3b
       -0.0012725471 -0.0061729853 -0.01431524 0.005487927
0001f0 d3 7e 8e 3b fc ca 9a 3c 38 1c 40 3b 10 10 83 3c
       0.0043486147 0.018895619 0.0029313695 0.01599887

network_body._body_endoder.seq_layers.2.weight f4 [128, 128]
000000 c0 36 07 bd 84 02 18 be 1c b1 e9 bc b6 5a 0b be
       -0.033011198 -0.1484471 -0.028526835 -0.13608822
000010 8c 08 39 3d 88 71 b8 3d 20 cd 4c 3c 5a 7c ef bc
       0.045174167 0.09006029 0.0125000775 -0.0292341
000020 c2 b6 9d 3d f5 22 02 3e 44 78 6a bc d4 7f 10 3e
       0.07700874 0.12708648 -0.0143109 0.14111263
000030 e4 96 55 3e df 91 cb bd 6a 8f 70 bc 03 0c 2b bd
       0.20858341 -0.09939932 -0.01468263 -0.041759502
000040 0c 54 e0 3d 23 99 6a bd 3f 5a 86 bd ed 1c cc 3d
       0.10953531 -0.05727495 -0.06560182 0.09966455
000050 58 82 9d bc 5a 3a 5b 3e cc 44 00 39 93 37 e1 3c
       -0.019227192 0.21408978 0.0001223266 0.02749232
000060 87 ce 00 3e 59 8f be bb 23 9e 78 3d 28 1b a1 bd
       0.12578784 -0.005815428 0.060697686 -0.07866508
000070 86 4f b2 bd 78 03 7b 3d df 5c 70 bd 6e a2 2c be
       -0.08706574 0.061282605 -0.05868232 -0.16858837
000080 a6 4d 74 bc 84 33 90 bd d7 20 00 bc c0 e5 9d bc
       -0.014911091 -0.07041076 -0.00782033 -0.019274592
000090 17 ec cf bd e9 2f 32 bd 8b d3 bc 3d b0 70 92 bc
       -0.101524524 -0.043502722 0.09220036 -0.017876
0000a0 5f c1 75 be db 83 03 3d 27 44 00 3d e0 67 db 3d
       -0.23999546 0.03210817 0.031314995 0.10713172
0000b0 79 1c d6 3d 9d cb 55 bd 6a 7f 0e be b6 e5 74 bd
       0.104546495 -0.052196134 -0.13915792 -0.059789382
0000c0 1d 01 bb 3d 18 da 79 bc 5d 3a 8e bd bf fd 04 3d
       0.09131072 -0.0152497515 -0.06944726 0.032468554
0000d0 59 22 4c be be 80 1b be ac ab 88 3b 68 b1 91 3c
       -0.19934978 -0.1518583 0.0041708555 0.01778479
0000e0 4f 60 49 be 7a d2 eb 3d 05 36 7d bd 50 4b 08 bc
       -0.19665645 0.115147546 -0.061819095 -0.008318737
0000f0 68 a7 9f 3d 82 48 33 3d 70 a2 29 bd dd 71 dd 3c
       0.07795602 0.04377032 -0.041414678 0.027031833
000100 7e 96 62 3e 78 9e 6c bd 22 02 88 bd 75 9e f2 bd
       0.2212772 -0.057768315 -0.06641032 -0.118466295
000110 e0 37 0f bd f4 2c bb 3d af a0 ef bc 50 db 8c bd
       -0.034965396 0.091394335 -0.029251425 -0.06877768
000120 2a 82 df 3d 1b 10 b5 bd 66 7b 21 be 54 32 08 be
       0.10913499 -0.088409625 -0.15769729 -0.13300449
000130 45 4e ce 3d 51 26 a5 bd 95 77 5b 3e ac 32 3d 3e
       0.100735225 -0.08063949 0.21432336 0.18476361
000140 00 24 7b bc e6 74 10 3e c6 a6 68 bd 3c ec 01 3d
       -0.015328407 0.14107093 -0.056799673 0.03171943
000150 63 3d e5 bd bb 32 08 be 3c 84 bd 3d 96 d0 2a be
       -0.11193349 -0.13300602 0.09253737 -0.16681132
000160 7f fb 89 3b 75 86 9c 3b 25 2a 44 be 37 48 a7 3d
       0.004210889 0.0047767707 -0.19156702 0.08168071
000170 c7 f4 94 3d 83 2e a4 bd 1e 47 24 bc c2 c1 b0 3d
       0.0727325 -0.08016684 -0.010026721 0.08630706
000180 dd 33 f0 bd 1e fe 1b bb ff 03 47 bd 01 2a 22 be
       -0.11728642 -0.0023802589 -0.048587795 -0.15836336
000190 19 c2 54 3d 3b a6 4f bd 46 f5 be 3d 43 f7 a0 3d
       0.05194292 -0.05069564 0.09324126 0.078596614
0001a0 8b 9b ab bb f0 df 9d bd 8b 77 d9 bc fe bd 45 bd
       -0.005237048 -0.07708728 -0.02654626 -0.048276894
0001b0 b5 00 cd bd bc 86 85 bd aa 3b d8 38 38 57 c9 bd
       -0.100099005 -0.06519839 0.00010310796 -0.09831089
0001c0 d1 f3 08 be bc f5 11 3e e3 cd ad bd 5e 58 a0 bc
       -0.13374259 0.14253896 -0.084865354 -0.019573387
0001d0 a3 a1 29 3c 8f d4 db 3d a7 cc 07 be 64 92 c7 3b
       0.010353479 0.10733902 -0.13261662 0.006090449
0001e0 a6 70 15 3e 48 64 7e bb 1b 71 00 be 15 77 37 3d
       0.14593753 -0.0038817097 -0.12543146 0.0447913
0001f0 a6 d6 ef bc 4b 04 74 bc d0 56 06 3d 0b e5 ea 3d
       -0.029277157 -0.014893602 0.032797635 0.11469468
000200 81 d3 a3 bd 4d 74 01 3e cb 51 56 bd 67 82 5b be
       -0.079993255 0.12642021 -0.052324098 -0.21436463
000210 21 d0 5f 3c 52 aa 29 3d 29 57 cb 3d 8a 01 fd 3d
       0.013660462 0.041422196 0.09928734 0.12353809
000220 5d a5 d2 bd 04 82 b5 bd b8 2a b0 bd 9d 9e 02 bd
       -0.10285447 -0.08862689 -0.08601898 -0.031889547
000230 32 37 32 3e 2c 00 8d bd 45 b7 d0 bc 5c 84 2b be
       0.17403868 -0.068847984 -0.025478015 -0.1674971
000240 94 33 36 bd 60 af 94 3d 61 83 ea 3c ad 3c 53 3d
       -0.044482782 0.072600126 0.0286271 0.051571537
000250 05 47 20 be 01 b8 5f 3c 58 89 6a be 32 20 96 3d
       -0.15652092 0.01365471 -0.22903955 0.073303595
000260 f2 ef 69 bd 6d f1 7e bc 28 58 40 bd fd e0 22 3c
       -0.057113595 -0.01556049 -0.046959072 0.009941337
000270 f7 0a 56 be 59 95 21 3e aa de c0 3b ff b9 24 3e
       -0.2090262 0.15779628 0.0058859186 0.16086577
000280 cf 99 3a be cd 93 82 bc 4d 09 25 bd 99 48 53 3d
       -0.18222736 -0.015939618 -0.040292073 0.051582906
000290 27 09 3d 3e 24 86 2f 3c c1 c8 ad 3b dc 93 d1 ba
       0.18460523 0.010713134 0.0053034727 -0.00159895
0002a0 a3 1b 27 3d 77 94 6a bd 4a 3a 92 3d 80 f1 c7 3d
       0.04079784 -0.057270493 0.07140024 0.09762859
0002b0 95 10 d4 3d 9f 62 0d be 51 5d ce bd 71 5d e6 bd
       0.10354725 -0.13807152 -0.100763924 -0.11248291
0002c0 df 3d 0b 3e fa 37 27 bd ba a8 37 bd 22 cc dd 3d
       0.1359782 -0.040824868 -0.044838645 0.10829951
0002d0 c3 ba 92 3d 1e aa 2f be ad f6 88 bd 51 67 0e 3d
       0.07164528 -0.17154738 -0.06687675 0.0347665
0002e0 03 f9 ca 3c 19 6f c3 3d 2b be 06 3e ac 56 08 bd
       0.024776941 0.095426746 0.13158481 -0.03328578
0002f0 bc 7b 66 bd 98 32 02 bd af e5 27 bd 51 73 b5 bc
       -0.056270346 -0.03178653 -0.040990528 -0.022149714
000300 25 3c 40 3d dc 94 bb bc e8 59 0d bc 5e 83 ab bb
       0.04693236 -0.02289813 -0.008627392 -0.005234166
000310 3c b3 28 bd df 34 a8 bb ef 4c 23 3e 7e 63 21 bd
       -0.041186556 -0.005133256 0.15947317 -0.039401524
000320 7a 95 29 bd e0 a6 be 3c 6c 99 d1 bd a1 12 1d 3e
       -0.041402318 0.023272932 -0.10234341 0.15339138
000330 93 7d e6 bd 8a 43 07 be 9f 1d e3 3d d2 8e 95 bd
       -0.1125442 -0.13209358 0.11089634 -0.073026314
000340 1b af 78 3c 0c 53 99 3d 34 a2 45 3c 6c 1c 9d bd
       0.015178467 0.07486543 0.012062598 -0.07671437
000350 00 89 18 3b f3 10 1b 3d e9 2f 8b bb 90 36 2a bd
       0.0023275018 0.03785796 -0.0042476547 -0.04155594
000360 b8 c3 50 3d 40 ef 98 bd 5d 9d 23 bd 59 87 1e bd
       0.050967902 -0.07467508 -0.039944995 -0.038703296
000370 74 ca 44 be d2 8c 25 3e be 8a 65 bd a6 6d aa 3d
       -0.19217855 0.16167 -0.056040518 0.08321695
000380 c3 37 b0 bc 4b 22 db bd 44 c3 37 3e 59 4e 26 3d
       -0.021510964 -0.106999 0.17945582 0.040602062
000390 41 60 5a bc 3b 3b 80 3e c6 ab e1 bd ac c8 b1 bc
       -0.013328613 0.2504519 -0.11019091 -0.021702133
0003a0 e5 4b a3 3d b8 86 11 be 73 84 fa 3d a8 05 8d 3e
       0.0797346 -0.14211547 0.12232294 0.27543378
0003b0 46 66 21 3d bb 1a 06 bd b1 58 3a 3b 02 39 ec bd
       0.039404176 -0.032740336 0.0028434212 -0.11534311
0003c0 42 e6 47 bd f2 50 f2 bd 84 b4 04 bd d3 0a 1f bd
       -0.048803575 -0.11831845 -0.032398716 -0.038828682
0003d0 8d 5a f1 3d 15 e5 29 bd a7 eb 2e 3e 4d 23 f7 3d
       0.11784849 -0.041478235 0.17082082 0.1206728
0003e0 85 a7 81 3c d2 37 66 3d 7b 03 8a bd 7e d2 48 bd
       0.01582695 0.05620558 -0.06738945 -0.049028866
0003f0 24 a3 cb bd ba 6d 8d ba ae a0 ff bd b7 4b 87 3d
       -0.09943226 -0.0010790147 -0.12481819 0.06606238

network_body._body_endoder.seq_layers.2.bias f4 [128]
000000 d3 06 35 bc ea 98 4f 3c 83 dc 48 bc 66 1c 0c 3c
       -0.01104899 0.012670735 -0.012259605 0.008551693
000010 93 68 f5 bb b2 5a c3 3a 5b 93 38 3b 96 41 08 3b
       -0.007489273 0.0014904349 0.0028164003 0.0020791045
000020 4c 1e a4 3b f3 92 5b 3b 92 cc 01 bb 15 af e1 3a
       0.0050084945 0.0033504337 -0.0019805771 0.0017218316
000030 18 20 ac 3a 6d 31 e8 3b 23 53 15 3c 31 5d fa 3b
       0.0013132123 0.00708597 0.00911406 0.007640504
000040 89 8f e0 b9 bd 94 01 bb ca 63 34 bc 91 23 ba bb
       -0.0004283155 -0.0019772493 -0.01101012 -0.0056805094
000050 aa 18 f1 3b 5f 91 72 3c a7 3e 78 bb ce d1 0f bb
       0.0073576765 0.014805167 -0.003787914 -0.0021945122
000060 03 98 90 bb 36 32 d9 bb 89 15 98 3c 86 d5 18 3c
       -0.0044126525 -0.0066283 0.018564956 0.009328252
000070 da 13 01 bc 2f ff 61 3a a2 71 66 3c c9 3e 52 3b
       -0.007878268 0.0008621094 0.014065178 0.003208088
000080 50 d3 a7 3b 0c d5 0f 3a 25 ee 8f 3b 0c 74 3c bc
       0.005121626 0.00054867635 0.0043924027 -0.011502277
000090 57 b8 61 3b 93 a4 40 3c 0b d2 8a 3c ba 1d 9c bb
       0.003444215 0.011757988 0.01694586 -0.004764286
0000a0 ac 47 ef 3a f0 23 d0 3b 33 9c 3c 3c da 2f 0e 3c
       0.0018255613 0.0063519403 0.01151185 0.008678401
0000b0 fc 56 a6 3a 84 9d 73 3a f3 f2 eb 3b 39 48 02 3c
       0.0012690718 0.0009293186 0.0072005927 0.00795179
0000c0 61 d3 74 b9 32 02 b3 3a 4f c5 16 3a a6 95 97 ba
       -0.00023348398 0.001365727 0.0005751447 -0.0011564984
0000d0 b4 21 62 3b bb 7c 58 3c 7d 85 ed 3b 3b e6 c7 3b
       0.0034504952 0.013213332 0.007248579 0.0061004437
0000e0 54 10 9e 3a 9f 27 0f 38 d7 19 e6 3a 11 b1 df b9
       0.001205931 3.4130757e-05 0.0017555308 -0.000426658
0000f0 6c c1 6e 3c a6 44 a6 b9 80 f6 0c bb ff ef db 3a
       0.014572483 -0.00031713134 -0.002150923 0.0016779898
000100 3e 9d d6 3b 2c fb 87 ba 71 37 5f 3c f3 1c 15 3c
       0.0065495064 -0.0010374538 0.013624058 0.00910114
000110 a8 01 f9 b9 bd 33 e8 3b f6 94 4d bb 7f a6 32 3c
       -0.00047494215 0.007086246 -0.0031369305 0.010903954
000120 96 ce 2a 3c 95 8e 92 3b 2c e9 c8 3b a0 b0 26 3a
       0.0104252305 0.0044725635 0.006131312 0.00063587166
000130 37 ec b7 ba 5d 5e 22 bc d5 55 da ba 61 bd 26 bc
       -0.001403219 -0.009910193 -0.001665766 -0.010176987
000140 f2 5e 99 3b f0 05 02 3c a0 e1 83 3b 8b 77 ad ba
       0.004680508 0.007935986 0.0040246993 -0.0013234479
000150 8a d3 12 3c 8d df 2a 3c 88 f2 26 ba df 57 99 3b
       0.008961568 0.010429275 -0.00063685374 0.0046796645
000160 a4 03 63 3c be bf c5 3a 4c 79 76 3c 84 b9 11 bb
       0.013855848 0.0015087051 0.015043568 -0.002223582
000170 1f b1 f0 3b 2e dc a3 3b be b9 4f 3c 20 8b 0f 3c
       0.007345333 0.0050006127 0.012678562 0.008761197
000180 91 3e 79 3b 05 eb 3f bc b1 21 cd 3a c5 e1 0b 3c
       0.0038031677 -0.011713748 0.00156503 0.008537714
000190 38 80 84 3b 1f d4 4a 3c 8e b3 0f 3c 1c 18 d2 3c
       0.004043605 0.012379675 0.0087708365 0.025646262
0001a0 54 92 88 ba f8 5b f9 b9 66 b2 30 bc 48 d6 2a 3b
       -0.0010419586 -0.00047561503 -0.010784721 0.0026067663
0001b0 37 bd 3b 39 b0 73 1d 3b bc 9a b7 3c 7d 51 88 3a
       0.00017904198 0.0024025254 0.02241265 0.0010400262
0001c0 1e 2f 4a bc 6a ee 8d 3b 99 ed 10 3c ce 1a 2f bc
       -0.012340335 0.0043313997 0.00884571 -0.010687543
0001d0 f9 d5 f6 3b b3 7d 13 3c 4e 15 7b 3b 83 e8 29 ba
       0.0075328317 0.009002137 0.003831226 -0.00064814853
0001e0 40 2c 78 3c 58 36 24 3b 41 c5 0d 3c ed 40 8d 3b
       0.015147269 0.0025056805 0.008652986 0.0043107183
0001f0 96 65 d7 3b 8a 99 86 ba 71 c6 6a bb ea bd 4d 3a
       0.0065733893 -0.0010269147 -0.0035823847 0.0007848429

action_model._continuous_distribution.log_sigma f4 [1, 2]
000000 e4 2a 77 bc 50 90 6c bb
       -0.0150859095 -0.003609676

action_model._continuous_distribution.mu.weight f4 [2, 128]
000000 8f bc e5 bb bf ac 36 3d e3 56 30 bc 88 52 bc bc
       -0.0070110033 0.044598337 -0.010762903 -0.022988573
000010 46 86 8b bc 63 f1 07 bd 0d af 2e bd 9b 48 b4 3b
       -0.0170318 -0.03318919 -0.04264741 0.0055018193
000020 ea 8c a7 bc f3 8c 4a 3d 98 13 c7 b9 53 f3 d2 bb
       -0.020452935 0.049450826 -0.00037970836 -0.006437698
000030 32 ac 03 bd 8c 11 05 bc eb 67 cc bc 39 fb ec bb
       -0.03214664 -0.008121859 -0.024951896 -0.0072320965
000040 ee 43 db 3c ae 8b f0 bb 5d f3 d3 bc 87 92 1d bc
       0.02676579 -0.00734087 -0.02587288 -0.009617454
000050 54 b7 cb bc 74 01 0b 3d 6a 3d 2e ba 93 90 98 bb
       -0.024867691 0.033936933 -0.00066467247 -0.0046559065
000060 74 a1 cc 3b d1 41 a1 bb 42 96 0b bd c9 01 eb bc
       0.0062448326 -0.004921176 -0.034078844 -0.028687375
000070 43 09 b7 bb 04 6a 90 3b e5 dd f8 3c a2 e6 5b 3d
       -0.005585821 0.0044071693 0.030379245 0.053686745
000080 ae fa a5 3c 3d 14 14 3c ba 46 8c 3c 89 1c 9f bc
       0.020261135 0.009038028 0.017123569 -0.019422786
000090 73 4d ff 3b b0 af 5a 3d 2f d7 1e 3d 86 ab 31 bc
       0.007791215 0.053390205 0.038779434 -0.010844117
0000a0 43 4f 96 3a 76 0b b7 3b 1b 4f 69 3c 42 3f ff bc
       0.0011467714 0.005586083 0.014240052 -0.031158093
0000b0 b9 12 1a 3d 7d 46 74 39 58 a4 14 3c 84 07 60 3c
       0.03761551 0.00023295912 0.009072386 0.013673667
0000c0 5c 41 ab bc fc 44 92 3b 7f d4 22 3c 1c cc d7 bc
       -0.02090519 0.00446379 0.009938358 -0.026342444
0000d0 13 84 9a 3c f9 ba 2d 3d 59 fc 1f 3d 3f bc 6a 3d
       0.018861806 0.04241464 0.039059017 0.05730843
0000e0 c5 10 0f bc 52 f2 05 bd 15 c2 7f 3c 14 ae 7c bb
       -0.0087320255 -0.032701798 0.015610238 -0.0038555907
0000f0 d7 01 1c 3d 1c bc ab 3b 08 8e 7e bc 22 06 c4 bb
       0.038087692 0.0052409302 -0.015536793 -0.0059821764
000100 cd 41 01 3c 55 56 02 bd 2d ab ad 3c 4f 7b 0e bd
       0.007889223 -0.031820614 0.021199787 -0.034785565
000110 d5 c8 7d 3c 6e 4f fb bc 1b 14 c1 bc 21 66 e9 3c
       0.015489777 -0.030677523 -0.023569157 0.028491082
000120 cf cd 63 bc 6c 61 d1 3c 45 5d 34 bd fd 74 63 3c
       -0.013904049 0.02555915 -0.04403426 0.013882873
000130 46 a3 c9 3b 89 91 5a bc 2b 42 56 bb c2 59 43 bc
       0.006153497 -0.013340362 -0.0032693248 -0.011923255
000140 0c 4a 42 bc 48 6b 0d 3d 70 0c 32 bd b1 a7 f9 bb
       -0.011858474 0.03452614 -0.043468893 -0.0076188673
000150 03 3b 86 3b 86 4c b9 3c c5 6c 91 bc 5e 17 0c 3c
       0.00409639 0.022619497 -0.01775206 0.008550493
000160 86 81 8f 3b 3f 85 8a bc f9 9a b7 3c 1c 3c 91 bc
       0.004379454 -0.01690924 0.022412764 -0.017728858
000170 14 36 1c bd 9a c9 42 3c 78 69 02 3d e5 6d 26 3c
       -0.03813751 0.011888886 0.031838864 0.010158037
000180 4a fc 57 3c 8f fc b5 bc da b3 09 bd 71 64 d5 3c
       0.013182709 -0.022215156 -0.033618785 0.02604887
000190 ce 97 8e 3b e2 c6 f4 bc 31 21 69 3d 3d d2 36 bd
       0.0043515926 -0.029879991 0.05691642 -0.044634093
0001a0 9b b8 15 bc 2f 2c 05 bc e2 88 26 bd 65 2f 1e bd
       -0.009138252 -0.00812821 -0.040657885 -0.038619418
0001b0 cc 0f 75 bb 55 23 1d bc 54 fe 8a 3b ae 30 ab bb
       -0.003739345 -0.009590943 0.004241744 -0.005224309
0001c0 62 ee 76 3b 93 3a 64 bc d5 f4 ce bc 26 2f 8c bb
       0.0037678708 -0.013929981 -0.02526323 -0.0042780815
0001d0 38 84 30 3d d1 be 7e 3b a8 1a 11 bc 23 74 cf bc
       0.043094844 0.003887106 -0.008856453 -0.025323933
0001e0 2a 84 ad 3c 2d cc c9 bc 66 d4 ea 3c 14 f8 bf 3c
       0.021181185 -0.024633491 0.028665733 0.023433723
0001f0 e5 5e 20 3d b4 33 2d 3c 14 3c dc 3b 71 2d 08 3c
       0.039153 0.010571409 0.006721029 0.008311615
000200 b6 18 00 bc 0b 0c d1 bc 06 f5 b8 bc f9 68 8c 3c
       -0.007818392 -0.025518438 -0.022577774 0.017139899
000210 fb 42 04 bd 92 20 a6 bc 94 a6 45 3a 10 80 e8 3b
       -0.03229044 -0.020279203 0.00075397757 0.0070953444
000220 52 42 f4 3c b6 ad 0d bd 6f 6f 40 bc da 49 17 3c
       0.02981678 -0.03458949 -0.011745318 0.009233916
000230 64 4b 17 3c 80 3d b0 3c a8 ca a8 3c 6d 2e 1c bc
       0.009234283 0.0215137 0.020604447 -0.009532553
000240 b3 6a ab bc 00 2d eb bc a6 6a 4a bc 09 e0 26 3c
       -0.020924902 -0.028707981 -0.0123545285 0.01018525
000250 0b 9d e5 bc 61 17 41 bd 1e e3 9b 3c 4a 58 85 3c
       -0.028028985 -0.047141436 0.019029196 0.016277451
000260 bc 13 b3 bc df cc 9d bc 09 1a aa bc 92 c0 50 bb
       -0.021859996 -0.01926273 -0.020764368 -0.0031853062
000270 dd bd 09 bc d2 1d 5a bc 18 e2 29 3d 5f fc 80 bc
       -0.008407083 -0.013312774 0.041475385 -0.01574534
000280 30 6e 09 3d 18 83 4e 39 41 71 0b bd 61 e0 a9 bc
       0.03355235 0.00019694527 -0.034043554 -0.020736875
000290 52 9c 8a 3c bb 42 40 bc 1e c7 b4 bc a7 a9 a0 b9
       0.016920242 -0.01173466 -0.022067603 -0.0003064398
0002a0 d2 60 ff 3c 0c f5 0a 3a 35 58 ad 3a 32 09 b6 3b
       0.031174097 0.0005300797 0.001322514 0.0055552954
0002b0 6a ba b2 bc 32 a2 fe bc ae cd 98 bc 57 45 82 38
       -0.021817405 -0.0310832 -0.018652763 6.2117986e-05
0002c0 96 58 83 3c 7e 8a a3 ba b0 49 35 bc 24 05 10 bb
       0.016033452 -0.0012477187 -0.011064932 -0.002197572
0002d0 83 3f 03 3d 60 87 37 3d a3 7e fe bc f2 58 19 bd
       0.03204299 0.044806838 -0.031066244 -0.03743834
0002e0 0d 8b ac 3c a7 b6 5e bc ed d2 39 3b 3f 08 b5 bc
       0.021062398 -0.013593352 0.0028354481 -0.022098659
0002f0 5a 3f 55 bc c2 f8 87 bc 7d 71 f7 bb 8e 01 9f 3c
       -0.0130155925 -0.01659811 -0.0075513707 0.019409921
000300 6c b7 46 bc 67 c4 88 3c 1a d6 ea 3c b9 0e 08 3b
       -0.012128692 0.016695214 0.028666545 0.0020760729
000310 13 66 90 bc 16 18 1d 3c b5 e7 01 bd 10 aa 70 bb
       -0.017626798 0.009588262 -0.031715114 -0.003672246
000320 5a 82 14 3d 6d 99 35 3a b9 d3 0c bd 7c c1 c1 bb
       0.036257125 0.0006927464 -0.034381602 -0.0059129577
000330 3e bd db bb 82 2f 93 bc db 1e 11 bd 45 31 cd ba
       -0.006705909 -0.01796699 -0.035429817 -0.0015654942
000340 ac 5a 63 bd ba fb 40 bb 97 c4 59 bc c2 0a 20 bd
       -0.055506393 -0.0029446916 -0.0132915 -0.03907276
000350 71 d4 e3 bc 25 e4 27 bc 05 4a e3 3b 39 60 1f 3d
       -0.02781126 -0.010247265 0.006936314 0.038910124
000360 67 fc 2a 3c 74 43 31 bd 7c 3f 0a 3d c9 de d6 3b
       0.010436154 -0.04327722 0.03375195 0.00655732
000370 13 ab fb bb 6e 16 cf 3b 73 05 6f bb f6 6f 6f 3c
       -0.0076803057 0.0063198125 -0.0036471754 0.014614096
000380 b3 d4 26 3c 20 22 ca bc dc f8 df bc bf 21 f4 3c
       0.010182547 -0.024674475 -0.027340345 0.029801248
000390 e8 c0 9f 3a 8d e5 b1 bc df 5d 04 3d aa 06 0b bc
       0.0012188228 -0.021715904 0.032316085 -0.008485476
0003a0 fb 04 06 3c 64 ad 12 bd b7 1b a5 bb 7a 0d 17 3d
       0.008179898 -0.03580989 -0.0050387043 0.036878087
0003b0 36 bf f6 bc ae 30 c4 3c 94 79 19 3c f2 6f 16 bb
       -0.030120473 0.023948994 0.009367365 -0.0022954908
0003c0 f6 78 32 3d fa 7e ed 3c 56 e9 db 3b 30 d3 0a 3d
       0.04357239 0.028991211 0.0067111654 0.03389281
0003d0 b1 0e e3 bb 3b 4b e5 3b ee 6c 46 3c 59 cc b0 3c
       -0.0069292416 0.0069974936 0.012110932 0.021581816
0003e0 97 32 dd 3b fe e8 83 bc 50 cc 17 bc ff ef 87 3a
       0.0067504155 -0.01610231 -0.0092650205 0.0010371207
0003f0 07 4b e2 bc c6 6e a4 bb 28 13 aa bb 48 78 3b bb
       -0.027623666 -0.005018088 -0.005190272 -0.0028605629

action_model._continuous_distribution.mu.bias f4 [2]
000000 95 f4 40 3b cd b4 4a 3b
       0.0029442657 0.003093052

exp_avg f4 [128, 6]
000000 7a a8 2b b8 44 30 71 ab f2 db 1e b7 de 30 11 35
       -4.0926483e-05 -8.568738e-13 -9.468744e-06 5.408782e-07
000010 b4 4e 38 31 53 61 ef b5 c7 e5 68 b8 16 31 bf aa
       2.6820262e-09 -1.7835213e-06 -5.5527107e-05 -3.3962476e-13
000020 27 df cd 37 ce 70 23 38 9c 79 4f 34 ba bc 06 b9
       2.4541818e-05 3.8967286e-05 1.9322619e-07 -0.00012849542
000030 6e b6 6b b7 6c c1 05 2b 10 3c d1 35 be aa 65 36
       -1.4049567e-05 4.751952e-13 1.5589194e-06 3.4223044e-06
000040 b4 c5 91 32 3d 55 3d b7 2a 76 19 b8 5c 72 de ac
       1.6970127e-08 -1.1285124e-05 -3.658809e-05 -6.322316e-12
000050 ac d0 6a 38 03 2c 52 37 17 66 85 33 2f 43 2d b8
       5.598429e-05 1.2527223e-05 6.211865e-08 -4.1308984e-05
000060 cd 70 69 38 a3 cb 16 ad 5c 63 bc 38 dd 05 38 b8
       5.5656583e-05 -8.571729e-12 8.983046e-05 -4.387448e-05
000070 3a 9a 69 b4 64 b4 17 39 ad c3 57 b7 1a d8 34 2b
       -2.1755923e-07 0.00014467683 -1.2860558e-05 6.424875e-13
000080 45 bf 8b 37 0f d1 34 37 4e 88 65 33 c5 0f 15 b8
       1.6659158e-05 1.0777511e-05 5.3442186e-08 -3.5539055e-05
000090 61 8f 12 b8 18 63 6a aa 7d f2 31 37 26 63 83 36
       -3.4942645e-05 -2.0817755e-13 1.0606481e-05 3.9156466e-06
0000a0 28 c9 a6 32 47 a0 58 b7 be 1c 17 b9 67 f1 0d 2d
       1.9416419e-08 -1.2911921e-05 -0.0001441119 8.068524e-12
0000b0 72 da 30 38 ce a5 99 38 24 0b c3 34 07 54 7d b9
       4.2165113e-05 7.326492e-05 3.6329686e-07 -0.00024159263
0000c0 36 17 41 b7 94 c2 e5 2a 09 51 80 37 dd 1e cc 37
       -1.1509101e-05 4.0813587e-13 1.5296524e-05 2.4333067e-05
0000d0 b7 8e 01 34 df 45 a8 b8 08 95 8c b4 50 74 0d ab
       1.206598e-07 -8.023879e-05 -2.6185467e-07 -5.025468e-13
0000e0 34 81 26 b4 12 07 5b b6 e5 04 8b b2 e4 8f 34 37
       -1.5506959e-07 -3.2637658e-06 -1.6183956e-08 1.0762338e-05
0000f0 a4 93 92 b9 a0 42 37 ad a8 07 f9 b8 d3 3b 43 b7
       -0.0002795729 -1.0417139e-11 -0.00011874671 -1.1636835e-05
000100 29 d5 77 b3 83 f2 20 38 6f d6 14 37 0e 20 88 aa
       -5.7703037e-08 3.837283e-05 8.871414e-06 -2.4180695e-13
000110 a3 7c 90 b6 5f 04 02 b7 e4 0b 25 b3 f3 5d d6 37
       -4.306044e-06 -7.749622e-06 -3.842787e-08 2.5554536e-05
000120 5a 8b 44 b6 e0 c1 d7 29 77 2c 5f 36 25 b2 89 36
       -2.928739e-06 9.58155e-14 3.3255471e-06 4.103657e-06
000130 4a cb ae 32 06 07 63 b7 28 7e a1 b7 5d 4b dd 2a
       2.0348711e-08 -1.353189e-05 -1.9251442e-05 3.930978e-13
000140 2c 5b 64 37 92 6a 8f 37 47 0e b6 33 8a 75 6c b8
       1.3611087e-05 1.7096554e-05 8.4776325e-08 -5.637625e-05
000150 78 c7 7d 37 ca ac c3 29 79 a7 bd 36 3c 97 b2 36
       1.5126418e-05 8.689714e-14 5.6521353e-06 5.3224194e-06
000160 fc b4 e2 32 0a 3a 93 b7 26 d2 4c b7 f6 45 69 aa
       2.6392165e-08 -1.7550792e-05 -1.22082765e-05 -2.071883e-13
000170 05 0a 0d b7 32 68 7d b4 0a d7 a0 b0 eb e6 50 35
       -8.406588e-06 -2.3600367e-07 -1.170265e-09 7.782207e-07
000180 3e 12 05 38 ab f7 63 2a a0 63 c7 37 f6 7c e2 35
       3.172666e-05 2.0247577e-13 2.376904e-05 1.6874681e-06
000190 33 c1 0f 32 69 b6 ba b6 fe 1d e2 b8 db 41 fc ab
       8.367624e-09 -5.5644673e-06 -0.00010782106 -1.7923956e-12
0001a0 bf e1 27 b9 55 0d b1 b7 d9 c0 e0 b3 3d f5 91 38
       -0.00016010458 -2.1106252e-05 -1.04658916e-07 6.959818e-05
0001b0 57 03 9a b7 89 e5 db 2c 04 df d8 38 ec 8c 71 38
       -1.8359786e-05 6.249838e-12 0.000103412225 5.759012e-05
0001c0 98 50 99 34 2d 21 47 b9 4d fe 02 b8 ba e7 5d aa
       2.855711e-07 -0.00018990478 -3.123125e-05 -1.970914e-13
0001d0 e7 a3 9a b7 d7 6c 9f 36 ab 60 ca 32 4b 6d 83 b7
       -1.8434554e-05 4.75124e-06 2.3559855e-08 -1.566731e-05
0001e0 e1 08 49 b8 9b 90 47 ad 6a f8 7f b8 7c 84 fb b8
       -4.7930404e-05 -1.1343949e-11 -6.102809e-05 -0.0001199329
0001f0 11 a4 1f b5 8d 58 cf 39 27 69 4d b8 15 87 64 a9
       -5.9470864e-07 0.00039548092 -4.897374e-05 -5.0743335e-14
000200 eb 8e 0b 37 20 b7 80 37 e0 64 a3 33 86 38 54 b8
       8.318321e-06 1.5344063e-05 7.608628e-08 -5.059738e-05
000210 95 d9 c0 b6 0f a6 47 2a 58 58 93 b5 96 d7 ef 35
       -5.747376e-06 1.7732364e-13 -1.0978065e-06 1.7869631e-06
000220 01 3b 18 32 99 b8 c5 b6 52 4f 5e b9 4a a0 ef 2c
       8.86098e-09 -5.8925475e-06 -0.00021201119 6.810584e-12
000230 d9 0a 21 b8 e3 2e 45 38 fe 4e 7a 34 d2 8d 22 b9
       -3.8395494e-05 4.7012127e-05 2.3311802e-07 -0.00015502356
000240 d2 3e 7f b7 a6 1d ad ab 47 2d 07 39 64 d1 79 38
       -1.5213811e-05 -1.2300618e-12 0.0001289147 5.9561236e-05
000250 ec 8f 9e 34 f1 f1 4d b9 8e e5 2f 37 56 ca 3a aa
       2.953451e-07 -0.00019640454 1.048426e-05 -1.6590318e-13
000260 dd 14 0c b5 aa 2c f2 b6 ef b5 19 b3 ce a4 c7 37
       -5.2184424e-07 -7.2173616e-06 -3.5788556e-08 2.3799392e-05
000270 93 b9 eb 37 04 57 0a 2c 3c 87 c4 38 e0 ee 3a 38
       2.8100598e-05 1.9659283e-12 9.371198e-05 4.4568325e-05
000280 09 4c 6d 34 97 1a 1a b9 56 8c 3d b7 9d 94 9a 2a
       2.2100006e-07 -0.0001469649 -1.1297952e-05 2.7459017e-13
000290 72 80 81 b6 ec d1 99 35 37 43 c3 31 de 9c 7d b6
       -3.8594526e-06 1.1460484e-06 5.6828884e-09 -3.7791247e-06
0002a0 a2 ec 88 36 47 db 5d 28 0e 33 27 b6 57 82 d9 b5
       4.0806635e-06 1.2315513e-14 -2.4914657e-06 -1.6205694e-06
0002b0 30 0e 0a b2 6c 4f b3 36 72 31 4e 38 9a ec 62 2a
       -8.035883e-09 5.3438616e-06 4.9160277e-05 2.015492e-13
0002c0 f1 3a c2 b6 42 30 96 36 02 a7 be 32 f3 9f 77 b7
       -5.788512e-06 4.4759663e-06 2.2194858e-08 -1.4759588e-05
0002d0 30 f5 34 b9 4f 43 0b 2d 19 07 bd 38 cb 4e 87 38
       -0.00017257477 7.916181e-12 9.013544e-05 6.451978e-05
0002e0 40 c3 ab 34 11 17 5f b9 18 26 0c b9 66 f2 cb 2c
       3.1993295e-07 -0.0002127553 -0.00013365631 5.7965186e-12
0002f0 1c e0 81 38 76 d5 1b 38 9a d1 45 34 5d 77 00 b9
       6.192943e-05 3.715368e-05 1.8423307e-07 -0.00012251498
000300 4a fc 49 b8 8f 7f 32 ad 1f 8a 45 b7 bc 0d 7a b8
       -4.8157097e-05 -1.0146452e-11 -1.1774274e-05 -5.9617436e-05
000310 40 b6 9e b4 b5 23 4e 39 67 d8 4b b7 e9 e6 33 2a
       -2.9562398e-07 0.00019658993 -1.2150128e-05 1.5978507e-13
000320 fa 5d b2 36 54 d1 49 36 88 18 80 32 d8 5f 26 b7
       5.3157537e-06 3.007318e-06 1.4912317e-08 -9.916686e-06
000330 49 66 fe b9 85 02 5b ad ca 58 9f b8 73 14 ad 37
       -0.00048522864 -1.2449268e-11 -7.598249e-05 2.063273e-05
000340 7d b6 db 33 0f af 8e b8 d9 ef 2a b8 0b 6c 48 ab
       1.02311766e-07 -6.803695e-05 -4.0754534e-05 -7.1204213e-13
000350 af 00 4a b7 9f 4d 65 37 86 8a 91 33 71 08 3d b8
       -1.2040297e-05 1.3667536e-05 6.777286e-08 -4.5068973e-05
000360 a7 52 4b b9 a5 a9 1d 2d 16 db 2e 37 1b 34 a4 38
       -0.00019390379 8.962085e-12 1.0422218e-05 7.829835e-05
000370 8f 71 d0 34 bc 5d 87 b9 28 91 ee 37 96 fe ef ac
       3.8825644e-07 -0.00025819044 2.8439405e-05 -6.8210533e-12
000380 4e 8d 04 b7 7b 94 8d b8 7f b9 b3 b4 76 6e 69 39
       -7.900713e-06 -6.7510606e-05 -3.3476314e-07 0.00022261761
000390 5f 11 8b b7 08 cc 14 ad ee 5c cd 37 2e c1 9d b8
       -1.657818e-05 -8.45813e-12 2.4481178e-05 -7.522326e-05
0003a0 cb 41 c8 b4 bd 0c 82 39 ba f7 cf 38 42 02 cd ac
       -3.7300774e-07 0.00024805023 9.916672e-05 -5.826701e-12
0003b0 77 e0 18 b9 9e 98 00 b9 24 3e 23 b5 34 06 d4 39
       -0.0001457947 -0.00012263886 -6.081266e-07 0.00040440413
0003c0 14 90 db b9 18 46 a4 ac d0 54 57 b9 e4 29 04 38
       -0.00041878282 -4.6689423e-12 -0.00020535593 3.1510266e-05
0003d0 58 c5 27 34 cf e7 d9 b8 84 6a 8d b8 56 07 30 2c
       1.562488e-07 -0.00010390544 -6.743244e-05 2.5015177e-12
0003e0 32 01 a8 b8 f5 41 e7 b7 22 c8 12 b4 ec a4 be 38
       -8.011087e-05 -2.756806e-05 -1.3670117e-07 9.090625e-05
0003f0 19 72 94 b7 c8 8b 93 ab 4d 87 43 36 af d1 2d b6
       -1.7696106e-05 -1.0483775e-12 2.913602e-06 -2.590106e-06

exp_avg_sq f4 [128, 6]
000000 6a bd 6c 32 86 9a ac 17 e3 9b 17 31 85 e1 27 31
       1.3780076e-08 1.1154247e-24 2.2062003e-09 2.4429891e-09
000010 a8 43 87 29 47 2f e4 32 8c cf 9b 32 ce 0b a2 18
       6.006941e-14 2.6564193e-08 1.8138756e-08 4.188794e-24
000020 21 ad cd 31 0b eb 9c 31 e0 dc fc 29 b2 48 55 33
       5.9859677e-09 4.566919e-09 1.1229364e-13 4.9659043e-08
000030 df 83 40 30 dd ca 6c 16 46 80 9e 2f 3b 19 bf 2f
       7.0036593e-10 1.912794e-25 2.8831176e-10 3.4760625e-10
000040 97 f8 19 28 02 df 81 31 7a 2f dd 33 14 b0 22 1a
       8.5471105e-15 3.779747e-09 1.02997504e-07 3.364305e-23
000050 6c 50 ae 32 7f 69 ff 32 16 ca 4d 2b 25 94 ad 34
       2.0292838e-08 2.9733881e-08 7.311108e-13 3.233155e-07
000060 46 1b 37 34 e3 28 52 1a 19 b4 9b 32 28 f7 38 33
       1.7053125e-07 4.346001e-23 1.8126274e-08 4.3065626e-08
000070 8c 07 95 2b ed 67 fb 34 b1 66 3b 30 81 c2 9b 16
       1.0589181e-12 4.682801e-07 6.8176137e-10 2.516435e-25
000080 10 91 78 2e 4c 47 cc 2f 21 97 24 28 04 d4 8a 31
       5.6517513e-11 3.7158043e-10 9.1366e-15 4.040432e-09
000090 9f ca 1b 31 1f ed d3 16 69 21 35 2f 02 1b 63 30
       2.2670645e-09 3.4238533e-25 1.6473724e-10 8.26205e-10
0000a0 7e fb b6 28 72 57 1a 32 14 c7 4b 34 80 d2 39 1a
       2.0315126e-14 8.9838625e-09 1.8978272e-07 3.8427144e-23
0000b0 5e f4 ed 32 cf 32 8f 33 1e c1 e6 2b d7 a2 42 35
       2.7701557e-08 6.6681984e-08 1.6396084e-12 7.2507595e-07
0000c0 25 5b c3 2f 8c b9 fc 15 90 fd b9 2e 48 da 32 2f
       3.5535055e-10 1.0207473e-25 8.457868e-11 1.6266555e-10
0000d0 b7 1a 90 27 f6 18 f3 30 62 03 c2 2f 87 22 e5 15
       3.9996993e-15 1.7687671e-09 3.5290798e-10 9.254684e-26
0000e0 c8 3a 28 2e 7e ea f8 2e 30 8e 48 27 f5 29 a9 30
       3.8250986e-11 1.13193885e-10 2.7832656e-15 1.2308293e-09
0000f0 3d 80 f2 34 9e e5 a5 1a 12 73 d8 32 4c f0 ef 33
       4.5169318e-07 6.861337e-23 2.5198037e-08 1.11730145e-07
000100 7d 52 41 2c 22 10 a3 35 32 fe 62 30 8c bc 9b 15
       2.747274e-12 1.2149142e-06 8.2579554e-10 6.2901476e-26
000110 3b 22 fb 2e e7 bd 50 2f b9 2f a8 27 8e dc 0d 31
       1.1420239e-10 1.8984957e-10 4.668111e-15 2.0643571e-09
000120 87 c4 3e 2e a9 6e 36 14 25 16 07 2e 07 a3 ac 2d
       4.337555e-11 9.210476e-27 3.0715114e-11 1.9626535e-11
000130 97 18 0b 26 15 a6 6a 2f 84 71 34 30 44 f6 0c 16
       4.825864e-16 2.134118e-10 6.5644934e-10 1.1386818e-25
000140 34 b8 e0 30 3c ac fd 2f 58 63 4c 28 8e 65 ac 31
       1.6350499e-09 4.6142812e-10 1.1345817e-14 5.0174043e-09
000150 1d ad 4b 30 fe a1 21 16 f0 82 9d 2f b4 1a 7e 2f
       7.409698e-10 1.3056592e-25 2.865117e-10 2.3110652e-10
000160 61 bc cc 27 a1 b0 2c 31 de bc 18 30 1c 3b d2 15
       5.6825615e-15 2.5129696e-09 5.5565674e-10 8.491158e-26
000170 21 74 5b 2e f6 2b 10 2f 9f 52 68 27 78 f5 c3 30
       4.9897978e-11 1.3112342e-10 3.2241257e-15 1.4257884e-09
000180 d9 48 64 31 37 e0 75 17 9d f2 c8 2f 46 69 92 30
       3.3219776e-09 7.944677e-25 3.6552175e-10 1.0652819e-09
000190 7a ee eb 28 bd 00 47 32 2e 53 88 33 10 a0 9e 19
       2.6193664e-14 1.1583492e-08 6.348124e-08 1.6401466e-23
0001a0 b7 04 0d 32 8d ad c2 32 e4 da 1c 2b b8 4d 84 34
       8.208352e-09 2.2663494e-08 5.5726105e-13 2.4643464e-07
0001b0 44 cb 3e 34 72 84 e6 19 43 7c e6 32 5a 5f 68 33
       1.7769077e-07 2.3834937e-23 2.6832032e-08 5.410343e-08
0001c0 db 39 bb 2b c2 eb 1d 35 98 cf 20 31 c8 fa 3c 17
       1.3303207e-12 5.883013e-07 2.3401068e-09 6.1062607e-25
0001d0 36 e8 01 2f 42 7a 60 30 73 dd b4 28 37 8e 18 32
       1.181498e-10 8.1664464e-10 2.0080053e-14 8.8799e-09
0001e0 21 a5 88 34 c9 32 73 1a 6a f9 40 32 16 a2 89 33
       2.545212e-07 5.0292246e-23 1.1232581e-08 6.409043e-08
0001f0 52 c9 dd 2b 5e 12 3b 35 3e 36 6e 31 4a 6a df 16
       1.5758872e-12 6.9689656e-07 3.4664391e-09 3.609467e-25
000200 85 cc aa 2f ec 3f 4b 30 f9 c2 a3 28 08 21 0a 32
       3.106814e-10 7.394181e-10 1.8181191e-14 8.040168e-09
000210 e2 b9 04 2f ef bd 0d 15 c6 77 f1 2c 06 4b 56 2e
       1.2071369e-10 2.8624554e-26 6.8629295e-12 4.87246e-11
000220 c0 a8 ac 26 4d a2 11 30 f8 ac a0 33 75 f9 2b 1a
       1.1980637e-15 5.2981336e-10 7.4820434e-08 3.556348e-23
000230 0a 5b 12 32 c2 2a 11 33 32 ed 69 2b d0 4f c5 34
       8.519018e-09 3.379933e-08 8.3107403e-13 3.675218e-07
000240 80 63 0f 33 f1 95 83 19 fd 95 4d 32 69 e5 a8 32
       3.3385277e-08 1.3605643e-23 1.1966674e-08 1.9662098e-08
000250 09 15 08 2b 7e 90 65 34 01 ab 19 30 58 64 b2 15
       4.83461e-13 2.1379853e-07 5.5904087e-10 7.205194e-26
000260 7a 56 82 2e 33 01 d1 2e ee 65 28 27 41 0a 8e 30
       5.927077e-11 9.504433e-11 2.336994e-15 1.0334774e-09
000270 46 e6 17 33 60 ff fa 18 1a 1a 09 32 2b 61 52 32
       3.536686e-08 6.488135e-24 7.980384e-09 1.2245702e-08
000280 8a 81 a9 2a 7b f9 0e 34 96 ac 57 2f 91 39 48 16
       3.0110316e-13 1.3315541e-07 1.9615451e-10 1.6174036e-25
000290 f7 79 c7 2d be b5 35 2f 15 68 92 27 29 fb f6 30
       2.2677844e-11 1.6526422e-10 4.0635986e-15 1.797024e-09
0002a0 2b bd 73 2f b5 d3 b6 14 d8 c2 f2 2c 5d d4 ac 2e
       2.2167927e-10 1.8460807e-26 6.8996857e-12 7.859378e-11
0002b0 64 40 0b 27 2b e9 6a 30 83 91 e6 31 e5 5c 0e 18
       1.9325031e-15 8.5460056e-10 6.7104238e-09 1.839997e-24
0002c0 f1 62 05 31 70 09 10 32 05 1b 68 2a 8e c6 c3 33
       1.941029e-09 8.384049e-09 2.0615114e-13 9.116512e-08
0002d0 3d bb b7 33 36 c8 2b 1a 72 cb c6 31 05 06 42 33
       8.55566e-08 3.55237e-23 5.7856875e-09 4.517462e-08
0002e0 e1 53 9c 2b dd db 03 35 da 9a 5f 33 2f 21 d9 19
       1.1107748e-12 4.9121246e-07 5.206207e-08 2.2450677e-23
0002f0 bc 4d ef 31 34 57 06 33 11 7b 58 2b ae 98 b6 34
       6.964653e-09 3.1278617e-08 7.6909404e-13 3.401123e-07
000300 6d 35 68 34 a3 42 4a 1a a1 db 32 32 b8 3a 5b 33
       2.162612e-07 4.182645e-23 1.04109015e-08 5.1043315e-08
000310 f0 a2 b0 2b 22 fd 14 35 ff ca c6 2d a1 1b 0f 15
       1.2550776e-12 5.5502653e-07 2.2600142e-11 2.8900415e-26
000320 c2 af a4 2d ae 0a 2d 2e 24 6c 8b 26 08 33 eb 2f
       1.8722694e-11 3.934513e-11 9.674374e-16 4.278251e-10
000330 7e a4 36 35 0d 90 ff 1a 9b dc c6 32 d5 42 2f 34
       6.803965e-07 1.05698255e-22 2.3150553e-08 1.6322458e-07
000340 e6 35 8d 2c 3f 37 ee 35 3c 72 02 33 e4 0b e9 17
       4.013445e-12 1.774846e-06 3.037188e-08 1.5060274e-24
000350 07 80 2c 32 9d 4c 1f 32 92 59 80 2a 47 85 d8 33
       1.0040828e-08 9.272438e-09 2.279952e-13 1.0082527e-07
000360 b3 14 f5 33 d1 03 4d 1a 07 8e 30 32 9b e6 3c 33
       1.1412467e-07 4.239609e-23 1.0276842e-08 4.3981895e-08
000370 48 33 98 2b a3 60 00 35 f1 28 d6 33 e7 16 b7 19
       1.0814483e-12 4.782434e-07 9.972599e-08 1.8931007e-23
000380 dc 3e 56 32 4a 16 ca 32 1f d3 22 2b c4 56 89 34
       1.2470732e-08 2.3526031e-08 5.784695e-13 2.558137e-07
000390 db af 31 34 d4 93 1a 1a dd 3c c1 32 9c e2 20 33
       1.6548385e-07 3.1965868e-23 2.2495835e-08 3.7459003e-08
0003a0 b1 a0 81 2b 0e ad da 34 32 5e be 33 da c5 c5 19
       9.210602e-13 4.0731578e-07 8.8646985e-08 2.0449234e-23
0003b0 9e bd 92 32 2b 5d 16 33 19 4d 72 2b 20 60 cc 34
       1.7082865e-08 3.5009332e-08 8.6082666e-13 3.80679e-07
0003c0 f9 3c c1 34 dc f1 9b 1a 35 06 ba 32 bd 43 cf 33
       3.5993415e-07 6.449724e-23 2.1656072e-08 9.65151e-08
0003d0 0c ff 26 2c 90 db 8c 35 5c 67 21 33 db 29 8a 19
       2.3731598e-12 1.0494714e-06 3.757974e-08 1.4285771e-23
0003e0 1f 5a 9e 32 d8 31 84 32 c8 05 d5 2a 08 ae 33 34
       1.8434603e-08 1.5389489e-08 3.7840412e-13 1.6733986e-07
0003f0 fb 8e 0e 31 fb bf 18 17 1c f6 da 2f 1d af 78 30
       2.0744995e-09 4.935616e-25 3.982884e-10 9.0470725e-10

exp_avg f4 [128]
000000 8f fb ef b4 2a 13 07 b8 b7 ce 3d b6 11 b2 2d b7
       -4.4700252e-07 -3.2204356e-05 -2.8283519e-06 -1.0353063e-05
000010 bf 15 18 38 69 6f 15 b7 48 2b 59 b6 83 f6 7d b8
       3.6259877e-05 -8.907032e-06 -3.2360713e-06 -6.0549482e-05
000020 d5 b1 a8 b7 bb 03 35 36 a4 59 21 37 7e e7 d6 36
       -2.010997e-05 2.6973273e-06 9.617219e-06 6.4046462e-06
000030 b2 98 63 b6 43 0d 6d b7 80 98 93 b6 3d 6d 51 34
       -3.3914516e-06 -1.4129389e-05 -4.3986947e-06 1.9504382e-07
000040 0e 2e bb b5 ed 52 92 37 e8 a0 47 b8 a9 c1 83 b6
       -1.3945989e-06 1.7443172e-05 -4.7595153e-05 -3.9266492e-06
000050 9a dd cf 38 ae c0 54 b7 79 37 c6 b5 15 f6 22 b8
       9.911806e-05 -1.2681046e-05 -1.4768294e-06 -3.885299e-05
000060 11 76 4e b8 e7 24 c8 36 79 7d 1a b8 79 3f 7e b5
       -4.9224185e-05 5.9647605e-06 -3.6833317e-05 -9.471474e-07
000070 73 c2 b3 35 d1 3e 78 b6 39 a6 5f b8 c9 c9 00 b8
       1.3393131e-06 -3.6991444e-06 -5.332215e-05 -3.0705505e-05
000080 f4 a7 4e 38 98 ca 26 b6 a4 0a 8f b7 b8 81 3d b7
       4.9270646e-05 -2.4853853e-06 -1.7051883e-05 -1.129548e-05
000090 92 b4 87 b8 38 04 6a 38 2b 60 82 38 40 8e d4 38
       -6.4709355e-05 5.5793877e-05 6.216796e-05 0.00010135444
0000a0 ac 73 da b7 39 1f bf 37 f0 a6 0f 36 62 d8 38 b8
       -2.6041489e-05 2.2783513e-05 2.140583e-06 -4.407054e-05
0000b0 83 f9 2e b9 23 44 e0 38 4c 44 5f 36 23 2d 82 b5
       -0.00016686883 0.00010693844 3.3269343e-06 -9.698891e-07
0000c0 ca 74 05 38 dd 3f 32 36 5a df 95 38 d1 16 ae b5
       3.181844e-05 2.656124e-06 7.146476e-05 -1.2970651e-06
0000d0 ec 9e 04 b7 00 b5 8c b6 9d 2a 89 b8 8b 9a 84 b6
       -7.904815e-06 -4.1933963e-06 -6.5406064e-05 -3.9518977e-06
0000e0 4f 97 ae 38 13 41 44 38 f3 d4 9e 35 22 aa 6c b8
       8.32515e-05 4.6790647e-05 1.1833894e-06 -5.6425233e-05
0000f0 28 56 47 b8 15 d8 88 b6 c4 a5 4a 37 7e fa 25 b8
       -4.7525537e-05 -4.078271e-06 1.2078734e-05 -3.9572355e-05
000100 21 60 9a b8 12 a4 0a b7 99 39 ac 37 ef 05 15 38
       -7.361198e-05 -8.263642e-06 2.0530819e-05 3.5529894e-05
000110 2d 01 fc b5 f3 8c 8c b7 b8 be b8 37 0f 22 f2 36
       -1.8775805e-06 -1.6754935e-05 2.202332e-05 7.216127e-06
000120 31 b4 43 b5 fe dc 83 b8 e3 4a f8 35 1a 07 90 b8
       -7.2905374e-07 -6.28773e-05 1.8499235e-06 -6.867778e-05
000130 cb d9 56 b7 61 2e a4 b8 6f 8f 80 38 ab 03 24 36
       -1.2806103e-05 -7.828768e-05 6.130232e-05 2.444004e-06
000140 6d ab bb b6 7f 7e 09 b8 57 e3 15 b8 61 18 0c b7
       -5.592991e-06 -3.2781154e-05 -3.5736095e-05 -8.350326e-06
000150 97 52 9d b6 b5 da c6 b5 02 8b 38 b6 c6 fc 14 35
       -4.6885793e-06 -1.4815802e-06 -2.749905e-06 5.550213e-07
000160 f4 3f 7d b6 6d ac 02 b9 ce e5 9a b7 f2 39 37 b7
       -3.7737163e-06 -0.00012462 -1.8465242e-05 -1.0921141e-05
000170 58 56 7a 35 b0 bf b4 b7 c6 ce 51 37 83 8a bf b7
       9.3257904e-07 -2.1546934e-05 1.2505514e-05 -2.2833474e-05
000180 0c f8 bd b7 1d d6 8d 38 87 63 7c b7 c9 62 83 38
       -2.2646062e-05 6.763286e-05 -1.50435435e-05 6.264967e-05
000190 78 ad 8a b8 19 ca 18 b8 f7 77 c0 37 d2 63 c5 b7
       -6.612664e-05 -3.6427842e-05 2.2944047e-05 -2.3530712e-05
0001a0 c3 51 45 37 4c a9 bc 37 63 5c cb b8 6b b0 a0 b8
       1.1761152e-05 2.2490181e-05 -9.697003e-05 -7.662255e-05
0001b0 54 cd b5 b7 6a eb 02 38 c3 68 70 36 48 ff 2e b7
       -2.1672495e-05 3.121366e-05 3.5823766e-06 -1.04306455e-05
0001c0 b4 dd 77 36 f4 ac ea 37 22 43 e5 37 ea 37 20 38
       3.6934916e-06 2.7975511e-05 2.7330188e-05 3.8199047e-05
0001d0 e8 bf cb b6 85 54 6f b7 b9 ee 96 b8 09 ec e7 b4
       -6.0722123e-06 -1.4265189e-05 -7.197023e-05 -4.319884e-07
0001e0 ea 62 0d 35 46 e0 b1 b5 da 98 48 37 dc 73 72 b8
       5.267053e-07 -1.32528e-06 1.19565175e-05 -5.78052e-05
0001f0 d0 e5 08 b7 23 98 c1 b6 63 2a 69 b8 27 ff 99 b8
       -8.159739e-06 -5.7695593e-06 -5.5591005e-05 -7.343134e-05
