3D/results/ppo/MoveToGoal.onnx (onnx, 74134 bytes, 5 tensors)

network_body._body_endoder.seq_layers.0.weight f4 [128, 1]
00000000: 1bcd c6bd bb42 febd ebec 53be 4090 7cbe
00000010: f46a 803e 2e4b 353f 0310 dd3f 953a c4bf
00000020: 6807 ab3f e86e 6a3f 6d7f 33bf 1ea1 95bf
00000030: d623 5bbf 200d 60bf 7936 85bf 7204 f23f
00000040: 5a22 043d 3629 3d3f 60e6 33bf 5f96 a83f
00000050: af62 17bf cbbf 7dbf 2eeb 3b3e 0123 c3be
00000060: fd16 51bf 080b ba3e 1329 aa3f 2433 92bf
00000070: 1c8e 153f 7cff 85bf 5f40 963f bf41 3d3f
00000080: 7933 dcbe 341d 58bf 382e 50bf aae9 bfbf
00000090: f40c f3bf f0e2 21c0 de94 bfbf 6a90 023f
000000a0: c74c 9a3f fdb7 7c3f a54c 2f3f 09f7 9e3f
000000b0: 1a66 783f a4b4 a43f fc12 28bf 7307 b9bf
000000c0: edd4 bf3f 9619 323e 723e 1bbf 2614 1bbf
000000d0: 07f3 a1bd 785f 35bd 679b ddbf 78ae 063f
000000e0: 2152 3d3f 401b fdbf 1659 8c3e 0f81 c23e
000000f0: 66ae 35bf b380 063d e4fb c13f 4a97 4abf
00000100: 3e53 bd3f fb3a b73f c7a7 a23d b7bc 473f
00000110: 000a 14bf deb8 b03e f5f9 593f 6e69 79bf
00000120: 4d72 863f cfaf 513f 2525 cabd 146a efbe
00000130: 35a0 73bf 56e0 adbf 17a6 60bf 6259 cd3e
00000140: 1686 d83d 696c b23f 71e7 6f3f ba13 cb3e
00000150: 7ef4 bcbf 2c86 babd 4cf5 91be c1b9 37bf
00000160: 4347 9ebf d9cd 0e3f 3824 7cbe ffbf 503f
00000170: 2c1b 96be 3671 d93f 0e2f 2a3f 3e89 c7bc
00000180: 0fc0 a6bf 7934 87bc d589 c13f 24e7 bf3e
00000190: b417 8ebb 6e6b 02bf 766f c53e 2904 8c3f
000001a0: 39e9 84bf 3878 aebf 4b97 50bf 9995 5bbf
000001b0: bf83 74be 3fa9 a0bf baa4 e73f 03fa acbc
000001c0: 9d17 773e 6ac2 cd3d accb 0fbe af95 293f
000001d0: 0dad 82be b237 75bf 4b6c ec3e 7190 2d3e
000001e0: 5c93 b03e 203e 2f3d d529 48be 6c7b 15bf
000001f0: 3858 77bf 0c5f 08c0 9ad3 1cbf 0b23 113e
-0.097070895 -0.124150716 -0.20695846 -0.24664402 0.250816 0.7081784 1.7270511 -1.5330378
1.3361635 0.9157548 -0.7011631 -1.1689794 -0.85601556 -0.8752003 -1.0407249 1.8907607
0.032259323 0.7389101 -0.702734 1.317089 -0.59134954 -0.9912078 0.18351433 -0.38112643
-0.816757 0.3633654 1.3293785 -1.1421857 0.58419967 -1.0468593 1.1738394 0.73928446
-0.4300802 -0.8441956 -0.81320524 -1.4993184 -1.8988328 -2.5294762 -1.4967306 0.5100161
1.205468 0.98718244 0.68476325 1.2419139 0.97030795 1.2867627 -0.6565397 -1.4455398
1.4986855 0.17392573 -0.6064216 -0.6057762 -0.07907682 -0.0442805 -1.731305 0.5260997
0.73953444 -1.9773941 0.27411717 0.3798909 -0.70969236 0.03283758 1.5154996 -0.791371
1.4791028 1.4314874 0.07942157 0.7802233 -0.5782776 0.34516042 0.8514703 -0.974265
1.0503632 0.8190889 -0.09870366 -0.4676062 -0.9516633 -1.3584087 -0.87753433 0.40107256
0.1057245 1.3939334 0.93712527 0.39663488 -1.4762113 -0.091076225 -0.2850746 -0.7176781
-1.2365497 0.5578285 -0.24623191 0.8154296 -0.29317605 1.6987674 0.6647805 -0.024357434
-1.3027362 -0.016504513 1.5120188 0.37481034 -0.0043363217 -0.50945175 0.385616 1.093877
-1.0383674 -1.3630438 -0.81480855 -0.8577514 -0.23878382 -1.255165 1.8097146 -0.021115309
0.24130102 0.10046847 -0.14042538 0.66244024 -0.25522652 -0.9578811 0.4617637 0.16949631
0.34487426 0.042783856 -0.19547208 -0.5839145 -0.96618986 -2.1308012 -0.6126038 0.14173524

network_body._body_endoder.seq_layers.0.bias f4 [128]
00000000: 0000 0000 0000 0000 0000 0000 0000 0000
00000010: 0000 0000 0000 0000 0000 0000 0000 0000
00000020: 0000 0000 0000 0000 0000 0000 0000 0000
00000030: 0000 0000 0000 0000 0000 0000 0000 0000
00000040: 0000 0000 0000 0000 0000 0000 0000 0000
00000050: 0000 0000 0000 0000 0000 0000 0000 0000
00000060: 0000 0000 0000 0000 0000 0000 0000 0000
00000070: 0000 0000 0000 0000 0000 0000 0000 0000
00000080: 0000 0000 0000 0000 0000 0000 0000 0000
00000090: 0000 0000 0000 0000 0000 0000 0000 0000
000000a0: 0000 0000 0000 0000 0000 0000 0000 0000
000000b0: 0000 0000 0000 0000 0000 0000 0000 0000
000000c0: 0000 0000 0000 0000 0000 0000 0000 0000
000000d0: 0000 0000 0000 0000 0000 0000 0000 0000
000000e0: 0000 0000 0000 0000 0000 0000 0000 0000
000000f0: 0000 0000 0000 0000 0000 0000 0000 0000
00000100: 0000 0000 0000 0000 0000 0000 0000 0000
00000110: 0000 0000 0000 0000 0000 0000 0000 0000
00000120: 0000 0000 0000 0000 0000 0000 0000 0000
00000130: 0000 0000 0000 0000 0000 0000 0000 0000
00000140: 0000 0000 0000 0000 0000 0000 0000 0000
00000150: 0000 0000 0000 0000 0000 0000 0000 0000
00000160: 0000 0000 0000 0000 0000 0000 0000 0000
00000170: 0000 0000 0000 0000 0000 0000 0000 0000
00000180: 0000 0000 0000 0000 0000 0000 0000 0000
00000190: 0000 0000 0000 0000 0000 0000 0000 0000
000001a0: 0000 0000 0000 0000 0000 0000 0000 0000
000001b0: 0000 0000 0000 0000 0000 0000 0000 0000
000001c0: 0000 0000 0000 0000 0000 0000 0000 0000
000001d0: 0000 0000 0000 0000 0000 0000 0000 0000
000001e0: 0000 0000 0000 0000 0000 0000 0000 0000
000001f0: 0000 0000 0000 0000 0000 0000 0000 0000
0.0 0.0 0.0 0.0 0.0 0.0 0.0 0.0
0.0 0.0 0.0 0.0 0.0 0.0 0.0 0.0
0.0 0.0 0.0 0.0 0.0 0.0 0.0 0.0
0.0 0.0 0.0 0.0 0.0 0.0 0.0 0.0
0.0 0.0 0.0 0.0 0.0 0.0 0.0 0.0
0.0 0.0 0.0 0.0 0.0 0.0 0.0 0.0
0.0 0.0 0.0 0.0 0.0 0.0 0.0 0.0
0.0 0.0 0.0 0.0 0.0 0.0 0.0 0.0
0.0 0.0 0.0 0.0 0.0 0.0 0.0 0.0
0.0 0.0 0.0 0.0 0.0 0.0 0.0 0.0
0.0 0.0 0.0 0.0 0.0 0.0 0.0 0.0
0.0 0.0 0.0 0.0 0.0 0.0 0.0 0.0
0.0 0.0 0.0 0.0 0.0 0.0 0.0 0.0
0.0 0.0 0.0 0.0 0.0 0.0 0.0 0.0
0.0 0.0 0.0 0.0 0.0 0.0 0.0 0.0
0.0 0.0 0.0 0.0 0.0 0.0 0.0 0.0

network_body._body_endoder.seq_layers.2.weight f4 [128, 128]
00000000: 0347 093c c710 bdbc 932e 1e3d 6625 ccbd
00000010: 4339 41bc 142c 1cbd 89d9 bbbc 0f97 f0bd
00000020: 4db1 cbbd 0717 063e 4b38 04be 14be 083d
00000030: c107 713d c0c5 a0bd 798f 0fbc 1945 1bbd
00000040: 5c13 f8bd 9e97 2d3e af1a 0dbe da3b 05bd
00000050: b7bf f53d 609e 08be 8a1a 85bd 28f8 213e
00000060: a441 b33d 3850 26bd cbbf 623e 817c 423c
00000070: 4070 92bd fc43 013d 8946 e5bd bf0a a23b
00000080: b23e 87bd c5d7 05be 5f5b 173e 6f06 3d3d
00000090: f95d c33c db7e 8ebd 10b4 1c3d 5084 fc3d
000000a0: 3b3b 38bd 19a9 25bd cb64 a9bd f96b 003e
000000b0: 1a62 1dbd 893a e4bd 19a0 9c3c a292 96bc
000000c0: b19b cebd cd62 c83c 354e 09be 725e 0b3c
000000d0: c0b2 e73c 5e13 383c 2e88 ddbc 1916 5bbd
000000e0: cd6d 16bc 4cb7 16be 881b c3bd dd42 913b
000000f0: 493d 08bd 2319 aebd 90d0 20bc c881 32bd
00000100: e10c f53d d737 37bd 2114 d93a 337a 583d
00000110: 05d9 b4bd 8639 b13d 97cd 7cbc e4f5 1bbb
00000120: b517 3c3e 9c13 d6bb a7dd 89bd b506 333c
00000130: 15d9 80bd 4c32 3f3d 0fc9 84bd 5564 13bb
00000140: f565 0b3d 8615 e63d 10d3 393c 0317 08bd
00000150: af5e 003d 8f2f 8a3c a3c1 34be 4cc5 2a3d
00000160: fddf c0bc ffb8 3abc a7dd c4bb 0979 ac3d
00000170: be3e 6bbd 5ecc 62bd c0f6 7d3d 51a2 0dbe
00000180: 5ae0 47bb b727 3cbd 3577 2ebe 2f57 0bbd
00000190: 2a69 1abe 5ad5 10bd f82b 8bbd 8dce f13c
000001a0: d3e1 da3b 0eed f0bd 8275 363d e1be afbd
000001b0: f16c d9bd 7836 45bd e4e3 10bd 9232 723d
000001c0: 103a ab3c df62 65bd 7077 7f3d 2cdf 2c3e
000001d0: a76d d53d 9d26 71bd 9b64 123d 4d26 b7bd
000001e0: b2de 01bd 4415 933c 1e68 16be dc51 3dbc
000001f0: ebf2 ea3d 7e8d 28be 222b a13d f1c1 a1bd
00000200: 8b34 813d 55d8 3d3d 2f2c b33d ef58 dabd
00000210: 0997 dfbd 4de8 b7bc 8f35 b53c 67d1 f23c
00000220: 198f a6bb c27b 28bc 3b5f 0abe fbe2 1bbb
00000230: 4765 0d3e a10b 33bd 3dbe 1f3c 52e7 bd3c
00000240: 5946 b83c ba67 13be 4d61 273d b380 df3c
00000250: 48db 023e f113 9b3d 5167 503e c77f 023e
00000260: da1a 74bc 511e 91bc a58e 29bd ade1 bf3d
00000270: b143 123d eefb 52bd 6b9f efbc c831 1d3c
00000280: cf25 e63d 5667 863d de88 22bd bd5f e73d
00000290: 76e5 26bd 0b88 8d3d a7f0 12be 92b0 eb3c
000002a0: c6d2 f23d ed50 d1bd fa06 dfb8 ad8e e2bc
000002b0: 31c9 113d 866f 93bd 4262 c7bd 9c73 c6bd
000002c0: 0f01 543e da85 c0bc a089 45be 2bd7 33bc
000002d0: 5337 85bd f710 1a3d 58c4 8a3d 492f 863d
000002e0: 3fbc 4c3d 3e1c 203d 6e37 60be 25c5 823d
000002f0: 9772 b9bc ecdf f7bb ff45 a53d 0e10 e13d
00000300: c956 cd3d efc5 7e3d f321 efbc 55eb 7cbd
00000310: 25bc d73d c77f f43c 9610 543e d8a3 023e
00000320: 5a02 c43d 4a57 9cbc 2b70 bebd f19d 923d
00000330: 28a4 86bd 828e a03c 142a f63d e1b0 84bc
00000340: 1c48 bd3d 79a2 693d 65c9 063c 1428 5ebb
00000350: 8080 cf3d 9245 c83d 482f 43bd 8192 9539
00000360: 9aeb a83d f714 063e b669 dd3d 99af 933e
00000370: 3b8a 1cbe 693b 093d 6337 0e3e b038 343e
00000380: 5d93 d43d 5dd6 b0bd 6aab 98bd ff3c 70bb
00000390: 5eee 3d3d 4521 f73c 433d e6bb e838 2bbd
000003a0: 925a 143d 182b 033e 497a 12bd bdd3 41be
000003b0: 6d1d 1d3d 09f7 3e3e 869c 1a3e 39c3 20bd
000003c0: b45f c83c c54d cabd 9c57 f2bd 3750 ecbd
000003d0: 7437 3ebd 5566 0a3e 749a f43d b325 983d
000003e0: 9263 81bd 9997 1c3d b22c 173e 26c5 84bd
000003f0: c4f7 95bd c96c bb3d 2270 bc3d 31bd d13c
0.008378747 -0.02307929 0.038618635 -0.09968071 -0.011793437 -0.038127974 -0.022930877 -0.11747562
-0.09945927 0.13094722 -0.12912099 0.033384398 0.058845285 -0.07850218 -0.008762234 -0.037907694
-0.121130675 0.16952369 -0.1377971 -0.032527782 0.11999457 -0.13341665 -0.064992025 0.1581732
0.08752754 -0.040603846 0.22143476 0.011870504 -0.07150316 0.031558976 -0.11195094 0.0049451287
-0.06603755 -0.13070591 0.14780949 0.046148714 0.02384852 -0.069577895 0.03825766 0.12329924
-0.04497836 -0.040444467 -0.08271178 0.12541188 -0.038423635 -0.11143977 0.01911931 -0.018380467
-0.100882895 0.024461174 -0.1340874 0.008506404 0.028283477 0.011235086 -0.027042475 -0.05348787
-0.009181452 -0.1471836 -0.095267355 0.0044330196 -0.03326157 -0.08500888 -0.00981535 -0.0435808
0.11965347 -0.044730987 0.0016561785 0.052850913 -0.08830456 0.0865355 -0.015429876 -0.0023797685
0.18368419 -0.0065330993 -0.0673173 0.010926892 -0.06291405 0.046678826 -0.064836614 -0.0022490222
0.03403278 0.11234574 0.011341825 -0.03322507 0.031340297 0.01686838 -0.17651992 0.041692063
-0.023544306 -0.011396646 -0.0060078683 0.08421523 -0.057432882 -0.05537068 0.062002897 -0.1383145
-0.0030498714 -0.045936313 -0.17037661 -0.03401869 -0.1507918 -0.035359718 -0.06795496 0.029517436
0.0066797524 -0.117639646 0.044545658 -0.08581329 -0.10616482 -0.04814765 -0.035373583 0.05913026
0.02090171 -0.056002494 0.062369764 0.16882008 0.10421305 -0.058874715 0.035740476 -0.08942852
-0.03170652 0.017954476 -0.14688155 -0.011555161 0.11472114 -0.16460225 0.07869555 -0.078983195
0.0630885 0.04634889 0.08748662 -0.10661494 -0.109174795 -0.022449637 0.022120265 0.029640866
-0.0050829765 -0.010283412 -0.1351289 -0.0023786414 0.13808165 -0.043712262 0.009749946 0.023181591
0.022494482 -0.14395037 0.040864278 0.027283048 0.12778962 0.07572163 0.20351912 0.12744056
-0.01489898 -0.017714651 -0.041395802 0.09369216 0.035709087 -0.05150979 -0.029250821 0.009594388
0.1123768 0.065626785 -0.039681308 0.112975575 -0.040746175 0.06910714 -0.14349614 0.028770719
0.11856608 -0.102205135 -0.00010634768 -0.027655924 0.03559226 -0.07199006 -0.09735538 -0.096900195
0.20703529 -0.023501325 -0.19290781 -0.010976593 -0.06504693 0.037613835 0.06775731 0.06551988
0.049984213 0.039089434 -0.21896145 0.063852586 -0.022637649 -0.0075645354 0.08069991 0.1098939
0.100263186 0.062200483 -0.029190993 -0.061747868 0.105339326 0.029846085 0.20709452 0.12757814
0.09570761 -0.019084591 -0.09298738 0.07159031 -0.06574279 0.019599203 0.120197445 -0.016197624
0.092422694 0.05703971 0.008226727 -0.00338984 0.10131931 0.097788945 -0.047652513 0.0002852865
0.082480624 0.13093935 0.108111784 0.28844908 -0.15287106 0.033503924 0.13888316 0.1759975
0.1037967 -0.086346366 -0.0745457 -0.003665745 0.046369903 0.030167231 -0.007026346 -0.041802317
0.036219187 0.12809408 -0.03576115 -0.18928428 0.03835814 0.18648924 0.15098771 -0.03924868
0.024459697 -0.098781146 -0.118331164 -0.11538737 -0.046439603 0.13515599 0.11943522 0.074290656
-0.0631782 0.038230512 0.14763144 -0.064829156 -0.07322648 0.091516085 0.09201075 0.025602909

action_model._discrete_distribution.branches.0.weight f4 [5, 128]
00000000: e74a 69bb 4083 a63b 88be 813b 4302 94bc
00000010: 0423 1aba 2289 77bc d8df 57bb fb82 08bb
00000020: 6a96 76bc a3c3 43ba 9810 e9bb 594a 393c
00000030: 8f8f 1bbc ab36 34bc c4d3 293c 600c 02bc
00000040: b241 163a db90 ad3b b2e8 823b 9760 273c
00000050: cda5 61bc 6b4f 8c3b f37e 413c 25f9 f13b
00000060: 2b5b 44bb f18b c03a 8be1 b2ba cc4f c93b
00000070: 246a 89bb 38d7 11b8 08f6 c13a 034d 8eba
00000080: 9535 ffbb a169 24bc 2aba 553b 7253 8aba
00000090: e1e1 343c 8a9b 223c 0fb4 e23b a1b6 26bc
000000a0: 8054 d3bb 68f2 bc3c 506e 003c b788 c23b
000000b0: 3305 973b b06b 5b3c 9b3d 0f3c 4ec9 21bc
000000c0: 3176 0abc 2792 1ebc a8d0 0bbc 4303 b33b
000000d0: 879d ecba 2508 2c3c 76ea 9b3b 7d0a 083c
000000e0: 15b5 eabb cde4 eabb 23cb 4d3b ba96 4fbc
000000f0: 8024 49bc 1301 c5bb 986c 7dbb ccc0 813b
00000100: 42eb 283c 22c0 d4bb 8d22 2bba 7adf 2cbc
00000110: a26a 03bc a38e 1f3b 880a a3bb a20a 6abc
00000120: 1397 acbc 9dcd 583a e556 e0bb f365 0d3c
00000130: 38a9 5abb 332a b8bb f4ed 323c 3f76 333c
00000140: 2f31 eeba aa79 143c c392 2bbc 7f07 b2bb
00000150: cb13 503b 671e 29bb 3e40 133c 4b65 c7b9
00000160: a7cd 93bb 4cf1 803b e12c 0bbc eb83 1ebc
00000170: 0395 5bbb fed8 b8bb 5df1 b43c 8204 633b
00000180: 3357 1ebc 10dc 61ba f8ab 4f3c ea5e f73b
00000190: 211e 07bb 8ee2 333c 92ba aabc d4d9 363b
000001a0: 3f16 c9ba e512 c83b bc29 3c3c 9060 fe3a
000001b0: c6b5 2d3b 0357 50bc df99 873a bfd1 adbb
000001c0: 6711 55bc 0918 073c 95d9 6b3c d534 60ba
000001d0: 2419 893b 2ad0 d2b9 aa46 81bb 00eb d4ba
000001e0: 8cf1 41bc 57fb d139 8bad b73b 3840 fe3b
000001f0: 2b23 4e3b 9a45 ed3b 3862 423b b72b bebb
00000200: 1688 c1bb 4d8b 093c 04ee 8c3c d653 4bbc
00000210: fe2d a0bb d765 fe3b 6a69 e23b e291 943b
00000220: c805 d73a 2ad2 ce3a 0f1e 97ba 5b28 ecbc
00000230: ff7c 8c3c 0758 80bc 5d9e 17bb 763d 02bc
00000240: 653e 8d3b b5fe bdba 28c6 8bbb a29c 5b3c
00000250: 0e67 adbb 93b9 18ba 8539 e53b 7183 13bc
00000260: 6a85 9bbb 0011 3cbc 6568 8dbb 185d 21bb
00000270: efe4 703b 5d5f 0a3c 8fd5 aebc 586e 04bc
00000280: 524e 7a3c a344 a5bc b2dd b73b b2d4 b53a
00000290: 9339 b1bb 08cb 1cba dd69 dcba 1d5e 8dba
000002a0: aff5 aaba 6a8e 57bc 877e a0bc cd90 053c
000002b0: 377c 57bc 703b d5bb 66f7 03bc d0bf 6abc
000002c0: bc59 4aba 815e b73c 635b 783b 5d8a 0fbc
000002d0: bd52 05bc 3b44 e63b 7bdd b5ba ba61 573a
000002e0: 47b8 81bb 552d 583b 4b15 70bb 07a2 67bb
000002f0: 52b9 793c 5f53 5c3c 07e0 88bc e6ec 8d3b
00000300: e1d5 b0ba 1cfa 443c ae88 003a 2ad2 783b
00000310: 1293 e63a 51a4 8339 150b 373a 0b22 273c
00000320: 2a4c 313b a078 92ba f05a 5dbc e34e 76bc
00000330: 2bdb a6bb 1934 a73b e5e5 80bb d700 313b
00000340: 52f6 3b3c 3d3e 9b3c 05f6 0d3b 8f50 e239
00000350: 3cf8 433c b525 193b 6fb7 613c b07a 1bbc
00000360: 1ac6 c6ba 6d78 cb39 bb9e 20bc cfb0 113b
00000370: 72e0 91bb d4ab 443c 02fe 90ba b64e 0b3c
00000380: fc13 153b 7251 5fbb 1b68 69bc b3fa 25bc
00000390: 2883 663c c119 92bc b939 a63b 5a85 3b3c
000003a0: 2be6 823c 8178 10bc 7315 27bc e765 bf3b
000003b0: 4f30 03bc 6286 02bc 930b 07bc 3820 6a3c
000003c0: 9bfc 703c 6201 38bc 6a19 a53a b9e6 9e3c
000003d0: a090 a4bb fbe3 62bc b7f2 033c cda3 6c3a
000003e0: d22a 0abb 8f18 093c c03a f83b d0d3 88ba
000003f0: 1776 993b 8744 6c3b 024f 73bc 8aaf d9bb
-0.0035597624 0.005081564 0.0039594807 -0.018067485 -0.00058798515 -0.015108379 -0.0032939818 -0.0020830024
-0.01505051 -0.0007467812 -0.007112574 0.01130923 -0.009494676 -0.010999362 0.01036543 -0.007937521
0.0005731835 0.005296809 0.0039950246 0.0102159 -0.01377244 0.0042819283 0.011810052 0.0073844367
-0.0029961567 0.0014690143 -0.0013647539 0.0061435457 -0.004193561 -3.4771132e-05 0.0014798054 -0.0010856692
-0.00778837 -0.0100349495 0.0032612183 -0.0010553433 0.011040182 0.009924779 0.0069184373 -0.010175378
-0.006449282 0.023064807 0.007838801 0.005936708 0.004608774 0.013392374 0.008742715 -0.009874655
-0.008451031 -0.0096784 -0.008533634 0.0054630353 -0.0018052318 0.010499989 0.0047581745 0.008303282
-0.0071627 -0.0071683885 0.0031401596 -0.012670213 -0.012276769 -0.006012091 -0.0038669463 0.0039597508
0.010309996 -0.0064926306 -0.0006528281 -0.010551328 -0.008021029 0.0024346493 -0.0049756207 -0.014284762
-0.021068132 0.0008270385 -0.006846296 0.008630264 -0.0033365022 -0.005620265 0.01092099 0.010953485
-0.0018172617 0.00906221 -0.010472002 -0.0054330225 0.0031750079 -0.0025805475 0.0089874845 -0.00038031707
-0.0045105997 0.003935015 -0.008494587 -0.009675006 -0.0033505566 -0.005641102 0.022087747 0.0034640138
-0.009664345 -0.0008615861 0.012675278 0.0075491564 -0.0020617323 0.010979308 -0.020840917 0.0027900832
-0.0015341713 0.006105768 0.01148456 0.001940744 0.002650605 -0.012716058 0.001034554 -0.0053045447
-0.013004637 0.0082454765 0.014395137 -0.00085527945 0.004183905 -0.00040209416 -0.0039451914 -0.0016244352
-0.011837374 0.0004005085 0.0056054047 0.0077591203 0.0031454067 0.007240963 0.0029660594 -0.005803551
-0.0059061153 0.008395028 0.017203338 -0.012410125 -0.004888295 0.007763605 0.006909539 0.004533992
0.0016404921 0.0015779187 -0.0011529344 -0.028827837 0.017149447 -0.015666975 -0.0023135163 -0.007949224
0.0043104165 -0.0014495464 -0.0042655654 0.013404043 -0.005291826 -0.00058259926 0.0069953823 -0.009003506
-0.004746129 -0.0114786625 -0.0043154233 -0.0024622139 0.0036757549 0.008445588 -0.021342067 -0.008082949
0.015277462 -0.02017433 0.005611145 0.0013872592 -0.0054084747 -0.0005981182 -0.0016816218 -0.0010785494
-0.001304319 -0.013156513 -0.019591583 0.008152199 -0.013152174 -0.0065073296 -0.00805459 -0.014327958
-0.000771906 0.02238393 0.0037896268 -0.008761016 -0.008137402 0.0070271767 -0.001387521 0.00082161615
-0.003958735 0.0032986004 -0.0036633785 -0.0035344379 0.015241938 0.013447612 -0.016708387 0.004331219
-0.0013491475 0.012022521 0.00049031794 0.0037967064 0.0017591438 0.00025108692 0.00069825473 0.010200988
0.0027053454 -0.0011174865 -0.013510451 -0.0150334565 -0.005092045 0.005102646 -0.0039336556 0.0027008557
0.011472302 0.018950576 0.0021661532 0.000431661 0.011961039 0.0023368422 0.013776644 -0.0094897
-0.001516524 0.000388089 -0.009803469 0.002223063 -0.004451805 0.012003858 -0.0011062028 0.008502653
0.0022747507 -0.0034075645 -0.014246012 -0.010130572 0.014069356 -0.017834546 0.005072799 0.011445368
0.015978893 -0.008817793 -0.010197985 0.005841005 -0.008007123 -0.00796661 -0.008242506 0.014289908
0.014708663 -0.011230798 0.0012596075 0.019397127 -0.0050221235 -0.0138483 0.008053473 0.0009027094
-0.0021082652 0.008367672 0.007575363 -0.0010439102 0.004683267 0.0036051588 -0.01485038 -0.0066432403

action_model._discrete_distribution.branches.0.bias f4 [5]
00000000: 0000 0000 0000 0000 0000 0000 0000 0000
00000010: 0000 0000
0.0 0.0 0.0 0.0 0.0
