3D/results/TestMoveToGoal2/MoveToGoal/MoveToGoal-60532.pt (torch, 454876 bytes, 36 tensors)

network_body._body_endoder.seq_layers.0.weight f4 [128, 10]
0	0x3e5fc3cd	0.21852036
1	0xbeb801a8	-0.35938764
2	0x3ea35be1	0.31906036
3	0xbe1594f9	-0.1460761
4	0xbf09b584	-0.53792596
5	0xbe5b37aa	-0.21407953
6	0x3e7a4ed9	0.2444414
7	0x3d34edc4	0.044172063
8	0x3e8890d3	0.26672992
9	0xbf346c5f	-0.7047786
10	0x3d9c98da	0.076463416
11	0x3cedc29f	0.029023467
12	0x3e43104c	0.19049186
13	0xbe777220	-0.24164629
14	0xbe96f66d	-0.29484883
15	0xbe958048	-0.29199433
16	0xbd76511a	-0.06013594
17	0xbd33da39	-0.043909285
18	0x3c772f94	0.015087027
19	0xbda595ef	-0.08085238
20	0x3eb097f0	0.3449092
21	0xbea43bff	-0.32077023
22	0xbe5a93a9	-0.2134539
23	0xbdbee506	-0.093210265
24	0xbeb2cad5	-0.34920374
25	0x3e9efd64	0.31052697
26	0x3f2a7c84	0.66596246
27	0xbea34f0a	-0.3189624
28	0x3ed72dcd	0.4202713
29	0xbea8b73c	-0.32952297
30	0xbe2f62af	-0.17127489
31	0xbe065388	-0.13117802
32	0x3dad8964	0.08473471
33	0xbe0d4be0	-0.13798475
34	0x3e172637	0.14760672
35	0x3e6406c9	0.22268213
36	0x3dfef159	0.12448377
37	0xbe4a7660	-0.19771719
38	0x3ea6eacd	0.32601014
39	0xbe105494	-0.14094764
40	0xbe7c5a8f	-0.2464392
41	0x3e0e0f2a	0.13872972
42	0xbdca4c07	-0.09877782
43	0xbe1c590e	-0.15268347
44	0x3ebc5b4e	0.3678841
45	0xbd855f6e	-0.065123424
46	0xbf4817d2	-0.78161347
47	0xbecb7b6d	-0.39742604
48	0xbdbdd3a3	-0.09268882
49	0x3e286d3c	0.1644792
50	0x3d2d3a22	0.042291768
51	0xbe72260a	-0.23647323
52	0xbe475300	-0.19465256
53	0x3e086d53	0.13322954
54	0x3da4e291	0.080510266
55	0x3ead550c	0.33853948
56	0xbdd38640	-0.103283405
57	0xbf17d150	-0.5930376
58	0xbe983984	-0.2973138
59	0x3dc20d39	0.09475178
60	0xbf0d0ead	-0.5510052
61	0x3ea49aba	0.32149297
62	0xbe3c0e28	-0.18364775
63	0x3b2e4842	0.0026593362
64	0xbe23e9b6	-0.16007122
65	0xbe4dedce	-0.20110247
66	0xbc8ce301	-0.017198088
67	0xbdcede54	-0.101009995
68	0x3f0d38ad	0.55164605
69	0xbf376118	-0.7163253
70	0xbedfaa3a	-0.4368456
71	0x3dd77a47	0.105213694
72	0x3cd35915	0.025799314
73	0xbef229bf	-0.47297475
74	0x3e9ac8cc	0.3023132
75	0xbebb3c48	-0.36569428
76	0xbeaa0042	-0.33203322
77	0x3ead1fe4	0.33813393
78	0x3e411f70	0.18859649
79	0x3d34d198	0.044145197
80	0xbdb9c4d7	-0.09070747
81	0xbef98e67	-0.48741457
82	0x3ec41afa	0.3830183
83	0xbe0276ee	-0.1274068
84	0x3d9627ea	0.07331832
85	0x3e80902b	0.2510999
86	0x3ec9780d	0.39349404
87	0xbc244353	-0.010025817
88	0x3d980be3	0.07424142
89	0x3ed06519	0.4070213
90	0xbea974b7	-0.3309686
91	0xbbafe206	-0.0053675203
92	0xbe99e91a	-0.30060655
93	0xbf02a122	-0.5102712
94	0xbe8cd775	-0.2750813
95	0x3e2e718d	0.17035504
96	0x3ea99952	0.33124787
97	0xbf151bb6	-0.5824541
98	0xbeb0a866	-0.34503478
99	0xbd7925c3	-0.060827028
100	0xbdd389b1	-0.10328997
101	0xbe2c1e24	-0.16808373
102	0x3f3a3c62	0.72748387
103	0xbdb7fbcd	-0.08983574
104	0x3d98e067	0.07464676
105	0x3d771cc6	0.060330175
106	0xbe28fe8d	-0.16503353
107	0xbca67e9f	-0.02032405
108	0x3cb70481	0.022341015
109	0xbe55c526	-0.20875987
110	0xbe9bf3be	-0.30459398
111	0xbe219c8a	-0.15782371
112	0xbe2c2e83	-0.16814618
113	0x3f18f6ef	0.5975179
114	0xbc772d93	-0.015086549
115	0xbd67976c	-0.05654089
116	0xbec89167	-0.39173433
117	0xbc604a34	-0.013689566
118	0xbe788745	-0.24270351
119	0xbe4f2dbb	-0.20232289
120	0x3f63cc95	0.8898404
121	0x3d49e7be	0.049293272
122	0x3de3238f	0.11090767
123	0x3ed8aa56	0.42317456
124	0x3ea9c341	0.3315678
125	0xbe876045	-0.26440635
126	0x3e6d49b4	0.23172647
127	0x3e65d218	0.22443426
128	0x3badfe66	0.0053098677
129	0xbe23d6eb	-0.15999953
130	0x3d2bec61	0.041973475
131	0xbe205093	-0.15655737
132	0xbe29a596	-0.16567072
133	0x3e4d32c5	0.20038898
134	0x3e60b21b	0.21942942
135	0x3eaa690b	0.33283266
136	0x3e9b89f5	0.3037869
137	0xbe2d0c2d	-0.16899176
138	0xbe243bd8	-0.16038454
139	0x3db5ceb7	0.08877318
140	0xbe8456ea	-0.2584756
141	0xbee3a8b7	-0.44464657
142	0x3dbbedda	0.09176226
143	0x3ef17c08	0.4716494
144	0x3e75ceed	0.24004717
145	0xbd53693e	-0.05161404
146	0xbe8aa413	-0.27078304
147	0xbeb0e834	-0.34552157
148	0xbe539afd	-0.20664592
149	0xbf0bfce5	-0.5468276
150	0x3ebb5681	0.36589435
151	0x3eacf023	0.3377696
152	0x3e4f6c06	0.20256051
153	0xbeb05418	-0.34439158
154	0xbec615de	-0.38688558
155	0xbe693199	-0.22772826
156	0xbea990c6	-0.33118266
157	0xbf03610f	-0.51319975
158	0xbdd19a02	-0.10234453
159	0xbe354117	-0.17700611
160	0xbde803fd	-0.11328886
161	0x3e954513	0.29154262
162	0x3d3a604a	0.045501985
163	0xbe953d9d	-0.2914857
164	0xbe4a0acc	-0.19730681
165	0xbec6ce94	-0.38829482
166	0xbbb5c9b7	-0.005547728
167	0x3de79015	0.11306778
168	0xbde3e546	-0.11127715
169	0xbef75953	-0.48310336
170	0xbe90f4ea	-0.28311855
171	0xbf03449c	-0.51276565
172	0x3d6a04fd	0.057133663
173	0x3e277df1	0.16356637
174	0x3dbe8ede	0.093045935
175	0x3e02863d	0.1274652
176	0x3df1d9c9	0.11809117
177	0xbeeb91a0	-0.4600954
178	0x3f5c6c41	0.8610268
179	0x3efd71d5	0.4950091
180	0xbe29d95f	-0.16586827
181	0xbdec08b6	-0.11525099
182	0xbb902bad	-0.004399738
183	0xbeb7610e	-0.35816234
184	0xbf355144	-0.70827127
185	0x3f2663f9	0.64996296
186	0x3e29414c	0.16528815
187	0xbe5322b4	-0.20618707
188	0xbe434161	-0.19067909
189	0x3d841dc1	0.064509876
190	0xbee29f37	-0.44262096
191	0x3d85a096	0.0652477
192	0xbec9b2bc	-0.39394176
193	0xbdab088d	-0.0835124
194	0xbe0e3e93	-0.13891058
195	0xbe7e15ed	-0.24813052
196	0x3ddde937	0.10835498
197	0xbf099af5	-0.5375207
198	0x3f02c130	0.5107603
199	0xbf1779f1	-0.5917044
200	0xbf82aaeb	-1.020841
201	0xbdffc324	-0.12488392
202	0x3dd1ab76	0.10237782
203	0x3e6438c9	0.22287287
204	0x3e89d213	0.26918086
205	0xbdbad2fe	-0.09122275
206	0x3dcd96a2	0.100384966
207	0xbee486c1	-0.4463406
208	0xbe1eed60	-0.15520239
209	0x3e32d442	0.17463782
210	0xbec0e239	-0.37672594
211	0x3d64516e	0.05574172
212	0x3ebd0ec0	0.36925316
213	0xbe386cc7	-0.18010245
214	0xbde14bc4	-0.11000779
215	0xbe568628	-0.20949614
216	0x3da4c3c9	0.080451556
217	0x3e6b9782	0.23007014
218	0x3ea902af	0.3300986
219	0x3ecb8d85	0.39756408
220	0xbdba123f	-0.090855114
221	0xbe808604	-0.25102246
222	0x3dc6f1a3	0.09714057
223	0x3e50dc97	0.20396648
224	0x3ed2c9dd	0.41169634
225	0x3f34819b	0.7051026
226	0xbd824a11	-0.06361783
227	0xbe575b80	-0.21030998
228	0x39dfa4bc	0.0004265661
229	0x3e41a4c8	0.18910515
230	0x3eaca62f	0.33720538
231	0xbeb06614	-0.3445288
232	0x3ebe7782	0.37200552
233	0x3e17316f	0.14764951
234	0x3f084aaa	0.5323893
235	0x3eabc837	0.3355119
236	0xbe16b626	-0.14717922
237	0x3d1a9b42	0.03774572
238	0xbe4bc629	-0.19899811
239	0x3eff9d6a	0.49924785
240	0xbe735aaa	-0.23765054
241	0x3f20bce1	0.62788206
242	0x3f37e9d1	0.7184115
243	0xbe822d3e	-0.25425142
244	0xbf10c90e	-0.56556785
245	0x3ecf9ee9	0.40550926
246	0xbe557d62	-0.20848611
247	0x3e9725e2	0.2952109
248	0x3d8027af	0.06257569
249	0x3f14cf2d	0.58128625
250	0x3eb7c713	0.3589407
251	0xbf082887	-0.5318684
252	0x3e82b3da	0.2552784
253	0x3e0828f7	0.13296877
254	0x3d0ec09d	0.03485166
255	0x3d6f318f	0.058396872

network_body._body_endoder.seq_layers.0.bias f4 [128]
0	0x3c68d7bf	0.014211594
1	0x3a89ed83	0.0010523055
2	0x3b57d07b	0.003293066
3	0x3b653d1d	0.0034979053
4	0xbc5b39c6	-0.0133804735
5	0x3bbfa74d	0.005848801
6	0xbbbd96aa	-0.005785783
7	0x3aa43f25	0.0012531026
8	0xbaf16517	-0.0018416968
9	0x3ba8c81c	0.005150808
10	0x3bc5c023	0.0060348674
11	0xbab84ac4	-0.0014060368
12	0x3c2ab560	0.01041922
13	0x3b04e70b	0.0020279314
14	0x3c4f03a5	0.012635146
15	0xbbd6c165	-0.006553816
16	0x3c36f64c	0.01116712
17	0xbbcdc0a0	-0.006279066
18	0x3aed3c18	0.0018099574
19	0x3b1d1600	0.0023969412
20	0x3c09d6ae	0.008413
21	0xbbe31627	-0.006930131
22	0xbbe437b2	-0.006964647
23	0xbb686323	-0.003545948
24	0xbb77afc5	-0.0037793976
25	0xbb51d0bf	-0.0032015292
26	0x3b011e8c	0.0019702045
27	0x3c19c747	0.00938589
28	0x3b9f5204	0.004862072
29	0xbbc68e09	-0.0060594124
30	0xbaebbef9	-0.0017985991
31	0x3b9de1b7	0.004818167
32	0xbc2313a1	-0.00995341
33	0x3c7004ce	0.014649583
34	0x3b95e09b	0.004573894
35	0x3b7e5954	0.0038810568
36	0xbbe38339	-0.006943133
37	0x3b75fc0e	0.003753427
38	0x3bc2aa55	0.0059407153
39	0x3c3b90be	0.011448083
40	0xbbec0da0	-0.0072037727
41	0x3c634b14	0.0138728805
42	0xbbcfd91a	-0.006343019
43	0xbba2fa18	-0.004973661
44	0xbba82edb	-0.0051325387
45	0x3b8851b2	0.0041601295
46	0x3bf0da5a	0.0073502483
47	0xbb9da078	-0.004810389
48	0xbbc04695	-0.005867789
49	0x3c36d514	0.0111592
50	0x3bfc2a3f	0.007695466
51	0x3b93b378	0.0045074783
52	0x3c4b51ec	0.012409668
53	0x3b0e7cb2	0.0021741805
54	0x3b81b803	0.0039587035
55	0xbac04d39	-0.0014671452
56	0xbc17ea40	-0.009272158
57	0x3c87d2c5	0.016579995
58	0xbc1e620a	-0.009666929
59	0x3bcd4d00	0.0062652826
60	0xbc33fcba	-0.010985548
61	0x3b9b536c	0.0047401693
62	0x3b882241	0.004154474
63	0xbbeac456	-0.0071645183
64	0x3b48e827	0.0030655952
65	0xbc17ca2b	-0.009264509
66	0xbbbde013	-0.005794534
67	0x3b8dc812	0.0043268288
68	0x3b797586	0.0038064434
69	0x3bb569cc	0.0055362936
70	0x3a1094ed	0.0005515356
71	0xbc0c3e8e	-0.008559836
72	0x3ba420af	0.005008779
73	0x3bc82ac0	0.006108612
74	0x3b51e8b7	0.0032029578
75	0xbb8f4594	-0.004372308
76	0xbaf8fee8	-0.0018996866
77	0x3c388a13	0.011263388
78	0x3baf65f1	0.0053527285
79	0xbb989a60	-0.004657075
80	0x3a1eb6e3	0.0006054474
81	0xbc104a85	-0.008806829
82	0x3b8983cd	0.00419662
83	0xbc133241	-0.008984149
84	0x3bbb9d7e	0.0057255616
85	0xbb8b8fb1	-0.0042590727
86	0x3b307643	0.0026925958
87	0x3ba950cf	0.005167104
88	0xbb969859	-0.004595798
89	0x3aa383af	0.0012475158
90	0xbafdf694	-0.0019375854
91	0x3c6a9b9c	0.014319327
92	0xbb2c5211	-0.0026294033
93	0xba7c8abe	-0.00096337113
94	0xbb84a7c2	-0.0040483186
95	0x3ad08988	0.0015910128
96	0x3ba99063	0.005174683
97	0xbb571405	-0.003281833
98	0x3b111a75	0.0022141014
99	0x3bf25b66	0.0073961494
100	0xba2c502f	-0.00065732276
101	0xbbcd55bf	-0.0062663252
102	0x3ba61cbe	0.0050693443
103	0xbbf25078	-0.0073948465
104	0x3b4390db	0.002984098
105	0x3b83d522	0.00402321
106	0xbae31c74	-0.0017327205
107	0xbbe4e0f8	-0.006984826
108	0xba932f42	-0.0011229294
109	0xbb9b00d5	-0.004730324
110	0xbb4dbc69	-0.0031392819
111	0xbb868899	-0.004105639
112	0xbb0a4706	-0.0021099462
113	0x3b015719	0.0019735752
114	0xb91dafb6	-0.00015038144
115	0x3b87225e	0.00412397
116	0xbb9adeaf	-0.004726253
117	0x3b997838	0.0046835206
118	0x3a33432b	0.0006838317
119	0xbbdda8a9	-0.0067644906
120	0xbb54f27e	-0.003249317
121	0x3bbd3c9c	0.0057750475
122	0x3b8e568c	0.0043438133
123	0x3a20f098	0.0006139367
124	0x3b9a49a2	0.0047084847
125	0x3a1f589c	0.00060785725
126	0xbbb7cd27	-0.005609173
127	0xbb89ac95	-0.0042014816

network_body._body_endoder.seq_layers.2.weight f4 [128, 128]
0	0x3c80db46	0.015729558
1	0xbe3b8309	-0.18311705
2	0xbd3790ab	-0.0448157
3	0xba0ec8de	-0.00054468017
4	0xbc59c997	-0.013292692
5	0xbe0e80d7	-0.13916336
6	0xbdb9c352	-0.090704575
7	0xbd8611cb	-0.065463625
8	0x3ddd7b04	0.10814479
9	0xbe4ee95b	-0.20206206
10	0x3d175bcd	0.036952782
11	0xbd6f72ea	-0.0584592
12	0x3de6f086	0.11276345
13	0xbcac2807	-0.02101518
14	0xbd16cadf	-0.036814567
15	0xbdedacf6	-0.11605255
16	0x3ca55928	0.020184115
17	0x3d97adfc	0.07406232
18	0x3e3be8ec	0.18350571
19	0xbd1f9137	-0.038956847
20	0x3d0e4065	0.03472938
21	0xbde4a5d4	-0.11164442
22	0xbc708bba	-0.014681751
23	0x3d567e55	0.052366573
24	0x3d912ec1	0.07088996
25	0xbcf839b4	-0.030300952
26	0xbcc7a27e	-0.024369475
27	0xbdb6a5a0	-0.08918309
28	0xbda7feb6	-0.08202879
29	0x3bd30fa6	0.0064410744
30	0xbca21949	-0.019787448
31	0x3ccffd54	0.025389351
32	0xbdd40511	-0.10352529
33	0x3e08e0ac	0.13366956
34	0xbcd3c8b8	-0.025852546
35	0xbde6ba7e	-0.11266039
36	0x3d39c49a	0.04535351
37	0x3d926993	0.07149043
38	0x3c9f6370	0.019456595
39	0xbc456ef5	-0.01205038
40	0x3de986d9	0.11402673
41	0xbdff1cd3	-0.1245667
42	0x3d1cef8d	0.03831439
43	0xbdd2539e	-0.10269855
44	0xbdb02cf9	-0.08602328
45	0xbdfeb4c7	-0.12436824
46	0xbc6934df	-0.014233797
47	0x3e11439a	0.14185944
48	0xbdd8e1c6	-0.10589938
49	0xbe1f606c	-0.15564126
50	0x3d460783	0.048347007
51	0xbda1514d	-0.07876835
52	0x3db67c82	0.08910467
53	0xb9b2446d	-0.00034001787
54	0x39445539	0.00018723765
55	0x3e2cc3cc	0.16871566
56	0xbc6e9f89	-0.014564403
57	0x3d86cc01	0.065818794
58	0x3dede6b3	0.11616268
59	0x3cb4b22d	0.022057617
60	0x3d639f3b	0.055571776
61	0x3b3bf059	0.0028677194
62	0x3bb8fff5	0.005645747
63	0xbd2868c7	-0.04111555
64	0xbd18bed8	-0.037291378
65	0xbd1a81de	-0.037721507
66	0xbe074d88	-0.1321317
67	0xbc170bf4	-0.009219158
68	0xbab27003	-0.0013613704
69	0xbe156db8	-0.14592636
70	0x3e15bc51	0.14622618
71	0xbdf218ee	-0.11821161
72	0xbdb26ddf	-0.087123625
73	0xbe170cb1	-0.14750935
74	0xbd99c91f	-0.07509064
75	0xbd1618e9	-0.03664485
76	0xbe847312	-0.25869042
77	0xbda3f974	-0.08006564
78	0xbb2606e2	-0.0025333692
79	0x3cfceb00	0.030873775
80	0xbdbcf172	-0.092257395
81	0x3d47f8e9	0.048821364
82	0xbc419479	-0.011815184
83	0xbe056b48	-0.13029206
84	0xbdaab002	-0.08334352
85	0xbc9f55c7	-0.019450082
86	0x3c08f1ce	0.008358432
87	0x3c5b9ac9	0.013403603
88	0x3c790e96	0.015201231
89	0xbc9805fe	-0.018557545
90	0xbcc5884c	-0.024112843
91	0xbdb07a9d	-0.086171366
92	0xbdb9cb91	-0.0907203
93	0xbd38a2e7	-0.04507723
94	0xbdd73dab	-0.10509809
95	0x3c18bb3a	0.009321982
96	0xbd6a141f	-0.057148095
97	0xbd210c83	-0.039318573
98	0xbd245675	-0.040121514
99	0xbdac8671	-0.0842408
100	0xbabcdb52	-0.0014408624
101	0x3dbac268	0.09119111
102	0xbcf93be5	-0.030424068
103	0xbdd1bb11	-0.10240758
104	0xbd2c65fd	-0.04208945
105	0x3dfb2c72	0.12264337
106	0x3e1ed663	0.1551147
107	0x3bd5f4af	0.0065294127
108	0x3d49b22c	0.049242184
109	0xbd3584e6	-0.044316195
110	0x3cd38c93	0.025823867
111	0x3ca874f9	0.02056359
112	0x3e009ae9	0.12559094
113	0x3c526783	0.012842062
114	0xbb89ada4	-0.004201608
115	0x3da95ba4	0.08269432
116	0x3d446ca2	0.047955163
117	0x3bbb202a	0.0057106214
118	0xbd80d1eb	-0.06290039
119	0x3da13938	0.07872242
120	0x3dcf2338	0.10114139
121	0xbdb8f4ca	-0.09031065
122	0xbd96b07f	-0.07357883
123	0x3daa1d30	0.08306348
124	0xbdadfd3d	-0.08495567
125	0x3ddecac9	0.10878522
126	0x3decda0a	0.11565025
127	0xbc447027	-0.01198963
128	0xbcb5351c	-0.022120051
129	0xbd4ce31f	-0.050021287
130	0xbdd5ff49	-0.104490824
131	0x3de49cff	0.11162757
132	0xbd9ebb91	-0.07750619
133	0xbda91021	-0.082550295
134	0x3d278d94	0.040906504
135	0x3d27391e	0.040825956
136	0x3e408881	0.18802072
137	0x3b573bea	0.0032842108
138	0xbd60b821	-0.0548631
139	0xbe2a8f96	-0.16656336
140	0xbcd12f19	-0.025535153
141	0xbe285a06	-0.16440591
142	0x3df0d17b	0.11758705
143	0xbd6f4e49	-0.058424268
144	0xbd30289c	-0.043007478
145	0xbc76ed01	-0.015071155
146	0x3c7f9c74	0.015601266
147	0xbd8f327b	-0.0699205
148	0xbdba4334	-0.09094849
149	0xbd98638c	-0.07440862
150	0xbe0e6c29	-0.13908447
151	0xbd0abc8c	-0.03387122
152	0xbcfec65d	-0.031100446
153	0x3d2e96c2	0.042624243
154	0x3cfe0a66	0.031010818
155	0xbac440c0	-0.001497291
156	0x3d712c7e	0.05888032
157	0xbd9b2ae6	-0.075765416
158	0xbcab1ba5	-0.020887205
159	0x3dd91e5c	0.10601494
160	0x3ddbf9db	0.107410155
161	0x3d52d4b5	0.051472384
162	0xbda51411	-0.08060468
163	0x3d0fde5d	0.03512417
164	0xbe084193	-0.13306265
165	0x3cdb88bd	0.0267986
166	0xbd572283	-0.052523147
167	0xbd348eb2	-0.044081397
168	0xbb9036ab	-0.004401048
169	0xbd40fec7	-0.047117975
170	0x3c572d90	0.013133422
171	0x3d364e95	0.044508535
172	0xbc2bdca3	-0.010489616
173	0x3dda9db2	0.10674609
174	0xbbe14d5e	-0.006875678
175	0x3da094c3	0.07840874
176	0xbd9b7285	-0.07590202
177	0xbc4c0fb5	-0.012454917
178	0x3d29e121	0.041474465
179	0xbe285e69	-0.16442265
180	0x3bf604a7	0.007507879
181	0xbd1afac2	-0.037836798
182	0xbd4447e7	-0.047920134
183	0x3c03952d	0.008031172
184	0xbdeb33dc	-0.11484501
185	0x3d74fd93	0.05981214
186	0x3cbbe61c	0.022936873
187	0xbd2c6d35	-0.042096335
188	0xbc2c391e	-0.010511665
189	0xbba6e8e2	-0.0050936798
190	0x3c9cb905	0.019131193
191	0xbd97b04d	-0.074066736
192	0x3d00af62	0.031417258
193	0x3c80bbcd	0.01571455
194	0xbd9299b2	-0.07158221
195	0xbd5247b0	-0.051337898
196	0x3c13c002	0.009017946
197	0x3c904d92	0.017615113
198	0xbcc2aa1c	-0.023762755
199	0xbcf4ff44	-0.029906876
200	0xbd0217bc	-0.031760916
201	0xbd768c18	-0.060192198
202	0x3e78a910	0.24283242
203	0x3d309236	0.043108188
204	0xbd6e6384	-0.058200374
205	0x3a327f09	0.0006809091
206	0xbd5fb3f1	-0.054614965
207	0xbe278f6d	-0.16363306
208	0x3d92b5fd	0.07163618
209	0xbdc33dce	-0.09533273
210	0xbe17a4a3	-0.14808898
211	0xbc83934e	-0.016061451
212	0x3dca9990	0.09892571
213	0xbe0ba536	-0.13637242
214	0xbe3ef18e	-0.18646833
215	0x3e33fa2e	0.17575905
216	0xbd3c4684	-0.045965686
217	0xbdb90804	-0.09034732
218	0x3d31d2ed	0.043414045
219	0xbdfaa3e2	-0.122382894
220	0xbd8330fd	-0.06405828
221	0x3daaec2e	0.08345829
222	0x3d7b4519	0.061345194
223	0xbd9c769f	-0.07639813
224	0x3d988c34	0.074486166
225	0xbdf8cfbe	-0.12148999
226	0x3e136d90	0.14397264
227	0xbdd917b2	-0.10600223
228	0x3ab3d03f	0.0013718678
229	0x3dcd328a	0.10019405
230	0xbe27b247	-0.16376601
231	0xbda28ac8	-0.07936627
232	0x3dc26d01	0.09493447
233	0xbcdcdd59	-0.026961016
234	0xbc20d708	-0.009816892
235	0x3c31232a	0.010811606
236	0xbb8d7893	-0.004317352
237	0x3d920bcb	0.071311556
238	0x3dc4a628	0.09602004
239	0x3ce5b85b	0.02804201
240	0x3e4f813f	0.20264147
241	0x3d46133f	0.0483582
242	0x3ce9fa95	0.02856187
243	0xbe143e43	-0.14476876
244	0x3cd91b99	0.026502417
245	0xbda71a6f	-0.08159339
246	0x3c91bbed	0.017789805
247	0xbd17b494	-0.037037447
248	0x3e2cdf63	0.1688209
249	0xbdce2d68	-0.10067254
250	0x3c9032b3	0.0176023
251	0xbe145388	-0.1448499
252	0x3d1de635	0.03854962
253	0xbd3d535e	-0.046222083
254	0x3c6ac312	0.014328735
255	0x3e376240	0.17908573

network_body._body_endoder.seq_layers.2.bias f4 [128]
0	0xbbc43cad	-0.0059886784
1	0x3bb4c055	0.005516092
2	0x3bb68cd4	0.0055709872
3	0x3aeaf4d3	0.0017925747
4	0x3ba51a3d	0.0050385282
5	0xbbd36ad0	-0.006451942
6	0xbbc533c8	-0.0060181357
7	0xbbb5b41f	-0.0055451537
8	0x3bbc25b8	0.005741801
9	0x3b86684d	0.004101789
10	0x3b8fdfda	0.004390699
11	0x3b5ea8c7	0.003397511
12	0xbbbee64e	-0.0058257943
13	0xbbd13908	-0.0063849725
14	0xbbfd5d26	-0.0077320514
15	0x3b82cfe0	0.003992066
16	0xba1c34b3	-0.00059587805
17	0x3ab27e79	0.0013618014
18	0xbbbf43a1	-0.0058369194
19	0x3ba3cd8b	0.004998868
20	0xbb94c06b	-0.0045395396
21	0xbbd5c6de	-0.006523951
22	0xbbcfbaa3	-0.0063393875
23	0xbb18e24a	-0.0023328238
24	0x3bb3cc5b	0.0054870076
25	0xbb808f0a	-0.0039233016
26	0xbbbf851f	-0.0058447267
27	0xbb09c209	-0.0021020195
28	0xbaf55ec6	-0.0018720261
29	0xbb3e24cf	-0.002901364
30	0x3b12c755	0.0022396643
31	0xbbbb35d1	-0.0057132025
32	0xbbae381c	-0.0053167474
33	0x3bf3a4cf	0.007435418
34	0xbb55c596	-0.003261899
35	0x3bcefa7b	0.0063164807
36	0x3bb5498f	0.0055324505
37	0xbbc7f7b6	-0.0061025275
38	0xbaeb0633	-0.0017930925
39	0xbbbb83cb	-0.005722498
40	0x3b96a4d9	0.004597288
41	0xbb614538	-0.0034373533
42	0xbaddedab	-0.0016931792
43	0x3ba51f02	0.005039097
44	0x3ba11b10	0.004916556
45	0x3b423250	0.002963204
46	0xbbd72cda	-0.006566626
47	0x3ba90f86	0.0051593212
48	0xba80d10f	-0.0009827929
49	0x3bb3af12	0.0054835165
50	0xbbf226c8	-0.007389877
51	0xbc11f098	-0.00890746
52	0xbbbb8cee	-0.0057235872
53	0xbbca74d0	-0.006178476
54	0x3b9397ff	0.0045042033
55	0xbbd74f68	-0.0065707453
56	0x3bd04b6f	0.0063566486
57	0x3b1f9969	0.0024352914
58	0x3b96353b	0.0045839823
59	0xbb60016d	-0.0034180537
60	0xbb09eb70	-0.0021044873
61	0x3b60f077	0.0034323016
62	0xbba36928	-0.004986901
63	0xbbc37c90	-0.0059657767
64	0x3bb5d09c	0.00554855
65	0xbbab5f93	-0.005229899
66	0x3a25d1c1	0.0006325506
67	0xb9fb3ed7	-0.0004792127
68	0x3bc6d0c2	0.0060673663
69	0x3ba7756b	0.005110433
70	0xbaf4edfe	-0.001868665
71	0xbbb63f09	-0.0055617136
72	0x3b9839f1	0.004645579
73	0x3b3cfde2	0.002883785
74	0xbb04f0cb	-0.0020285125
75	0xbbb23f93	-0.0054397075
76	0x3b70477f	0.0036663709
77	0x3b895cf0	0.004191987
78	0x3ba35f06	0.004985693
79	0xbae402e8	-0.0017395886
80	0x3b8b0bb0	0.0042433366
81	0x3ae2ebe8	0.0017312737
82	0xbbb1ce61	-0.0054262136
83	0xbb332ab5	-0.0027338688
84	0x3b97ae6a	0.004628946
85	0xbbd9995b	-0.006640596
86	0xbb162fd1	-0.0022916684
87	0xbbcf8cbc	-0.0063339155
88	0x3b8baba7	0.004262406
89	0x3bd09011	0.0063648303
90	0xbacb2612	-0.0015499017
91	0xbabba77f	-0.0014316885
92	0xbb5c65a7	-0.0033629925
93	0xbbeeaa0b	-0.0072834543
94	0x3b81f35d	0.0039657787
95	0x3babb64b	0.005240237
96	0xbbb50ffb	-0.0055255867
97	0xbbfabaaf	-0.007651649
98	0x3c272860	0.010202497
99	0xbbb2cfd3	-0.0054569035
100	0x3b89f53c	0.0042101424
101	0xbbb7b4e1	-0.0056062792
102	0x3ad65b0a	0.0016354036
103	0x3c188d64	0.009311054
104	0xbbbb09c6	-0.005707952
105	0x3b754c1a	0.0037429393
106	0xbc038b97	-0.008028886
107	0xbbb99a1c	-0.005664123
108	0x3b68cf61	0.0035523998
109	0x3b8cec04	0.004300596
110	0x3b265153	0.0025378063
111	0x3b8fd2ab	0.0043891273
112	0x3b463458	0.0030243602
113	0x3bc43df8	0.0059888326
114	0xba63fc0d	-0.0008696921
115	0xbb928e0f	-0.004472501
116	0xbb82ce3a	-0.0039918693
117	0xbbc645e2	-0.006050811
118	0xbbcfe51a	-0.0063444497
119	0xbb49c6fe	-0.0030788775
120	0x3bb184cd	0.0054174424
121	0xba441612	-0.00074800954
122	0xbbe04a7c	-0.0068448167
123	0x3bc72abe	0.0060780933
124	0xbb9d7c75	-0.004806096
125	0x3a89169f	0.0010459012
126	0x3b8b1dea	0.0042455094
127	0x3b060d97	0.0020454878

action_model._continuous_distribution.log_sigma f4 [1, 2]
0	0xbc082db8	-0.008311681
1	0xbc942775	-0.01808522

action_model._continuous_distribution.mu.weight f4 [2, 128]
0	0xbaa5e209	-0.0012655865
1	0xbc9ae397	-0.018907351
2	0x3c1a2dcf	0.009410336
3	0x3cf69605	0.030100832
4	0xbb3757a1	-0.0027975815
5	0xbb123c27	-0.0022313686
6	0x3b759280	0.0037471354
7	0x3c93d014	0.018043555
8	0xbc8f09b5	-0.017460683
9	0x3ad16d31	0.0015977976
10	0x3ccfbd5b	0.025358846
11	0x3c2fb590	0.01072444
12	0x3b8018ce	0.003909207
13	0x3cb99184	0.022652395
14	0x3b24fa3e	0.002517357
15	0xbc88ae92	-0.016684804
16	0xbc8849a5	-0.016636679
17	0x3b923dc0	0.0044629276
18	0x3c885577	0.016642315
19	0xbce67d57	-0.028135939
20	0x3bfe9dde	0.007770284
21	0x3c642543	0.0139248995
22	0x3d323d49	0.043515477
23	0x3d0d6b04	0.034525886
24	0xbcc43419	-0.023950623
25	0x3b9e388e	0.004828519
26	0x3bde7994	0.0067893956
27	0xbc84e8a4	-0.016224213
28	0x3d047494	0.03233774
29	0x3c25080f	0.010072722
30	0xbba34f37	-0.0049838084
31	0x3d0ad0dc	0.03389059
32	0x3b9bc8e8	0.0047541745
33	0xbce51ca8	-0.027967766
34	0xbc7f2647	-0.015573091
35	0xbd3e40b1	-0.046448413
36	0xbcb2b89a	-0.02181654
37	0x3d24c3e1	0.040225867
38	0x3d22f008	0.039779693
39	0x3c9b4345	0.018952975
40	0x3c8237be	0.01589572
41	0x3ba0ab5d	0.0049032406
42	0x3b603e53	0.0034216836
43	0x3c464317	0.012100956
44	0xbc9b618e	-0.018967416
45	0x3b6b4a7b	0.0035902548
46	0x3a3dfc1d	0.00072473456
47	0x3ca849d9	0.020543026
48	0x3cf3aaa4	0.029744454
49	0xbcfec3a1	-0.031099143
50	0x3cbfc99f	0.02341157
51	0x3d0163a4	0.031589165
52	0x3ca5d40c	0.020242713
53	0xbbdf5392	-0.0068153823
54	0xbd0383e2	-0.032108195
55	0xb93b8ec0	-0.00017886888
56	0x3d69d176	0.057084523
57	0x3c83842f	0.016054241
58	0xbc98d9cb	-0.01865854
59	0xbbb177ef	-0.0054159085
60	0x3c989610	0.018626243
61	0xbc1292b1	-0.008946107
62	0x3b828a79	0.0039837924
63	0x3c4139c8	0.011793561
64	0xbc87bbc1	-0.01656902
65	0xbb68ea6e	-0.0035540122
66	0x3d046c66	0.03232994
67	0x3b8bb2d8	0.004263263
68	0xbd07226d	-0.032991815
69	0xbd2f96b6	-0.04286834
70	0x3cbb4440	0.022859693
71	0xbb9ebdc8	-0.004844401
72	0xbb26c4db	-0.0025446925
73	0xbc1a3121	-0.009411127
74	0xbc081e7d	-0.00830805
75	0x3cdf7c5a	0.027280975
76	0x3b263e23	0.0025366626
77	0x3a3c47f8	0.0007182355
78	0xbc8b1c5a	-0.016981293
79	0xbb2d6591	-0.0026458243
80	0x3cd858e2	0.02640957
81	0x3c0284ff	0.007966279
82	0xbb36a58e	-0.0027869674
83	0xbbfe8db7	-0.0077683586
84	0xbc2ad054	-0.010425646
85	0xbba9fbd9	-0.0051874933
86	0x3c5f71a9	0.013637939
87	0x3cb64545	0.022249827
88	0x3c333453	0.010937768
89	0xb8e4883d	-0.000108972636
90	0xbce2a51a	-0.027666617
91	0x3bb428f8	0.005498048
92	0x3d20de58	0.039274544
93	0x3d13b845	0.036064405
94	0xbd0d5180	-0.034501553
95	0xbc027fd2	-0.007965045
96	0x3c8ddbb3	0.017316675
97	0x3c0d9897	0.008642337
98	0x3c03b1fa	0.008038038
99	0xbba93928	-0.0051642843
100	0xbcea8eca	-0.02863254
101	0x3d843103	0.06454661
102	0x3c2ed2c0	0.010670364
103	0x3b42e873	0.0029740601
104	0x3b8d5477	0.0043130475
105	0x3c8b202e	0.016983118
106	0xba416559	-0.00073774677
107	0xbae5bf61	-0.0017528349
108	0xbd2265d9	-0.03964791
109	0x3cc12484	0.023576982
110	0x3c3b89e9	0.011446455
111	0xbb296e52	-0.002585311
112	0xbad6cd8f	-0.0016388166
113	0xbc8df6a1	-0.017329516
114	0xbca34b28	-0.019933298
115	0xbb9efe0e	-0.004852063
116	0x3aa799e9	0.0012786958
117	0x3c9e0f04	0.01929427
118	0x3bef550e	0.0073038405
119	0xbb9805ea	-0.004639377
120	0xbc993386	-0.018701326
121	0x3c0dc0c7	0.008651919
122	0x3ba5d4ca	0.005060767
123	0x3c20ec14	0.00982191
124	0xbc0bb7eb	-0.008527736
125	0x3c26d3f2	0.010182368
126	0x3ceb8db2	0.028754089
127	0xbb6d1be5	-0.0036179957
128	0xbbe8272e	-0.0070847487
129	0xba80bc65	-0.0009821771
130	0x3cb3196a	0.021862704
131	0xbb3a3285	-0.002841146
132	0x3d5a2d33	0.05326576
133	0x3b8519af	0.0040618996
134	0x3b1c7849	0.0023875406
135	0x3b80da88	0.003932301
136	0x3cb0b963	0.021572774
137	0x3c8593d1	0.016305836
138	0x3a976077	0.0011549135
139	0x3cadf558	0.021235153
140	0xbcaddf73	-0.021224713
141	0x3ce60923	0.028080529
142	0xba9a0e65	-0.0011753557
143	0x3b707bfe	0.0036695
144	0xbcab629e	-0.020921048
145	0x3c5477e1	0.0129680345
146	0x3ae8b47d	0.0017753985
147	0x3acbf8ff	0.0015561878
148	0xbc0afcfd	-0.008483169
149	0x3bc6238b	0.0060467175
150	0xbb86418a	-0.0040971683
151	0x3a47c7a9	0.0007620999
152	0x3d051675	0.03249212
153	0xbcbabdb9	-0.022795545
154	0x3bfbda9c	0.0076859724
155	0xbc52c376	-0.012863984
156	0xbb607058	-0.003424665
157	0x3c0babbf	0.008524834
158	0x3ac27a53	0.0014837481
159	0xbc8f700c	-0.017509483
160	0xb939abf1	-0.00017707028
161	0xbac4e46c	-0.0015021688
162	0xbc4b6fe7	-0.012416816
163	0xbaaab2c2	-0.0013023245
164	0x3d2f77ee	0.042838983
165	0xba9e75f0	-0.0012089591
166	0xbcaa44c4	-0.020784743
167	0xbc354a70	-0.011065111
168	0x3d010c2d	0.031505752
169	0xbcebc0fb	-0.028778544
170	0x3c11c6a1	0.0088974545
171	0x3c621b23	0.013800415
172	0x3c8b10e8	0.016975835
173	0x3ca88d27	0.02057512
174	0x3b7eba61	0.0038868415
175	0xbbdb3d27	-0.0066906395
176	0x3cbe2728	0.02321203
177	0xb9b17286	-0.00033845397
178	0xbc502649	-0.01270444
179	0x3cbdf4ac	0.023187958
180	0xbbef530f	-0.0073036025
181	0x3c0a33da	0.008435214
182	0x3c5a3c0a	0.0133199785
183	0xbb49e870	-0.003080871
184	0xba8ebb1f	-0.0010889507
185	0x3cdbfe5e	0.02685469
186	0xbacf90e2	-0.0015836025
187	0x3a0a3517	0.0005272193
188	0x3c412407	0.011788375
189	0x3bc879bb	0.006118027
190	0xbccd3310	-0.025048763
191	0xbac4ff17	-0.0015029636
192	0x3d0bcf5b	0.034133296
193	0xbbfbb09a	-0.0076809647
194	0x3b88e7ac	0.004178008
195	0x3c1de51b	0.0096371425
196	0x3cf72e5c	0.030173473
197	0x3c48eacf	0.012263014
198	0x39be48d2	0.0003629388
199	0x3d10baf1	0.03533453
200	0x3cadc1b2	0.021210525
201	0x3d032a3d	0.032022703
202	0xbc9825e4	-0.018572755
203	0x3bcd3387	0.006262246
204	0x3c650f84	0.01398075
205	0x3c86dc8b	0.016462585
206	0x3c2afe34	0.010436583
207	0xbd49dff3	-0.04928584
208	0xbc9362c1	-0.017991425
209	0x3c6e14c0	0.014531314
210	0xbab8a5d6	-0.0014087509
211	0xbc67d364	-0.014149521
212	0x3c4839a5	0.012220775
213	0x3ac8554a	0.0015284207
214	0x3c7baf68	0.015361644
215	0x3b97d2fe	0.0046333065
216	0x3c745bb6	0.014914444
217	0xbc8b8e6f	-0.017035691
218	0xbbf03af9	-0.007331249
219	0xba976d7b	-0.0011553013
220	0xbcd7fa64	-0.026364513
221	0xbcbcf982	-0.023068193
222	0xba709ade	-0.00091783504
223	0x3cc18d4d	0.023626948
224	0xbc7e3c1a	-0.015517259
225	0xbd19ddb9	-0.037564967
226	0xbc62f142	-0.013851466
227	0xbce6d64b	-0.028178355
228	0x3baabf4b	0.005210792
229	0xbc2d500c	-0.010578167
230	0x3ca77735	0.020442585
231	0xbcd86293	-0.026414191
232	0xbcd076a7	-0.025447203
233	0xbc0a79e7	-0.008451915
234	0x3acc306e	0.0015578398
235	0xbbe4e0ea	-0.0069848197
236	0x3c434d17	0.011920235
237	0x3d0ea8e4	0.034829035
238	0x3cd00471	0.025392743
239	0x3c39788f	0.011320247
240	0x3cc6ef10	0.024283916
241	0x3d6f87d4	0.058479145
242	0xbcdae039	-0.026718246
243	0xbc372e5a	-0.011180485
244	0xbce500a5	-0.027954409
245	0xbab95205	-0.0014138824
246	0x3bc7d79a	0.0060986998
247	0xbc157f02	-0.009124519
248	0x3d093b9b	0.03350411
249	0xb99b2ea0	-0.00029598642
250	0x3a078e67	0.0005171061
251	0x3d34cfd8	0.044143528
252	0xbc1bd828	-0.009511985
253	0x3ca02972	0.019551013
254	0x3c9d6208	0.019211784
255	0x3ce036a0	0.027369797

action_model._continuous_distribution.mu.bias f4 [2]
0	0xbbb4260d	-0.0054977
1	0x3baa76f7	0.00520217

exp_avg f4 [128, 10]
0	0x3938392f	0.0001756891
1	0x2cb8d012	5.252695e-12
2	0xba360d79	-0.00069447566
3	0x3980a032	0.00024533417
4	0x35a347be	1.2165326e-06
5	0xba5412b2	-0.0008089944
6	0xba1b3b78	-0.00059216423
7	0xb711129d	-8.647007e-06
8	0x34e5bc9b	4.2791802e-07
9	0x38c0da90	9.195984e-05
10	0xb866f019	-5.505988e-05
11	0x2afd9130	4.5042572e-13
12	0x383afbb2	4.4580265e-05
13	0x37884c34	1.6247948e-05
14	0x33ad04e8	8.056833e-08
15	0xb860b8dd	-5.357793e-05
16	0xb7e7dd05	-2.7640266e-05
17	0x384d58e3	4.895859e-05
18	0x3317d22d	3.534858e-08
19	0xb87a3334	-5.965233e-05
20	0xb92a1501	-0.00016220288
21	0x2c89709c	3.9062763e-12
22	0xba03f58e	-0.0005033844
23	0x39c25b39	0.0003707053
24	0x35f6b85a	1.8382082e-06
25	0xbaa03938	-0.0012224084
26	0xba4c898c	-0.00078024785
27	0x399f0b2a	0.0003033516
28	0x353c4467	7.0134996e-07
29	0xb9950617	-0.00028424032
30	0x35b3e61a	1.3403508e-06
31	0x2bbd742e	1.3461504e-12
32	0x37a95c72	2.0189418e-05
33	0x385da9ba	5.2848576e-05
34	0x348cb122	2.6205913e-07
35	0xb936bc0c	-0.00017426925
36	0x393d56a7	0.00018056725
37	0x38ca2979	9.6398355e-05
38	0x34e8df32	4.3375763e-07
39	0xb991b8d5	-0.00027794266
40	0xb815c87c	-3.5711084e-05
41	0xabd006de	-1.4781195e-12
42	0x38cabd32	9.667351e-05
43	0xb86f53b3	-5.705999e-05
44	0xb497e743	-2.8294207e-07
45	0x39454bde	0.00018815647
46	0x38ea4804	0.000111714035
47	0xb691298f	-4.326175e-06
48	0xb423b971	-1.5248021e-07
49	0x38161d57	3.579011e-05
50	0x38c82331	9.543298e-05
51	0x2cc48b94	5.5861513e-12
52	0xba2e6f23	-0.0006654134
53	0x39a62649	0.00031690512
54	0x35d2e9ed	1.5714301e-06
55	0xba88f86b	-0.0010450011
56	0xb9b5be8f	-0.00034664987
57	0x39347e64	0.00017213222
58	0x3585f23b	9.97977e-07
59	0xb994c296	-0.00028373738
60	0x352b7321	6.387e-07
61	0xaaa1782d	-2.8682734e-13
62	0x374f62ce	1.2361166e-05
63	0xb6c8ad6a	-5.9806525e-06
64	0xb2febe88	-2.9656135e-08
65	0x37a56f3c	1.972133e-05
66	0x379e4074	1.8865081e-05
67	0xb6806f86	-3.8276803e-06
68	0xb12431ff	-2.389356e-09
69	0xb54efc2a	-7.7107927e-07
70	0x38bbbf67	8.952506e-05
71	0x2bcbd519	1.4483164e-12
72	0xb935d241	-0.00017339831
73	0x37c25f5a	2.3171004e-05
74	0x33f6bd91	1.14897496e-07
75	0xb8a03ca1	-7.6406875e-05
76	0xb4bac8f4	-3.4791412e-07
77	0xb83662d4	-4.3484222e-05
78	0x33f28c5c	1.12945344e-07
79	0x38464c38	4.7277863e-05
80	0x39ad08b1	0.00033003607
81	0x2c1a228e	2.1903898e-12
82	0xb9c2ef82	-0.0003718101
83	0x37b6d6f2	2.1796182e-05
84	0x33e819c1	1.08080265e-07
85	0xb896bab5	-7.187334e-05
86	0x39758996	0.00023416276
87	0xb92c8b1b	-0.00016455019
88	0x34e18b86	4.2011033e-07
89	0x38315ad4	4.228468e-05
90	0xb8fac841	-0.00011958229
91	0x2c6a36a2	3.3283727e-12
92	0xb982f168	-0.00024975394
93	0x393b1420	0.00017841207
94	0x356d7b52	8.8468835e-07
95	0xba1a3950	-0.0005883174
96	0xb9270dc7	-0.00015931494
97	0x397a263a	0.00023856098
98	0x3511dae2	5.4335226e-07
99	0xb98d41e6	-0.00026942714
100	0xb8c7be72	-9.524533e-05
101	0xaa2177a7	-1.4341185e-13
102	0xb8247d7e	-3.921752e-05
103	0x3899186b	7.300157e-05
104	0x34c257b2	3.6199123e-07
105	0xb97c6ae9	-0.0002407242
106	0xb96561e8	-0.00021875615
107	0x38b14555	8.452932e-05
108	0x3366882b	5.3674892e-08
109	0xb8658a67	-5.4726752e-05
110	0x36253243	2.4616172e-06
111	0x2a3f5bbd	1.6996036e-13
112	0xb7d127d1	-2.4933282e-05
113	0x3737b0cb	1.0948813e-05
114	0x33692e47	5.429163e-08
115	0xb8176e4e	-3.6103935e-05
116	0xb76f4775	-1.42621475e-05
117	0x36c7ba30	5.9523372e-06
118	0x3308404f	3.1723456e-08
119	0xb6eb0329	-7.0039137e-06
120	0xb7087c2d	-8.135144e-06
121	0x29c8bfcc	8.9150557e-14
122	0x36b31f24	5.338241e-06
123	0x3747de76	1.191312e-05
124	0x337db7cb	5.907331e-08
125	0xb824c49d	-3.9283757e-05
126	0xb7f4a35c	-2.9163137e-05
127	0x37332594	1.0677981e-05
128	0x32c78dc1	2.3231111e-08
129	0xb7abca5f	-2.0479025e-05
130	0x390d2d4c	0.00013463682
131	0x2bfeda39	1.8108354e-12
132	0xb9638452	-0.000216977
133	0x37ca001b	2.4080326e-05
134	0x3400363b	1.1940658e-07
135	0xb8a68668	-7.940532e-05
136	0x3996a127	0.00028730297
137	0x36abdfd6	5.122255e-06
138	0x34d8dc73	4.0393533e-07
139	0xb8e14f4c	-0.00010743606
140	0x393c1421	0.00017936576
141	0x2b976675	1.0757633e-12
142	0xb9aa993f	-0.00032539104
143	0x389e6e4b	7.554571e-05
144	0x34c91d92	3.7460683e-07
145	0xb9829b74	-0.00024911354
146	0xb8a00799	-7.63081e-05
147	0xb88f2c9b	-6.82708e-05
148	0x348ef90b	2.6630764e-07
149	0x381be4ac	3.7167847e-05
150	0xb7e71f9d	-2.7552067e-05
151	0xabe993fa	-1.6596717e-12
152	0x3920ca99	0.00015334263
153	0xb893eeec	-7.054009e-05
154	0xb4bbca29	-3.4978555e-07
155	0x3973e811	0.00023260737
156	0x38ca41b5	9.6443495e-05
157	0xb7db8613	-2.6169268e-05
158	0xb4764dc5	-2.2938828e-07
159	0x383e75cd	4.540924e-05
160	0x38dcf72b	0.00010536456
161	0x2b578b31	7.657651e-13
162	0xb9566be2	-0.0002044882
163	0x3876a80a	5.880747e-05
164	0x349c8e36	2.9160736e-07
165	0xb94b56b7	-0.00019391892
166	0xb882a505	-6.22962e-05
167	0xb803c769	-3.141855e-05
168	0x34614153	2.0978523e-07
169	0x349f0a59	2.9623587e-07
170	0x39285d60	0.00016056513
171	0xac02f4eb	-1.8610068e-12
172	0x396bebc0	0.0002249917
173	0xb9363c3e	-0.00017379315
174	0xb5675557	-8.617839e-07
175	0x3a163b29	0.00057308614
176	0x398e7b20	0.00027176086
177	0xb973e4f3	-0.00023259576
178	0xb4c832ac	-3.7289772e-07
179	0x3953243a	0.00020136024
180	0xb8d3d557	-0.00010101002
181	0x2c0875bb	1.9392116e-12
182	0xb928c387	-0.00016094568
183	0x38b9be56	8.85694e-05
184	0x34ebc96d	4.3918718e-07
185	0xb9991f8e	-0.00029205944
186	0xb83df9dd	-4.5293815e-05
187	0x39220678	0.00015451934
188	0x34957559	2.7838794e-07
189	0xb909e03f	-0.00013148876
190	0xb795d4eb	-1.7861332e-05
191	0xaa5872c3	-1.922447e-13
192	0x37145557	8.841357e-06
193	0xb6d2d63a	-6.283427e-06
194	0xb305d207	-3.1157494e-08
195	0x37adcf4a	2.0719734e-05
196	0x377e0b92	1.5142274e-05
197	0x37246c75	9.800414e-06
198	0xb2a79cf3	-1.9512731e-08
199	0x363e2244	2.8332151e-06
200	0x37b91750	2.2064574e-05
201	0x2a13eb7f	1.3137927e-13
202	0x397f23f7	0.00024332093
203	0xb8545a27	-5.06287e-05
204	0xb486c837	-2.510512e-07
205	0x392f0f13	0.00016694916
206	0x397cfee1	0.00024127543
207	0xb77884c9	-1.4812868e-05
208	0x33e83806	1.08135325e-07
209	0xb91f3623	-0.00015183589
210	0x395c2138	0.0002099321
211	0xa864784f	-1.268263e-14
212	0xb8c1146f	-9.206763e-05
213	0xb74a89c0	-1.2072211e-05
214	0xb3808da3	-5.986228e-08
215	0x3826f7f7	3.980842e-05
216	0x38fa932e	0.00011948343
217	0xb9167e01	-0.00014352055
218	0x341df24d	1.4709913e-07
219	0x37f916bc	2.96937e-05
220	0xb9094dd7	-0.00013094336
221	0xabcfa8a7	-1.4755045e-12
222	0x399543aa	0.00028469908
223	0xb8a0c4be	-7.6660406e-05
224	0xb4cc153e	-3.8013417e-07
225	0x398488cc	0.00025278924
226	0xb7462757	-1.1810879e-05
227	0x371f6b0c	9.502062e-06
228	0xb4bfd42d	-3.57309e-07
229	0x3848c8e5	4.7870813e-05
230	0x39267188	0.00015873287
231	0x2a089603	1.2131272e-13
232	0xb8531bb9	-5.033214e-05
233	0xb835428d	-4.3215743e-05
234	0xb4661860	-2.1429287e-07
235	0x39156d56	0.00014250478
236	0x39793926	0.0002376778
237	0xb8cee62a	-9.865717e-05
238	0x33efe4bd	1.1170912e-07
239	0x37789462	1.48165e-05
240	0xb904b1a9	-0.00012654685
241	0x2baa99d4	1.2121922e-12
242	0x386935a2	5.560148e-05
243	0x38df2c05	0.00010641668
244	0x350da64d	5.276859e-07
245	0xb9b7fa7e	-0.0003509111
246	0xb93070be	-0.00016826668
247	0x392487b9	0.0001569082
248	0x3492449d	2.7244542e-07
249	0xb980fb3d	-0.0002460125
250	0xb8bb2b43	-8.924913e-05
251	0xac48883e	-2.849734e-12
252	0x38bc19e1	8.969359e-05
253	0xb8a0987a	-7.6577955e-05
254	0xb4cbdd14	-3.7972552e-07
255	0x39846452	0.00025251746

exp_avg_sq f4 [128, 10]
0	0x338b1a9f	6.477534e-08
1	0x19d80e4b	2.233965e-23
2	0x34afd407	3.275056e-07
3	0x332f49de	4.0812544e-08
4	0x2b8d3b94	1.0035189e-12
5	0x34ee40d4	4.4378123e-07
6	0x341ab123	1.440681e-07
7	0x32656151	1.33516815e-08
8	0x2aab35a9	3.0412936e-13
9	0x3257ebbc	1.2568247e-08
10	0x312392a7	2.3802984e-09
11	0x180b3f19	1.7997185e-24
12	0x33293762	3.939875e-08
13	0x31fbfbfc	7.3337088e-09
14	0x2a4b0714	1.8032478e-13
15	0x33ab3fcc	7.9744126e-08
16	0x32a6ab5a	1.9402865e-08
17	0x310619fb	1.9514335e-09
18	0x298c366d	6.22669e-14
19	0x31402e81	2.7966112e-09
20	0x33215d1b	3.7570413e-08
21	0x1a16b533	3.1165645e-23
22	0x34fd5d3b	4.7192756e-07
23	0x3408805a	1.2712681e-07
24	0x2c5bf65f	3.1258535e-12
25	0x35b9888b	1.3823313e-06
26	0x34f135e8	4.492897e-07
27	0x32d6dc5b	2.5013085e-08
28	0x2b713e02	8.5706453e-13
29	0x336617e8	5.357279e-08
30	0x33c3acf9	9.111859e-08
31	0x1a4fc3c4	4.2964735e-23
32	0x3516a3f3	5.611793e-07
33	0x3455b6c8	1.9903666e-07
34	0x2cac3151	4.8940092e-12
35	0x36113d9f	2.1642552e-06
36	0x3586df86	1.0048832e-06
37	0x32f2aed5	2.8252012e-08
38	0x2b9cb9b2	1.1136007e-12
39	0x33e05e74	1.0447994e-07
40	0x2f78b29d	2.2618925e-10
41	0x1683dd1d	2.1303734e-25
42	0x30b1746a	1.2911532e-09
43	0x2fda9666	3.9760834e-10
44	0x28301e85	9.7765805e-15
45	0x31948d7b	4.3234514e-09
46	0x3139aaac	2.701806e-09
47	0x2e62903f	5.1514567e-11
48	0x274f3341	2.8754806e-15
49	0x2f778d02	2.2514615e-10
50	0x3350c618	4.860894e-08
51	0x1a27b7a3	3.468313e-23
52	0x35534fda	7.8719825e-07
53	0x34a8f576	3.1471035e-07
54	0x2d0821fe	7.738253e-12
55	0x3665a64d	3.422046e-06
56	0x35d3ce8c	1.5780838e-06
57	0x3353622a	4.9216546e-08
58	0x2bf0bdca	1.7105703e-12
59	0x341cf5e4	1.4618087e-07
60	0x2fa1c12b	2.9422983e-10
61	0x1615611e	1.2066769e-25
62	0x3097f9f7	1.105774e-09
63	0x2ec1d4ef	8.8144485e-11
64	0x271c2c5b	2.1673394e-15
65	0x3083ba87	9.584519e-10
66	0x2fac8b58	3.1385627e-10
67	0x2e17f6fb	3.4552788e-11
68	0x263c75d4	6.538529e-16
69	0x2dcedcd6	2.351756e-11
70	0x31745572	3.5555243e-09
71	0x1794c7bb	9.614695e-25
72	0x3229a550	9.874682e-09
73	0x3088b4a2	9.946641e-10
74	0x28dc4aa0	2.445727e-14
75	0x3239cf97	1.0815618e-08
76	0x315d3d04	3.2194416e-09
77	0x2ffd8412	4.6114274e-10
78	0x28398f13	1.0300587e-14
79	0x2f72e638	2.2091562e-10
80	0x32fa7049	2.9154892e-08
81	0x1993adc3	1.5269626e-23
82	0x342abdb2	1.5901495e-07
83	0x331ca348	3.6470084e-08
84	0x2b7c693c	8.9674427e-13
85	0x34d4e72b	3.9656274e-07
86	0x344278e1	1.8111633e-07
87	0x323e21c8	1.10671365e-08
88	0x2a8f6da7	2.547799e-13
89	0x3280e899	1.5006934e-08
90	0x33486dd7	4.6666027e-08
91	0x1a1239cb	3.0238777e-23
92	0x3506aa13	5.016638e-07
93	0x341f86bd	1.4857046e-07
94	0x2c808868	3.653123e-12
95	0x35d8d43a	1.615502e-06
96	0x351916e7	5.703027e-07
97	0x32caa9e7	2.3593158e-08
98	0x2b8a29bc	9.817073e-13
99	0x33911b50	6.757057e-08
100	0x318487d8	3.8571493e-09
101	0x18850302	3.438273e-24
102	0x34079c2d	1.2629671e-07
103	0x32edf51f	2.77019e-08
104	0x2b3fb9e5	6.811481e-13
105	0x34a1b76d	3.0122047e-07
106	0x33a66450	7.748224e-08
107	0x31ecedf9	6.8955583e-09
108	0x2a774c0b	2.196439e-13
109	0x3226f3ec	9.717933e-09
110	0x2e0d1725	3.2080245e-11
111	0x14fff3aa	2.5844528e-26
112	0x2f82e3d7	2.3808752e-10
113	0x2ee91adc	1.06003845e-10
114	0x273bd0ff	2.606476e-15
115	0x309e6b36	1.1526484e-09
116	0x3051d23b	7.633251e-10
117	0x2da1e7d3	1.8406532e-11
118	0x260de98f	4.9235733e-16
119	0x2e6d13ed	5.390526e-11
120	0x31321a20	2.591726e-09
121	0x17041ad1	4.2685347e-25
122	0x3158c555	3.1544307e-09
123	0x30ce6d8c	1.5019608e-09
124	0x29265274	3.693092e-14
125	0x328c49fb	1.6331787e-08
126	0x328c4a80	1.6332024e-08
127	0x300595f0	4.859819e-10
128	0x27781903	3.4430473e-15
129	0x300dba54	5.156029e-10
130	0x33100446	3.35315e-08
131	0x19dca4b5	2.2813991e-23
132	0x3441653b	1.8011353e-07
133	0x33cc5658	9.515196e-08
134	0x2c24a341	2.3396426e-12
135	0x358ade43	1.0346488e-06
136	0x3514f8fc	5.5496616e-07
137	0x32262a24	9.672053e-09
138	0x2af9d906	4.4381876e-13
139	0x336796de	5.392109e-08
140	0x31c2943a	5.6629945e-09
141	0x1822e65b	2.105431e-24
142	0x32bc3023	2.190797e-08
143	0x311e1417	2.3003446e-09
144	0x297ebb90	5.6562014e-14
145	0x32d6dc6d	2.5013117e-08
146	0x326a96b5	1.36548595e-08
147	0x304b3c63	7.3936784e-10
148	0x28753947	1.3612652e-14
149	0x3082714f	9.490949e-10
150	0x2fa137f4	2.9325486e-10
151	0x17384f7d	5.9553935e-25
152	0x32c7e0af	2.3268823e-08
153	0x31523968	3.0591654e-09
154	0x29a96183	7.522023e-14
155	0x330ede74	3.326427e-08
156	0x31c4e87c	5.730781e-09
157	0x30bf3c9e	1.3914307e-09
158	0x291303d2	3.264387e-14
159	0x30099d81	5.0064136e-10
160	0x3135ba17	2.6444746e-09
161	0x17afaad1	1.135223e-24
162	0x3229c94b	9.882863e-09
163	0x3093bfe6	1.0750199e-09
164	0x28ee1697	2.6433105e-14
165	0x3248d276	1.16893855e-08
166	0x318ffa73	4.1903205e-09
167	0x2fa94ac3	3.0794042e-10
168	0x27f95d07	6.9212244e-15
169	0x2fe1ae59	4.1051143e-10
170	0x336cd17f	5.5138567e-08
171	0x1a286a85	3.482763e-23
172	0x353a2631	6.9345975e-07
173	0x34984807	2.8364613e-07
174	0x2cf56412	6.974429e-12
175	0x364efb49	3.084266e-06
176	0x35c55574	1.4702514e-06
177	0x333be810	4.375039e-08
178	0x2bcf1cdf	1.4716248e-12
179	0x340cc146	1.3108829e-07
180	0x32934102	1.7142614e-08
181	0x198ba5ef	1.4439283e-23
182	0x343d943a	1.7655921e-07
183	0x3383f335	6.144402e-08
184	0x2bd4a0d5	1.5108146e-12
185	0x353358df	6.681202e-07
186	0x3491c966	2.715489e-07
187	0x321463af	8.637399e-09
188	0x2ac58b75	3.5090997e-13
189	0x32fb1ab3	2.9232387e-08
190	0x2ea9e8f9	7.7266145e-11
191	0x15a1da74	6.537204e-26
192	0x30609a6c	8.171017e-10
193	0x2f2e1c6b	1.5835304e-10
194	0x278c48ae	3.8936605e-15
195	0x30eca70e	1.721874e-09
196	0x3053da36	7.707145e-10
197	0x2e65a23b	5.221266e-11
198	0x26b64afd	1.2649113e-15
199	0x2e71963b	5.4930487e-11
200	0x336580fa	5.343552e-08
201	0x198f4e8f	1.4817583e-23
202	0x344ec3a3	1.9256417e-07
203	0x32ec9bb1	2.7544816e-08
204	0x2b3ea38f	6.7728543e-13
205	0x34a0ccad	2.9951244e-07
206	0x33a2722f	7.564483e-08
207	0x31a73e0f	4.867395e-09
208	0x2a8c0bfb	2.487731e-13
209	0x3240d9bd	1.1225379e-08
210	0x32a3338e	1.8999142e-08
211	0x1927ca4e	8.674553e-24
212	0x33f77e63	1.15248234e-07
213	0x3287b922	1.5800257e-08
214	0x2adab566	3.885045e-13
215	0x343879c6	1.7180636e-07
216	0x33134632	3.4289947e-08
217	0x319c13c0	4.542443e-09
218	0x2a3740a3	1.627609e-13
219	0x31b12ccd	5.1564712e-09
220	0x3229f754	9.893331e-09
221	0x18c127bb	4.992945e-24
222	0x335b0ac5	5.0999706e-08
223	0x3337f54d	4.2831108e-08
224	0x2b9437cf	1.0531522e-12
225	0x34fa097f	4.6573038e-07
226	0x34b1f793	3.3148953e-07
227	0x31aaf7dd	4.97583e-09
228	0x2a297788	1.5051686e-13
229	0x32c5dea0	2.3035057e-08
230	0x326becbb	1.3732627e-08
231	0x191d4fc5	8.132819e-24
232	0x33d8de66	1.0098738e-07
233	0x32ad0f9b	2.0146947e-08
234	0x2b0b701a	4.953829e-13
235	0x346b39b1	2.1907069e-07
236	0x33b13030	8.25097e-08
237	0x31e41e55	6.6391217e-09
238	0x2a26c752	1.4812915e-13
239	0x31f63545	7.1655983e-09
240	0x32eff92c	2.7936572e-08
241	0x196da0f2	1.22851155e-23
242	0x342b2a03	1.59409e-07
243	0x335b1fae	5.1018723e-08
244	0x2bb08d2a	1.2544733e-12
245	0x3514eac4	5.5475925e-07
246	0x348a75c0	2.5790177e-07
247	0x31ef01bc	6.9560127e-09
248	0x2aa8c721	2.9980968e-13
249	0x32d61d74	2.4926273e-08
250	0x3240793a	1.1203435e-08
251	0x19190623	7.911154e-24
252	0x340da8d1	1.3193063e-07
253	0x32c597b4	2.3002805e-08
254	0x2b1f3416	5.656043e-13
255	0x348648d5	2.5012437e-07

exp_avg f4 [128]
0	0xb9549ac3	-0.00020275549
1	0xb761490f	-1.3428055e-05
2	0xb9a0a003	-0.00030636796
3	0xb837314c	-4.367651e-05
4	0x3845ca74	4.715701e-05
5	0xb989504c	-0.00026190502
6	0x36a5d95f	4.9426885e-06
7	0xb7a0a36d	-1.9149587e-05
8	0xb7971b74	-1.8013387e-05
9	0xb91a9c44	-0.00014744798
10	0xb87d0cdb	-6.0331873e-05
11	0xb717cf77	-9.0486055e-06
12	0xb7252e55	-9.845554e-06
13	0xb7a6f145	-1.9901092e-05
14	0xb882ef41	-6.2434476e-05
15	0x38748491	5.8297595e-05
16	0xb84bd92b	-4.8601225e-05
17	0x39169b8e	0.00014363063
18	0xb89981cd	-7.319786e-05
19	0x36ae3ece	5.1929155e-06
20	0x382f7f66	4.18419e-05
21	0x37276310	9.9770405e-06
22	0x3884ddd4	6.335569e-05
23	0x3815cd33	3.5715475e-05
24	0xb8b8708b	-8.7947665e-05
25	0x3884b944	6.328759e-05
26	0xb6d5b1d7	-6.368598e-06
27	0xb8cc4f20	-9.742216e-05
28	0xb873bd55	-5.8112044e-05
29	0xb5b9061c	-1.3785352e-06
30	0xb8217828	-3.8497295e-05
31	0xb891f2c0	-6.9593545e-05
32	0xb62fca80	-2.6194903e-06
33	0xb796c8d6	-1.7974915e-05
34	0xb8d6a90f	-0.00010235805
35	0xb592e947	-1.094574e-06
36	0x38997982	7.318241e-05
37	0x377ded0b	1.5135166e-05
38	0xb8d84a67	-0.00010313541
39	0xb7b08158	-2.1041065e-05
40	0x3726b437	9.936331e-06
41	0xb79ab4d2	-1.8442432e-05
42	0x3784ffe0	1.5854777e-05
43	0x38e3100c	0.000108271925
44	0x38697306	5.5658653e-05
45	0xb954c5b2	-0.00020291543
46	0x3763b94f	1.35734e-05
47	0x383666e4	4.3488006e-05
48	0x390b86fc	0.00013306359
49	0xb91492f7	-0.00014169129
50	0xb7f267cb	-2.889698e-05
51	0xb8014062	-3.0815958e-05
52	0xb763d119	-1.3578939e-05
53	0xb603de68	-1.9649979e-06
54	0xb7d67440	-2.5564921e-05
55	0x381d6aac	3.7531063e-05
56	0x376fb337	1.4287237e-05
57	0xb8e211d9	-0.00010779844
58	0x37172a1b	9.010105e-06
59	0xb8ea93af	-0.00011185498
60	0x3883c4a4	6.283194e-05
61	0xb8324362	-4.2501262e-05
62	0xb8ba03a5	-8.86985e-05
63	0x387508b2	5.842065e-05
64	0xb7692b5d	-1.38979785e-05
65	0x37ff043e	3.0400344e-05
66	0xb70f90c9	-8.557175e-06
67	0x3705e97f	7.981783e-06
68	0x382d8339	4.1368625e-05
69	0x37dea810	2.6542722e-05
70	0x373ae523	1.1139814e-05
71	0x374bfb64	1.2158274e-05
72	0xb91ad99a	-0.00014767647
73	0xb92d98f1	-0.00016555541
74	0x36786205	3.7011935e-06
75	0x383ffa70	4.5771187e-05
76	0xb816de8c	-3.597005e-05
77	0xb89c98a9	-7.467095e-05
78	0xb6ea8e3e	-6.9903026e-06
79	0x379c4967	1.863083e-05
80	0xb89e72b5	-7.555393e-05
81	0x377c9888	1.5055884e-05
82	0xb9272958	-0.00015941763
83	0x397ef7e0	0.00024315668
84	0xb7c0e797	-2.2996026e-05
85	0x38c2102b	9.2536524e-05
86	0xb8d0f342	-9.963523e-05
87	0xb9814f6a	-0.00024663965
88	0x37aa6918	2.0314517e-05
89	0xb877af74	-5.9052792e-05
90	0x36a9450e	5.0446315e-06
91	0xb7b9315f	-2.2076709e-05
92	0x38d1d31d	0.000100052195
93	0x36f60216	7.331614e-06
94	0x38f0a280	0.0001147436
95	0x385253b3	5.0145853e-05
96	0xb55fa2ab	-8.3310687e-07
97	0x36312d74	2.6401513e-06
98	0xb927583b	-0.0001595923
99	0xb7cf4fda	-2.4713507e-05
100	0x380e6fe4	3.3959644e-05
101	0x36c9bffc	6.0126167e-06
102	0xb9864142	-0.00025607093
103	0x35e0b6c3	1.6742491e-06
104	0xb6c099f8	-5.73997e-06
105	0xb7662fc4	-1.372019e-05
106	0xb8a569cb	-7.8875186e-05
107	0x38fd30ff	0.00012073106
108	0x385aa674	5.213027e-05
109	0x37c6de44	2.370694e-05
110	0x36a93e9d	5.0438816e-06
111	0x380d0294	3.361942e-05
112	0x3842d5e2	4.64524e-05
113	0x36840b01	3.9351876e-06
114	0x34cfa3bd	3.867589e-07
115	0xb8e15e29	-0.00010746375
116	0xb6df0a69	-6.64713e-06
117	0x366875eb	3.4639331e-06
118	0xb88c2b53	-6.68379e-05
119	0x37c1ccd9	2.3102783e-05
120	0x38041247	3.1488275e-05
121	0xb988e98e	-0.00026113953
122	0x37d0bdbf	2.488389e-05
123	0x388d47dc	6.736789e-05
124	0xb8e3f6ee	-0.00010870198
125	0xb6ff98f1	-7.617397e-06
126	0xb8e677cf	-0.00010989571
127	0x36ccb294	6.100463e-06

exp_avg_sq f4 [128]
0	0x32ef72f1	2.7875531e-08
1	0x31ac1bd0	5.0090208e-09
2	0x33ba76e6	8.6829274e-08
3	0x3411f838	1.3594479e-07
4	0x2f954c54	2.7157177e-10
5	0x3466cd64	2.149514e-07
6	0x2e8463c4	6.020387e-11
7	0x303abe54	6.793688e-10
8	0x32d5f8b3	2.4909559e-08
9	0x33d9ead0	1.0147562e-07
10	0x32a28737	1.892077e-08
11	0x2e9f36c5	7.240212e-11
12	0x308cfe36	1.0258592e-09
13	0x338b90ae	6.499009e-08
14	0x30d7f07e	1.5711661e-09
15	0x310f9601	2.0894506e-09
16	0x3049d479	7.3425316e-10
17	0x34500539	1.937341e-07
18	0x33343f4b	4.196708e-08
19	0x2eedd717	1.081572e-10
20	0x32a19b44	1.8813473e-08
21	0x323966ca	1.0791789e-08
22	0x32fb4abd	2.9254233e-08
23	0x326c67e6	1.3760632e-08
24	0x3315aa1b	3.4846476e-08
25	0x3286f55b	1.5711228e-08
26	0x32d3d064	2.4658398e-08
27	0x31c28a3e	5.6618594e-09
28	0x32523618	1.2235908e-08
29	0x2e907a0c	6.570042e-11
30	0x31a6b279	4.851526e-09
31	0x329e0c9a	1.8399351e-08
32	0x308b6125	1.0141191e-09
33	0x2fc751e7	3.6256084e-10
34	0x32fbec81	2.9327795e-08
35	0x2f4affcb	1.8462669e-10
36	0x33876056	6.303951e-08
37	0x3101a330	1.8864732e-09
38	0x33a3cd90	7.6276706e-08
39	0x2fc383b2	3.5563869e-10
40	0x3161fa94	3.2884246e-09
41	0x2ff2a386	4.4135734e-10
42	0x324464b4	1.1431599e-08
43	0x332706aa	3.888878e-08
44	0x3137dafc	2.6754483e-09
45	0x34972d05	2.8158698e-07
46	0x31003e38	1.8661819e-09
47	0x3259b081	1.2671195e-08
48	0x3489ecf1	2.5690636e-07
49	0x3291eb91	1.6987345e-08
50	0x3194064e	4.3080837e-09
51	0x34098923	1.280901e-07
52	0x2fd50c1f	3.8753087e-10
53	0x2eb8c499	8.402274e-11
54	0x30b45297	1.3120197e-09
55	0x30b21ac8	1.2958816e-09
56	0x2ed02422	9.4651634e-11
57	0x315a4329	3.1761351e-09
58	0x2f3c1952	1.7107496e-10
59	0x34034428	1.2225121e-07
60	0x322537b7	9.616932e-09
61	0x3333461a	4.1740442e-08
62	0x344b1201	1.8912398e-07
63	0x32500a13	1.2109484e-08
64	0x2fb8c93d	3.3612393e-10
65	0x31631a99	3.3047967e-09
66	0x3244a684	1.1446563e-08
67	0x331b20e3	3.611866e-08
68	0x33209fe7	3.7398333e-08
69	0x31841540	3.8441215e-09
70	0x2e5eeb5e	5.0686004e-11
71	0x2fe0a299	4.0860895e-10
72	0x349d4140	2.9291004e-07
73	0x327aca63	1.4597933e-08
74	0x2ecb2f8d	9.239818e-11
75	0x32b7fb5c	2.1418309e-08
76	0x33019673	3.0171986e-08
77	0x31a414a0	4.775373e-09
78	0x32c8c952	2.3374614e-08
79	0x334ca522	4.764764e-08
80	0x32ba9a53	2.1723428e-08
81	0x30414068	7.030452e-10
82	0x33ee3015	1.1091485e-07
83	0x3355d581	4.9787108e-08
84	0x2fdcde40	4.0175685e-10
85	0x322924bf	9.84545e-09
86	0x32285cca	9.799985e-09
87	0x345a4dfa	2.03312e-07
88	0x30c79779	1.4522207e-09
89	0x31919748	4.237254e-09
90	0x3165ebab	3.3457848e-09
91	0x2fc3a6cd	3.5588812e-10
92	0x31d1c5bd	6.105181e-09
93	0x332e02f9	4.0515236e-08
94	0x33f51f0a	1.14143475e-07
95	0x31f45feb	7.1122392e-09
96	0x2f9e80b9	2.8831496e-10
97	0x2f0f4378	1.3029744e-10
98	0x337ff803	5.959738e-08
99	0x2f17805a	1.377897e-10
100	0x31391a34	2.6935938e-09
101	0x2ed2db2d	9.588628e-11
102	0x3474c64a	2.2796408e-07
103	0x2ed6208e	9.737376e-11
104	0x31830325	3.8129593e-09
105	0x3114a85e	2.163254e-09
106	0x3305bb7f	3.1137002e-08
107	0x32882a36	1.5851679e-08
108	0x3335e3e1	4.23496e-08
109	0x317d89e3	3.6894725e-09
110	0x2f43d8cd	1.781217e-10
111	0x318ee1ca	4.158413e-09
112	0x32044c3e	7.700747e-09
113	0x3191bc0b	4.2414334e-09
114	0x30da20ec	1.5870945e-09
115	0x33590e6f	5.0537377e-08
116	0x2dd09fc1	2.3717807e-11
117	0x2dfcfdb3	2.8761748e-11
118	0x30e0789b	1.6332423e-09
119	0x31523531	3.0589258e-09
120	0x318f040a	4.162307e-09
121	0x3433fceb	1.6762685e-07
122	0x30b57ea1	1.3205473e-09
123	0x32d909e8	2.526663e-08
124	0x32cfa4c9	2.4172907e-08
125	0x30c4db0b	1.4323133e-09
126	0x32bdb306	2.2083906e-08
127	0x33662df1	5.359283e-08
