3D/results/Test4/MoveToGoal/checkpoint.pt (torch, 442210 bytes, 36 tensors)

network_body._body_endoder.seq_layers.0.weight f4 [128, 6]
00000000: a652 90be 8371 b3be 4280 b33e 83e5 debe
00000010: f847 dc3e fd2e 7cbe a6ef 63bc 7ff1 b03e
00000020: c242 57bf 7aa2 633e 07b7 603e 11b7 113f
00000030: e091 b9bc 22d2 a8bf 8f1f 4fbf 78e3 913e
00000040: 5fc2 f3be b6bb ccbe ac42 fd3d 1f6e 65bf
00000050: 6eed d43c 1d8a 563d 5970 0bbf d80c 5bbe
00000060: 649f 903e 47e4 9ebe 0084 a23d 7564 be3e
00000070: 0ffa f7bd 486e 7fbe c7ef 8fbc aa54 873d
00000080: c5e9 21be 322a 8e3d 475a c9bd 6e0f 4ebd
00000090: cda7 4bbe 26aa a33d 4e3a 92be e7b4 5abe
000000a0: 45af 14bf 7ec1 c23e 7a32 d53e 8ea3 0abe
000000b0: 0d27 1b3f 7551 c9bd c734 92bc ef13 d8be
000000c0: 811b a5be 95fc 0ebc 7e16 563e 23ea 1cbf
000000d0: aa2f 56bd b8b3 f7be c763 44bc bddf 9abe
000000e0: 534f 26bf 7dab 9cbe f047 6ebe c9c4 0a3f
000000f0: a9f3 b23e 7551 3dbf 928d 5a3d ac7c de3d
00000100: 4388 e13e 8845 14be f5fb d93c 9eca d53e
00000110: 4ed0 55be 96a1 c2be 28cf fd3e 0397 773d
00000120: fcf0 303f a873 2dbe 4c4b 10be f27f 09bf
00000130: b9d4 45bd 2950 7a3e 4831 cf3e c2fb 53bf
00000140: c854 a1bf 4a3d 4abf 83ea 97bd 2476 90be
00000150: a730 11bf a9bf 463f 5b92 28bf c8ef 1d3e
00000160: 74d4 99bd cd0b e7bc 8653 d73e c714 ae3c
00000170: 99b2 a23e af6e 04be 8a07 243d f844 c9be
00000180: e9cc 8b3f d1f3 cdbd ebe6 0ebe eae4 4e3f
00000190: ddb2 a9be 907b 0abe 5063 aa3e 5f7f 85be
000001a0: c051 eebe bd6a 703f b4c1 61be b261 10bf
000001b0: bdc7 a4bd 794f 503e c4cf 8dbe 1437 be3e
000001c0: 7c3d a53e b571 af3e 2bf3 dc3e d264 f93e
000001d0: eb75 a03d 1168 bfbe 3c08 a4bd cb97 35bd
000001e0: 82ca 69be 3ca8 febe 9a41 babe 8b69 44bf
000001f0: 2bd4 9a3d 5e5a 32bf 35b4 19bd 0076 f9be
00000200: 98af 133d a5e5 5bbf 5ee6 2f3f 2cf4 79bc
00000210: b2c3 443d 600f c4be 1ba5 b4bb eb24 adbe
00000220: c7ea cdbd 3b2b 7dbe 5098 0a3d 816c f13d
00000230: 4887 14be 8459 c0be fdec 60be 2393 e93d
00000240: 9af3 443e a7a2 eebc f861 e03e 994b 5d3d
00000250: 61a4 2fbf 72b9 9fbe 12a3 503f 3f89 debe
00000260: c2c5 bbbe c10b 92bd 4fb3 70bf 6d39 043e
00000270: a0ee 703f c465 953c d3fb d8bd 7f4c c4be
00000280: 2d97 443d 5767 33be 9fe4 99be c8d4 dfbe
00000290: f47d 173f 8249 acbe eb8d 863e 3fbd 293b
000002a0: d820 86bd 5a4b 59be 76d5 92ba f3d5 643e
000002b0: c71d aebe 5e2f 12bf 896f f0be 9e47 4bbe
000002c0: 6eac 353e d78b fb3e 4dca d73c 2e8d d2bd
000002d0: a9fe f43e e42e a73e a62c 993e 00cd 86be
000002e0: bb35 453e c921 40be c322 f4be 9ac0 7e3e
000002f0: 321f 2ebf ba6d bb3e 443f cb3d fee9 3bbe
00000300: 9d7d debe fecd 353f cbd6 923e 2b8a 0b3f
00000310: 8680 2bbe 45a9 113f e74c 0dbf 53e6 d0bd
00000320: 91e2 37bf 8a94 2c3f 99cd fb3e e103 ff3e
00000330: d7a4 20bf 91ad 1d3f d0a1 813e 4803 3fbf
00000340: ae47 143e 729f 2c3a 8afc 68bf 6757 86be
00000350: ca7d 53be cdb9 6bbf 2dc1 393e f95b c7be
00000360: f26e a33c 9faf 073f 19b5 ae3d 350d 9cbd
00000370: 1346 123f bb22 0cbf fc44 fcbe a93c 12be
00000380: fa8f 5d3e 175c bdbe a538 2cbd 548e f9be
00000390: 1fff e9bc b2c2 143f bdb8 253e 309f 983e
000003a0: f30c a93c ded1 35be 7060 713e 0842 6d3e
000003b0: c852 c63e bd12 55be 925d fbbd a314 b2bc
000003c0: 8652 17bd 92cd 81bd 3b5c 0cbf efce fc3b
000003d0: 86fb 78bf 980c 89be e96d 77bd 26a9 893d
000003e0: 502b 41bf 53ec 64be 11f6 343f b826 a9bd
000003f0: 9b00 c33d 532c b23e 8a27 a43e 8832 3c3d
-0.28188056 -0.3504754 0.3505879 -0.4353448 0.43023658 -0.246273 -0.013912117 0.34559247
-0.8408624 0.22229949 0.2194482 0.5691996 -0.022652566 -1.3189127 -0.8090753 0.28493857
-0.4760923 -0.39986962 0.12366232 -0.89621156 0.025992122 0.05237781 -0.54468304 -0.21391618
0.28246605 -0.31033537 0.07935333 0.37186018 -0.12108242 -0.24944413 -0.01757039 0.06607945
-0.15811832 0.06941642 -0.09831672 -0.050307684 -0.1988823 0.079914376 -0.28560108 -0.21358071
-0.5807994 0.38038248 0.41640073 -0.13538954 0.6060646 -0.0982999 -0.017847432 -0.42202708
-0.32247546 -0.008727212 0.20907018 -0.61294764 -0.05229155 -0.48379302 -0.011986679 -0.30248824
-0.6496479 -0.30599585 -0.2326963 0.5420652 0.34951523 -0.7395242 0.05335767 0.10863623
0.44049272 -0.14479649 0.0266094 0.41756147 -0.20880243 -0.38013905 0.4957211 0.06044675
0.6911771 -0.1693865 -0.14091223 -0.53710854 -0.04829857 0.24444641 0.40467286 -0.82806027
-1.2603998 -0.7899977 -0.074177764 -0.28215134 -0.5671486 0.776362 -0.6584832 0.154235
-0.07511225 -0.02820387 0.4205591 0.021250142 0.31776884 -0.12932847 0.040046252 -0.3931043
1.0921909 -0.1005627 -0.13955276 0.80818045 -0.33144274 -0.13523698 0.33278894 -0.2607374
-0.46546745 0.9391287 -0.22046548 -0.5639907 -0.080459096 0.20342816 -0.27697575 0.37151396
0.3227347 0.3426644 0.43154272 0.48709732 0.07834991 -0.37384084 -0.08009383 -0.044334214
-0.22831157 -0.49737728 -0.36378175 -0.76723546 0.07559999 -0.6966914 -0.037525374 -0.4872284
0.03605613 -0.85897285 0.6871089 -0.015255969 0.048038192 -0.3829298 -0.005512846 -0.3381723
-0.10054546 -0.24723522 0.033836663 0.117882736 -0.1450473 -0.37568295 -0.21965404 0.11405017
0.19233552 -0.029130293 0.43824744 0.054027174 -0.686102 -0.3119617 0.81498826 -0.43464085
-0.36674315 -0.07131148 -0.94023603 0.12912531 0.9411411 0.018237002 -0.10594907 -0.38339612
0.047995735 -0.1751989 -0.30057237 -0.43717027 0.59176564 -0.33649832 0.2628015 0.0025900153
-0.06549233 -0.2122015 -0.0011202532 0.2234724 -0.34007093 -0.57103527 -0.46960095 -0.19851539
0.17741558 0.49130127 0.026341582 -0.10280834 0.4785054 0.32652962 0.29916877 -0.26328278
0.19258778 -0.18762888 -0.4768277 0.24878159 -0.6801635 0.36607152 0.09924176 -0.1835098
-0.4345521 0.71017444 0.286795 0.545077 -0.16748247 0.5689891 -0.5519547 -0.10200181
-0.7183009 0.6741415 0.49180296 0.49807647 -0.62751526 0.61592966 0.25318766 -0.7461438
0.14480469 0.00065850385 -0.91010344 -0.26238558 -0.20653453 -0.92080384 0.18140097 -0.38937357
0.019950364 0.5300235 0.085306354 -0.076197065 0.57138175 -0.54740494 -0.4927138 -0.14280953
0.21636954 -0.3698432 -0.042046208 -0.487414 -0.028564034 0.5810958 0.16183753 0.2980895
0.020636057 -0.17755839 0.23571944 0.2316972 0.38735032 -0.2080793 -0.122737065 -0.021738356
-0.036943935 -0.063380376 -0.5482823 0.007715098 -0.97258794 -0.2676742 -0.060407553 0.06721716
-0.75456715 -0.22355776 0.7068797 -0.08259338 0.095216 0.34799442 0.32061416 0.045946628

network_body._body_endoder.seq_layers.0.bias f4 [128]
00000000: 25ec bcb9 59f5 bcbb a67d 683c f0d1 023c
00000010: a2e6 bfbc c514 18bc 2239 893b de23 63bc
00000020: b6d8 553c 0ab9 883a 6520 903b 7adf 3c3b
00000030: 3b9f ccbb d8c7 d33b 641a 083d f627 013d
00000040: 3ae5 c73c d657 b6bb 8adb 1abc 2434 c2bb
00000050: 3524 253c 1cb4 c53b 08a9 5e3c 133a 0d3b
00000060: a277 8039 087f a3bb bb96 b6bb 865b 7dbc
00000070: a1d7 edbb ed26 04bb 76d8 3f3c 50f5 0f3c
00000080: aa6f 66bb fd4e 333c 0ec8 373c b4c0 95bb
00000090: 2424 9e3b 51e3 9a3b edab 403b 6052 5d3c
000000a0: ee5f a13c 8e36 a139 2c06 ae3a 5dc4 abbb
000000b0: 2f0a 783c e2e0 8d3c a2a4 90bc 737c d43c
000000c0: f3f4 ccbb 5aa4 5cb8 1df4 0f3d 71b3 043c
000000d0: 3cd4 9d3c 150a 063c 5120 8ebc 71c9 4f3c
000000e0: 96f6 a0ba f986 c8b9 cc9c 823c e7dc f33b
000000f0: 77d9 1cbc 37e6 2a3c a412 b33b 7520 ca3b
00000100: 111d 1abb 05fb b4ba 98da db3c 324b c73b
00000110: 1903 2f3c f238 fb3b 2260 60bc 7d5d b23b
00000120: d666 e4bb d558 0fbb 871d 923b 184f 023d
00000130: 7b1f c13b ee64 9a3b cabd 4abc 0012 813b
00000140: 99b1 333c 821f f139 4a6c 79bc bb15 c43c
00000150: b62a 6dbc 5e2b d43b cedb 003b 6a32 023d
00000160: 4ee1 b03b bc6c 4a3c 7343 d73c 4df2 b23b
00000170: 658e f7ba 4a3b 273c 8e02 483c cd46 4fbb
00000180: 40b8 573b 966c 01bc 8441 013c 4b35 033c
00000190: be01 6b3c f206 d9bc 5168 cdbb ad75 08bc
000001a0: 881d 88bc 2b57 ab37 0a3d 44bc e30b a83c
000001b0: 0c5d 6b3c fdcc 183c cde5 e23b 9267 25b9
000001c0: fb76 59bb 865d 823c 7d95 8d3c cb78 253c
000001d0: 76ce a73c 39ef b2bb 9472 6a3b b0b4 20bc
000001e0: 57db c8bb 0fc4 81bc 1567 a23c 1946 903b
000001f0: b121 1ebc bf62 3ebb fdb5 813c 41bc 423b
-0.00036034096 -0.0057665524 0.014190113 0.007984623 -0.023425404 -0.009282296 0.004187719 -0.013863532
0.013052156 0.0010431123 0.004398393 0.0028819726 -0.0062445677 0.006463032 0.033228293 0.03153225
0.024401296 -0.00556467 -0.009451756 -0.005926626 0.010079433 0.0060334336 0.013590105 0.0021549508
0.00024503196 -0.0049895085 -0.0055721677 -0.015463715 -0.007258371 -0.0020164803 0.011709323 0.008786514
-0.0035161772 0.010944125 0.01121713 -0.004570091 0.0048260856 0.0047268053 0.002939935 0.013508409
0.019699063 0.0003074896 0.0013276986 -0.005241914 0.015139147 0.017319147 -0.017656628 0.025938248
-0.006254786 -5.260515e-05 0.035144914 0.008099423 0.01926624 0.008181115 -0.017349394 0.012682305
-0.001228052 -0.00038247535 0.015943907 0.007442105 -0.009573332 0.010430864 0.0054648686 0.00616842
-0.002351586 -0.001380772 0.026837632 0.006081962 0.010681891 0.0076667005 -0.013694795 0.0054432736
-0.006970267 -0.0021873016 0.0044590863 0.03181371 0.0058936453 0.004711739 -0.012374351 0.0039389133
0.010967636 0.00045990577 -0.015223572 0.023936143 -0.014475515 0.0064748963 0.0019662264 0.03178636
0.005397952 0.012355026 0.02627728 0.0054610134 -0.0018887041 0.010207007 0.01220764 -0.0031627894
0.0032916218 -0.007899424 0.007889155 0.0080083115 0.014343677 -0.02649257 -0.006268539 -0.008328837
-0.016615644 2.042538e-05 -0.0119774435 0.02051348 0.014365446 0.009326217 0.006924367 -0.00015774209
-0.003318249 0.015913736 0.017283196 0.0100996 0.02048419 -0.0054606465 0.003577386 -0.009808704
-0.006129663 -0.015840558 0.019824544 0.0044028875 -0.009651587 -0.0029050556 0.01583385 0.002971426

network_body._body_endoder.seq_layers.2.weight f4 [128, 128]
00000000: 5e9d 9abd 78f6 88bd f867 59bc 1ae5 2abd
00000010: 15a2 873d f8c9 25bd f4ef d73b 8969 a0bd
00000020: 92a2 8e3d 3de5 25be 30a0 b13d 5777 febd
00000030: c26b e2bd 4f0b 6ebd 8c89 b63d e174 ec3c
00000040: 46da 8a3d fa02 c23d 757b ee3d 5571 63bd
00000050: dd5e afbd 75e4 e73d 941d 16bd 82d6 3cbc
00000060: 3e5d a73d f26c a53b eca2 a2bd 842f 313e
00000070: 8a79 2cbd b229 ffbd 095c 883d adb2 c73d
00000080: d2b0 193d 3e1a 92bd 6ca0 3fbc 5356 b5bd
00000090: 633e 77bc d793 c63d 7b2f 48be 393d b1bd
000000a0: cb5d a6bd f1ba 46bc dad6 0cbe bcd0 8dbd
000000b0: d16c f6bd 2dc5 983d cfb7 df3b fa83 743d
000000c0: b4d9 6a3d a7d0 e63c 000d acbd 9362 21bd
000000d0: 6b2c 19bd a10c 4e3d 64fe 263e 5457 853d
000000e0: f19d d7bc 457b 6e3d b5fd c5bb dfe7 a13d
000000f0: 7e9e 913c 95f0 dbbd 429c 333e e1f6 0abd
00000100: 550d 92bd b957 fe3b 8187 05be d672 0bbe
00000110: 9eee 6a3d 0637 dfbd 2379 5a3c 83de 82bd
00000120: c341 1dbe 60cd a5bd 8ac8 193e 1bff 5f3d
00000130: 261d cabd 4257 973c c964 a63d 928d debd
00000140: 142a f83d 9777 5dbd 4553 bc3d 3de8 96be
00000150: c198 ea3c 34db 20bc c818 41bd 6889 86be
00000160: 0e63 c6bb 91fb 033d 599c b63c a52d 20be
00000170: cfa1 e3bc c82c 953d 5627 c3bd ff71 20be
00000180: 2a7a e0bc 0611 d83c 70b0 c13d 46ae 30bd
00000190: b145 87bd d6a7 313d 1cd4 e2bd 90ec 9cbd
000001a0: 7545 e03d 4719 5ebd 93ea 073e 38f5 9f3d
000001b0: 9a9c ccbc c0d3 2b3b 1390 52bd b1c2 90bd
000001c0: a6b6 44bd b79c 53bc 1e71 9bbd 4be2 8fbd
000001d0: 3f90 853d 0aae a5bd 4152 5dbd d9fd be3c
000001e0: 066f 823d 4264 c9bd 69df 24bc cd94 e1bd
000001f0: 396f 6b3e 450b b5bd 5032 a7bd dc27 a63d
00000200: c125 1dbe f640 693d c696 3fbd 6b95 01bd
00000210: f2f4 e6bd 7fcf 09bd 3686 63bd c6dc e73d
00000220: fe9a 4d3d abf9 b0bd a6fa 033e a1ae 433e
00000230: 2f75 343c 9202 873d f49b b53d fb86 babd
00000240: e98a 1c3e fbe3 86bd 6499 353c df13 32be
00000250: 6d94 5d3e 0c2c 22be 566a a5bd 0d38 2c3c
00000260: 8599 07be f24c 393e 3423 d33c 093c a03d
00000270: bc0d e23c 81fa 1abe 93ce 0abe 68f5 98bb
00000280: 9486 1cbe 0fd0 3e3d d6a2 ddbd 2f5a f9bd
00000290: 6b75 2b3e 61be dcbc acdb dbbd 9771 523d
000002a0: 7d17 863d 9a83 b73d 5688 ab3b 5bee 5cbd
000002b0: 4402 c53b 60a8 233d 7489 9c3d b369 67bb
000002c0: 2bf6 9fbc d5af b53c f87a c2bc 2ed5 25bd
000002d0: 33eb 033d b262 933c 0138 0bbe 6cbf 923d
000002e0: 8719 383d 544a 983d 14aa 733d 40c3 6c3d
000002f0: e689 bdbd 31aa a6bc 9021 e8bd 947f 5dbd
00000300: 0cda 6b3d 6425 0cbd 03d8 323d 5ced db3c
00000310: efab 81bc 2189 ba3d 9910 06bd 1792 aebd
00000320: 8785 af3b d622 69bd c530 fa3d bb7a 02be
00000330: 0b02 183e 0672 8d3c 3307 863d 5501 0f3e
00000340: 6f6b 693e 2645 763d 692d 543d b5b3 9fbc
00000350: 25a8 013b a7c7 08bd d6c3 223c 1016 9bbd
00000360: f687 7b3d 66bb f9bc 0d6d 8c3d 8d3c 68bc
00000370: d906 5ebd 7555 373d 178e d33b 532b 17bd
00000380: 9e8a c23d 88cb 36bd 8f29 93bd a44a 0b3e
00000390: 9fe2 47bd cb22 ed3d 41e1 a93d b69c fc3d
000003a0: 4fd8 533c 51ca f5bd dcfc a3bd b4d3 7e3c
000003b0: 2df8 19be e792 743e 414b f63c 6108 36be
000003c0: a30f 43bd 4216 383e 3301 e33d 46a7 593c
000003d0: 7d64 b7bd aab1 4d3d 6e26 bbbc 5a1a e5bc
000003e0: f36c d73d f72e 703d 2659 b43c 61e3 f1bc
000003f0: 6b49 b4bc 5b13 7ebd fd6c 453e 8fbb babd
-0.07549547 -0.06687635 -0.013269417 -0.041722395 0.066227116 -0.040475816 0.006589884 -0.07832629
0.069646016 -0.16200729 0.086731315 -0.12425106 -0.110557094 -0.058116253 0.08912954 0.028864326
0.067799136 0.09473224 0.11644641 -0.055528004 -0.085630156 0.113228716 -0.0366493 -0.011525752
0.081720814 0.0050483877 -0.07941231 0.17303282 -0.042108096 -0.124591246 0.06658179 0.097508766
0.037522145 -0.071339116 -0.011695962 -0.08854356 -0.015090558 0.09696167 -0.19549362 -0.086542554
-0.08123358 -0.012129531 -0.13753834 -0.069245785 -0.12032474 0.07459483 0.0068273316 0.059696175
0.057336524 0.028175665 -0.08400917 -0.03940065 -0.037395876 0.050305013 0.1630798 0.06510797
-0.02632043 0.058223028 -0.006042207 0.07905554 0.01777577 -0.10739247 0.17540076 -0.03392685
-0.07131449 0.007761922 -0.13039972 -0.13618025 0.05735647 -0.10899167 0.013334545 -0.06390097
-0.15357117 -0.08095813 0.15017906 0.054686647 -0.09868841 0.018474225 0.08124692 -0.10866846
0.12117401 -0.054069128 0.0919557 -0.2947406 0.028637292 -0.009817887 -0.047142774 -0.26276708
-0.0060542887 0.032222334 0.02229135 -0.15642412 -0.027787117 0.07283932 -0.09528987 -0.15668486
-0.027402002 0.026375305 0.09457481 -0.04313495 -0.066050895 0.04337295 -0.11075613 -0.07662308
0.10950748 -0.054223325 0.13273077 0.07810444 -0.024977017 0.0026218742 -0.05140693 -0.070683844
-0.04802575 -0.012915782 -0.07589935 -0.07025584 0.065216534 -0.08089836 -0.05403352 0.023314403
0.06368832 -0.09833576 -0.010063031 -0.110147096 0.22991647 -0.0884004 -0.08163893 0.08113071
-0.15346433 0.056946717 -0.046774648 -0.031636637 -0.11277188 -0.03364515 -0.055547915 0.11321406
0.05019664 -0.086413704 0.12888584 0.19109584 0.011014267 0.06592287 0.08867636 -0.09107777
0.15287365 -0.065864526 0.011083934 -0.17390393 0.21638651 -0.15837115 -0.080769226 0.01051141
-0.13242157 0.18095759 0.025773622 0.07823951 0.02759444 -0.15134622 -0.13555364 -0.0046679266
-0.15285712 0.04658514 -0.10822074 -0.12175404 0.1674401 -0.026946248 -0.107352585 0.05137786
0.06547449 0.08960648 0.0052347584 -0.05393825 0.006012233 0.039955497 0.076434046 -0.0035310804
-0.019526562 0.02217857 -0.023740277 -0.040486507 0.032206725 0.017991398 -0.13595583 0.07165417
0.04494622 0.07436052 0.05948837 0.057803392 -0.09254818 -0.020344825 -0.113345265 -0.054076746
0.057580993 -0.034215346 0.043663036 0.02684658 -0.015829055 0.091081865 -0.032730673 -0.08523958
0.005356494 -0.056917988 0.12216333 -0.1274213 0.1484453 0.017266285 0.06544342 0.13965352
0.22794889 0.06012454 0.05180112 -0.01949487 0.001978406 -0.03339353 0.009934386 -0.075725675
0.06140896 -0.030484866 0.06856737 -0.014174593 -0.05420575 0.044759233 0.0064561474 -0.03690655
0.094990954 -0.044627696 -0.07185661 0.13602692 -0.048800107 0.11578902 0.08294917 0.12334578
0.01292999 -0.120014794 -0.080072135 0.015553404 -0.15036078 0.23884164 0.03006518 -0.17776634
-0.047622334 0.1797724 0.11084213 0.01328451 -0.089547135 0.05021826 -0.022845473 -0.027966667
0.10518827 0.05863854 0.022015166 -0.029527368 -0.022007665 -0.062030178 0.19279857 -0.09117805

network_body._body_endoder.seq_layers.2.bias f4 [128]
00000000: e7dc 19bc 1cd7 04bb 0e3a a93b ad5d 5b3c
00000010: e439 2d3b 8252 6dbb b2b8 043c 00a7 893c
00000020: 3578 2abc 57b9 153a ff70 5a3c 499a 84bb
00000030: b1a4 37bc 7c2d f23c 460b 213c 6015 a73c
00000040: b2a3 60bb 6bf9 7abb 8d60 b93b 01d8 793c
00000050: 6566 663c 9abd 2aba 9aab 3e3c 00b0 803b
00000060: bbe7 3b3b a6d6 913c 9ab5 8e3c 8b1c 5f3b
00000070: 15d7 ba3b b18f fa3b 0296 523c 511b ab3b
00000080: 9c47 703c 4bab 21bb 511c df3b 1763 773b
00000090: ddee dbba 17ed 45b9 7a3d d53b 552b d03b
000000a0: 2a8f 7abb d1d3 1c3b e613 fe3b 1dc1 953c
000000b0: 8f2e 173c 3658 cf3b 791b cd3b 862a 393b
000000c0: 6d87 9c3b 6f48 52b9 d333 913b e1b4 523c
000000d0: 415a bdbb f2ed 5ebc 50b4 1d3c 4488 ff3a
000000e0: b389 003c f96b 20bc 5ae9 ba3b 4912 973b
000000f0: c999 a83a f186 aa3b 0b97 fa3b a3a9 083c
00000100: a956 7f3c f4e0 673c 030f f43a 34a9 82bb
00000110: ae31 5dbc e5d8 0b3b 7dbb a23b 0bfe f4bb
00000120: 2638 d13b 1a95 8d3b 5efd 2d3b 3132 a73c
00000130: 090f 433c cddb 87bb bcbd d63b 068f 2fba
00000140: c5bf 903b c2b9 8c3b 4f80 f338 77c7 1239
00000150: 0857 073c 9352 3c3c 69ca 5f3c 147b a23c
00000160: 7725 433b 7a47 993c 7cd4 4b3c a08d 853b
00000170: f522 e33a 31fe 593b cadf dbba 7207 23bc
00000180: 5327 17bc 8097 e13b bf38 99bb e246 4a3c
00000190: 5c72 2e3c 21a5 4dbc 603f f33c 4ee4 80bb
000001a0: d9d4 b335 cce9 ff38 a8a1 323c 012d 9e3c
000001b0: bfc2 30bb 8f34 3dbb a24e d2ba dbbe bc39
000001c0: 94b6 503b ebce 0dbc 09e6 723c cf61 6c3b
000001d0: eea5 863c 0766 1a3c 6c60 53bb 109f 933c
000001e0: a64b 053c 19aa 463c 84d8 4cba 3ab5 8f3b
000001f0: 8bec 0f3b aa3a 8f3a ddda 0e3c d2e4 663c
-0.009391046 -0.0020269817 0.0051643914 0.013389033 0.002643221 -0.0036212509 0.008100675 0.016803265
-0.010404636 0.0005711517 0.013332604 -0.0040467125 -0.011208699 0.029562704 0.009829348 0.020395935
-0.0034277258 -0.0038295637 0.0056572617 0.015249253 0.014062499 -0.0006513238 0.011637593 0.003927231
0.0028672058 0.017802548 0.017420579 0.0034044113 0.0057019093 0.007646524 0.012853147 0.005221762
0.0146655105 -0.002466875 0.0068087955 0.003774827 -0.0016779561 -0.00018875707 0.0065075727 0.006352822
-0.0038232305 0.0023929963 0.007753837 0.01828056 0.009227409 0.0063276542 0.0062593785 0.0028254106
0.004776886 -0.00020054144 0.0044312268 0.012860508 -0.0057785814 -0.013606535 0.009625509 0.0019495566
0.00784533 -0.009791368 0.005704087 0.004610334 0.0012863214 0.0052040746 0.0076474003 0.008341226
0.015584626 0.014152754 0.0018620196 -0.0039874557 -0.013500614 0.0021338996 0.004966198 -0.0074765733
0.0063848672 0.004320753 0.0026548724 0.020409675 0.01190544 -0.0041460753 0.00655338 -0.00066970324
0.004417392 0.004294605 0.00011611042 0.00013997951 0.008260496 0.011494297 0.013659098 0.019834079
0.002977697 0.01871084 0.012440797 0.004075721 0.0017329144 0.0033263082 -0.0016775068 -0.009950506
-0.009225684 0.0068845153 -0.004675954 0.012346001 0.010647383 -0.012551577 0.029693305 -0.003933466
1.3398486e-06 0.000122028956 0.0109028 0.019308569 -0.0026971546 -0.0028870439 -0.0016045163 0.00036000353
0.0031847106 -0.00865529 0.0148253525 0.003606904 0.016436543 0.009423739 -0.0032253517 0.018020183
0.008135712 0.012125515 -0.0007814246 0.0043856176 0.002196106 0.0010927517 0.008719173 0.014092641

action_model._continuous_distribution.log_sigma f4 [1, 2]
00000000: e940 6dbc a60a c3bc
-0.014480808 -0.023808789

action_model._continuous_distribution.mu.weight f4 [2, 128]
00000000: 554b e4bc c35e 81bc 7adc e9bb c6f7 09bd
00000010: abc5 81bc 7328 f8bb 5575 6c3d ae0b 493d
00000020: 1edb 9ebc b3e9 8b3c b6df 19bd db29 393b
00000030: 96ae b2bc 9ba6 d53c 2ad1 04bd 2294 07bd
00000040: 1c7f 34bc c4ae 2fbd 5ac2 df3b 8652 2f3d
00000050: 68f6 f7bc 211d 7bbd dde5 983c 0683 4f3a
00000060: 9450 c2bb 395c 393d 8c84 92bc 3a61 943c
00000070: 1057 c03b 5b51 09bc 67f9 073d 4312 4dbd
00000080: 15da 193d d277 c73b 96d9 c83c 58e9 843c
00000090: ad8f a13c a950 c5bc c81f 003d ee35 593d
000000a0: c548 dfbc 2328 223b bc02 41bd 3b98 9bbc
000000b0: df51 063c 46e9 51bd 0176 663c 4478 9cbb
000000c0: 2059 af3c efd6 dabc 44de 2fbb 8a24 b73b
000000d0: 302d 85bb 8768 30bc f01f 1b3d 3d1c 02bd
000000e0: e1aa 30bd cb6d 48bc c2ff 2b3d 4a79 f2bb
000000f0: 9183 6cbc fa06 babc 88d7 3e3c 6a09 013d
00000100: a9d4 063d f735 3ebd 830f 003d d8ac 1fbb
00000110: 0047 05bb 1451 2fb9 caf1 cb3c 22f4 e1bc
00000120: c5cb 16ba 2597 bbbb cd37 033c fe9c b23c
00000130: a035 e13c 8a0a cdbc 3ca4 a53c 6cff 04bc
00000140: 7330 313d 94a7 febc c838 3d3c 3800 a1bc
00000150: d87c b63b 206f bcbb 879e 35bd c669 03bc
00000160: 5935 9a3c d10c f83c 309e 27bd 1638 6ebc
00000170: 3c6f 53bc abdb b9bc e2d8 933c d0c6 8cbc
00000180: ca56 d0bc 6d23 893c a109 f93a 421c 35bc
00000190: 4096 743d b242 883c 0aa9 31bd 5009 8abc
000001a0: 5b1e 2bbd adc9 0339 f94d ee3c bb8c 193d
000001b0: 7205 3c3c 3e79 a63b 8f05 82bc 8029 913c
000001c0: 6727 dabb 2d17 fb3c 7bbd 083d 9dd7 06bd
000001d0: 6979 3d3d 639b 4dbc cf62 24bc ff99 18bc
000001e0: 4c45 85bc e4c3 363d f814 f2bb 4960 923c
000001f0: 35f4 8b3c 722e 26bd 6e7e 9e3c c2a6 fa3c
00000200: 4d77 ef3c f6e5 73bc 1505 433d 5b59 cdbc
00000210: 8373 65bc a3e6 5fbd df20 cdbc dfb7 09bd
00000220: df65 6d3d e490 893c c271 4ebd d6a7 8cbc
00000230: 8ff3 883b b78d 1c3d e486 37bd 8f8e 78bc
00000240: 92e5 423c ae3d 543c f7ff 33bc 841e b3bc
00000250: 80d9 50bd b0b6 39bb 024b d939 484c 02bd
00000260: 7b04 c2bc d34d 523d 6dfa 55bd 7eee b5bb
00000270: 756a 0c3d 810b 803d baad 1ebc 643c dabc
00000280: 0540 493c 51ea 483a c1d9 03bd f9e1 983c
00000290: f9f7 4c3c ce9d 8bbb 32fd 61bd fc1f 4f3d
000002a0: a69b 8dbc 4034 00bd 01ba 61bc 5300 0cbd
000002b0: d90c 2c3d 8ab3 c5bc 9278 343d edf7 05bc
000002c0: 386f 793a 7713 2b3c 29ae 08bd 6115 05bd
000002d0: 90bf 263c 2208 b93c 839a 84bc 5a68 063d
000002e0: a8cb 00bd 1948 233d fc21 993c e1df 01bd
000002f0: dcb4 0d3c 02e5 1ebd 4946 1cbd dcbd d63b
00000300: 9f54 703c 5be3 60bd 47cd 893c 5f68 003d
00000310: 2fac 2d3c faca d9bc 5d45 efbc 2431 383d
00000320: 93a5 6fbc f1d6 033d a2d2 02bd ed30 713b
00000330: 3bf7 193d a6b7 d43c 0951 123d 791d 1abb
00000340: 84c5 54bc a617 61bb 2f67 ec3c 8779 1ebc
00000350: fd64 4f3b e553 10bd 09a0 efbc d8cd f23c
00000360: d7db b23c a027 403d d1b9 9a3c 9e62 953c
00000370: 34f0 8bbc 6ee4 34bc a7d6 6c3c 32c0 303d
00000380: 946a 4a3c 6db2 4a3d 0a46 60bb 9a12 c3bc
00000390: 977a 9e3b dabe 8c3c e4d3 2cbc 7039 923c
000003a0: 8165 e8bc e773 003d a9ee c73c 7a43 d4bc
000003b0: a9c9 123d 6e9c 573b c167 7abc 5e4a b13c
000003c0: ebb3 acbc 3f6b 1c3c 3528 0a3c a2d6 7f3c
000003d0: ff8d 023c f4e8 213d 18de 0ebc 4aae 58bd
000003e0: 3fae 013d 7bd3 e23c cba4 8fba ee78 513d
000003f0: f9c4 853c 9ea7 7b3c f1ae 603d 216d a53c
-0.027867952 -0.015792256 -0.0071368786 -0.03368356 -0.015841326 -0.0075731813 0.057729084 0.049083404
-0.019391593 0.01707921 -0.037566863 0.0028253708 -0.021811765 0.02608042 -0.032426037 -0.033100255
-0.011016633 -0.04289128 0.0068285884 0.04280331 -0.030268863 -0.061307076 0.018664295 0.00079159474
-0.005930016 0.045253966 -0.017885469 0.018112767 0.0058697537 -0.008381213 0.033196833 -0.050066244
0.037561495 0.0060872817 0.024517816 0.016224548 0.01972183 -0.024086313 0.03128031 0.053029947
-0.027256379 0.0024743162 -0.04712175 -0.018993488 0.0081982305 -0.051247858 0.01406622 -0.004775079
0.021404803 -0.026713816 -0.0026835361 0.0055890726 -0.0040642247 -0.010767109 0.037872255 -0.03176521
-0.043131713 -0.012233208 0.041991957 -0.0073997127 -0.014435665 -0.022708405 0.011648066 0.03150312
0.032917652 -0.046438184 0.031264793 -0.0024364498 -0.0020336509 -0.00016719504 0.024895567 -0.027582232
-0.000575241 -0.005724805 0.008008909 0.021803375 0.02749139 -0.02502944 0.020219915 -0.008117538
0.043259095 -0.031085767 0.011549182 -0.019653425 0.0055690818 -0.005750552 -0.044340637 -0.008020824
0.018824266 0.030279549 -0.040922344 -0.014539739 -0.012904938 -0.022687754 0.018047754 -0.017184645
-0.02543201 0.016740525 0.0019000062 -0.0110541005 0.059713602 0.016633365 -0.0433741 -0.016850144
-0.041776996 0.00012568264 0.029089915 0.037487727 0.011475908 0.005080371 -0.015871791 0.017719984
-0.006657529 0.0306507 0.033383828 -0.03292047 0.046258364 -0.012549254 -0.010033323 -0.009314059
-0.016268395 0.04462041 -0.0073877536 0.017868178 0.01708422 -0.040571637 0.019347396 0.030597094
0.029231692 -0.01488637 0.04761227 -0.025067022 -0.014004591 -0.05466331 -0.025040088 -0.03362262
0.05795848 0.016792722 -0.050401457 -0.017169874 0.004179425 0.038221087 -0.044806376 -0.015170707
0.011895554 0.012954159 -0.01098632 -0.021865137 -0.050988674 -0.002833765 0.0004144535 -0.03181103
-0.023683777 0.05134375 -0.052240778 -0.005552112 0.034281213 0.06252194 -0.009684974 -0.026640125
0.01228333 0.00076643104 -0.03219009 0.01866244 0.012510293 -0.004260755 -0.055173106 0.050567612
-0.017286133 -0.03129983 -0.013777257 -0.034179997 0.04200444 -0.024133462 0.044060297 -0.008176786
0.0009515169 0.0104416525 -0.033369217 -0.03249109 0.010177508 0.022586886 -0.016186958 0.03281436
-0.03144422 0.03986368 0.018692963 -0.03170765 0.008649077 -0.038792618 -0.038152967 0.0065533947
0.014668613 -0.054904323 0.016821517 0.031349536 0.010600134 -0.026586045 -0.02920788 0.04496874
-0.014626878 0.032187406 -0.031939156 0.0036802844 0.037589293 0.025966477 0.035721812 -0.0023516102
-0.0129865445 -0.003434637 0.028857796 -0.009672529 0.0031645887 -0.035236258 -0.029251115 0.02963917
0.021833343 0.04691279 0.018887432 0.0182355 -0.017082311 -0.01104079 0.014455474 0.04315204
0.012354512 0.049486566 -0.0034221434 -0.02381258 0.004836391 0.017180849 -0.010548566 0.017849654
-0.028368713 0.031360533 0.024405794 -0.025911082 0.03583685 0.0032899636 -0.015283526 0.021641906
-0.021081885 0.009547054 0.008432438 0.015615137 0.007968425 0.039528802 -0.008719943 -0.05290059
0.031660315 0.027688732 -0.0010959146 0.05114072 0.016329275 0.015359787 0.054854337 0.020193638

action_model._continuous_distribution.mu.bias f4 [2]
00000000: 51af 093b 0e35 44bb
0.0021009038 -0.002993885

exp_avg f4 [128, 6]
00000000: 578e 0837 bba0 2a2b 578c 74b5 60af a4b7
00000010: 060e d1b3 5bc3 8738 6c7d d839 1db9 9bad
00000020: 35e5 6db9 a530 c4b9 3d0c f9b5 31bc a13a
00000030: df85 ae36 a645 04ab b451 29b5 bf55 4536
00000040: 8180 7a32 c7ad 22b7 cd20 79b7 4758 14ac
00000050: ec82 94b5 bc9f 0937 e1b3 2e33 b8e8 e2b7
00000060: 5068 1a36 01f8 9b29 b4aa 7bb6 292f 4db6
00000070: 8d3b 82b2 5926 2937 0b40 f238 053a 45ac
00000080: f810 82b8 0937 ccb8 129e 01b5 cd59 a839
00000090: abd9 2e3a 6430 242d 916a 61b9 5da9 06ba
000000a0: 36f1 2ab6 5006 de3a 58d9 0cb7 2df9 b229
000000b0: 281e 4fb4 25c2 9736 37a5 c032 8e36 7ab7
000000c0: 1706 3437 fdef c7a9 3da4 8fb6 62d3 cdb6
000000d0: c7a3 02b3 b7ad a937 9f60 a039 5c44 ecad
000000e0: 17d5 5bb9 b53c a1b9 8bad ccb5 b4eb 843a
000000f0: 9b28 4fb9 6990 9b2c 554d d238 8330 2639
00000100: edf6 5235 da00 09ba 9f2f c639 97b1 1aad
00000110: 866c 1fb9 6572 a2b9 ad36 ceb5 04eb 853a
00000120: 4a93 0dba a34f 1ead 2912 1239 f6b8 d539
00000130: e4a6 0736 4430 b0ba de91 1a3a d4b4 b6ad
00000140: 2f6e 8eb9 1ed3 edb9 2ef3 16b6 d80e c43a
00000150: d253 0c39 6f7b dbab c880 7eb5 b7ff b0b8
00000160: b2af e0b4 18ea 9139 da6e f5b7 d9be 10ab
00000170: d698 f437 da8b f037 62ad 1834 344d c6b8
00000180: 0cb7 3bba 311e 27ad 0905 c939 9d75 083a
00000190: 7c39 2d36 26fd e0ba 4496 6cb7 1ad8 b9aa
000001a0: 783b 5635 69a2 1e37 b85f 4933 68c6 02b8
000001b0: 4f9c 1c39 ed58 27ac 204d 9cb8 5bc2 f5b8
000001c0: 67fc 1bb5 5999 ca39 42b9 fcb8 6b15 722d
000001d0: 858c ba38 7caf e738 a60d 1335 32ff beb9
000001e0: b206 5e36 3892 0aab f0ce f0b5 0f53 46b6
000001f0: cdc1 7bb2 9a7e 2337 ca77 d4b7 81d4 be2c
00000200: 592a 9637 9ae6 f537 6013 1c34 30b7 cab8
00000210: d988 bb37 282c 9f2a f8d5 e3b6 7651 85b7
00000220: ae3c a9b3 47cf 5b38 dfda 2ab9 1d12 222d
00000230: 45ac c438 c22c 0d39 db35 3335 76c3 e8b9
00000240: 40a4 8936 2543 07aa 66a5 2fb6 c374 40b6
00000250: cd4e 74b2 31a8 1e37 9749 0d39 cb9f 5fad
00000260: cef3 ceb8 2f34 0bb9 5ab5 30b5 8483 e539
00000270: 96a0 f6b9 e57c 35ad 4e7b 0d39 0ef1 a139
00000280: 8392 cd35 6280 85ba ff22 8338 42b7 2bab
00000290: d9d3 d3b7 287d 9bb8 8761 c5b4 942e 8039
000002a0: fc36 2c37 81aa 282b 35aa 52b6 62b0 eeb6
000002b0: 997f 17b3 37c5 c437 9c40 2738 b3a2 51ab
000002c0: 0147 9ab7 aad8 cab7 aebf 00b4 f638 a738
000002d0: 49c3 99b9 fe37 452b d8b3 2839 ab24 8139
000002e0: eeef a335 22ed 54ba 63b1 ffb5 bc2e 7a29
000002f0: 56f4 1c37 c8d4 f336 1cc3 1a33 7f02 c9b7
00000300: 8a18 1539 ee29 312d b3fa 8a36 e5c8 c9b8
00000310: 3213 00b5 e458 a639 dab5 1b3a 1379 da2c
00000320: 64cf 24b9 6352 e1b9 a503 0fb6 3ec0 b93a
00000330: 9def 4938 8f31 c62c f2e8 0138 32b6 3cb8
00000340: 028e 6fb4 f391 1b39 8f07 7a37 ee62 01ab
00000350: 3f84 3fb7 5521 f3b6 4251 1ab3 846e c837
00000360: fc5f 3736 9310 17ab 5ec3 9fb6 51c4 38b6
00000370: 028c 6ab2 6b51 1837 b533 0638 e072 5d26
00000380: 5cdd 44b7 c95e beb7 fba8 f1b3 fdef 9c38
00000390: df4d e334 442c 27a9 e3c6 1ab5 a8b6 eeb1
000003a0: 7f83 17ae ddca c432 ce3f dbb9 81e7 022d
000003b0: 0c9f 6139 2bb3 c039 129e f435 a5db 9eba
000003c0: ac3b a238 d971 a3ac f691 4cb8 4897 7eb8
000003d0: 7297 a1b4 36e1 5139 3831 8339 bae4 8aad
000003e0: 8b8b 28b9 a681 62b9 1bc4 8fb5 32ba 3a3a
000003f0: bef2 2bb8 57fb 172b e1c7 7a37 4466 1138
8.139373e-06 6.061919e-13 -9.1101305e-07 -1.9631989e-05 -9.734872e-08 6.4736894e-05 0.00041292177 -1.7703667e-11
-0.00022687468 -0.00037420276 -1.8555507e-06 0.0012339411 5.2011887e-06 -4.6992477e-13 -6.30763e-07 2.9405198e-06
1.4581134e-08 -9.696413e-06 -1.4849194e-05 -2.1081069e-12 -1.1064963e-06 8.203027e-06 4.067613e-08 -2.7049668e-05
2.3008506e-06 6.9264046e-14 -3.7501277e-06 -3.0574831e-06 -1.5161072e-08 1.00821135e-05 0.00011551388 -2.8027591e-12
-6.202044e-05 -9.737729e-05 -4.828627e-07 0.00032110364 0.00066700083 9.333066e-12 -0.00021497371 -0.00051369314
-2.5472377e-06 0.0016939137 -8.395255e-06 7.948013e-14 -1.9289348e-07 4.522752e-06 2.2426873e-08 -1.4913863e-05
1.0730254e-05 -8.8790066e-14 -4.280852e-06 -6.1340843e-06 -3.041694e-08 2.0227262e-05 0.00030589566 -2.6860451e-11
-0.0002096485 -0.00030753543 -1.5249692e-06 0.0010141046 -0.00019756185 4.4213977e-12 0.000100279845 0.00015849066
7.859042e-07 -0.0005226262 0.00037800983 -8.793319e-12 -0.0001520385 -0.00030984278 -1.5364109e-06 0.0010217135
-0.0005400671 -8.998943e-12 0.0001393041 0.00040764333 2.021371e-06 -0.0013442119 0.00058963697 -2.0771308e-11
-0.00027166444 -0.00045361457 -2.249329e-06 0.0014958037 0.00013382666 -1.5595146e-12 -9.4809775e-07 -8.4399646e-05
-4.1851087e-07 0.0002783097 -2.9257895e-05 -5.142393e-13 2.9158236e-05 2.8675353e-05 1.421918e-07 -9.455756e-05
-0.000716076 -9.499555e-12 0.0003834146 0.0005205514 2.581247e-06 -0.0017165288 -1.4101683e-05 -3.3012552e-13
7.980775e-07 9.455348e-06 4.6886015e-08 -3.1179196e-05 0.00014935549 -2.3781491e-12 -7.453025e-05 -0.00011718712
-5.8109293e-07 0.00038642695 -0.00012050803 1.3760863e-11 8.895345e-05 0.00011047625 5.478163e-07 -0.0003642976
3.3084475e-06 -4.923037e-13 -1.794162e-06 -2.9552646e-06 -1.4654188e-08 9.745034e-06 -2.532815e-05 5.4237175e-12
1.7901113e-05 2.9313658e-05 1.4535681e-07 -9.666232e-05 2.2355862e-05 2.8274713e-13 -6.7900364e-06 -1.5892769e-05
-7.880713e-08 5.240671e-05 -0.00016293999 9.212656e-12 9.378096e-05 0.00013463481 6.6761066e-07 -0.00044396118
4.1020394e-06 -1.2013704e-13 -2.6173307e-06 -2.8678194e-06 -1.42205865e-08 9.456694e-06 0.00013474222 -1.2711564e-11
-9.8682576e-05 -0.00013275513 -6.582901e-07 0.0004377627 -0.00047040422 -1.0316391e-11 0.00013492742 0.00030887913
1.5316331e-06 -0.0010185356 6.253085e-05 -6.1005725e-13 -2.525181e-05 -7.414288e-05 -3.676507e-07 0.00024448766
1.0264801e-05 5.992221e-13 -3.1391512e-06 -7.1134864e-06 -3.5273477e-08 2.3456856e-05 3.9876075e-05 -7.4477506e-13
-1.8391294e-05 -2.4181169e-05 -1.1990662e-07 7.97379e-05 -0.00029327933 7.0066164e-13 0.00016088726 0.00024632117
1.2214275e-06 -0.0008122494 -1.9050607e-06 5.5551687e-14 9.3552135e-06 7.2667353e-06 3.603337e-08 -2.396223e-05
0.00014218889 1.0070595e-11 4.1419057e-06 -9.6218464e-05 -4.771165e-07 0.00031728216 0.0005939879 6.2093746e-12
-0.00015717518 -0.00042976727 -2.1310782e-06 0.0014171673 4.814529e-05 5.6330006e-12 3.0972944e-05 -4.4992375e-05
-2.2310272e-07 0.00014836322 1.4902921e-05 -4.59673e-13 -1.1415278e-05 -7.2458447e-06 -3.5929823e-08 2.389332e-05
2.7324995e-06 -5.366898e-13 -4.761313e-06 -2.7532408e-06 -1.3652427e-08 9.078863e-06 3.1996246e-05 7.683046e-16
-1.173405e-05 -2.2693903e-05 -1.12531744e-07 7.483361e-05 4.2338704e-07 -3.7119843e-14 -5.765889e-07 -6.9474773e-09
-3.4450217e-11 2.2909655e-08 -0.00041818473 7.441049e-12 0.00021516922 0.00036754584 1.8225421e-06 -0.0012119903
7.735877e-05 -4.6453783e-12 -4.8773327e-05 -6.069921e-05 -3.0098778e-07 0.00020015691 0.00025022938 -1.5790359e-11
-0.00016073712 -0.00021601337 -1.0711404e-06 0.0007123082 -4.099565e-05 5.399478e-13 1.4947699e-05 3.4665936e-05

exp_avg_sq f4 [128, 6]
00000000: 3334 852f d015 9e17 4494 852f a790 0d30
00000010: 551f 6428 7e6a c031 5bb0 2435 cb43 601c
00000020: ae81 3735 fe0a fe34 b3af 4c2d f5a5 ac36
00000030: d525 7631 6df6 8118 9aff c931 4a3e 3831
00000040: 9972 9429 ac6c fa32 b6d2 c731 ac52 d918
00000050: 981a bf31 e3a7 6d31 997b bf29 e882 2133
00000060: 3d71 1c30 98f9 2116 3351 262f 642d 272f
00000070: 82b2 8627 6d3a e330 5ea1 ab32 5337 d719
00000080: c1e4 a832 7ed3 8532 cfa6 d72a b3e5 3534
00000090: d021 4935 31ff 741c 740c 3235 be25 0f35
000000a0: 12ac 662d 1391 c236 4ee7 b62f 5960 b216
000000b0: f8ed d02f 6173 8a2f 901a df27 d62e 3c31
000000c0: c8df bf2f a0b8 d116 897c 1730 df37 8c2f
000000d0: b6f3 e127 da95 3e31 c07d 9635 e602 c31c
000000e0: 4e4d b335 40ba 5a35 753b b02d dfa5 1437
000000f0: 9c46 8e33 e972 a71a 1924 8333 a240 3f33
00000100: 5818 9a2b c7f9 0135 55fd d834 897f 101c
00000110: 4ac4 0235 c9fb ab34 d991 0a2d cbc2 6936
00000120: 9be7 1f35 547b 4e1c e13b 1d35 3b3f e734
00000130: bb51 3a2d f727 9d36 8365 ab35 23b2 e51c
00000140: bd48 ce35 cb0a 8335 532a d32d fb1c 3237
00000150: a538 bd33 3347 f31a 99f0 0a34 42e0 ae33
00000160: 7be6 0c2c 40b1 6d35 5738 c530 b54b 8617
00000170: 78a4 9a30 0e31 4b30 eab6 a328 ed16 0a32
00000180: 5c45 9235 19f7 841c 27f0 6035 09de 1a35
00000190: dd8e 792d 1c7f d236 aadb 1730 c49b 3e17
000001a0: bddc 1f30 1860 e92f bc08 3c28 3c9a 9e31
000001b0: 9821 ef32 704a 061a 93f1 0933 da15 c532
000001c0: 6fcb 1e2b 93f0 8534 edae a434 1e3a b91b
000001d0: f644 c434 69e7 5634 bf26 ad2c 9d0c 1236
000001e0: 3215 732f 8da2 4516 f497 de2e c790 272f
000001f0: 9302 8727 7fc1 e330 7492 1e33 03dc 521a
00000200: 2aa0 3333 2274 0c33 d054 622b bbe7 be34
00000210: 6af1 d030 9c96 d217 9b08 bf30 b70f 9630
00000220: 47d0 f128 d7f6 4b32 430f 6e34 0fb4 a01b
00000230: 365f ad34 fb7f 4c34 d0c4 a42c 90fa 0a36
00000240: 9702 5d2f 73ef 4e16 753e 842f 1cbe 102f
00000250: 2d3e 6927 32bc c430 83ac 7234 26c1 a21b
00000260: c8ee 8a34 0066 3634 13f6 922c bfea f735
00000270: 17f5 ed34 aa61 051c 81f3 d734 4449 a034
00000280: 2525 012d a2dc 5936 a453 4f32 8d44 9e19
00000290: ca75 9e31 e95d 8d32 81cd e32a 7e25 4034
000002a0: 9eb6 4130 76bd 2d17 5c71 1030 ba5a d42f
000002b0: dc18 2b28 0d51 9031 cb8d 6031 7ce1 7a18
000002c0: b86f 6e31 5caf 1431 7498 6f29 ea17 ca32
000002d0: 1b1d 8733 fe43 881a 23b6 3233 3ac6 3233
000002e0: 910a 902b b5fd f234 18a2 a130 a9fb a517
000002f0: a25e 7731 c685 c830 6e90 2129 9146 8832
00000300: b91e dd33 2b88 181b c893 d233 424c aa33
00000310: 3436 092c 3f78 6735 1a15 2435 cb22 4d1c
00000320: ca60 2335 2f0c fb34 e345 4a2d d79c aa36
00000330: c820 8832 d4bf 3a1a 23b9 d332 7791 e832
00000340: 4d62 3b2b da0d 9e34 a576 052f da25 a116
00000350: 9a10 a22f a62c 9f2f c93f 0028 c859 5831
00000360: df6a 3a30 4934 4917 8fe7 8630 4c9e 0030
00000370: 7242 4f28 9ed1 ae31 cc15 dc30 dc11 0618
00000380: 95e2 da30 280d a630 4cca 0529 adb2 6132
00000390: 7341 ce2d 2f8e a214 07ea 072e df8a 222d
000003a0: 8ff6 8225 c6ed dc2e 4111 2c34 37c6 571b
000003b0: edaf 0b34 84d1 0434 1b07 562c 0c87 b435
000003c0: b05e a533 0c8b c51a 69e8 fd33 5a39 7833
000003d0: 7cff c72b 91b1 2835 3d12 f134 fa04 1b1c
000003e0: b676 1235 47d8 b334 5ce7 102d 3172 7436
000003f0: 0fbe 4731 bfe2 8d18 b400 4331 37c2 1b31
2.422965e-10 1.0216017e-24 2.4297908e-10 5.1501065e-10 1.26633365e-14 5.600042e-09 6.135139e-07 7.4203003e-22
6.836152e-07 4.7319185e-07 1.16350705e-11 5.1453194e-06 3.5819216e-09 3.3594545e-24 5.8789285e-09 2.6810931e-09
6.5924e-14 2.9153249e-08 5.8156173e-09 5.6176663e-24 5.561855e-09 3.4583472e-09 8.503545e-14 3.7604792e-08
5.691339e-10 1.3084234e-25 1.512646e-10 1.5204688e-10 3.738601e-15 1.6533029e-09 1.9980401e-08 2.2252824e-23
1.96618e-08 1.5579413e-08 3.830742e-13 1.6940503e-07 7.492754e-07 8.1062655e-22 6.632829e-07 5.3326573e-07
1.3112194e-11 5.7985394e-06 3.326996e-10 2.8818255e-25 3.8004067e-10 2.5184035e-10 6.1923733e-15 2.7384224e-09
3.4901704e-10 3.3882286e-25 5.5110455e-10 2.550555e-10 6.2714277e-15 2.773382e-09 1.1212469e-06 1.2904767e-21
1.3359038e-06 8.148236e-07 2.0035288e-11 8.860107e-06 6.625234e-08 6.925523e-23 6.106729e-08 4.4529436e-08
1.0949115e-12 4.841972e-07 4.0417459e-07 4.781044e-22 4.871441e-07 3.203443e-07 7.8767765e-12 3.483309e-06
5.9569146e-07 6.831908e-22 5.8574193e-07 4.307311e-07 1.0591024e-11 4.683617e-06 1.2770037e-06 1.5199996e-21
1.5369366e-06 9.763402e-07 2.4006718e-11 1.0616374e-05 8.811302e-08 1.0061747e-22 1.293978e-07 8.143299e-08
2.002314e-12 8.854731e-07 1.4349649e-09 8.678658e-25 1.125172e-09 7.392068e-10 1.8175962e-14 8.03787e-09
1.0898034e-06 8.798901e-22 8.379597e-07 5.7692574e-07 1.4185733e-11 6.273285e-06 5.524564e-10 6.1588915e-25
5.815755e-10 4.2450732e-10 1.043799e-14 4.6159396e-09 2.7838539e-08 2.777068e-23 3.211751e-08 2.2943755e-08
5.6415197e-13 2.494822e-07 3.0674656e-07 3.064324e-22 3.655802e-07 2.001449e-07 4.9212574e-12 2.1763037e-06
2.2108251e-10 1.5964825e-25 1.01223835e-10 1.5239997e-10 3.747282e-15 1.6571419e-09 3.692044e-08 4.3604706e-23
4.1822354e-08 3.2701912e-08 8.040903e-13 3.5558864e-07 1.5202606e-09 1.3608951e-24 1.3899525e-09 1.0918403e-09
2.68467e-14 1.187228e-08 2.217103e-07 2.658614e-22 3.2293036e-07 1.904554e-07 4.683011e-12 2.070945e-06
2.0100753e-10 1.6716104e-25 2.4055039e-10 1.3164264e-10 3.2368951e-15 1.4314365e-09 2.2600766e-07 2.692547e-22
2.587824e-07 1.6987178e-07 4.1768893e-12 1.8471254e-06 4.4323016e-07 4.4132236e-22 4.0224043e-07 2.985563e-07
7.341049e-12 3.2463945e-06 1.20680035e-08 1.6364505e-23 4.6117963e-09 1.6457266e-08 4.0465897e-13 1.7895033e-07
7.0472506e-10 5.613845e-25 5.254799e-10 3.862704e-10 9.497797e-15 4.200166e-09 3.267689e-09 3.2425583e-24
3.4697063e-09 2.1636515e-09 5.3200893e-14 2.352677e-08 6.2917216e-08 5.635813e-23 4.1609507e-08 4.162414e-08
1.0234748e-12 4.526061e-07 1.1760362e-09 1.0726403e-24 3.5997023e-09 1.4589936e-09 3.5874454e-14 1.5864574e-08
1.0296703e-07 1.2617144e-22 9.805768e-08 7.930113e-08 1.949896e-12 8.6229187e-07 6.112547e-07 6.787378e-22
6.086308e-07 4.6761258e-07 1.1497889e-11 5.0846534e-06 1.5847391e-08 3.8618856e-23 2.4647823e-08 2.7074504e-08
6.6572166e-13 2.9439872e-07 1.213843e-10 2.603484e-25 2.9479424e-10 2.8953656e-10 7.1192586e-15 3.1483172e-09
6.781828e-10 6.5012596e-25 9.815596e-10 4.679108e-10 1.1505216e-14 5.087897e-09 1.6013302e-09 1.732811e-24
1.5925986e-09 1.2081829e-09 2.9707397e-14 1.313735e-08 2.3448554e-11 1.6413901e-26 3.0903304e-11 9.239469e-12
2.271848e-16 1.0046679e-10 1.6025025e-07 1.784843e-22 1.3009385e-07 1.236968e-07 3.0415173e-12 1.3450349e-06
7.700635e-08 8.170193e-23 1.1823506e-07 5.779416e-08 1.4210712e-12 6.284327e-07 4.4903018e-07 5.129163e-22
5.4561986e-07 3.349871e-07 8.236824e-12 3.6425301e-06 2.9066347e-09 3.66766e-24 2.8376634e-09 2.2665867e-09

exp_avg f4 [128]
00000000: 771a 8837 f923 a239 3416 23b6 4a7a e3b6
00000010: e292 2936 d0c5 a838 bf94 de39 1ed7 7ab6
00000020: 981a aa36 ff40 8539 c058 09b9 ee40 8639
00000030: 51a1 b0b9 a28c c439 b147 9238 6ecc c6b7
00000040: 838d e1b9 531a 03b7 571b cb38 c179 bfb8
00000050: 86e7 2336 4339 cbb7 545c 5c37 c758 e9b8
00000060: fc0d 1f36 c716 e638 0cd6 85b9 d380 8038
00000070: 7f43 c536 42a4 a737 be75 55b9 6883 c9b6
00000080: a7c3 a638 6937 ba39 c7f5 1b38 21ef c836
00000090: 2bb3 1836 af54 9d37 d048 c531 9341 9fb9
000000a0: da67 5238 0432 3b39 6954 f0b7 5007 acb7
000000b0: e839 d6b9 30fc bbb7 ac72 4bb8 fb2b 18b9
000000c0: 6a34 8537 85c8 5b39 ae79 c5b7 83d9 88b9
000000d0: f049 9838 c8b8 9fb9 3d6f c7b5 be1e 1e39
000000e0: 0952 f536 48cc f7b8 1264 d739 079e 77b5
000000f0: c82b f237 5472 8337 a465 99b8 1227 c4b8
00000100: 65b8 dbb9 d161 7039 da90 cfb8 6f0e 9b36
00000110: 06bd b3b9 05ff 5236 c316 4ab9 604a 7fb6
00000120: cd29 eab9 6aba c5b8 f853 a839 af91 f138
00000130: 34ce 8d38 1e29 39ba f9ef 0036 8d17 5fb8
00000140: 673c b837 1f80 23b9 c11d 7fb6 5d6d 54b7
00000150: 1a9b 4036 13b8 ebb8 bbba 4bb9 a00d 4435
00000160: e8a1 aab8 907f 1839 816d 98b7 83ac 4d38
00000170: 68ba 4139 ea34 47b9 a7b5 85b5 ea7f 0a39
00000180: 346c 4037 213c 24b8 8042 cdb9 87e3 c7b7
00000190: d385 c0b9 c778 4c36 a260 9cb7 c006 41b9
000001a0: ad36 6bb6 802a 0c39 820d b1b6 4775 63b8
000001b0: 4f8d 8939 53e9 2838 8e38 0439 877c 6b38
000001c0: 649b 0739 837a a838 b33d 2e34 24df 0239
000001d0: 0338 3a39 8b63 f0b6 04d7 03b9 1fe8 eb37
000001e0: 1a4b 98b7 d278 6436 0e4e c136 0477 f0b8
000001f0: 69b6 1937 96c6 aab7 aa88 2d38 8f9e f2b7
1.6224787e-05 0.0003092585 -2.4301817e-06 -6.7793635e-06 2.526846e-06 8.04771e-05 0.00042453964 -3.7378118e-06
5.0694907e-06 0.00025416163 -0.000130984 0.00025606848 -0.00033689526 0.00037488813 6.975176e-05 -2.3698634e-05
-0.0004302078 -7.814338e-06 9.684887e-05 -9.130268e-05 2.4423657e-06 -2.422615e-05 1.3134519e-05 -0.00011126842
2.3700986e-06 0.00010971497 -0.00025527214 6.127511e-05 5.878915e-06 1.998444e-05 -0.00020357125 -6.0055645e-06
7.95194e-05 0.00035517968 3.7183778e-05 5.9883027e-06 2.2754054e-06 1.8755292e-05 5.7417324e-09 -0.000303757
5.016462e-05 0.00017852342 -2.8649536e-05 -2.0507403e-05 -0.00040860404 -2.2409571e-05 -4.8505768e-05 -0.00014512234
1.5879243e-05 0.00020960167 -2.3540892e-05 -0.00026102 7.261697e-05 -0.00030464516 -1.485903e-06 0.00015079507
7.311119e-06 -0.00011815928 0.00041082554 -9.224463e-07 2.8869035e-05 1.5669655e-05 -7.3145406e-05 -9.353286e-05
-0.0004190832 0.00022924623 -9.89751e-05 4.6210403e-06 -0.00034282374 3.144088e-06 -0.000192727 -3.8041253e-06
-0.00044663102 -9.428414e-05 0.0003210602 0.00011518911 6.761812e-05 -0.0007063317 1.9213169e-06 -5.3189277e-05
2.1962636e-05 -0.0001559262 -3.801528e-06 -1.2661648e-05 2.870051e-06 -0.0001123996 -0.00019429151 7.3035517e-07
-8.136389e-05 0.0001454337 -1.8170804e-05 4.9036473e-05 0.00018475356 -0.00018997831 -9.96214e-07 0.00013208357
1.1469285e-05 -3.9156646e-05 -0.00039150193 -2.38286e-05 -0.000367208 3.046867e-06 -1.8641647e-05 -0.00018408429
-3.5049554e-06 0.00013367273 -5.2765836e-06 -5.423024e-05 0.0002623596 4.027162e-05 0.00012609569 5.614434e-05
0.00012932491 8.033684e-05 1.6227459e-07 0.00012480892 0.00017759208 -7.1641457e-06 -0.00012573233 2.8122273e-05
-1.8154784e-05 3.4044974e-06 5.760935e-06 -0.0001146626 9.161981e-06 -2.0358053e-05 4.1373693e-05 -2.8922483e-05

exp_avg_sq f4 [128]
00000000: b961 c12f c383 ad34 65ae fb30 6c52 2231
00000010: 5f5e e42e 63cf 3632 148b c334 a120 3d2f
00000020: bc8a 3f2f d864 1535 c4a0 0233 23ef 6a34
00000030: e1f1 9d34 ce01 3335 a5e2 6e33 54c8 0a30
00000040: 8c8d d334 0266 9f2f aa9c 8632 42c8 1234
00000050: 28e6 e42e 03dd bf32 ddfc 4c30 24ad 0b34
00000060: eeb8 c52e 4929 f933 8ef4 5a34 5c1c 4132
00000070: 7a0a 912f 901b cb30 e935 f432 aff5 8830
00000080: a8a1 6833 0c78 ab34 eed8 9e32 b36f 592f
00000090: 2cb2 af2f a9d4 6230 a609 de2c fd6e b533
000000a0: 538a 2933 43ac 7534 40c5 d430 8b21 5f33
000000b0: 5468 6b34 3885 822f c1c1 0533 9d7b 6b33
000000c0: f728 0b30 a551 bf33 f3aa 0230 f110 1134
000000d0: 7c6c d732 0006 2d34 a028 5530 e920 5234
000000e0: 9a19 b330 c707 2f32 e7dd c434 cc79 cb2e
000000f0: 32bc 9330 db1b 1930 0989 1e34 1f35 7632
00000100: 159d 8c34 dcda b933 2901 1733 c6bf 5030
00000110: f4cc a434 9026 6530 bf87 ed33 015e 1b2f
00000120: 2282 f834 309e 9332 5c7a 9b34 b069 3634
00000130: 2f7e 8b33 445b 3d35 055a 1e2f 803c 6e32
00000140: 885f 8132 ca84 1c33 e6d8 0c30 e15b 5031
00000150: 97ca 092f fa2a df33 55ca 4734 ab28 c52f
00000160: 3d04 fd34 db6f ce33 ce27 e12f 753e f832
00000170: ea57 a534 c00d d433 ff99 0c2d c4f7 8f34
00000180: 731d d730 162b 5431 8023 6434 1522 f330
00000190: a378 2234 e86a db2f 6a8f 8032 3d14 1833
000001a0: a863 c231 51c5 f533 236e 112f fcbd 3b31
000001b0: abed 0c34 3db6 6d34 6014 2f33 920e 0133
000001c0: 2178 9633 82a8 9133 7ca3 0d2f edc6 2f33
000001d0: 039b c733 8349 2d2f 70bf e033 2e38 f033
000001e0: 185d 2d30 d31a 572f 21e3 8f2f 21eb 8733
000001f0: 9ba3 4a30 fa58 d233 eb0f 9c32 5ebe 5133
3.5175932e-10 3.231963e-07 1.831222e-09 2.3620954e-09 1.0385003e-10 1.0640949e-08 3.6422773e-07 1.7201042e-10
1.7420637e-10 5.565357e-07 3.04142e-08 2.1879946e-07 2.941952e-07 6.668532e-07 5.5619825e-08 5.048879e-10
3.9404802e-07 2.8994412e-10 1.5670896e-08 1.3670163e-07 1.04091236e-10 2.2335831e-08 7.457411e-10 1.3008372e-07
8.991373e-11 1.1602476e-07 2.03918e-07 1.1240527e-08 2.638279e-10 1.4778028e-09 2.8429854e-08 9.96513e-10
5.4163735e-08 3.1938578e-07 1.8492269e-08 1.9775719e-10 3.1958913e-10 8.252053e-10 6.3106907e-12 8.448658e-08
3.9474184e-08 2.2880072e-07 1.5481092e-09 5.195174e-08 2.1924035e-07 2.374152e-10 3.1142694e-08 5.4827627e-08
5.062612e-10 8.9089816e-08 4.753666e-10 1.351034e-07 2.5078627e-08 1.6114063e-07 7.754668e-10 1.9569747e-07
1.303124e-09 1.0188109e-08 3.66693e-07 9.253007e-11 1.0749146e-09 5.570066e-10 1.476475e-07 1.4331163e-08
2.6191324e-07 8.654544e-08 3.5158482e-08 7.5942486e-10 3.0696503e-07 8.3364515e-10 1.10608646e-07 1.4130565e-10
4.6288284e-07 1.7184988e-08 2.8960028e-07 1.698852e-07 6.4956446e-08 7.0540796e-07 1.4401998e-10 1.3867179e-08
1.5061019e-08 3.644235e-08 5.1239935e-10 3.032021e-09 1.2532052e-10 1.0392064e-07 1.8606927e-07 3.5862988e-10
4.7128006e-07 9.612969e-08 4.0955545e-10 2.8899402e-08 3.079761e-07 9.8745204e-08 7.992273e-12 2.68161e-07
1.5651679e-09 3.0874552e-09 2.124707e-07 1.7690264e-09 1.5131313e-07 3.991183e-10 1.4966378e-08 3.5408664e-08
5.6574727e-09 1.1444593e-07 1.3226802e-10 2.7320075e-09 1.3124979e-07 2.2138643e-07 4.0763894e-08 3.0048405e-08
7.0067706e-08 6.78274e-08 1.2881957e-10 4.0926285e-08 9.294856e-08 1.5760375e-10 1.0465635e-07 1.118609e-07
6.306933e-10 1.9563666e-10 2.6172933e-10 6.329197e-08 7.371967e-10 9.795072e-08 1.8168029e-08 4.8834742e-08
