3D/results/Test4/MoveToGoal/MoveToGoal-100632.onnx (onnx, 75062 bytes, 7 tensors)

network_body._body_endoder.seq_layers.0.weight f4 [128, 6]
0	0xbe9052a6	-0.28188056
1	0xbeb37183	-0.3504754
2	0x3eb38042	0.3505879
3	0xbedee583	-0.4353448
4	0x3edc47f8	0.43023658
5	0xbe7c2efd	-0.246273
6	0xbc63efa6	-0.013912117
7	0x3eb0f17f	0.34559247
8	0xbf5742c2	-0.8408624
9	0x3e63a27a	0.22229949
10	0x3e60b707	0.2194482
11	0x3f11b711	0.5691996
12	0xbcb991e0	-0.022652566
13	0xbfa8d222	-1.3189127
14	0xbf4f1f8f	-0.8090753
15	0x3e91e378	0.28493857
16	0xbef3c25f	-0.4760923
17	0xbeccbbb6	-0.39986962
18	0x3dfd42ac	0.12366232
19	0xbf656e1f	-0.89621156
20	0x3cd4ed6e	0.025992122
21	0x3d568a1d	0.05237781
22	0xbf0b7059	-0.54468304
23	0xbe5b0cd8	-0.21391618
24	0x3e909f64	0.28246605
25	0xbe9ee447	-0.31033537
26	0x3da28400	0.07935333
27	0x3ebe6475	0.37186018
28	0xbdf7fa0f	-0.12108242
29	0xbe7f6e48	-0.24944413
30	0xbc8fefc7	-0.01757039
31	0x3d8754aa	0.06607945
32	0xbe21e9c5	-0.15811832
33	0x3d8e2a32	0.06941642
34	0xbdc95a47	-0.09831672
35	0xbd4e0f6e	-0.050307684
36	0xbe4ba7cd	-0.1988823
37	0x3da3aa26	0.079914376
38	0xbe923a4e	-0.28560108
39	0xbe5ab4e7	-0.21358071
40	0xbf14af45	-0.5807994
41	0x3ec2c17e	0.38038248
42	0x3ed5327a	0.41640073
43	0xbe0aa38e	-0.13538954
44	0x3f1b270d	0.6060646
45	0xbdc95175	-0.0982999
46	0xbc9234c7	-0.017847432
47	0xbed813ef	-0.42202708
48	0xbea51b81	-0.32247546
49	0xbc0efc95	-0.008727212
50	0x3e56167e	0.20907018
51	0xbf1cea23	-0.61294764
52	0xbd562faa	-0.05229155
53	0xbef7b3b8	-0.48379302
54	0xbc4463c7	-0.011986679
55	0xbe9adfbd	-0.30248824
56	0xbf264f53	-0.6496479
57	0xbe9cab7d	-0.30599585
58	0xbe6e47f0	-0.2326963
59	0x3f0ac4c9	0.5420652
60	0x3eb2f3a9	0.34951523
61	0xbf3d5175	-0.7395242
62	0x3d5a8d92	0.05335767
63	0x3dde7cac	0.10863623
64	0x3ee18843	0.44049272
65	0xbe144588	-0.14479649
66	0x3cd9fbf5	0.0266094
67	0x3ed5ca9e	0.41756147
68	0xbe55d04e	-0.20880243
69	0xbec2a196	-0.38013905
70	0x3efdcf28	0.4957211
71	0x3d779703	0.06044675
72	0x3f30f0fc	0.6911771
73	0xbe2d73a8	-0.1693865
74	0xbe104b4c	-0.14091223
75	0xbf097ff2	-0.53710854
76	0xbd45d4b9	-0.04829857
77	0x3e7a5029	0.24444641
78	0x3ecf3148	0.40467286
79	0xbf53fbc2	-0.82806027
80	0xbfa154c8	-1.2603998
81	0xbf4a3d4a	-0.7899977
82	0xbd97ea83	-0.074177764
83	0xbe907624	-0.28215134
84	0xbf1130a7	-0.5671486
85	0x3f46bfa9	0.776362
86	0xbf28925b	-0.6584832
87	0x3e1defc8	0.154235
88	0xbd99d474	-0.07511225
89	0xbce70bcd	-0.02820387
90	0x3ed75386	0.4205591
91	0x3cae14c7	0.021250142
92	0x3ea2b299	0.31776884
93	0xbe046eaf	-0.12932847
94	0x3d24078a	0.040046252
95	0xbec944f8	-0.3931043
96	0x3f8bcce9	1.0921909
97	0xbdcdf3d1	-0.1005627
98	0xbe0ee6eb	-0.13955276
99	0x3f4ee4ea	0.80818045
100	0xbea9b2dd	-0.33144274
101	0xbe0a7b90	-0.13523698
102	0x3eaa6350	0.33278894
103	0xbe857f5f	-0.2607374
104	0xbeee51c0	-0.46546745
105	0x3f706abd	0.9391287
106	0xbe61c1b4	-0.22046548
107	0xbf1061b2	-0.5639907
108	0xbda4c7bd	-0.080459096
109	0x3e504f79	0.20342816
110	0xbe8dcfc4	-0.27697575
111	0x3ebe3714	0.37151396
112	0x3ea53d7c	0.3227347
113	0x3eaf71b5	0.3426644
114	0x3edcf32b	0.43154272
115	0x3ef964d2	0.48709732
116	0x3da075eb	0.07834991
117	0xbebf6811	-0.37384084
118	0xbda4083c	-0.08009383
119	0xbd3597cb	-0.044334214
120	0xbe69ca82	-0.22831157
121	0xbefea83c	-0.49737728
122	0xbeba419a	-0.36378175
123	0xbf44698b	-0.76723546
124	0x3d9ad42b	0.07559999
125	0xbf325a5e	-0.6966914
126	0xbd19b435	-0.037525374
127	0xbef97600	-0.4872284
128	0x3d13af98	0.03605613
129	0xbf5be5a5	-0.85897285
130	0x3f2fe65e	0.6871089
131	0xbc79f42c	-0.015255969
132	0x3d44c3b2	0.048038192
133	0xbec40f60	-0.3829298
134	0xbbb4a51b	-0.005512846
135	0xbead24eb	-0.3381723
136	0xbdcdeac7	-0.10054546
137	0xbe7d2b3b	-0.24723522
138	0x3d0a9850	0.033836663
139	0x3df16c81	0.117882736
140	0xbe148748	-0.1450473
141	0xbec05984	-0.37568295
142	0xbe60ecfd	-0.21965404
143	0x3de99323	0.11405017
144	0x3e44f39a	0.19233552
145	0xbceea2a7	-0.029130293
146	0x3ee061f8	0.43824744
147	0x3d5d4b99	0.054027174
148	0xbf2fa461	-0.686102
149	0xbe9fb972	-0.3119617
150	0x3f50a312	0.81498826
151	0xbede893f	-0.43464085
152	0xbebbc5c2	-0.36674315
153	0xbd920bc1	-0.07131148
154	0xbf70b34f	-0.94023603
155	0x3e04396d	0.12912531
156	0x3f70eea0	0.9411411
157	0x3c9565c4	0.018237002
158	0xbdd8fbd3	-0.10594907
159	0xbec44c7f	-0.38339612
160	0x3d44972d	0.047995735
161	0xbe336757	-0.1751989
162	0xbe99e49f	-0.30057237
163	0xbedfd4c8	-0.43717027
164	0x3f177df4	0.59176564
165	0xbeac4982	-0.33649832
166	0x3e868deb	0.2628015
167	0x3b29bd3f	0.0025900153
168	0xbd8620d8	-0.06549233
169	0xbe594b5a	-0.2122015
170	0xba92d576	-0.0011202532
171	0x3e64d5f3	0.2234724
172	0xbeae1dc7	-0.34007093
173	0xbf122f5e	-0.57103527
174	0xbef06f89	-0.46960095
175	0xbe4b479e	-0.19851539
176	0x3e35ac6e	0.17741558
177	0x3efb8bd7	0.49130127
178	0x3cd7ca4d	0.026341582
179	0xbdd28d2e	-0.10280834
180	0x3ef4fea9	0.4785054
181	0x3ea72ee4	0.32652962
182	0x3e992ca6	0.29916877
183	0xbe86cd00	-0.26328278
184	0x3e4535bb	0.19258778
185	0xbe4021c9	-0.18762888
186	0xbef422c3	-0.4768277
187	0x3e7ec09a	0.24878159
188	0xbf2e1f32	-0.6801635
189	0x3ebb6dba	0.36607152
190	0x3dcb3f44	0.09924176
191	0xbe3be9fe	-0.1835098
192	0xbede7d9d	-0.4345521
193	0x3f35cdfe	0.71017444
194	0x3e92d6cb	0.286795
195	0x3f0b8a2b	0.545077
196	0xbe2b8086	-0.16748247
197	0x3f11a945	0.5689891
198	0xbf0d4ce7	-0.5519547
199	0xbdd0e653	-0.10200181
200	0xbf37e291	-0.7183009
201	0x3f2c948a	0.6741415
202	0x3efbcd99	0.49180296
203	0x3eff03e1	0.49807647
204	0xbf20a4d7	-0.62751526
205	0x3f1dad91	0.61592966
206	0x3e81a1d0	0.25318766
207	0xbf3f0348	-0.7461438
208	0x3e1447ae	0.14480469
209	0x3a2c9f72	0.00065850385
210	0xbf68fc8a	-0.91010344
211	0xbe865767	-0.26238558
212	0xbe537dca	-0.20653453
213	0xbf6bb9cd	-0.92080384
214	0x3e39c12d	0.18140097
215	0xbec75bf9	-0.38937357
216	0x3ca36ef2	0.019950364
217	0x3f07af9f	0.5300235
218	0x3daeb519	0.085306354
219	0xbd9c0d35	-0.076197065
220	0x3f124613	0.57138175
221	0xbf0c22bb	-0.54740494
222	0xbefc44fc	-0.4927138
223	0xbe123ca9	-0.14280953
224	0x3e5d8ffa	0.21636954
225	0xbebd5c17	-0.3698432
226	0xbd2c38a5	-0.042046208
227	0xbef98e54	-0.487414
228	0xbce9ff1f	-0.028564034
229	0x3f14c2b2	0.5810958
230	0x3e25b8bd	0.16183753
231	0x3e989f30	0.2980895
232	0x3ca90cf3	0.020636057
233	0xbe35d1de	-0.17755839
234	0x3e716070	0.23571944
235	0x3e6d4208	0.2316972
236	0x3ec652c8	0.38735032
237	0xbe5512bd	-0.2080793
238	0xbdfb5d92	-0.122737065
239	0xbcb214a3	-0.021738356
240	0xbd175286	-0.036943935
241	0xbd81cd92	-0.063380376
242	0xbf0c5c3b	-0.5482823
243	0x3bfcceef	0.007715098
244	0xbf78fb86	-0.97258794
245	0xbe890c98	-0.2676742
246	0xbd776de9	-0.060407553
247	0x3d89a926	0.06721716
248	0xbf412b50	-0.75456715
249	0xbe64ec53	-0.22355776
250	0x3f34f611	0.7068797
251	0xbda926b8	-0.08259338
252	0x3dc3009b	0.095216
253	0x3eb22c53	0.34799442
254	0x3ea4278a	0.32061416
255	0x3d3c3288	0.045946628

network_body._body_endoder.seq_layers.0.bias f4 [128]
0	0xb9bcec25	-0.00036034096
1	0xbbbcf559	-0.0057665524
2	0x3c687da6	0.014190113
3	0x3c02d1f0	0.007984623
4	0xbcbfe6a2	-0.023425404
5	0xbc1814c5	-0.009282296
6	0x3b893922	0.004187719
7	0xbc6323de	-0.013863532
8	0x3c55d8b6	0.013052156
9	0x3a88b90a	0.0010431123
10	0x3b902065	0.004398393
11	0x3b3cdf7a	0.0028819726
12	0xbbcc9f3b	-0.0062445677
13	0x3bd3c7d8	0.006463032
14	0x3d081a64	0.033228293
15	0x3d0127f6	0.03153225
16	0x3cc7e53a	0.024401296
17	0xbbb657d6	-0.00556467
18	0xbc1adb8a	-0.009451756
19	0xbbc23424	-0.005926626
20	0x3c252435	0.010079433
21	0x3bc5b41c	0.0060334336
22	0x3c5ea908	0.013590105
23	0x3b0d3a13	0.0021549508
24	0x398077a2	0.00024503196
25	0xbba37f08	-0.0049895085
26	0xbbb696bb	-0.0055721677
27	0xbc7d5b86	-0.015463715
28	0xbbedd7a1	-0.007258371
29	0xbb0426ed	-0.0020164803
30	0x3c3fd876	0.011709323
31	0x3c0ff550	0.008786514
32	0xbb666faa	-0.0035161772
33	0x3c334efd	0.010944125
34	0x3c37c80e	0.01121713
35	0xbb95c0b4	-0.004570091
36	0x3b9e2424	0.0048260856
37	0x3b9ae351	0.0047268053
38	0x3b40abed	0.002939935
39	0x3c5d5260	0.013508409
40	0x3ca15fee	0.019699063
41	0x39a1368e	0.0003074896
42	0x3aae062c	0.0013276986
43	0xbbabc45d	-0.005241914
44	0x3c780a2f	0.015139147
45	0x3c8de0e2	0.017319147
46	0xbc90a4a2	-0.017656628
47	0x3cd47c73	0.025938248
48	0xbbccf4f3	-0.006254786
49	0xb85ca45a	-5.260515e-05
50	0x3d0ff41d	0.035144914
51	0x3c04b371	0.008099423
52	0x3c9dd43c	0.01926624
53	0x3c060a15	0.008181115
54	0xbc8e2051	-0.017349394
55	0x3c4fc971	0.012682305
56	0xbaa0f696	-0.001228052
57	0xb9c886f9	-0.00038247535
58	0x3c829ccc	0.015943907
59	0x3bf3dce7	0.007442105
60	0xbc1cd977	-0.009573332
61	0x3c2ae637	0.010430864
62	0x3bb312a4	0.0054648686
63	0x3bca2075	0.00616842
64	0xbb1a1d11	-0.002351586
65	0xbab4fb05	-0.001380772
66	0x3cdbda98	0.026837632
67	0x3bc74b32	0.006081962
68	0x3c2f0319	0.010681891
69	0x3bfb38f2	0.0076667005
70	0xbc606022	-0.013694795
71	0x3bb25d7d	0.0054432736
72	0xbbe466d6	-0.006970267
73	0xbb0f58d5	-0.0021873016
74	0x3b921d87	0.0044590863
75	0x3d024f18	0.03181371
76	0x3bc11f7b	0.0058936453
77	0x3b9a64ee	0.004711739
78	0xbc4abdca	-0.012374351
79	0x3b811200	0.0039389133
80	0x3c33b199	0.010967636
81	0x39f11f82	0.00045990577
82	0xbc796c4a	-0.015223572
83	0x3cc415bb	0.023936143
84	0xbc6d2ab6	-0.014475515
85	0x3bd42b5e	0.0064748963
86	0x3b00dbce	0.0019662264
87	0x3d02326a	0.03178636
88	0x3bb0e14e	0.005397952
89	0x3c4a6cbc	0.012355026
90	0x3cd74373	0.02627728
91	0x3bb2f24d	0.0054610134
92	0xbaf78e65	-0.0018887041
93	0x3c273b4a	0.010207007
94	0x3c48028e	0.01220764
95	0xbb4f46cd	-0.0031627894
96	0x3b57b840	0.0032916218
97	0xbc016c96	-0.007899424
98	0x3c014184	0.007889155
99	0x3c03354b	0.0080083115
100	0x3c6b01be	0.014343677
101	0xbcd906f2	-0.02649257
102	0xbbcd6851	-0.006268539
103	0xbc0875ad	-0.008328837
104	0xbc881d88	-0.016615644
105	0x37ab572b	2.042538e-05
106	0xbc443d0a	-0.0119774435
107	0x3ca80be3	0.02051348
108	0x3c6b5d0c	0.014365446
109	0x3c18ccfd	0.009326217
110	0x3be2e5cd	0.006924367
111	0xb9256792	-0.00015774209
112	0xbb5976fb	-0.003318249
113	0x3c825d86	0.015913736
114	0x3c8d957d	0.017283196
115	0x3c2578cb	0.0100996
116	0x3ca7ce76	0.02048419
117	0xbbb2ef39	-0.0054606465
118	0x3b6a7294	0.003577386
119	0xbc20b4b0	-0.009808704
120	0xbbc8db57	-0.006129663
121	0xbc81c40f	-0.015840558
122	0x3ca26715	0.019824544
123	0x3b904619	0.0044028875
124	0xbc1e21b1	-0.009651587
125	0xbb3e62bf	-0.0029050556
126	0x3c81b5fd	0.01583385
127	0x3b42bc41	0.002971426

network_body._body_endoder.seq_layers.2.weight f4 [128, 128]
0	0xbd9a9d5e	-0.07549547
1	0xbd88f678	-0.06687635
2	0xbc5967f8	-0.013269417
3	0xbd2ae51a	-0.041722395
4	0x3d87a215	0.066227116
5	0xbd25c9f8	-0.040475816
6	0x3bd7eff4	0.006589884
7	0xbda06989	-0.07832629
8	0x3d8ea292	0.069646016
9	0xbe25e53d	-0.16200729
10	0x3db1a030	0.086731315
11	0xbdfe7757	-0.12425106
12	0xbde26bc2	-0.110557094
13	0xbd6e0b4f	-0.058116253
14	0x3db6898c	0.08912954
15	0x3cec74e1	0.028864326
16	0x3d8ada46	0.067799136
17	0x3dc202fa	0.09473224
18	0x3dee7b75	0.11644641
19	0xbd637155	-0.055528004
20	0xbdaf5edd	-0.085630156
21	0x3de7e475	0.113228716
22	0xbd161d94	-0.0366493
23	0xbc3cd682	-0.011525752
24	0x3da75d3e	0.081720814
25	0x3ba56cf2	0.0050483877
26	0xbda2a2ec	-0.07941231
27	0x3e312f84	0.17303282
28	0xbd2c798a	-0.042108096
29	0xbdff29b2	-0.124591246
30	0x3d885c09	0.06658179
31	0x3dc7b2ad	0.097508766
32	0x3d19b0d2	0.037522145
33	0xbd921a3e	-0.071339116
34	0xbc3fa06c	-0.011695962
35	0xbdb55653	-0.08854356
36	0xbc773e63	-0.015090558
37	0x3dc693d7	0.09696167
38	0xbe482f7b	-0.19549362
39	0xbdb13d39	-0.086542554
40	0xbda65dcb	-0.08123358
41	0xbc46baf1	-0.012129531
42	0xbe0cd6da	-0.13753834
43	0xbd8dd0bc	-0.069245785
44	0xbdf66cd1	-0.12032474
45	0x3d98c52d	0.07459483
46	0x3bdfb7cf	0.0068273316
47	0x3d7483fa	0.059696175
48	0x3d6ad9b4	0.057336524
49	0x3ce6d0a7	0.028175665
50	0xbdac0d00	-0.08400917
51	0xbd216293	-0.03940065
52	0xbd192c6b	-0.037395876
53	0x3d4e0ca1	0.050305013
54	0x3e26fe64	0.1630798
55	0x3d855754	0.06510797
56	0xbcd79df1	-0.02632043
57	0x3d6e7b45	0.058223028
58	0xbbc5fdb5	-0.006042207
59	0x3da1e7df	0.07905554
60	0x3c919e7e	0.01777577
61	0xbddbf095	-0.10739247
62	0x3e339c42	0.17540076
63	0xbd0af6e1	-0.03392685
64	0xbd920d55	-0.07131449
65	0x3bfe57b9	0.007761922
66	0xbe058781	-0.13039972
67	0xbe0b72d6	-0.13618025
68	0x3d6aee9e	0.05735647
69	0xbddf3706	-0.10899167
70	0x3c5a7923	0.013334545
71	0xbd82de83	-0.06390097
72	0xbe1d41c3	-0.15357117
73	0xbda5cd60	-0.08095813
74	0x3e19c88a	0.15017906
75	0x3d5fff1b	0.054686647
76	0xbdca1d26	-0.09868841
77	0x3c975742	0.018474225
78	0x3da664c9	0.08124692
79	0xbdde8d92	-0.10866846
80	0x3df82a14	0.12117401
81	0xbd5d7797	-0.054069128
82	0x3dbc5345	0.0919557
83	0xbe96e83d	-0.2947406
84	0x3cea98c1	0.028637292
85	0xbc20db34	-0.009817887
86	0xbd4118c8	-0.047142774
87	0xbe868968	-0.26276708
88	0xbbc6630e	-0.0060542887
89	0x3d03fb91	0.032222334
90	0x3cb69c59	0.02229135
91	0xbe202da5	-0.15642412
92	0xbce3a1cf	-0.027787117
93	0x3d952cc8	0.07283932
94	0xbdc32756	-0.09528987
95	0xbe2071ff	-0.15668486
96	0xbce07a2a	-0.027402002
97	0x3cd81106	0.026375305
98	0x3dc1b070	0.09457481
99	0xbd30ae46	-0.04313495
100	0xbd8745b1	-0.066050895
101	0x3d31a7d6	0.04337295
102	0xbde2d41c	-0.11075613
103	0xbd9cec90	-0.07662308
104	0x3de04575	0.10950748
105	0xbd5e1947	-0.054223325
106	0x3e07ea93	0.13273077
107	0x3d9ff538	0.07810444
108	0xbccc9c9a	-0.024977017
109	0x3b2bd3c0	0.0026218742
110	0xbd529013	-0.05140693
111	0xbd90c2b1	-0.070683844
112	0xbd44b6a6	-0.04802575
113	0xbc539cb7	-0.012915782
114	0xbd9b711e	-0.07589935
115	0xbd8fe24b	-0.07025584
116	0x3d85903f	0.065216534
117	0xbda5ae0a	-0.08089836
118	0xbd5d5241	-0.05403352
119	0x3cbefdd9	0.023314403
120	0x3d826f06	0.06368832
121	0xbdc96442	-0.09833576
122	0xbc24df69	-0.010063031
123	0xbde194cd	-0.110147096
124	0x3e6b6f39	0.22991647
125	0xbdb50b45	-0.0884004
126	0xbda73250	-0.08163893
127	0x3da627dc	0.08113071
128	0xbe1d25c1	-0.15346433
129	0x3d6940f6	0.056946717
130	0xbd3f96c6	-0.046774648
131	0xbd01956b	-0.031636637
132	0xbde6f4f2	-0.11277188
133	0xbd09cf7f	-0.03364515
134	0xbd638636	-0.055547915
135	0x3de7dcc6	0.11321406
136	0x3d4d9afe	0.05019664
137	0xbdb0f9ab	-0.086413704
138	0x3e03faa6	0.12888584
139	0x3e43aea1	0.19109584
140	0x3c34752f	0.011014267
141	0x3d870292	0.06592287
142	0x3db59bf4	0.08867636
143	0xbdba86fb	-0.09107777
144	0x3e1c8ae9	0.15287365
145	0xbd86e3fb	-0.065864526
146	0x3c359964	0.011083934
147	0xbe3213df	-0.17390393
148	0x3e5d946d	0.21638651
149	0xbe222c0c	-0.15837115
150	0xbda56a56	-0.080769226
151	0x3c2c380d	0.01051141
152	0xbe079985	-0.13242157
153	0x3e394cf2	0.18095759
154	0x3cd32334	0.025773622
155	0x3da03c09	0.07823951
156	0x3ce20dbc	0.02759444
157	0xbe1afa81	-0.15134622
158	0xbe0ace93	-0.13555364
159	0xbb98f568	-0.0046679266
160	0xbe1c8694	-0.15285712
161	0x3d3ed00f	0.04658514
162	0xbddda2d6	-0.10822074
163	0xbdf95a2f	-0.12175404
164	0x3e2b756b	0.1674401
165	0xbcdcbe61	-0.026946248
166	0xbddbdbac	-0.107352585
167	0x3d527197	0.05137786
168	0x3d86177d	0.06547449
169	0x3db7839a	0.08960648
170	0x3bab8856	0.0052347584
171	0xbd5cee5b	-0.05393825
172	0x3bc50244	0.006012233
173	0x3d23a860	0.039955497
174	0x3d9c8974	0.076434046
175	0xbb6769b3	-0.0035310804
176	0xbc9ff62b	-0.019526562
177	0x3cb5afd5	0.02217857
178	0xbcc27af8	-0.023740277
179	0xbd25d52e	-0.040486507
180	0x3d03eb33	0.032206725
181	0x3c9362b2	0.017991398
182	0xbe0b3801	-0.13595583
183	0x3d92bf6c	0.07165417
184	0x3d381987	0.04494622
185	0x3d984a54	0.07436052
186	0x3d73aa14	0.05948837
187	0x3d6cc340	0.057803392
188	0xbdbd89e6	-0.09254818
189	0xbca6aa31	-0.020344825
190	0xbde82190	-0.113345265
191	0xbd5d7f94	-0.054076746
192	0x3d6bda0c	0.057580993
193	0xbd0c2564	-0.034215346
194	0x3d32d803	0.043663036
195	0x3cdbed5c	0.02684658
196	0xbc81abef	-0.015829055
197	0x3dba8921	0.091081865
198	0xbd061099	-0.032730673
199	0xbdae9217	-0.08523958
200	0x3baf8587	0.005356494
201	0xbd6922d6	-0.056917988
202	0x3dfa30c5	0.12216333
203	0xbe027abb	-0.1274213
204	0x3e18020b	0.1484453
205	0x3c8d7206	0.017266285
206	0x3d860733	0.06544342
207	0x3e0f0155	0.13965352
208	0x3e696b6f	0.22794889
209	0x3d764526	0.06012454
210	0x3d542d69	0.05180112
211	0xbc9fb3b5	-0.01949487
212	0x3b01a825	0.001978406
213	0xbd08c7a7	-0.03339353
214	0x3c22c3d6	0.009934386
215	0xbd9b1610	-0.075725675
216	0x3d7b87f6	0.06140896
217	0xbcf9bb66	-0.030484866
218	0x3d8c6d0d	0.06856737
219	0xbc683c8d	-0.014174593
220	0xbd5e06d9	-0.05420575
221	0x3d375575	0.044759233
222	0x3bd38e17	0.0064561474
223	0xbd172b53	-0.03690655
224	0x3dc28a9e	0.094990954
225	0xbd36cb88	-0.044627696
226	0xbd93298f	-0.07185661
227	0x3e0b4aa4	0.13602692
228	0xbd47e29f	-0.048800107
229	0x3ded22cb	0.11578902
230	0x3da9e141	0.08294917
231	0x3dfc9cb6	0.12334578
232	0x3c53d84f	0.01292999
233	0xbdf5ca51	-0.120014794
234	0xbda3fcdc	-0.080072135
235	0x3c7ed3b4	0.015553404
236	0xbe19f82d	-0.15036078
237	0x3e7492e7	0.23884164
238	0x3cf64b41	0.03006518
239	0xbe360861	-0.17776634
240	0xbd430fa3	-0.047622334
241	0x3e381642	0.1797724
242	0x3de30133	0.11084213
243	0x3c59a746	0.01328451
244	0xbdb7647d	-0.089547135
245	0x3d4db1aa	0.05021826
246	0xbcbb266e	-0.022845473
247	0xbce51a5a	-0.027966667
248	0x3dd76cf3	0.10518827
249	0x3d702ef7	0.05863854
250	0x3cb45926	0.022015166
251	0xbcf1e361	-0.029527368
252	0xbcb4496b	-0.022007665
253	0xbd7e135b	-0.062030178
254	0x3e456cfd	0.19279857
255	0xbdbabb8f	-0.09117805

network_body._body_endoder.seq_layers.2.bias f4 [128]
0	0xbc19dce7	-0.009391046
1	0xbb04d71c	-0.0020269817
2	0x3ba93a0e	0.0051643914
3	0x3c5b5dad	0.013389033
4	0x3b2d39e4	0.002643221
5	0xbb6d5282	-0.0036212509
6	0x3c04b8b2	0.008100675
7	0x3c89a700	0.016803265
8	0xbc2a7835	-0.010404636
9	0x3a15b957	0.0005711517
10	0x3c5a70ff	0.013332604
11	0xbb849a49	-0.0040467125
12	0xbc37a4b1	-0.011208699
13	0x3cf22d7c	0.029562704
14	0x3c210b46	0.009829348
15	0x3ca71560	0.020395935
16	0xbb60a3b2	-0.0034277258
17	0xbb7af96b	-0.0038295637
18	0x3bb9608d	0.0056572617
19	0x3c79d801	0.015249253
20	0x3c666665	0.014062499
21	0xba2abd9a	-0.0006513238
22	0x3c3eab9a	0.011637593
23	0x3b80b000	0.003927231
24	0x3b3be7bb	0.0028672058
25	0x3c91d6a6	0.017802548
26	0x3c8eb59a	0.017420579
27	0x3b5f1c8b	0.0034044113
28	0x3bbad715	0.0057019093
29	0x3bfa8fb1	0.007646524
30	0x3c529602	0.012853147
31	0x3bab1b51	0.005221762
32	0x3c70479c	0.0146655105
33	0xbb21ab4b	-0.002466875
34	0x3bdf1c51	0.0068087955
35	0x3b776317	0.003774827
36	0xbadbeedd	-0.0016779561
37	0xb945ed17	-0.00018875707
38	0x3bd53d7a	0.0065075727
39	0x3bd02b55	0.006352822
40	0xbb7a8f2a	-0.0038232305
41	0x3b1cd3d1	0.0023929963
42	0x3bfe13e6	0.007753837
43	0x3c95c11d	0.01828056
44	0x3c172e8f	0.009227409
45	0x3bcf5836	0.0063276542
46	0x3bcd1b79	0.0062593785
47	0x3b392a86	0.0028254106
48	0x3b9c876d	0.004776886
49	0xb952486f	-0.00020054144
50	0x3b9133d3	0.0044312268
51	0x3c52b4e1	0.012860508
52	0xbbbd5a41	-0.0057785814
53	0xbc5eedf2	-0.013606535
54	0x3c1db450	0.009625509
55	0x3aff8844	0.0019495566
56	0x3c0089b3	0.00784533
57	0xbc206bf9	-0.009791368
58	0x3bbae95a	0.005704087
59	0x3b971249	0.004610334
60	0x3aa899c9	0.0012863214
61	0x3baa86f1	0.0052040746
62	0x3bfa970b	0.0076474003
63	0x3c08a9a3	0.008341226
64	0x3c7f56a9	0.015584626
65	0x3c67e0f4	0.014152754
66	0x3af40f03	0.0018620196
67	0xbb82a934	-0.0039874557
68	0xbc5d31ae	-0.013500614
69	0x3b0bd8e5	0.0021338996
70	0x3ba2bb7d	0.004966198
71	0xbbf4fe0b	-0.0074765733
72	0x3bd13826	0.0063848672
73	0x3b8d951a	0.004320753
74	0x3b2dfd5e	0.0026548724
75	0x3ca73231	0.020409675
76	0x3c430f09	0.01190544
77	0xbb87dbcd	-0.0041460753
78	0x3bd6bdbc	0.00655338
79	0xba2f8f06	-0.00066970324
80	0x3b90bfc5	0.004417392
81	0x3b8cb9c2	0.004294605
82	0x38f3804f	0.00011611042
83	0x3912c777	0.00013997951
84	0x3c075708	0.008260496
85	0x3c3c5293	0.011494297
86	0x3c5fca69	0.013659098
87	0x3ca27b14	0.019834079
88	0x3b432577	0.002977697
89	0x3c99477a	0.01871084
90	0x3c4bd47c	0.012440797
91	0x3b858da0	0.004075721
92	0x3ae322f5	0.0017329144
93	0x3b59fe31	0.0033263082
94	0xbadbdfca	-0.0016775068
95	0xbc230772	-0.009950506
96	0xbc172753	-0.009225684
97	0x3be19780	0.0068845153
98	0xbb9938bf	-0.004675954
99	0x3c4a46e2	0.012346001
100	0x3c2e725c	0.010647383
101	0xbc4da521	-0.012551577
102	0x3cf33f60	0.029693305
103	0xbb80e44e	-0.003933466
104	0x35b3d4d9	1.3398486e-06
105	0x38ffe9cc	0.000122028956
106	0x3c32a1a8	0.0109028
107	0x3c9e2d01	0.019308569
108	0xbb30c2bf	-0.0026971546
109	0xbb3d348f	-0.0028870439
110	0xbad24ea2	-0.0016045163
111	0x39bcbedb	0.00036000353
112	0x3b50b694	0.0031847106
113	0xbc0dceeb	-0.00865529
114	0x3c72e609	0.0148253525
115	0x3b6c61cf	0.003606904
116	0x3c86a5ee	0.016436543
117	0x3c1a6607	0.009423739
118	0xbb53606c	-0.0032253517
119	0x3c939f10	0.018020183
120	0x3c054ba6	0.008135712
121	0x3c46aa19	0.012125515
122	0xba4cd884	-0.0007814246
123	0x3b8fb53a	0.0043856176
124	0x3b0fec8b	0.002196106
125	0x3a8f3aaa	0.0010927517
126	0x3c0edadd	0.008719173
127	0x3c66e4d2	0.014092641

action_model._continuous_distribution.log_sigma f4 [1, 2]
0	0xbc6d40e9	-0.014480808
1	0xbcc30aa6	-0.023808789

action_model._continuous_distribution.mu.weight f4 [2, 128]
0	0xbce44b55	-0.027867952
1	0xbc815ec3	-0.015792256
2	0xbbe9dc7a	-0.0071368786
3	0xbd09f7c6	-0.03368356
4	0xbc81c5ab	-0.015841326
5	0xbbf82873	-0.0075731813
6	0x3d6c7555	0.057729084
7	0x3d490bae	0.049083404
8	0xbc9edb1e	-0.019391593
9	0x3c8be9b3	0.01707921
10	0xbd19dfb6	-0.037566863
11	0x3b3929db	0.0028253708
12	0xbcb2ae96	-0.021811765
13	0x3cd5a69b	0.02608042
14	0xbd04d12a	-0.032426037
15	0xbd079422	-0.033100255
16	0xbc347f1c	-0.011016633
17	0xbd2faec4	-0.04289128
18	0x3bdfc25a	0.0068285884
19	0x3d2f5286	0.04280331
20	0xbcf7f668	-0.030268863
21	0xbd7b1d21	-0.061307076
22	0x3c98e5dd	0.018664295
23	0x3a4f8306	0.00079159474
24	0xbbc25094	-0.005930016
25	0x3d395c39	0.045253966
26	0xbc92848c	-0.017885469
27	0x3c94613a	0.018112767
28	0x3bc05710	0.0058697537
29	0xbc09515b	-0.008381213
30	0x3d07f967	0.033196833
31	0xbd4d1243	-0.050066244
32	0x3d19da15	0.037561495
33	0x3bc777d2	0.0060872817
34	0x3cc8d996	0.024517816
35	0x3c84e958	0.016224548
36	0x3ca18fad	0.01972183
37	0xbcc550a9	-0.024086313
38	0x3d001fc8	0.03128031
39	0x3d5935ee	0.053029947
40	0xbcdf48c5	-0.027256379
41	0x3b222823	0.0024743162
42	0xbd4102bc	-0.04712175
43	0xbc9b983b	-0.018993488
44	0x3c0651df	0.0081982305
45	0xbd51e946	-0.051247858
46	0x3c667601	0.01406622
47	0xbb9c7844	-0.004775079
48	0x3caf5920	0.021404803
49	0xbcdad6ef	-0.026713816
50	0xbb2fde44	-0.0026835361
51	0x3bb7248a	0.0055890726
52	0xbb852d30	-0.0040642247
53	0xbc306887	-0.010767109
54	0x3d1b1ff0	0.037872255
55	0xbd021c3d	-0.03176521
56	0xbd30aae1	-0.043131713
57	0xbc486dcb	-0.012233208
58	0x3d2bffc2	0.041991957
59	0xbbf2794a	-0.0073997127
60	0xbc6c8391	-0.014435665
61	0xbcba06fa	-0.022708405
62	0x3c3ed788	0.011648066
63	0x3d01096a	0.03150312
64	0x3d06d4a9	0.032917652
65	0xbd3e35f7	-0.046438184
66	0x3d000f83	0.031264793
67	0xbb1facd8	-0.0024364498
68	0xbb054700	-0.0020336509
69	0xb92f5114	-0.00016719504
70	0x3ccbf1ca	0.024895567
71	0xbce1f422	-0.027582232
72	0xba16cbc5	-0.000575241
73	0xbbbb9725	-0.005724805
74	0x3c0337cd	0.008008909
75	0x3cb29cfe	0.021803375
76	0x3ce135a0	0.02749139
77	0xbccd0a8a	-0.02502944
78	0x3ca5a43c	0.020219915
79	0xbc04ff6c	-0.008117538
80	0x3d313073	0.043259095
81	0xbcfea794	-0.031085767
82	0x3c3d38c8	0.011549182
83	0xbca10038	-0.019653425
84	0x3bb67cd8	0.0055690818
85	0xbbbc6f20	-0.005750552
86	0xbd359e87	-0.044340637
87	0xbc0369c6	-0.008020824
88	0x3c9a3559	0.018824266
89	0x3cf80cd1	0.030279549
90	0xbd279e30	-0.040922344
91	0xbc6e3816	-0.014539739
92	0xbc536f3c	-0.012904938
93	0xbcb9dbab	-0.022687754
94	0x3c93d8e2	0.018047754
95	0xbc8cc6d0	-0.017184645
96	0xbcd056ca	-0.02543201
97	0x3c89236d	0.016740525
98	0x3af909a1	0.0019000062
99	0xbc351c42	-0.0110541005
100	0x3d749640	0.059713602
101	0x3c8842b2	0.016633365
102	0xbd31a90a	-0.0433741
103	0xbc8a0950	-0.016850144
104	0xbd2b1e5b	-0.041776996
105	0x3903c9ad	0.00012568264
106	0x3cee4df9	0.029089915
107	0x3d198cbb	0.037487727
108	0x3c3c0572	0.011475908
109	0x3ba6793e	0.005080371
110	0xbc82058f	-0.015871791
111	0x3c912980	0.017719984
112	0xbbda2767	-0.006657529
113	0x3cfb172d	0.0306507
114	0x3d08bd7b	0.033383828
115	0xbd06d79d	-0.03292047
116	0x3d3d7969	0.046258364
117	0xbc4d9b63	-0.012549254
118	0xbc2462cf	-0.010033323
119	0xbc1899ff	-0.009314059
120	0xbc85454c	-0.016268395
121	0x3d36c3e4	0.04462041
122	0xbbf214f8	-0.0073877536
123	0x3c926049	0.017868178
124	0x3c8bf435	0.01708422
125	0xbd262e72	-0.040571637
126	0x3c9e7e6e	0.019347396
127	0x3cfaa6c2	0.030597094
128	0x3cef774d	0.029231692
129	0xbc73e5f6	-0.01488637
130	0x3d430515	0.04761227
131	0xbccd595b	-0.025067022
132	0xbc657383	-0.014004591
133	0xbd5fe6a3	-0.05466331
134	0xbccd20df	-0.025040088
135	0xbd09b7df	-0.03362262
136	0x3d6d65df	0.05795848
137	0x3c8990e4	0.016792722
138	0xbd4e71c2	-0.050401457
139	0xbc8ca7d6	-0.017169874
140	0x3b88f38f	0.004179425
141	0x3d1c8db7	0.038221087
142	0xbd3786e4	-0.044806376
143	0xbc788e8f	-0.015170707
144	0x3c42e592	0.011895554
145	0x3c543dae	0.012954159
146	0xbc33fff7	-0.01098632
147	0xbcb31e84	-0.021865137
148	0xbd50d980	-0.050988674
149	0xbb39b6b0	-0.002833765
150	0x39d94b02	0.0004144535
151	0xbd024c48	-0.03181103
152	0xbcc2047b	-0.023683777
153	0x3d524dd3	0.05134375
154	0xbd55fa6d	-0.052240778
155	0xbbb5ee7e	-0.005552112
156	0x3d0c6a75	0.034281213
157	0x3d800b81	0.06252194
158	0xbc1eadba	-0.009684974
159	0xbcda3c64	-0.026640125
160	0x3c494005	0.01228333
161	0x3a48ea51	0.00076643104
162	0xbd03d9c1	-0.03219009
163	0x3c98e1f9	0.01866244
164	0x3c4cf7f9	0.012510293
165	0xbb8b9dce	-0.004260755
166	0xbd61fd32	-0.055173106
167	0x3d4f1ffc	0.050567612
168	0xbc8d9ba6	-0.017286133
169	0xbd003440	-0.03129983
170	0xbc61ba01	-0.013777257
171	0xbd0c0053	-0.034179997
172	0x3d2c0cd9	0.04200444
173	0xbcc5b38a	-0.024133462
174	0x3d347892	0.044060297
175	0xbc05f7ed	-0.008176786
176	0x3a796f38	0.0009515169
177	0x3c2b1377	0.0104416525
178	0xbd08ae29	-0.033369217
179	0xbd051561	-0.03249109
180	0x3c26bf90	0.010177508
181	0x3cb90822	0.022586886
182	0xbc849a83	-0.016186958
183	0x3d06685a	0.03281436
184	0xbd00cba8	-0.03144422
185	0x3d234819	0.03986368
186	0x3c9921fc	0.018692963
187	0xbd01dfe1	-0.03170765
188	0x3c0db4dc	0.008649077
189	0xbd1ee502	-0.038792618
190	0xbd1c4649	-0.038152967
191	0x3bd6bddc	0.0065533947
192	0x3c70549f	0.014668613
193	0xbd60e35b	-0.054904323
194	0x3c89cd47	0.016821517
195	0x3d00685f	0.031349536
196	0x3c2dac2f	0.010600134
197	0xbcd9cafa	-0.026586045
198	0xbcef455d	-0.02920788
199	0x3d383124	0.04496874
200	0xbc6fa593	-0.014626878
201	0x3d03d6f1	0.032187406
202	0xbd02d2a2	-0.031939156
203	0x3b7130ed	0.0036802844
204	0x3d19f73b	0.037589293
205	0x3cd4b7a6	0.025966477
206	0x3d125109	0.035721812
207	0xbb1a1d79	-0.0023516102
208	0xbc54c584	-0.0129865445
209	0xbb6117a6	-0.003434637
210	0x3cec672f	0.028857796
211	0xbc1e7987	-0.009672529
212	0x3b4f64fd	0.0031645887
213	0xbd1053e5	-0.035236258
214	0xbcefa009	-0.029251115
215	0x3cf2cdd8	0.02963917
216	0x3cb2dbd7	0.021833343
217	0x3d4027a0	0.04691279
218	0x3c9ab9d1	0.018887432
219	0x3c95629e	0.0182355
220	0xbc8bf034	-0.017082311
221	0xbc34e46e	-0.01104079
222	0x3c6cd6a7	0.014455474
223	0x3d30c032	0.04315204
224	0x3c4a6a94	0.012354512
225	0x3d4ab26d	0.049486566
226	0xbb60460a	-0.0034221434
227	0xbcc3129a	-0.02381258
228	0x3b9e7a97	0.004836391
229	0x3c8cbeda	0.017180849
230	0xbc2cd3e4	-0.010548566
231	0x3c923970	0.017849654
232	0xbce86581	-0.028368713
233	0x3d0073e7	0.031360533
234	0x3cc7eea9	0.024405794
235	0xbcd4437a	-0.025911082
236	0x3d12c9a9	0.03583685
237	0x3b579c6e	0.0032899636
238	0xbc7a67c1	-0.015283526
239	0x3cb14a5e	0.021641906
240	0xbcacb3eb	-0.021081885
241	0x3c1c6b3f	0.009547054
242	0x3c0a2835	0.008432438
243	0x3c7fd6a2	0.015615137
244	0x3c028dff	0.007968425
245	0x3d21e8f4	0.039528802
246	0xbc0ede18	-0.008719943
247	0xbd58ae4a	-0.05290059
248	0x3d01ae3f	0.031660315
249	0x3ce2d37b	0.027688732
250	0xba8fa4cb	-0.0010959146
251	0x3d5178ee	0.05114072
252	0x3c85c4f9	0.016329275
253	0x3c7ba79e	0.015359787
254	0x3d60aef1	0.054854337
255	0x3ca56d21	0.020193638

action_model._continuous_distribution.mu.bias f4 [2]
0	0x3b09af51	0.0021009038
1	0xbb44350e	-0.002993885
