3D/results/Test2/MoveToGoal/MoveToGoal-1984.pt (torch, 144154 bytes, 10 tensors)

network_body._body_endoder.seq_layers.0.weight f4 [128, 1]
0	0xbf786383	-0.9702684
1	0xbf7b2bd1	-0.98113734
2	0x3fa6c89a	1.3029969
3	0x3f16d02d	0.589114
4	0xbd2349fc	-0.03986548
5	0xbce4c489	-0.027925747
6	0xbee81425	-0.4532787
7	0xbeb352f9	-0.3502424
8	0xbf8242fd	-1.0176693
9	0xbe3e8333	-0.18604736
10	0x3fbf3982	1.4939425
11	0xbed97771	-0.4247394
12	0xbe070e42	-0.13189033
13	0x3e8a894e	0.2705788
14	0x3f21feb8	0.63279295
15	0x3f48862f	0.7832975
16	0x3f3f2153	0.74660224
17	0x3f7a4f1e	0.97776973
18	0x3f3148b5	0.6925157
19	0xbf0599e9	-0.52187973
20	0xbf125b48	-0.57170534
21	0x3f84578f	1.0339221
22	0x3f937042	1.1518633
23	0x3daa67d3	0.08320584
24	0x3fc15472	1.5103896
25	0xbf2960f6	-0.66163576
26	0xbe7abd63	-0.24486308
27	0x3f34d96b	0.70644253
28	0xbf6b53e4	-0.9192488
29	0x3fe01347	1.7505883
30	0xbfcd6eb8	-1.6049414
31	0x3f7fb7db	0.99889916
32	0xbd9eade9	-0.077480145
33	0x4003d6b5	2.0599797
34	0x3e35da6a	0.177591
35	0x3fee5f4a	1.862283
36	0x3f16712c	0.58766437
37	0xbf006462	-0.5015317
38	0xbf83200a	-1.0244153
39	0xbf51ae2a	-0.8190638
40	0xbe86a2ef	-0.26296183
41	0x3fcac06d	1.5839974
42	0x3f6b954c	0.92024684
43	0x3f4b4a80	0.7941055
44	0x3eeaa370	0.45827818
45	0x3fbc7b1f	1.4725074
46	0x3f044bff	0.5167846
47	0xbecd77e4	-0.40130532
48	0xbf0d6473	-0.552314
49	0xbe7b9c6b	-0.24571387
50	0x3f504be5	0.81365806
51	0x3eb083d7	0.34475586
52	0x3f5e0dff	0.86740106
53	0x3ee53764	0.44768822
54	0xbd84458f	-0.0645858
55	0x3fa2c675	1.2716814
56	0x3f4f8c02	0.8107301
57	0x3ecb1fb1	0.39672616
58	0x3f20aadc	0.6276071
59	0xbfd07b11	-1.6287557
60	0x3f2e3a56	0.68057764
61	0x3ecb44a8	0.39700818
62	0xbebdbb7d	-0.37057105
63	0x3f3fe536	0.74959123
64	0xbf23bfca	-0.6396452
65	0x3e243251	0.16034819
66	0x408878ca	4.2647448
67	0x3ee38756	0.4443919
68	0xbdc09e76	-0.09405224
69	0x3ecb97b8	0.3976419
70	0x3f21c0a9	0.631846
71	0x3e28fbec	0.1650235
72	0xbea81917	-0.32831642
73	0xbe9caeb3	-0.30602035
74	0xbfcf11ae	-1.617727
75	0x3eea576a	0.45769817
76	0xbcf349c7	-0.029698266
77	0xbeb556bf	-0.35417745
78	0xbfa1ddf0	-1.2645855
79	0xbfda1b15	-1.7039515
80	0xbfbe00c8	-1.4843988
81	0x3ee1d0e3	0.4410468
82	0x3f7a561e	0.97787654
83	0x3e4d2a0f	0.20035575
84	0xbfe744a8	-1.8067827
85	0x3fe77c98	1.8084898
86	0x3f5103ff	0.8164672
87	0xbf330f73	-0.6994545
88	0xbe2c6d50	-0.16838574
89	0x3f4ff05c	0.81226134
90	0x3f04b13f	0.51832956
91	0x3ffd7718	1.980197
92	0x3f8781b5	1.0586458
93	0x3ed1ccce	0.40976566
94	0x3f382e85	0.71945983
95	0xbfe03761	-1.75169
96	0xbfc9087a	-1.5705712
97	0xbc30b32c	-0.010784905
98	0xbf2016df	-0.625349
99	0x3d3da8d3	0.04630358
100	0x3f9cc01a	1.2246125
101	0xbfe41534	-1.7818971
102	0xbfe68f20	-1.8012428
103	0xbf8289e9	-1.0198337
104	0xbeb8e9f2	-0.36115986
105	0xbe39eaf1	-0.1815603
106	0xbd870b6a	-0.06593974
107	0x3f35e040	0.71045303
108	0xbf232f6a	-0.63744223
109	0x3fce317b	1.610885
110	0x3f79fd1c	0.9765184
111	0xbf23b587	-0.63948864
112	0xbf86ee86	-1.0541542
113	0xbfae8572	-1.3634474
114	0xbe9cff0a	-0.3066333
115	0x3ed25dd7	0.4108722
116	0xbf3b8180	-0.73244476
117	0xbe77b5dd	-0.24190469
118	0x3e8d2209	0.2756503
119	0xbf783d56	-0.9696859
120	0xbf4f5296	-0.8098539
121	0x3e783fa2	0.24243024
122	0x3fa160db	1.2607683
123	0xbf2d6794	-0.6773617
124	0xbf19f50f	-0.60139555
125	0x3f889c7f	1.0672759
126	0x3fea1e40	1.8290482
127	0xbe1693f7	-0.14704882

network_body._body_endoder.seq_layers.0.bias f4 [128]
0	0x00000000	0.0
1	0x00000000	0.0
2	0x00000000	0.0
3	0x00000000	0.0
4	0x00000000	0.0
5	0x00000000	0.0
6	0x00000000	0.0
7	0x00000000	0.0
8	0x00000000	0.0
9	0x00000000	0.0
10	0x00000000	0.0
11	0x00000000	0.0
12	0x00000000	0.0
13	0x00000000	0.0
14	0x00000000	0.0
15	0x00000000	0.0
16	0x00000000	0.0
17	0x00000000	0.0
18	0x00000000	0.0
19	0x00000000	0.0
20	0x00000000	0.0
21	0x00000000	0.0
22	0x00000000	0.0
23	0x00000000	0.0
24	0x00000000	0.0
25	0x00000000	0.0
26	0x00000000	0.0
27	0x00000000	0.0
28	0x00000000	0.0
29	0x00000000	0.0
30	0x00000000	0.0
31	0x00000000	0.0
32	0x00000000	0.0
33	0x00000000	0.0
34	0x00000000	0.0
35	0x00000000	0.0
36	0x00000000	0.0
37	0x00000000	0.0
38	0x00000000	0.0
39	0x00000000	0.0
40	0x00000000	0.0
41	0x00000000	0.0
42	0x00000000	0.0
43	0x00000000	0.0
44	0x00000000	0.0
45	0x00000000	0.0
46	0x00000000	0.0
47	0x00000000	0.0
48	0x00000000	0.0
49	0x00000000	0.0
50	0x00000000	0.0
51	0x00000000	0.0
52	0x00000000	0.0
53	0x00000000	0.0
54	0x00000000	0.0
55	0x00000000	0.0
56	0x00000000	0.0
57	0x00000000	0.0
58	0x00000000	0.0
59	0x00000000	0.0
60	0x00000000	0.0
61	0x00000000	0.0
62	0x00000000	0.0
63	0x00000000	0.0
64	0x00000000	0.0
65	0x00000000	0.0
66	0x00000000	0.0
67	0x00000000	0.0
68	0x00000000	0.0
69	0x00000000	0.0
70	0x00000000	0.0
71	0x00000000	0.0
72	0x00000000	0.0
73	0x00000000	0.0
74	0x00000000	0.0
75	0x00000000	0.0
76	0x00000000	0.0
77	0x00000000	0.0
78	0x00000000	0.0
79	0x00000000	0.0
80	0x00000000	0.0
81	0x00000000	0.0
82	0x00000000	0.0
83	0x00000000	0.0
84	0x00000000	0.0
85	0x00000000	0.0
86	0x00000000	0.0
87	0x00000000	0.0
88	0x00000000	0.0
89	0x00000000	0.0
90	0x00000000	0.0
91	0x00000000	0.0
92	0x00000000	0.0
93	0x00000000	0.0
94	0x00000000	0.0
95	0x00000000	0.0
96	0x00000000	0.0
97	0x00000000	0.0
98	0x00000000	0.0
99	0x00000000	0.0
100	0x00000000	0.0
101	0x00000000	0.0
102	0x00000000	0.0
103	0x00000000	0.0
104	0x00000000	0.0
105	0x00000000	0.0
106	0x00000000	0.0
107	0x00000000	0.0
108	0x00000000	0.0
109	0x00000000	0.0
110	0x00000000	0.0
111	0x00000000	0.0
112	0x00000000	0.0
113	0x00000000	0.0
114	0x00000000	0.0
115	0x00000000	0.0
116	0x00000000	0.0
117	0x00000000	0.0
118	0x00000000	0.0
119	0x00000000	0.0
120	0x00000000	0.0
121	0x00000000	0.0
122	0x00000000	0.0
123	0x00000000	0.0
124	0x00000000	0.0
125	0x00000000	0.0
126	0x00000000	0.0
127	0x00000000	0.0

network_body._body_endoder.seq_layers.2.weight f4 [128, 128]
0	0x3ccf3f92	0.025298867
1	0x3d927787	0.07151704
2	0xbdae10a5	-0.084992684
3	0x3d56fcad	0.052487064
4	0x3db5dd0e	0.088800535
5	0xbdb238fd	-0.08702276
6	0x3d3432a8	0.043993622
7	0xbc6a6838	-0.014307074
8	0x3e24b917	0.16086231
9	0xbde4afe6	-0.111663625
10	0xbbad32f7	-0.0052856165
11	0xbdc077a0	-0.09397817
12	0x3d833f60	0.06408572
13	0xbe32ab91	-0.1744826
14	0x3ddac50b	0.10682114
15	0xbe1faebd	-0.15594001
16	0x3b3cc5b1	0.0028804357
17	0xbd5721de	-0.052522533
18	0xbd972feb	-0.073821865
19	0xbce7eed2	-0.02831212
20	0xbd6c695b	-0.057717662
21	0xbda9288b	-0.08259686
22	0x3d8feaf5	0.07027236
23	0xbddeaf87	-0.10873323
24	0xbced7be7	-0.028989745
25	0xbd24a639	-0.040197585
26	0xbd7e1c14	-0.062038496
27	0xbd731505	-0.059346218
28	0xbd51f00c	-0.051254317
29	0xbcaeff56	-0.021361988
30	0x3dc35207	0.0953713
31	0x3dc4cca6	0.09609346
32	0xbd99bc12	-0.07506575
33	0xbcd3ee15	-0.025870362
34	0xbd33cb47	-0.043895032
35	0xbe1b3b8a	-0.15159431
36	0xbd8dab6a	-0.0691746
37	0xbb691d5f	-0.0035570485
38	0xbc8106fc	-0.0157504
39	0x3d4c0240	0.049806833
40	0xbd355687	-0.044271972
41	0x3d0e860d	0.03479581
42	0xbd02c624	-0.031927243
43	0x3c16ee7e	0.009212134
44	0xbda78498	-0.08179587
45	0xbddda9c5	-0.108233966
46	0x3d7df4d8	0.06200108
47	0x3d0d9758	0.03456816
48	0xbd83937c	-0.06424615
49	0x3dcc1fd1	0.09967006
50	0xbe334ad2	-0.1750901
51	0xbe0eb753	-0.1393712
52	0xbcc20aa7	-0.02368672
53	0xbd430071	-0.047607843
54	0xbd99b953	-0.07506051
55	0xbdb54e2c	-0.08852801
56	0x3d6af050	0.057358086
57	0xbdb8d81f	-0.09025597
58	0x3db85625	0.09000806
59	0x3d2beab8	0.041971892
60	0xbced6805	-0.028980264
61	0xbd9389cc	-0.07204017
62	0x3d13e121	0.03610337
63	0x3e61def0	0.220577
64	0x3dba56d6	0.09098594
65	0x3d76f175	0.060288865
66	0x3bea5f1a	0.0071524503
67	0x3d9bfde0	0.07616782
68	0xbd86cd87	-0.0658217
69	0x3d0c01ab	0.03418128
70	0x3e176fd6	0.14788756
71	0x3d1d2c0d	0.03837209
72	0x3dbaed81	0.091273315
73	0x3d4c03ca	0.0498083
74	0x3d773e4e	0.060362153
75	0x3d933b7d	0.07189081
76	0xbd490dd4	-0.049085453
77	0xbdecc396	-0.115607426
78	0x3d3bc32a	0.04584042
79	0x3c8c5bed	0.017133677
80	0xbe1d1eb1	-0.15343739
81	0xbd2842e9	-0.041079435
82	0x3c241452	0.01001461
83	0x3c9f2f1a	0.01943164
84	0xbe0dc237	-0.13843618
85	0x3ce932c1	0.028466584
86	0x3d5c2b1f	0.05375206
87	0xbd934db2	-0.071925536
88	0xbd50d081	-0.050980095
89	0x3daed858	0.08537358
90	0x3c5d0bdc	0.013491597
91	0x3e0a3cd7	0.13499771
92	0xbdadf1e3	-0.08493402
93	0xbcb0dc80	-0.021589518
94	0x3c19e8f8	0.009393923
95	0xbcf532e4	-0.029931493
96	0xb84d76d5	-4.898648e-05
97	0xbd0a31ef	-0.033739027
98	0xbdf02969	-0.11726648
99	0x3c4f3e41	0.01264912
100	0xba96f2d6	-0.0011516463
101	0x3c455f2d	0.012046617
102	0x3de28a47	0.110615306
103	0xbe157ace	-0.14597628
104	0xbdd25601	-0.1027031
105	0xbd0b6492	-0.03403146
106	0x3e2f75d8	0.17134798
107	0xbc721462	-0.014775367
108	0x3d31c9bf	0.04340529
109	0x3d85a973	0.065264605
110	0xbd4d5c13	-0.050136637
111	0xbd4bda5a	-0.049768783
112	0x3c96d5e2	0.018412534
113	0x3d1f55b9	0.03890011
114	0xbd4ab9ff	-0.049493786
115	0xbc9059f7	-0.017621024
116	0x3d2c563a	0.04207442
117	0x3d95bdbf	0.07311582
118	0x3e29282c	0.1651923
119	0xbc86349e	-0.016382512
120	0x3d711a74	0.05886312
121	0x3d2fbd97	0.042905416
122	0xbe07e3e5	-0.13270529
123	0xbdb35a28	-0.0875743
124	0xbda2b78a	-0.079451635
125	0x3e83e214	0.2575842
126	0xbc337c5e	-0.010954944
127	0x3ccfd852	0.025371704
128	0x3cd29eb7	0.025710447
129	0xbd8d2e4a	-0.068935946
130	0xbd9600c4	-0.07324365
131	0xbd4510e7	-0.048111822
132	0xbcb2fe56	-0.021849792
133	0x3d8d1642	0.06889011
134	0xbd57eb0e	-0.0527144
135	0x3d747b3f	0.05968785
136	0x3d783824	0.060600415
137	0x3dac2b06	0.084066436
138	0x3de767da	0.11299105
139	0xbe00c9e3	-0.12577014
140	0x3d84cbdc	0.064841956
141	0xbcb27502	-0.02178431
142	0xbde2c0ba	-0.11071916
143	0x3cffaaf2	0.031209443
144	0x3e115ad1	0.141948
145	0xbd5ba42d	-0.053623367
146	0xbd010a5e	-0.031504028
147	0x3d766c7b	0.06016205
148	0x3da85365	0.08219031
149	0x3c40f8f8	0.011778109
150	0xbc663907	-0.014051682
151	0xbcea4be5	-0.028600642
152	0x3da3ab29	0.079916306
153	0x3d634111	0.055481974
154	0x3d61c525	0.055119652
155	0x3c8cc8c3	0.017185574
156	0x3d982ac6	0.074300334
157	0x3d373163	0.044724833
158	0xbdbbee3b	-0.09176298
159	0xbd7a7182	-0.061143406
160	0xbe09c523	-0.13454108
161	0xbd311383	-0.0432315
162	0xbd750f65	-0.059829134
163	0x3db461db	0.08807727
164	0xbd27ace4	-0.040936366
165	0x3dd03c89	0.10167796
166	0xbb4dd9fa	-0.0031410442
167	0xbe0f7c24	-0.140122
168	0xbd0e5b88	-0.03475526
169	0xbd322b96	-0.043498598
170	0xbd15e8b3	-0.036598872
171	0x3da54ce8	0.08071309
172	0x3e36033d	0.17774673
173	0x3e0021d9	0.12512912
174	0x3d524162	0.051331885
175	0xbcbf1f49	-0.023330348
176	0xbbb60ad8	-0.005555492
177	0xbbf56ff0	-0.0074901506
178	0xbe567f84	-0.20947081
179	0x3bc376b8	0.00596508
180	0xbd30eafc	-0.04319285
181	0x3d3028bd	0.0430076
182	0x3d40881b	0.0470048
183	0xbcfb0e4c	-0.030646466
184	0xbdfc95a3	-0.123332284
185	0x3c0eeb13	0.008723038
186	0x3e3dd4c8	0.18538201
187	0x3dc12e28	0.09432632
188	0xbe0c1148	-0.13678467
189	0xba83f3e8	-0.0010067197
190	0xbd0dd8fb	-0.034630757
191	0xbd149534	-0.036275104
192	0x3c950984	0.018193014
193	0xbe3af1e4	-0.18256336
194	0x3d8f9870	0.07011497
195	0xbd90a33c	-0.070623845
196	0x3d5b13ce	0.053485684
197	0x3db91a24	0.09038189
198	0x3e0d1e7b	0.13781159
199	0x3e354b4d	0.17704506
200	0x3b9e9199	0.004839134
201	0x3c151722	0.009099754
202	0x3d511896	0.051048838
203	0x3d9aa69d	0.0755131
204	0x3d613caa	0.054989494
205	0xbd907ec9	-0.07055432
206	0x3cd506cf	0.026004223
207	0x3cadb894	0.021206178
208	0x3c8cc58a	0.017184038
209	0xbdc18537	-0.09449237
210	0xbd0fc7e6	-0.035102747
211	0xbdba8a61	-0.09108425
212	0x3c782197	0.015144727
213	0xbe21e26e	-0.15809032
214	0xbc518a90	-0.0127893835
215	0x3e243d66	0.16039047
216	0x3bbffa91	0.0058587273
217	0x3c8a6c3f	0.016897319
218	0x3dc4d089	0.096100874
219	0x3e6cb2b7	0.2311505
220	0xbc641308	-0.013920553
221	0xbc0af698	-0.008481644
222	0xbd41cf8b	-0.04731707
223	0xbe458093	-0.19287328
224	0x3d1c1dda	0.038114406
225	0x3d8f5260	0.06998134
226	0xbdc037e8	-0.09385663
227	0x3a6176d8	0.0008600778
228	0x3d8f428f	0.06995117
229	0x3cb26932	0.021778677
230	0x3ddf1167	0.10891991
231	0xbdece3cc	-0.11566886
232	0xbe0bc7c5	-0.13650425
233	0x3d66e19e	0.05636751
234	0x3dd93539	0.106058545
235	0x3dc269c8	0.094928324
236	0x3e261db0	0.16222262
237	0xbdb5d985	-0.08879379
238	0xbc0254cd	-0.007954788
239	0x3d5ec37f	0.05438566
240	0x3df2fef0	0.11865032
241	0x3cc95992	0.024578843
242	0xbbf0de7d	-0.0073507414
243	0x3dcc4635	0.099743284
244	0x3d556620	0.052099347
245	0x3c15db54	0.00914653
246	0x3d169291	0.03676087
247	0x3da3db38	0.08000797
248	0xbcfb7471	-0.030695172
249	0xbd980794	-0.074233204
250	0xbd7cad89	-0.061688934
251	0xbe3a3f2a	-0.18188158
252	0xbd843666	-0.06455688
253	0x3e0a5e64	0.1351257
254	0x3e0d53d5	0.1380151
255	0x3dafe362	0.08588292

network_body._body_endoder.seq_layers.2.bias f4 [128]
0	0x00000000	0.0
1	0x00000000	0.0
2	0x00000000	0.0
3	0x00000000	0.0
4	0x00000000	0.0
5	0x00000000	0.0
6	0x00000000	0.0
7	0x00000000	0.0
8	0x00000000	0.0
9	0x00000000	0.0
10	0x00000000	0.0
11	0x00000000	0.0
12	0x00000000	0.0
13	0x00000000	0.0
14	0x00000000	0.0
15	0x00000000	0.0
16	0x00000000	0.0
17	0x00000000	0.0
18	0x00000000	0.0
19	0x00000000	0.0
20	0x00000000	0.0
21	0x00000000	0.0
22	0x00000000	0.0
23	0x00000000	0.0
24	0x00000000	0.0
25	0x00000000	0.0
26	0x00000000	0.0
27	0x00000000	0.0
28	0x00000000	0.0
29	0x00000000	0.0
30	0x00000000	0.0
31	0x00000000	0.0
32	0x00000000	0.0
33	0x00000000	0.0
34	0x00000000	0.0
35	0x00000000	0.0
36	0x00000000	0.0
37	0x00000000	0.0
38	0x00000000	0.0
39	0x00000000	0.0
40	0x00000000	0.0
41	0x00000000	0.0
42	0x00000000	0.0
43	0x00000000	0.0
44	0x00000000	0.0
45	0x00000000	0.0
46	0x00000000	0.0
47	0x00000000	0.0
48	0x00000000	0.0
49	0x00000000	0.0
50	0x00000000	0.0
51	0x00000000	0.0
52	0x00000000	0.0
53	0x00000000	0.0
54	0x00000000	0.0
55	0x00000000	0.0
56	0x00000000	0.0
57	0x00000000	0.0
58	0x00000000	0.0
59	0x00000000	0.0
60	0x00000000	0.0
61	0x00000000	0.0
62	0x00000000	0.0
63	0x00000000	0.0
64	0x00000000	0.0
65	0x00000000	0.0
66	0x00000000	0.0
67	0x00000000	0.0
68	0x00000000	0.0
69	0x00000000	0.0
70	0x00000000	0.0
71	0x00000000	0.0
72	0x00000000	0.0
73	0x00000000	0.0
74	0x00000000	0.0
75	0x00000000	0.0
76	0x00000000	0.0
77	0x00000000	0.0
78	0x00000000	0.0
79	0x00000000	0.0
80	0x00000000	0.0
81	0x00000000	0.0
82	0x00000000	0.0
83	0x00000000	0.0
84	0x00000000	0.0
85	0x00000000	0.0
86	0x00000000	0.0
87	0x00000000	0.0
88	0x00000000	0.0
89	0x00000000	0.0
90	0x00000000	0.0
91	0x00000000	0.0
92	0x00000000	0.0
93	0x00000000	0.0
94	0x00000000	0.0
95	0x00000000	0.0
96	0x00000000	0.0
97	0x00000000	0.0
98	0x00000000	0.0
99	0x00000000	0.0
100	0x00000000	0.0
101	0x00000000	0.0
102	0x00000000	0.0
103	0x00000000	0.0
104	0x00000000	0.0
105	0x00000000	0.0
106	0x00000000	0.0
107	0x00000000	0.0
108	0x00000000	0.0
109	0x00000000	0.0
110	0x00000000	0.0
111	0x00000000	0.0
112	0x00000000	0.0
113	0x00000000	0.0
114	0x00000000	0.0
115	0x00000000	0.0
116	0x00000000	0.0
117	0x00000000	0.0
118	0x00000000	0.0
119	0x00000000	0.0
120	0x00000000	0.0
121	0x00000000	0.0
122	0x00000000	0.0
123	0x00000000	0.0
124	0x00000000	0.0
125	0x00000000	0.0
126	0x00000000	0.0
127	0x00000000	0.0

action_model._continuous_distribution.mu.weight f4 [1, 128]
0	0x3c17fed3	0.009277063
1	0x3cd76353	0.026292479
2	0x3b2253f9	0.002476929
3	0x3ccb2edd	0.02480262
4	0xbc20f7f7	-0.009824744
5	0xbc1ed2e9	-0.00969384
6	0x3b4a9d06	0.0030916347
7	0xbc96629b	-0.018357566
8	0xbd10a841	-0.03531671
9	0x3c2a390c	0.010389578
10	0x3c89bc5f	0.016813455
11	0xbc1fc2a3	-0.009750995
12	0x3d1a97b9	0.03774235
13	0xbcabdf92	-0.02098063
14	0x3a5e0c22	0.0008470436
15	0xbc9c8fb4	-0.019111492
16	0x3b502ae8	0.0031763855
17	0xbc4d49af	-0.012529775
18	0xbba2623b	-0.0049555576
19	0xbc860602	-0.016360287
20	0xbce2e21f	-0.027695714
21	0xbcee83ef	-0.029115645
22	0x3d41f64d	0.04735403
23	0x3c3bad72	0.011454927
24	0xbc52c19f	-0.012863546
25	0x3b80ca77	0.0039303857
26	0xbc295bf3	-0.010336864
27	0x3cd91b1b	0.026502183
28	0xbb8c48c3	-0.004281135
29	0xbb508b32	-0.0031821248
30	0xbbb51c3b	-0.005527047
31	0xbcd6b6a7	-0.026210142
32	0xbd0727b7	-0.03299686
33	0xbc0b59c9	-0.008505293
34	0xba560d20	-0.0008165408
35	0xbc0e9d0e	-0.008704437
36	0xbb4a6a70	-0.0030886196
37	0x3c510fab	0.012760083
38	0x3cb1cc22	0.021703783
39	0x3caae916	0.020863097
40	0xbd130e4b	-0.035902303
41	0xbc9f9db2	-0.019484375
42	0xbc2447c7	-0.010026879
43	0x3c99e42c	0.018785559
44	0xbc9f933a	-0.019479383
45	0xbd07509f	-0.03303587
46	0x3c6006d2	0.013673501
47	0x3aac6a25	0.0013154192
48	0x3c31f606	0.010861879
49	0xbcfd89da	-0.030949522
50	0xba664c0b	-0.0008785135
51	0xba2024d8	-0.0006109006
52	0xbc29ba5b	-0.010359372
53	0xbcbd18ae	-0.023083057
54	0x3a108540	0.000551302
55	0xbb453aa7	-0.0030094774
56	0x3b7047db	0.0036663923
57	0xbcf8f148	-0.03038849
58	0xbc26d0e9	-0.010181644
59	0xbcd44cd7	-0.025915546
60	0x3ca92294	0.020646371
61	0x3c84c29b	0.016206076
62	0xbaeb01b3	-0.0017929584
63	0x3c24acdb	0.010050978
64	0xbb764e20	-0.0037583187
65	0xbc926c9a	-0.01787405
66	0xbbc7f78c	-0.006102508
67	0xbcbdce10	-0.023169547
68	0xbc8826ba	-0.016620029
69	0xbbfbbc08	-0.007682327
70	0x3cdfbf90	0.027313024
71	0x3cb8a99f	0.02254182
72	0x3ab0c282	0.0013485702
73	0x3d006c3a	0.031353213
74	0xbc990af6	-0.018681984
75	0xbc8c14a7	-0.017099692
76	0xbcecfe0b	-0.02892973
77	0x3b1e355f	0.0024140698
78	0xbcbe6043	-0.02323926
79	0x3c999b60	0.018750846
80	0x3cd7d37d	0.026345963
81	0xbcf5b42f	-0.029993145
82	0xbc3340f5	-0.01094078
83	0xbb7fa7da	-0.003900996
84	0x3a8b4a13	0.0010626934
85	0xbc6142ba	-0.013748819
86	0x3c0839aa	0.008314529
87	0x3c8634d3	0.01638261
88	0x3cc7d443	0.024393206
89	0xbac62554	-0.0015117326
90	0xbc0a2127	-0.008430756
91	0xbc9ef9a2	-0.019406144
92	0x3a82a6c1	0.000996791
93	0xbcdc4e3d	-0.026892776
94	0x3ca539c1	0.02016914
95	0xbc30fdb3	-0.010802674
96	0xbd05d49d	-0.032673467
97	0xbc4124d1	-0.011788563
98	0xbd3c9233	-0.046037864
99	0xbc4b125b	-0.012394513
100	0xbd0f468b	-0.034979384
101	0xbca79f03	-0.020461565
102	0x3b2ebbc3	0.0026662208
103	0x3b0bfa1a	0.002135879
104	0xbc32a4d9	-0.010903561
105	0xbc659ca8	-0.014014401
106	0xbc95d621	-0.018290581
107	0xbd1d0a3b	-0.038339835
108	0x3c3034d2	0.010754781
109	0x3c17e367	0.009270526
110	0xbbccb38a	-0.0062469887
111	0xbbc132a2	-0.0058959285
112	0x3bf77b3b	0.007552532
113	0xbc18f751	-0.009336309
114	0x3cb19ebb	0.021682134
115	0xbc7b383b	-0.015333231
116	0xbc325c16	-0.010886213
117	0x3ca1b475	0.019739369
118	0xbcb40c42	-0.021978501
119	0xbcf0cd48	-0.02939476
120	0x3b8c1b86	0.004275742
121	0xbb85fdeb	-0.0040891073
122	0xbbe9ee92	-0.0071390355
123	0x3999f4d4	0.00029364845
124	0x3ced6bf5	0.028982142
125	0xbd0731c8	-0.03300646
126	0x3c293f5e	0.010330049
127	0x3c3592d5	0.011082371

network_body._body_endoder.seq_layers.0.weight f4 [128, 1]
0	0x3f85e5c6	1.0460746
1	0xbefb3fb7	-0.49072048
2	0x3e702a3f	0.23453616
3	0x3f0bd55e	0.5462245
4	0xbe5072f6	-0.20356354
5	0xbe0c1b7e	-0.13682362
6	0xbf1af34d	-0.605275
7	0x3dc78a45	0.0974317
8	0x3e0d867c	0.13820833
9	0x3fce8929	1.6135608
10	0x3faefcdf	1.367092
11	0xbeb69e83	-0.3566781
12	0x3f1f6f91	0.6227961
13	0x3ee978fc	0.45600116
14	0xbf6c5016	-0.923097
15	0xbd1e7b4a	-0.038691796
16	0x3e54dd2e	0.20787498
17	0x3f59111d	0.8479174
18	0x3faf0720	1.3674049
19	0x3e49e826	0.19717464
20	0xbf449e61	-0.7680417
21	0xbf60e0b7	-0.8784289
22	0xbfbdf2f0	-1.4839764
23	0x3faab313	1.3335899
24	0x3d887b24	0.06664112
25	0xbf48da09	-0.78457695
26	0xbfd249bc	-1.6428752
27	0x3f8b1aed	1.0867592
28	0xbf5d3a36	-0.8641695
29	0x3e30c39d	0.1726212
30	0xbfdce88c	-1.7258468
31	0x3f7fbd01	0.9989777
32	0xbe761ae0	-0.2403369
33	0x3f5e970a	0.8694922
34	0xbfcef0d7	-1.6167248
35	0xbf2c426d	-0.6728886
36	0x3dd03c10	0.10167706
37	0x3e52e000	0.20593262
38	0x3ef3f13e	0.4764499
39	0xbe097678	-0.13424098
40	0x3fb37aba	1.4021828
41	0xbbf33e47	-0.0074231955
42	0x3f1ed530	0.6204405
43	0x3fa1eedd	1.265102
44	0x3d967c41	0.07347918
45	0xbe8bdba3	-0.27316007
46	0xbf675101	-0.9035798
47	0x3ef78cd5	0.48349634
48	0xbf3ffaa3	-0.74991816
49	0xbf21d6fc	-0.63218665
50	0x3ee28bed	0.4424738
51	0x3edbf757	0.42962143
52	0x3fb55d24	1.4169049
53	0xbec3e1a5	-0.3825809
54	0xbf25c2c2	-0.647503
55	0xbf52eb26	-0.8239006
56	0x3dce0263	0.10059049
57	0xbf8a3519	-1.0797454
58	0x3c835007	0.016029371
59	0x3cdd92b2	0.027047489
60	0x3ed50209	0.41603115
61	0x3ec30847	0.38092253
62	0x3ebc2d7f	0.3675346
63	0xbe02d9cc	-0.12778395
64	0x3fc88069	1.5664188
65	0x3f2e8311	0.6816874
66	0xc00f4f9b	-2.2392337
67	0x3fd807a7	1.6877335
68	0x3f58415c	0.8447473
69	0xbe92cd84	-0.2867242
70	0xbda9c23d	-0.08289001
71	0xbfa1c8b4	-1.2639375
72	0x3f5c4f6a	0.86058676
73	0xbf8e36bb	-1.1110452
74	0x3fb8bbcd	1.4432312
75	0x3e528124	0.20557076
76	0x3f93dcf1	1.1551801
77	0xbf8ca70c	-1.0988479
78	0xbe784648	-0.2424556
79	0x3f4d0528	0.8008599
80	0x3fb502e9	1.4141513
81	0x3ee4f49c	0.44717872
82	0xbe2450e7	-0.16046487
83	0x3f8eef9d	1.1166874
84	0x3f23a27c	0.63919806
85	0x3e9aa08d	0.30200616
86	0xc0063a71	-2.097317
87	0x3e2ec5a1	0.17067577
88	0xbe66a868	-0.2252518
89	0xbe6341cc	-0.22193068
90	0xbeb3b991	-0.35102513
91	0xbed373bd	-0.4129924
92	0x3ed9cd5c	0.4253949
93	0xbfd18c68	-1.6370974
94	0xbf806aca	-1.003259
95	0xbd7b171f	-0.061301347
96	0x4024ee43	2.5770423
97	0xbc4084ad	-0.011750382
98	0xbdab87cc	-0.083755106
99	0x3e16ce0f	0.14727043
100	0xbea8ca36	-0.32966775
101	0x3f15494e	0.5831498
102	0x3d372323	0.044711243
103	0x3e8d26ce	0.27568668
104	0xbfb38985	-1.4026343
105	0xbd30e1ad	-0.04318397
106	0xbf9de96a	-1.2336857
107	0x3ee80b1a	0.4532097
108	0xbfc39c36	-1.5282047
109	0xbe24fe0f	-0.1611254
110	0x3f2d28f5	0.6764062
111	0xbf58a4ed	-0.84626657
112	0x3ebab11a	0.36463243
113	0xbeca70b3	-0.39539108
114	0xbf34553d	-0.70442563
115	0x3e8e21ef	0.27760264
116	0x3e490925	0.19632395
117	0x3ed53ae8	0.41646504
118	0x3ee6b1d3	0.45057544
119	0x3f36f468	0.71466684
120	0xbf40df20	-0.7534046
121	0x3f206820	0.6265888
122	0x3f93f4da	1.1559098
123	0xbed2dce1	-0.41184142
124	0x3ee4cba6	0.4468662
125	0x3efe7c61	0.4970427
126	0x3f87e743	1.061745
127	0xbf8b8a85	-1.0901648

network_body._body_endoder.seq_layers.0.bias f4 [128]
0	0x00000000	0.0
1	0x00000000	0.0
2	0x00000000	0.0
3	0x00000000	0.0
4	0x00000000	0.0
5	0x00000000	0.0
6	0x00000000	0.0
7	0x00000000	0.0
8	0x00000000	0.0
9	0x00000000	0.0
10	0x00000000	0.0
11	0x00000000	0.0
12	0x00000000	0.0
13	0x00000000	0.0
14	0x00000000	0.0
15	0x00000000	0.0
16	0x00000000	0.0
17	0x00000000	0.0
18	0x00000000	0.0
19	0x00000000	0.0
20	0x00000000	0.0
21	0x00000000	0.0
22	0x00000000	0.0
23	0x00000000	0.0
24	0x00000000	0.0
25	0x00000000	0.0
26	0x00000000	0.0
27	0x00000000	0.0
28	0x00000000	0.0
29	0x00000000	0.0
30	0x00000000	0.0
31	0x00000000	0.0
32	0x00000000	0.0
33	0x00000000	0.0
34	0x00000000	0.0
35	0x00000000	0.0
36	0x00000000	0.0
37	0x00000000	0.0
38	0x00000000	0.0
39	0x00000000	0.0
40	0x00000000	0.0
41	0x00000000	0.0
42	0x00000000	0.0
43	0x00000000	0.0
44	0x00000000	0.0
45	0x00000000	0.0
46	0x00000000	0.0
47	0x00000000	0.0
48	0x00000000	0.0
49	0x00000000	0.0
50	0x00000000	0.0
51	0x00000000	0.0
52	0x00000000	0.0
53	0x00000000	0.0
54	0x00000000	0.0
55	0x00000000	0.0
56	0x00000000	0.0
57	0x00000000	0.0
58	0x00000000	0.0
59	0x00000000	0.0
60	0x00000000	0.0
61	0x00000000	0.0
62	0x00000000	0.0
63	0x00000000	0.0
64	0x00000000	0.0
65	0x00000000	0.0
66	0x00000000	0.0
67	0x00000000	0.0
68	0x00000000	0.0
69	0x00000000	0.0
70	0x00000000	0.0
71	0x00000000	0.0
72	0x00000000	0.0
73	0x00000000	0.0
74	0x00000000	0.0
75	0x00000000	0.0
76	0x00000000	0.0
77	0x00000000	0.0
78	0x00000000	0.0
79	0x00000000	0.0
80	0x00000000	0.0
81	0x00000000	0.0
82	0x00000000	0.0
83	0x00000000	0.0
84	0x00000000	0.0
85	0x00000000	0.0
86	0x00000000	0.0
87	0x00000000	0.0
88	0x00000000	0.0
89	0x00000000	0.0
90	0x00000000	0.0
91	0x00000000	0.0
92	0x00000000	0.0
93	0x00000000	0.0
94	0x00000000	0.0
95	0x00000000	0.0
96	0x00000000	0.0
97	0x00000000	0.0
98	0x00000000	0.0
99	0x00000000	0.0
100	0x00000000	0.0
101	0x00000000	0.0
102	0x00000000	0.0
103	0x00000000	0.0
104	0x00000000	0.0
105	0x00000000	0.0
106	0x00000000	0.0
107	0x00000000	0.0
108	0x00000000	0.0
109	0x00000000	0.0
110	0x00000000	0.0
111	0x00000000	0.0
112	0x00000000	0.0
113	0x00000000	0.0
114	0x00000000	0.0
115	0x00000000	0.0
116	0x00000000	0.0
117	0x00000000	0.0
118	0x00000000	0.0
119	0x00000000	0.0
120	0x00000000	0.0
121	0x00000000	0.0
122	0x00000000	0.0
123	0x00000000	0.0
124	0x00000000	0.0
125	0x00000000	0.0
126	0x00000000	0.0
127	0x00000000	0.0

network_body._body_endoder.seq_layers.2.weight f4 [128, 128]
0	0xbcf3c584	-0.029757269
1	0xbc8d9d77	-0.017287
2	0x3cb47fbe	0.022033568
3	0xbb67b568	-0.003535593
4	0x3d10eb68	0.03538075
5	0xbe054180	-0.13013268
6	0xbe051b90	-0.12998796
7	0x3bdef76f	0.0068043987
8	0x3da2872f	0.079359405
9	0x3de21f19	0.11041088
10	0x3d2c89b1	0.0421235
11	0xbbeda90d	-0.0072528184
12	0xbd6be5b4	-0.05759211
13	0xbd2535a1	-0.040334348
14	0x3ea2533b	0.31704125
15	0xbd29630a	-0.041354217
16	0xbc8a9ba2	-0.016919915
17	0x3bfb67c9	0.0076722843
18	0xbc76226e	-0.015022857
19	0xbe4c3bc3	-0.19944672
20	0x3c37cce5	0.011218284
21	0xbc6788a7	-0.014131702
22	0xbe5d6f9d	-0.21624608
23	0xbceeb31f	-0.029138146
24	0xbe24464f	-0.16042446
25	0xbde6f41a	-0.112770274
26	0x3e065371	0.13117768
27	0x3bfbbf7c	0.007682739
28	0x3de045c0	0.10950804
29	0x3deb188f	0.114792936
30	0xbd443005	-0.047897357
31	0x3dfd4079	0.12365813
32	0xbd8b977c	-0.06816003
33	0x3da7e7e3	0.08198526
34	0x3b6fe473	0.0036604672
35	0xbd9691a1	-0.07351995
36	0xbd2d9c75	-0.042385537
37	0x3ce5a699	0.028033542
38	0xbe8390a6	-0.25696295
39	0xbc283d8e	-0.010268582
40	0x3d3396e2	0.043845065
41	0x3d68abbb	0.0568044
42	0xbd2dae27	-0.042402413
43	0x3e30afcb	0.1725456
44	0xbe0c1137	-0.13678442
45	0x3c90d96b	0.017681798
46	0xbd6902f0	-0.056887567
47	0x3d8d2fe2	0.068938985
48	0x3ddc701a	0.10763569
49	0x3df7b5d9	0.120952316
50	0xbdf32ab1	-0.11873377
51	0x3d14518c	0.03621058
52	0xbd5052b6	-0.05086013
53	0x3e1862b7	0.14881407
54	0xbd3159a0	-0.043298364
55	0xbe0124c0	-0.12611675
56	0x3c94d849	0.018169539
57	0x3cf83b17	0.030301614
58	0xbe1daab0	-0.15397143
59	0x3d0b7460	0.03404653
60	0xbdd915b1	-0.105998404
61	0x3d0f44f3	0.034977864
62	0x3daf09e8	0.08546811
63	0x3cc0f29f	0.02355319
64	0xbc1d55c7	-0.00960297
65	0xbe17a527	-0.14809094
66	0x3d7001d1	0.058595482
67	0x3e1c89c1	0.15286924
68	0x3e3f946b	0.1870896
69	0x3b3eb2ca	0.0029098266
70	0x3dc9968f	0.0984317
71	0xbdb86ff5	-0.09005729
72	0xbd4643a8	-0.048404366
73	0x3d836556	0.06415813
74	0xbc5ed4ce	-0.013600541
75	0xbdaabca9	-0.08336765
76	0xbe062024	-0.13098198
77	0x3bcf8d57	0.0063339877
78	0x3e80025e	0.25001806
79	0x3d5bd105	0.053666133
80	0xbdf3d544	-0.119059116
81	0xbcea2630	-0.028582662
82	0x3e188eb2	0.14898184
83	0x3a7d8094	0.0009670344
84	0xbd53ef55	-0.051741917
85	0x3dd32828	0.103103936
86	0x3d345add	0.044031966
87	0xbe1e2562	-0.15443948
88	0x3df97f30	0.12182462
89	0xbd282806	-0.041053794
90	0x3d84c2da	0.064824775
91	0x3d9589e8	0.07301694
92	0xbdb40422	-0.08789851
93	0xbda05c80	-0.07830143
94	0xbbd00bad	-0.006349048
95	0x3e3f133d	0.18659683
96	0x3ced40f4	0.028961636
97	0x3de22a14	0.11043182
98	0x3c188f30	0.009311482
99	0xbdf53d6e	-0.119746074
100	0x3cdd3f4d	0.027007723
101	0x3e1dfd4f	0.15428661
102	0xbc5880ab	-0.013214271
103	0xbd1bfa44	-0.03808047
104	0xbd47992e	-0.048730068
105	0xbe2c9aff	-0.16856001
106	0xbcd0dbc6	-0.025495421
107	0x3d96fa0d	0.07371912
108	0x3d07b633	0.033132743
109	0x3d7577e3	0.059928786
110	0x3d4fd729	0.050742302
111	0xbd35f35f	-0.04442155
112	0xbdaaa49f	-0.0833218
113	0x3e05e444	0.13075358
114	0xbdccd5b2	-0.10001697
115	0xbe05a229	-0.1305014
116	0xbd0ee04c	-0.034881875
117	0x3e39255f	0.18080662
118	0xbdbbe8c6	-0.091752574
119	0xbb2eb38a	-0.0026657307
120	0xbdcc2d6d	-0.09969602
121	0xbe4acf1c	-0.19805568
122	0xbd951e11	-0.07281125
123	0xb9a5eb40	-0.00031646527
124	0xbd328c7a	-0.043591
125	0xbdb1f21c	-0.08688757
126	0x3cf5c1ea	0.029999692
127	0xbd493856	-0.04912599
128	0xbda824e4	-0.08210161
129	0x3d9130f5	0.07089416
130	0xbe24af0d	-0.16082402
131	0x3ca38e18	0.019965217
132	0xbd02e524	-0.031956807
133	0x3dd80942	0.10548641
134	0xbc8e737a	-0.017389048
135	0x3c37a8dc	0.011209693
136	0x3c86c82b	0.01645287
137	0x3dbc1677	0.09183972
138	0x3e1bb014	0.15203887
139	0xbd2de5db	-0.042455535
140	0xbe4c5533	-0.19954376
141	0xbd4bcaa0	-0.049753785
142	0x3cb957a9	0.022624807
143	0x3c5f95c6	0.013646549
144	0x3d8487a6	0.064711854
145	0x3d112967	0.035439875
146	0x3db4c25f	0.08826136
147	0xbc6247a8	-0.0138110295
148	0x3ba1d40a	0.004938607
149	0xbcd50cff	-0.026007174
150	0x3d7b1358	0.061297745
151	0xbd23bf9f	-0.039977666
152	0x3db5c3bf	0.08875226
153	0x3e21cc25	0.15800531
154	0x3dc5c3ec	0.0965651
155	0x3e35110e	0.17682287
156	0xbcd15775	-0.025554398
157	0xbe168c1b	-0.14701883
158	0xba1a2b36	-0.0005881073
159	0x3ca4a285	0.020097027
160	0xbe207b7a	-0.15672103
161	0x3d8e881b	0.06959554
162	0xbe5e8aeb	-0.2173268
163	0xbc44b7c6	-0.012006706
164	0x3da96bef	0.0827254
165	0x3e8cf014	0.27526915
166	0x3e2f09b6	0.17093548
167	0xbc63a1aa	-0.013893524
168	0xbdd5eb52	-0.104452744
169	0x3e2e7bb2	0.17039374
170	0xbe14c2c5	-0.14527424
171	0x3e0b7158	0.13617456
172	0xbd83f2bf	-0.064427845
173	0xbc9f6798	-0.019458577
174	0x3cc73167	0.024315549
175	0xbdef5129	-0.11685402
176	0xbbc2fc07	-0.005950454
177	0x3b180a04	0.002319933
178	0xbc12c5ca	-0.008958289
179	0x3d2fc0d5	0.04290851
180	0x3bfa3906	0.0076361923
181	0xbc29fbf7	-0.0103750145
182	0x3ceb0f1a	0.028693724
183	0x3d5ba056	0.053619705
184	0x3d170993	0.036874365
185	0x3c38d12a	0.011280337
186	0xbda2dd56	-0.07952373
187	0xbe0e139f	-0.13874672
188	0xbd697f73	-0.05700631
189	0x3dbf66a0	0.09345746
190	0x3aff72b0	0.0019489136
191	0x3d59b424	0.05315031
192	0xbd847f60	-0.06469607
193	0x3c5115bf	0.012761532
194	0xbd28296b	-0.041055124
195	0xbd3b522b	-0.04573266
196	0xbd007382	-0.031360157
197	0xbd36276a	-0.044471182
198	0x3d6e6f05	0.058211345
199	0xbdffb341	-0.12485362
200	0xbe230f54	-0.15923816
201	0x3dfc43ae	0.123175964
202	0xbd209567	-0.03920498
203	0x3d96ce06	0.073635146
204	0x3e155f3d	0.14587112
205	0xbdae8831	-0.0852207
206	0xbcdeadb3	-0.027182436
207	0x3c9b73e7	0.018976165
208	0xbd8159d2	-0.0631596
209	0x3dbf139a	0.093299106
210	0x3e6662d8	0.22498643
211	0x3e500b4a	0.20316806
212	0xbb82d19d	-0.003992273
213	0x3d84f885	0.06492714
214	0x3d0c0618	0.0341855
215	0x3a387df0	0.0007037809
216	0x3e453482	0.19258311
217	0xbe246122	-0.16052678
218	0x3a39a818	0.0007082238
219	0x3c33f1bc	0.010982927
220	0xbe57791d	-0.21042295
221	0xbc847b10	-0.016171962
222	0xbd8a38c2	-0.06749107
223	0x3d84d8ac	0.064866394
224	0x3a565edc	0.00081775873
225	0xbcd3c821	-0.025852265
226	0x3d8a4d00	0.06752968
227	0x3afb4ab1	0.001917204
228	0xbc44ba2c	-0.012007277
229	0x3da6001a	0.08105488
230	0x3d1b7480	0.0379529
231	0x3d3c943d	0.04603981
232	0x3d1f228a	0.0388513
233	0x3e43c3d7	0.19117676
234	0x3dc04d8f	0.09389793
235	0xbc36d786	-0.011159783
236	0xbd051a10	-0.03249556
237	0x3ce154cc	0.027506255
238	0xbe12d264	-0.1433807
239	0x3e4b8157	0.19873558
240	0x3e1da40b	0.15394609
241	0x3c08b79a	0.008344555
242	0xbdcfb657	-0.101422004
243	0xbe17ab33	-0.14811401
244	0xbddb526a	-0.107090786
245	0x3d1450c7	0.036209848
246	0x3d7164bd	0.058933962
247	0xbdc1b931	-0.094591506
248	0x3b99bfff	0.004692077
249	0x3e4c919a	0.19977418
250	0xbc2b7288	-0.010464318
251	0xbe2e0075	-0.16992362
252	0xbbc04121	-0.005867139
253	0x3d8ae88a	0.067826346
254	0x3d89ea82	0.06734182
255	0xbe68fa34	-0.22751695

network_body._body_endoder.seq_layers.2.bias f4 [128]
0	0x00000000	0.0
1	0x00000000	0.0
2	0x00000000	0.0
3	0x00000000	0.0
4	0x00000000	0.0
5	0x00000000	0.0
6	0x00000000	0.0
7	0x00000000	0.0
8	0x00000000	0.0
9	0x00000000	0.0
10	0x00000000	0.0
11	0x00000000	0.0
12	0x00000000	0.0
13	0x00000000	0.0
14	0x00000000	0.0
15	0x00000000	0.0
16	0x00000000	0.0
17	0x00000000	0.0
18	0x00000000	0.0
19	0x00000000	0.0
20	0x00000000	0.0
21	0x00000000	0.0
22	0x00000000	0.0
23	0x00000000	0.0
24	0x00000000	0.0
25	0x00000000	0.0
26	0x00000000	0.0
27	0x00000000	0.0
28	0x00000000	0.0
29	0x00000000	0.0
30	0x00000000	0.0
31	0x00000000	0.0
32	0x00000000	0.0
33	0x00000000	0.0
34	0x00000000	0.0
35	0x00000000	0.0
36	0x00000000	0.0
37	0x00000000	0.0
38	0x00000000	0.0
39	0x00000000	0.0
40	0x00000000	0.0
41	0x00000000	0.0
42	0x00000000	0.0
43	0x00000000	0.0
44	0x00000000	0.0
45	0x00000000	0.0
46	0x00000000	0.0
47	0x00000000	0.0
48	0x00000000	0.0
49	0x00000000	0.0
50	0x00000000	0.0
51	0x00000000	0.0
52	0x00000000	0.0
53	0x00000000	0.0
54	0x00000000	0.0
55	0x00000000	0.0
56	0x00000000	0.0
57	0x00000000	0.0
58	0x00000000	0.0
59	0x00000000	0.0
60	0x00000000	0.0
61	0x00000000	0.0
62	0x00000000	0.0
63	0x00000000	0.0
64	0x00000000	0.0
65	0x00000000	0.0
66	0x00000000	0.0
67	0x00000000	0.0
68	0x00000000	0.0
69	0x00000000	0.0
70	0x00000000	0.0
71	0x00000000	0.0
72	0x00000000	0.0
73	0x00000000	0.0
74	0x00000000	0.0
75	0x00000000	0.0
76	0x00000000	0.0
77	0x00000000	0.0
78	0x00000000	0.0
79	0x00000000	0.0
80	0x00000000	0.0
81	0x00000000	0.0
82	0x00000000	0.0
83	0x00000000	0.0
84	0x00000000	0.0
85	0x00000000	0.0
86	0x00000000	0.0
87	0x00000000	0.0
88	0x00000000	0.0
89	0x00000000	0.0
90	0x00000000	0.0
91	0x00000000	0.0
92	0x00000000	0.0
93	0x00000000	0.0
94	0x00000000	0.0
95	0x00000000	0.0
96	0x00000000	0.0
97	0x00000000	0.0
98	0x00000000	0.0
99	0x00000000	0.0
100	0x00000000	0.0
101	0x00000000	0.0
102	0x00000000	0.0
103	0x00000000	0.0
104	0x00000000	0.0
105	0x00000000	0.0
106	0x00000000	0.0
107	0x00000000	0.0
108	0x00000000	0.0
109	0x00000000	0.0
110	0x00000000	0.0
111	0x00000000	0.0
112	0x00000000	0.0
113	0x00000000	0.0
114	0x00000000	0.0
115	0x00000000	0.0
116	0x00000000	0.0
117	0x00000000	0.0
118	0x00000000	0.0
119	0x00000000	0.0
120	0x00000000	0.0
121	0x00000000	0.0
122	0x00000000	0.0
123	0x00000000	0.0
124	0x00000000	0.0
125	0x00000000	0.0
126	0x00000000	0.0
127	0x00000000	0.0

value_heads.value_heads.extrinsic.weight f4 [1, 128]
0	0x3da3f2ff	0.08005332
1	0x3e4e2ac7	0.20133506
2	0x3e2395e7	0.15975152
3	0xbe28ecf3	-0.16496639
4	0xbcf2f29a	-0.029656697
5	0x3e167bd3	0.14695673
6	0x3e4cfb8c	0.20017833
7	0x3ced0abb	0.02893578
8	0xbdb74ea2	-0.08950545
9	0xbd37a49c	-0.044834718
10	0xbe4680aa	-0.19385019
11	0x3dc33ac7	0.09532695
12	0x3e38028f	0.17969726
13	0xbe153ac4	-0.14573199
14	0xbe0712fa	-0.13190833
15	0x3ce9e71c	0.028552584
16	0x3da3aa1d	0.07991431
17	0x3e034baa	0.12821832
18	0x3e5af31b	0.213818
19	0x3e59bd7f	0.21263693
20	0x3e4864d4	0.19569713
21	0xbd5b64e7	-0.053563025
22	0xbd5606b9	-0.052252505
23	0xbe35fc83	-0.17772107
24	0x3e1cc6f6	0.15310273
25	0xbe355e31	-0.17711712
26	0x3e5ae0a0	0.2137475
27	0x3dc1b39a	0.094580844
28	0xbd6a10ef	-0.057145055
29	0x3d9a23a0	0.07526326
30	0x3e1cf927	0.15329419
31	0xbe39e42e	-0.1815345
32	0x3e177749	0.14791597
33	0xbe58638f	-0.21131729
34	0xbd507823	-0.05089582
35	0xbe441a95	-0.19150765
36	0x3d948282	0.07251455
37	0xbe4daf09	-0.20086302
38	0xbc8f5c13	-0.01749996
39	0x3e1ad1e2	0.15119126
40	0xbd918212	-0.07104887
41	0x3e3ad08d	0.18243618
42	0xbe022cdc	-0.12712425
43	0xbd7e3fa9	-0.06207243
44	0xbc43cc12	-0.01195051
45	0x3e0ba9e9	0.13639034
46	0xbe4d6be8	-0.20060694
47	0xbe1a6cfa	-0.15080634
48	0xbdb3b629	-0.08774979
49	0xbe4219ab	-0.18955104
50	0x3e2f8cfe	0.17143628
51	0xbb3df39f	-0.002898432
52	0x3de88395	0.11353222
53	0x3e0977ef	0.13424657
54	0x3e239846	0.15976056
55	0xbdb306a4	-0.08741501
56	0x3e0a874a	0.13528171
57	0x3c0d7fba	0.008636409
58	0x3e42277a	0.18960372
59	0x3e360844	0.1777659
60	0x3c2bb9b2	0.010481285
61	0x3d91d3fd	0.07120512
62	0xbe2be753	-0.16787462
63	0x3df0e9f2	0.117633715
64	0xbd631f00	-0.055449486
65	0xbdf4a4e6	-0.119455144
66	0x3ca7a114	0.02046255
67	0x3d658706	0.05603697
68	0x3d114ee2	0.03547562
69	0xbe5838ae	-0.21115372
70	0xbd25c3f2	-0.04047007
71	0xbe3a5fcd	-0.18200608
72	0x3d21b454	0.039478615
73	0x3dae2028	0.08502227
74	0x3c8e1a32	0.017346475
75	0xbe54d964	-0.20786053
76	0x3e10163e	0.14070985
77	0xbc40238b	-0.011727224
78	0xbe2bcfdd	-0.16778512
79	0xbd5de342	-0.054171808
80	0xbdc04cb9	-0.09389634
81	0x3e19743c	0.14985746
82	0x3d229850	0.039696038
83	0x3c85f6c2	0.016353015
84	0xbdd16d99	-0.10225982
85	0xbce9e1b7	-0.028550012
86	0x3d8e78ce	0.069566354
87	0x3e1af8cc	0.15133971
88	0xbda1472d	-0.07874904
89	0x3e41585d	0.18881364
90	0x3bc83972	0.0061103636
91	0x3e1dd5ee	0.15413639
92	0xbe018a0d	-0.12650318
93	0xbe18c211	-0.1491778
94	0xbe4e30df	-0.2013583
95	0xbe249bbb	-0.16075031
96	0xbdb3037e	-0.087409005
97	0xbdd681db	-0.10473987
98	0xb94a93cd	-0.00019319281
99	0xbdfb9ce7	-0.12285786
100	0x3e262a64	0.16227108
101	0xbdb380cf	-0.08764803
102	0xbdfd1863	-0.12358167
103	0x3d7527f1	0.059852544
104	0xbd874e71	-0.066067584
105	0x3e38c3c5	0.1804343
106	0x3d97b62c	0.074077934
107	0x3e36de6f	0.17858289
108	0xbd54b92f	-0.051934417
109	0x3e3555dc	0.17708534
110	0x3b59f1f9	0.00332558
111	0x3c92cd12	0.01792005
112	0xbdf779a7	-0.1208375
113	0xbd39c878	-0.045357198
114	0xbe196473	-0.14979725
115	0x3e173144	0.14764887
116	0x3c74bb7d	0.014937279
117	0xbe4427bf	-0.19155787
118	0x3da17817	0.078842334
119	0x3dd4d79e	0.10392688
120	0x3e0cc134	0.13745576
121	0x3df59d77	0.11992925
122	0x3e0d3218	0.1378864
123	0x3d59af4e	0.0531457
124	0x3db1626b	0.0866135
125	0x3d0ef95b	0.034905773
126	0xbe419359	-0.18903865
127	0xbd577f7d	-0.052611817
