3D/results/Test2/MoveToGoal/MoveToGoal-1984.onnx (onnx, 71561 bytes, 4 tensors)

network_body._body_endoder.seq_layers.0.weight f4 [128, 1]
-0.9702684 -0.98113734 1.3029969 0.589114 -0.03986548 -0.027925747 -0.4532787 -0.3502424
-1.0176693 -0.18604736 1.4939425 -0.4247394 -0.13189033 0.2705788 0.63279295 0.7832975
0.74660224 0.97776973 0.6925157 -0.52187973 -0.57170534 1.0339221 1.1518633 0.08320584
1.5103896 -0.66163576 -0.24486308 0.70644253 -0.9192488 1.7505883 -1.6049414 0.99889916
-0.077480145 2.0599797 0.177591 1.862283 0.58766437 -0.5015317 -1.0244153 -0.8190638
-0.26296183 1.5839974 0.92024684 0.7941055 0.45827818 1.4725074 0.5167846 -0.40130532
-0.552314 -0.24571387 0.81365806 0.34475586 0.86740106 0.44768822 -0.0645858 1.2716814
0.8107301 0.39672616 0.6276071 -1.6287557 0.68057764 0.39700818 -0.37057105 0.74959123
-0.6396452 0.16034819 4.2647448 0.4443919 -0.09405224 0.3976419 0.631846 0.1650235
-0.32831642 -0.30602035 -1.617727 0.45769817 -0.029698266 -0.35417745 -1.2645855 -1.7039515
-1.4843988 0.4410468 0.97787654 0.20035575 -1.8067827 1.8084898 0.8164672 -0.6994545
-0.16838574 0.81226134 0.51832956 1.980197 1.0586458 0.40976566 0.71945983 -1.75169
-1.5705712 -0.010784905 -0.625349 0.04630358 1.2246125 -1.7818971 -1.8012428 -1.0198337
-0.36115986 -0.1815603 -0.06593974 0.71045303 -0.63744223 1.610885 0.9765184 -0.63948864
-1.0541542 -1.3634474 -0.3066333 0.4108722 -0.73244476 -0.24190469 0.2756503 -0.9696859
-0.8098539 0.24243024 1.2607683 -0.6773617 -0.60139555 1.0672759 1.8290482 -0.14704882
00000000: 8363 78bf d12b 7bbf 9ac8 a63f 2dd0 163f
00000010: fc49 23bd 89c4 e4bc 2514 e8be f952 b3be
00000020: fd42 82bf 3383 3ebe 8239 bf3f 7177 d9be
00000030: 420e 07be 4e89 8a3e b8fe 213f 2f86 483f
00000040: 5321 3f3f 1e4f 7a3f b548 313f e999 05bf
00000050: 485b 12bf 8f57 843f 4270 933f d367 aa3d
00000060: 7254 c13f f660 29bf 63bd 7abe 6bd9 343f
00000070: e453 6bbf 4713 e03f b86e cdbf dbb7 7f3f
00000080: e9ad 9ebd b5d6 0340 6ada 353e 4a5f ee3f
00000090: 2c71 163f 6264 00bf 0a20 83bf 2aae 51bf
000000a0: efa2 86be 6dc0 ca3f 4c95 6b3f 804a 4b3f
000000b0: 70a3 ea3e 1f7b bc3f ff4b 043f e477 cdbe
000000c0: 7364 0dbf 6b9c 7bbe e54b 503f d783 b03e
000000d0: ff0d 5e3f 6437 e53e 8f45 84bd 75c6 a23f
000000e0: 028c 4f3f b11f cb3e dcaa 203f 117b d0bf
000000f0: 563a 2e3f a844 cb3e 7dbb bdbe 36e5 3f3f
00000100: cabf 23bf 5132 243e ca78 8840 5687 e33e
00000110: 769e c0bd b897 cb3e a9c0 213f ecfb 283e
00000120: 1719 a8be b3ae 9cbe ae11 cfbf 6a57 ea3e
00000130: c749 f3bc bf56 b5be f0dd a1bf 151b dabf
00000140: c800 bebf e3d0 e13e 1e56 7a3f 0f2a 4d3e
00000150: a844 e7bf 987c e73f ff03 513f 730f 33bf
00000160: 506d 2cbe 5cf0 4f3f 3fb1 043f 1877 fd3f
00000170: b581 873f cecc d13e 852e 383f 6137 e0bf
00000180: 7a08 c9bf 2cb3 30bc df16 20bf d3a8 3d3d
00000190: 1ac0 9c3f 3415 e4bf 208f e6bf e989 82bf
000001a0: f2e9 b8be f1ea 39be 6a0b 87bd 40e0 353f
000001b0: 6a2f 23bf 7b31 ce3f 1cfd 793f 87b5 23bf
000001c0: 86ee 86bf 7285 aebf 0aff 9cbe d75d d23e
000001d0: 8081 3bbf ddb5 77be 0922 8d3e 563d 78bf
000001e0: 9652 4fbf a23f 783e db60 a13f 9467 2dbf
000001f0: 0ff5 19bf 7f9c 883f 401e ea3f f793 16be

network_body._body_endoder.seq_layers.0.bias f4 [128]
0.0 0.0 0.0 0.0 0.0 0.0 0.0 0.0
0.0 0.0 0.0 0.0 0.0 0.0 0.0 0.0
0.0 0.0 0.0 0.0 0.0 0.0 0.0 0.0
0.0 0.0 0.0 0.0 0.0 0.0 0.0 0.0
0.0 0.0 0.0 0.0 0.0 0.0 0.0 0.0
0.0 0.0 0.0 0.0 0.0 0.0 0.0 0.0
0.0 0.0 0.0 0.0 0.0 0.0 0.0 0.0
0.0 0.0 0.0 0.0 0.0 0.0 0.0 0.0
0.0 0.0 0.0 0.0 0.0 0.0 0.0 0.0
0.0 0.0 0.0 0.0 0.0 0.0 0.0 0.0
0.0 0.0 0.0 0.0 0.0 0.0 0.0 0.0
0.0 0.0 0.0 0.0 0.0 0.0 0.0 0.0
0.0 0.0 0.0 0.0 0.0 0.0 0.0 0.0
0.0 0.0 0.0 0.0 0.0 0.0 0.0 0.0
0.0 0.0 0.0 0.0 0.0 0.0 0.0 0.0
0.0 0.0 0.0 0.0 0.0 0.0 0.0 0.0
00000000: 0000 0000 0000 0000 0000 0000 0000 0000
00000010: 0000 0000 0000 0000 0000 0000 0000 0000
00000020: 0000 0000 0000 0000 0000 0000 0000 0000
00000030: 0000 0000 0000 0000 0000 0000 0000 0000
00000040: 0000 0000 0000 0000 0000 0000 0000 0000
00000050: 0000 0000 0000 0000 0000 0000 0000 0000
00000060: 0000 0000 0000 0000 0000 0000 0000 0000
00000070: 0000 0000 0000 0000 0000 0000 0000 0000
00000080: 0000 0000 0000 0000 0000 0000 0000 0000
00000090: 0000 0000 0000 0000 0000 0000 0000 0000
000000a0: 0000 0000 0000 0000 0000 0000 0000 0000
000000b0: 0000 0000 0000 0000 0000 0000 0000 0000
000000c0: 0000 0000 0000 0000 0000 0000 0000 0000
000000d0: 0000 0000 0000 0000 0000 0000 0000 0000
000000e0: 0000 0000 0000 0000 0000 0000 0000 0000
000000f0: 0000 0000 0000 0000 0000 0000 0000 0000
00000100: 0000 0000 0000 0000 0000 0000 0000 0000
00000110: 0000 0000 0000 0000 0000 0000 0000 0000
00000120: 0000 0000 0000 0000 0000 0000 0000 0000
00000130: 0000 0000 0000 0000 0000 0000 0000 0000
00000140: 0000 0000 0000 0000 0000 0000 0000 0000
00000150: 0000 0000 0000 0000 0000 0000 0000 0000
00000160: 0000 0000 0000 0000 0000 0000 0000 0000
00000170: 0000 0000 0000 0000 0000 0000 0000 0000
00000180: 0000 0000 0000 0000 0000 0000 0000 0000
00000190: 0000 0000 0000 0000 0000 0000 0000 0000
000001a0: 0000 0000 0000 0000 0000 0000 0000 0000
000001b0: 0000 0000 0000 0000 0000 0000 0000 0000
000001c0: 0000 0000 0000 0000 0000 0000 0000 0000
000001d0: 0000 0000 0000 0000 0000 0000 0000 0000
000001e0: 0000 0000 0000 0000 0000 0000 0000 0000
000001f0: 0000 0000 0000 0000 0000 0000 0000 0000

network_body._body_endoder.seq_layers.2.weight f4 [128, 128]
0.025298867 0.07151704 -0.084992684 0.052487064 0.088800535 -0.08702276 0.043993622 -0.014307074
0.16086231 -0.111663625 -0.0052856165 -0.09397817 0.06408572 -0.1744826 0.10682114 -0.15594001
0.0028804357 -0.052522533 -0.073821865 -0.02831212 -0.057717662 -0.08259686 0.07027236 -0.10873323
-0.028989745 -0.040197585 -0.062038496 -0.059346218 -0.051254317 -0.021361988 0.0953713 0.09609346
-0.07506575 -0.025870362 -0.043895032 -0.15159431 -0.0691746 -0.0035570485 -0.0157504 0.049806833
-0.044271972 0.03479581 -0.031927243 0.009212134 -0.08179587 -0.108233966 0.06200108 0.03456816
-0.06424615 0.09967006 -0.1750901 -0.1393712 -0.02368672 -0.047607843 -0.07506051 -0.08852801
0.057358086 -0.09025597 0.09000806 0.041971892 -0.028980264 -0.07204017 0.03610337 0.220577
0.09098594 0.060288865 0.0071524503 0.07616782 -0.0658217 0.03418128 0.14788756 0.03837209
0.091273315 0.0498083 0.060362153 0.07189081 -0.049085453 -0.115607426 0.04584042 0.017133677
-0.15343739 -0.041079435 0.01001461 0.01943164 -0.13843618 0.028466584 0.05375206 -0.071925536
-0.050980095 0.08537358 0.013491597 0.13499771 -0.08493402 -0.021589518 0.009393923 -0.029931493
-4.898648e-05 -0.033739027 -0.11726648 0.01264912 -0.0011516463 0.012046617 0.110615306 -0.14597628
-0.1027031 -0.03403146 0.17134798 -0.014775367 0.04340529 0.065264605 -0.050136637 -0.049768783
0.018412534 0.03890011 -0.049493786 -0.017621024 0.04207442 0.07311582 0.1651923 -0.016382512
0.05886312 0.042905416 -0.13270529 -0.0875743 -0.079451635 0.2575842 -0.010954944 0.025371704
0.025710447 -0.068935946 -0.07324365 -0.048111822 -0.021849792 0.06889011 -0.0527144 0.05968785
0.060600415 0.084066436 0.11299105 -0.12577014 0.064841956 -0.02178431 -0.11071916 0.031209443
0.141948 -0.053623367 -0.031504028 0.06016205 0.08219031 0.011778109 -0.014051682 -0.028600642
0.079916306 0.055481974 0.055119652 0.017185574 0.074300334 0.044724833 -0.09176298 -0.061143406
-0.13454108 -0.0432315 -0.059829134 0.08807727 -0.040936366 0.10167796 -0.0031410442 -0.140122
-0.03475526 -0.043498598 -0.036598872 0.08071309 0.17774673 0.12512912 0.051331885 -0.023330348
-0.005555492 -0.0074901506 -0.20947081 0.00596508 -0.04319285 0.0430076 0.0470048 -0.030646466
-0.123332284 0.008723038 0.18538201 0.09432632 -0.13678467 -0.0010067197 -0.034630757 -0.036275104
0.018193014 -0.18256336 0.07011497 -0.070623845 0.053485684 0.09038189 0.13781159 0.17704506
0.004839134 0.009099754 0.051048838 0.0755131 0.054989494 -0.07055432 0.026004223 0.021206178
0.017184038 -0.09449237 -0.035102747 -0.09108425 0.015144727 -0.15809032 -0.0127893835 0.16039047
0.0058587273 0.016897319 0.096100874 0.2311505 -0.013920553 -0.008481644 -0.04731707 -0.19287328
0.038114406 0.06998134 -0.09385663 0.0008600778 0.06995117 0.021778677 0.10891991 -0.11566886
-0.13650425 0.05636751 0.106058545 0.094928324 0.16222262 -0.08879379 -0.007954788 0.05438566
0.11865032 0.024578843 -0.0073507414 0.099743284 0.052099347 0.00914653 0.03676087 0.08000797
-0.030695172 -0.074233204 -0.061688934 -0.18188158 -0.06455688 0.1351257 0.1380151 0.08588292
00000000: 923f cf3c 8777 923d a510 aebd adfc 563d
00000010: 0edd b53d fd38 b2bd a832 343d 3868 6abc
00000020: 17b9 243e e6af e4bd f732 adbb a077 c0bd
00000030: 603f 833d 91ab 32be 0bc5 da3d bdae 1fbe
00000040: b1c5 3c3b de21 57bd eb2f 97bd d2ee e7bc
00000050: 5b69 6cbd 8b28 a9bd f5ea 8f3d 87af debd
00000060: e77b edbc 39a6 24bd 141c 7ebd 0515 73bd
00000070: 0cf0 51bd 56ff aebc 0752 c33d a6cc c43d
00000080: 12bc 99bd 15ee d3bc 47cb 33bd 8a3b 1bbe
00000090: 6aab 8dbd 5f1d 69bb fc06 81bc 4002 4c3d
000000a0: 8756 35bd 0d86 0e3d 24c6 02bd 7eee 163c
000000b0: 9884 a7bd c5a9 ddbd d8f4 7d3d 5897 0d3d
000000c0: 7c93 83bd d11f cc3d d24a 33be 53b7 0ebe
000000d0: a70a c2bc 7100 43bd 53b9 99bd 2c4e b5bd
000000e0: 50f0 6a3d 1fd8 b8bd 2556 b83d b8ea 2b3d
000000f0: 0568 edbc cc89 93bd 21e1 133d f0de 613e
00000100: d656 ba3d 75f1 763d 1a5f ea3b e0fd 9b3d
00000110: 87cd 86bd ab01 0c3d d66f 173e 0d2c 1d3d
00000120: 81ed ba3d ca03 4c3d 4e3e 773d 7d3b 933d
00000130: d40d 49bd 96c3 ecbd 2ac3 3b3d ed5b 8c3c
00000140: b11e 1dbe e942 28bd 5214 243c 1a2f 9f3c
00000150: 37c2 0dbe c132 e93c 1f2b 5c3d b24d 93bd
00000160: 81d0 50bd 58d8 ae3d dc0b 5d3c d73c 0a3e
00000170: e3f1 adbd 80dc b0bc f8e8 193c e432 f5bc
00000180: d576 4db8 ef31 0abd 6929 f0bd 413e 4f3c
00000190: d6f2 96ba 2d5f 453c 478a e23d ce7a 15be
000001a0: 0156 d2bd 9264 0bbd d875 2f3e 6214 72bc
000001b0: bfc9 313d 73a9 853d 135c 4dbd 5ada 4bbd
000001c0: e2d5 963c b955 1f3d ffb9 4abd f759 90bc
000001d0: 3a56 2c3d bfbd 953d 2c28 293e 9e34 86bc
000001e0: 741a 713d 97bd 2f3d e5e3 07be 285a b3bd
000001f0: 8ab7 a2bd 14e2 833e 5e7c 33bc 52d8 cf3c
00000200: b79e d23c 4a2e 8dbd c400 96bd e710 45bd
00000210: 56fe b2bc 4216 8d3d 0eeb 57bd 3f7b 743d
00000220: 2438 783d 062b ac3d da67 e73d e3c9 00be
00000230: dccb 843d 0275 b2bc bac0 e2bd f2aa ff3c
00000240: d15a 113e 2da4 5bbd 5e0a 01bd 7b6c 763d
00000250: 6553 a83d f8f8 403c 0739 66bc e54b eabc
00000260: 29ab a33d 1141 633d 25c5 613d c3c8 8c3c
00000270: c62a 983d 6331 373d 3bee bbbd 8271 7abd
00000280: 23c5 09be 8313 31bd 650f 75bd db61 b43d
00000290: e4ac 27bd 893c d03d fad9 4dbb 247c 0fbe
000002a0: 885b 0ebd 962b 32bd b3e8 15bd e84c a53d
000002b0: 3d03 363e d921 003e 6241 523d 491f bfbc
000002c0: d80a b6bb f06f f5bb 847f 56be b876 c33b
000002d0: fcea 30bd bd28 303d 1b88 403d 4c0e fbbc
000002e0: a395 fcbd 13eb 0e3c c8d4 3d3e 282e c13d
000002f0: 4811 0cbe e8f3 83ba fbd8 0dbd 3495 14bd
00000300: 8409 953c e4f1 3abe 7098 8f3d 3ca3 90bd
00000310: ce13 5b3d 241a b93d 7b1e 0d3e 4d4b 353e
00000320: 9991 9e3b 2217 153c 9618 513d 9da6 9a3d
00000330: aa3c 613d c97e 90bd cf06 d53c 94b8 ad3c
00000340: 8ac5 8c3c 3785 c1bd e6c7 0fbd 618a babd
00000350: 9721 783c 6ee2 21be 908a 51bc 663d 243e
00000360: 91fa bf3b 3f6c 8a3c 89d0 c43d b7b2 6c3e
00000370: 0813 64bc 98f6 0abc 8bcf 41bd 9380 45be
00000380: da1d 1c3d 6052 8f3d e837 c0bd d876 613a
00000390: 8f42 8f3d 3269 b23c 6711 df3d cce3 ecbd
000003a0: c5c7 0bbe 9ee1 663d 3935 d93d c869 c23d
000003b0: b01d 263e 85d9 b5bd cd54 02bc 7fc3 5e3d
000003c0: f0fe f23d 9259 c93c 7dde f0bb 3546 cc3d
000003d0: 2066 553d 54db 153c 9192 163d 38db a33d
000003e0: 7174 fbbc 9407 98bd 89ad 7cbd 2a3f 3abe
000003f0: 6636 84bd 645e 0a3e d553 0d3e 62e3 af3d

action_model._continuous_distribution.mu.weight f4 [1, 128]
0.009277063 0.026292479 0.002476929 0.02480262 -0.009824744 -0.00969384 0.0030916347 -0.018357566
-0.03531671 0.010389578 0.016813455 -0.009750995 0.03774235 -0.02098063 0.0008470436 -0.019111492
0.0031763855 -0.012529775 -0.0049555576 -0.016360287 -0.027695714 -0.029115645 0.04735403 0.011454927
-0.012863546 0.0039303857 -0.010336864 0.026502183 -0.004281135 -0.0031821248 -0.005527047 -0.026210142
-0.03299686 -0.008505293 -0.0008165408 -0.008704437 -0.0030886196 0.012760083 0.021703783 0.020863097
-0.035902303 -0.019484375 -0.010026879 0.018785559 -0.019479383 -0.03303587 0.013673501 0.0013154192
0.010861879 -0.030949522 -0.0008785135 -0.0006109006 -0.010359372 -0.023083057 0.000551302 -0.0030094774
0.0036663923 -0.03038849 -0.010181644 -0.025915546 0.020646371 0.016206076 -0.0017929584 0.010050978
-0.0037583187 -0.01787405 -0.006102508 -0.023169547 -0.016620029 -0.007682327 0.027313024 0.02254182
0.0013485702 0.031353213 -0.018681984 -0.017099692 -0.02892973 0.0024140698 -0.02323926 0.018750846
0.026345963 -0.029993145 -0.01094078 -0.003900996 0.0010626934 -0.013748819 0.008314529 0.01638261
0.024393206 -0.0015117326 -0.008430756 -0.019406144 0.000996791 -0.026892776 0.02016914 -0.010802674
-0.032673467 -0.011788563 -0.046037864 -0.012394513 -0.034979384 -0.020461565 0.0026662208 0.002135879
-0.010903561 -0.014014401 -0.018290581 -0.038339835 0.010754781 0.009270526 -0.0062469887 -0.0058959285
0.007552532 -0.009336309 0.021682134 -0.015333231 -0.010886213 0.019739369 -0.021978501 -0.02939476
0.004275742 -0.0040891073 -0.0071390355 0.00029364845 0.028982142 -0.03300646 0.010330049 0.011082371
00000000: d3fe 173c 5363 d73c f953 223b dd2e cb3c
00000010: f7f7 20bc e9d2 1ebc 069d 4a3b 9b62 96bc
00000020: 41a8 10bd 0c39 2a3c 5fbc 893c a3c2 1fbc
00000030: b997 1a3d 92df abbc 220c 5e3a b48f 9cbc
00000040: e82a 503b af49 4dbc 3b62 a2bb 0206 86bc
00000050: 1fe2 e2bc ef83 eebc 4df6 413d 72ad 3b3c
00000060: 9fc1 52bc 77ca 803b f35b 29bc 1b1b d93c
00000070: c348 8cbb 328b 50bb 3b1c b5bb a7b6 d6bc
00000080: b727 07bd c959 0bbc 200d 56ba 0e9d 0ebc
00000090: 706a 4abb ab0f 513c 22cc b13c 16e9 aa3c
000000a0: 4b0e 13bd b29d 9fbc c747 24bc 2ce4 993c
000000b0: 3a93 9fbc 9f50 07bd d206 603c 256a ac3a
000000c0: 06f6 313c da89 fdbc 0b4c 66ba d824 20ba
000000d0: 5bba 29bc ae18 bdbc 4085 103a a73a 45bb
000000e0: db47 703b 48f1 f8bc e9d0 26bc d74c d4bc
000000f0: 9422 a93c 9bc2 843c b301 ebba dbac 243c
00000100: 204e 76bb 9a6c 92bc 8cf7 c7bb 10ce bdbc
00000110: ba26 88bc 08bc fbbb 90bf df3c 9fa9 b83c
00000120: 82c2 b03a 3a6c 003d f60a 99bc a714 8cbc
00000130: 0bfe ecbc 5f35 1e3b 4360 bebc 609b 993c
00000140: 7dd3 d73c 2fb4 f5bc f540 33bc daa7 7fbb
00000150: 134a 8b3a ba42 61bc aa39 083c d334 863c
00000160: 43d4 c73c 5425 c6ba 2721 0abc a2f9 9ebc
00000170: c1a6 823a 3d4e dcbc c139 a53c b3fd 30bc
00000180: 9dd4 05bd d124 41bc 3392 3cbd 5b12 4bbc
00000190: 8b46 0fbd 039f a7bc c3bb 2e3b 1afa 0b3b
000001a0: d9a4 32bc a89c 65bc 21d6 95bc 3b0a 1dbd
000001b0: d234 303c 67e3 173c 8ab3 ccbb a232 c1bb
000001c0: 3b7b f73b 51f7 18bc bb9e b13c 3b38 7bbc
000001d0: 165c 32bc 75b4 a13c 420c b4bc 48cd f0bc
000001e0: 861b 8c3b ebfd 85bb 92ee e9bb d4f4 9939
000001f0: f56b ed3c c831 07bd 5e3f 293c d592 353c
