3D/results/TestMoveToGoal2/MoveToGoal.onnx (onnx, 77110 bytes, 7 tensors)

network_body._body_endoder.seq_layers.0.weight f4 [128, 10]
0.21852036 -0.35938764 0.31906036 -0.1460761 -0.53792596 -0.21407953 0.2444414 0.044172063
0.26672992 -0.7047786 0.076463416 0.029023467 0.19049186 -0.24164629 -0.29484883 -0.29199433
-0.06013594 -0.043909285 0.015087027 -0.08085238 0.3449092 -0.32077023 -0.2134539 -0.093210265
-0.34920374 0.31052697 0.66596246 -0.3189624 0.4202713 -0.32952297 -0.17127489 -0.13117802
0.08473471 -0.13798475 0.14760672 0.22268213 0.12448377 -0.19771719 0.32601014 -0.14094764
-0.2464392 0.13872972 -0.09877782 -0.15268347 0.3678841 -0.065123424 -0.78161347 -0.39742604
-0.09268882 0.1644792 0.042291768 -0.23647323 -0.19465256 0.13322954 0.080510266 0.33853948
-0.103283405 -0.5930376 -0.2973138 0.09475178 -0.5510052 0.32149297 -0.18364775 0.0026593362
-0.16007122 -0.20110247 -0.017198088 -0.101009995 0.55164605 -0.7163253 -0.4368456 0.105213694
0.025799314 -0.47297475 0.3023132 -0.36569428 -0.33203322 0.33813393 0.18859649 0.044145197
-0.09070747 -0.48741457 0.3830183 -0.1274068 0.07331832 0.2510999 0.39349404 -0.010025817
0.07424142 0.4070213 -0.3309686 -0.0053675203 -0.30060655 -0.5102712 -0.2750813 0.17035504
0.33124787 -0.5824541 -0.34503478 -0.060827028 -0.10328997 -0.16808373 0.72748387 -0.08983574
0.07464676 0.060330175 -0.16503353 -0.02032405 0.022341015 -0.20875987 -0.30459398 -0.15782371
-0.16814618 0.5975179 -0.015086549 -0.05654089 -0.39173433 -0.013689566 -0.24270351 -0.20232289
0.8898404 0.049293272 0.11090767 0.42317456 0.3315678 -0.26440635 0.23172647 0.22443426
0.0053098677 -0.15999953 0.041973475 -0.15655737 -0.16567072 0.20038898 0.21942942 0.33283266
0.3037869 -0.16899176 -0.16038454 0.08877318 -0.2584756 -0.44464657 0.09176226 0.4716494
0.24004717 -0.05161404 -0.27078304 -0.34552157 -0.20664592 -0.5468276 0.36589435 0.3377696
0.20256051 -0.34439158 -0.38688558 -0.22772826 -0.33118266 -0.51319975 -0.10234453 -0.17700611
-0.11328886 0.29154262 0.045501985 -0.2914857 -0.19730681 -0.38829482 -0.005547728 0.11306778
-0.11127715 -0.48310336 -0.28311855 -0.51276565 0.057133663 0.16356637 0.093045935 0.1274652
0.11809117 -0.4600954 0.8610268 0.4950091 -0.16586827 -0.11525099 -0.004399738 -0.35816234
-0.70827127 0.64996296 0.16528815 -0.20618707 -0.19067909 0.064509876 -0.44262096 0.0652477
-0.39394176 -0.0835124 -0.13891058 -0.24813052 0.10835498 -0.5375207 0.5107603 -0.5917044
-1.020841 -0.12488392 0.10237782 0.22287287 0.26918086 -0.09122275 0.100384966 -0.4463406
-0.15520239 0.17463782 -0.37672594 0.05574172 0.36925316 -0.18010245 -0.11000779 -0.20949614
0.080451556 0.23007014 0.3300986 0.39756408 -0.090855114 -0.25102246 0.09714057 0.20396648
0.41169634 0.7051026 -0.06361783 -0.21030998 0.0004265661 0.18910515 0.33720538 -0.3445288
0.37200552 0.14764951 0.5323893 0.3355119 -0.14717922 0.03774572 -0.19899811 0.49924785
-0.23765054 0.62788206 0.7184115 -0.25425142 -0.56556785 0.40550926 -0.20848611 0.2952109
0.06257569 0.58128625 0.3589407 -0.5318684 0.2552784 0.13296877 0.03485166 0.058396872
00000000: cdc3 5f3e a801 b8be e15b a33e f994 15be
00000010: 84b5 09bf aa37 5bbe d94e 7a3e c4ed 343d
00000020: d390 883e 5f6c 34bf da98 9c3d 9fc2 ed3c
00000030: 4c10 433e 2072 77be 6df6 96be 4880 95be
00000040: 1a51 76bd 39da 33bd 942f 773c ef95 a5bd
00000050: f097 b03e ff3b a4be a993 5abe 06e5 bebd
00000060: d5ca b2be 64fd 9e3e 847c 2a3f 0a4f a3be
00000070: cd2d d73e 3cb7 a8be af62 2fbe 8853 06be
00000080: 6489 ad3d e04b 0dbe 3726 173e c906 643e
00000090: 59f1 fe3d 6076 4abe cdea a63e 9454 10be
000000a0: 8f5a 7cbe 2a0f 0e3e 074c cabd 0e59 1cbe
000000b0: 4e5b bc3e 6e5f 85bd d217 48bf 6d7b cbbe
000000c0: a3d3 bdbd 3c6d 283e 223a 2d3d 0a26 72be
000000d0: 0053 47be 536d 083e 91e2 a43d 0c55 ad3e
000000e0: 4086 d3bd 50d1 17bf 8439 98be 390d c23d
000000f0: ad0e 0dbf ba9a a43e 280e 3cbe 4248 2e3b
00000100: b6e9 23be ceed 4dbe 01e3 8cbc 54de cebd
00000110: ad38 0d3f 1861 37bf 3aaa dfbe 477a d73d
00000120: 1559 d33c bf29 f2be ccc8 9a3e 483c bbbe
00000130: 4200 aabe e41f ad3e 701f 413e 98d1 343d
00000140: d7c4 b9bd 678e f9be fa1a c43e ee76 02be
00000150: ea27 963d 2b90 803e 0d78 c93e 5343 24bc
00000160: e30b 983d 1965 d03e b774 a9be 06e2 afbb
00000170: 1ae9 99be 22a1 02bf 75d7 8cbe 8d71 2e3e
00000180: 5299 a93e b61b 15bf 66a8 b0be c325 79bd
00000190: b189 d3bd 241e 2cbe 623c 3a3f cdfb b7bd
000001a0: 67e0 983d c61c 773d 8dfe 28be 9f7e a6bc
000001b0: 8104 b73c 26c5 55be bef3 9bbe 8a9c 21be
000001c0: 832e 2cbe eff6 183f 932d 77bc 6c97 67bd
000001d0: 6791 c8be 344a 60bc 4587 78be bb2d 4fbe
000001e0: 95cc 633f bee7 493d 8f23 e33d 56aa d83e
000001f0: 41c3 a93e 4560 87be b449 6d3e 18d2 653e
00000200: 66fe ad3b ebd6 23be 61ec 2b3d 9350 20be
00000210: 96a5 29be c532 4d3e 1bb2 603e 0b69 aa3e
00000220: f589 9b3e 2d0c 2dbe d83b 24be b7ce b53d
00000230: ea56 84be b7a8 e3be daed bb3d 087c f13e
00000240: edce 753e 3e69 53bd 13a4 8abe 34e8 b0be
00000250: fd9a 53be e5fc 0bbf 8156 bb3e 23f0 ac3e
00000260: 066c 4f3e 1854 b0be de15 c6be 9931 69be
00000270: c690 a9be 0f61 03bf 029a d1bd 1741 35be
00000280: fd03 e8bd 1345 953e 4a60 3a3d 9d3d 95be
00000290: cc0a 4abe 94ce c6be b7c9 b5bb 1590 e73d
000002a0: 46e5 e3bd 5359 f7be eaf4 90be 9c44 03bf
000002b0: fd04 6a3d f17d 273e de8e be3d 3d86 023e
000002c0: c9d9 f13d a091 ebbe 416c 5c3f d571 fd3e
000002d0: 5fd9 29be b608 ecbd ad2b 90bb 0e61 b7be
000002e0: 4451 35bf f963 263f 4c41 293e b422 53be
000002f0: 6141 43be c11d 843d 379f e2be 96a0 853d
00000300: bcb2 c9be 8d08 abbd 933e 0ebe ed15 7ebe
00000310: 37e9 dd3d f59a 09bf 30c1 023f f179 17bf
00000320: ebaa 82bf 24c3 ffbd 76ab d13d c938 643e
00000330: 13d2 893e fed2 babd a296 cd3d c186 e4be
00000340: 60ed 1ebe 42d4 323e 39e2 c0be 6e51 643d
00000350: c00e bd3e c76c 38be c44b e1bd 2886 56be
00000360: c9c3 a43d 8297 6b3e af02 a93e 858d cb3e
00000370: 3f12 babd 0486 80be a3f1 c63d 97dc 503e
00000380: ddc9 d23e 9b81 343f 114a 82bd 805b 57be
00000390: bca4 df39 c8a4 413e 2fa6 ac3e 1466 b0be
000003a0: 8277 be3e 6f31 173e aa4a 083f 37c8 ab3e
000003b0: 26b6 16be 429b 1a3d 29c6 4bbe 6a9d ff3e
000003c0: aa5a 73be e1bc 203f d1e9 373f 3e2d 82be
000003d0: 0ec9 10bf e99e cf3e 627d 55be e225 973e
000003e0: af27 803d 2dcf 143f 13c7 b73e 8728 08bf
000003f0: dab3 823e f728 083e 9dc0 0e3d 8f31 6f3d

network_body._body_endoder.seq_layers.0.bias f4 [128]
0.014211594 0.0010523055 0.003293066 0.0034979053 -0.0133804735 0.005848801 -0.005785783 0.0012531026
-0.0018416968 0.005150808 0.0060348674 -0.0014060368 0.01041922 0.0020279314 0.012635146 -0.006553816
0.01116712 -0.006279066 0.0018099574 0.0023969412 0.008413 -0.006930131 -0.006964647 -0.003545948
-0.0037793976 -0.0032015292 0.0019702045 0.00938589 0.004862072 -0.0060594124 -0.0017985991 0.004818167
-0.00995341 0.014649583 0.004573894 0.0038810568 -0.006943133 0.003753427 0.0059407153 0.011448083
-0.0072037727 0.0138728805 -0.006343019 -0.004973661 -0.0051325387 0.0041601295 0.0073502483 -0.004810389
-0.005867789 0.0111592 0.007695466 0.0045074783 0.012409668 0.0021741805 0.0039587035 -0.0014671452
-0.009272158 0.016579995 -0.009666929 0.0062652826 -0.010985548 0.0047401693 0.004154474 -0.0071645183
0.0030655952 -0.009264509 -0.005794534 0.0043268288 0.0038064434 0.0055362936 0.0005515356 -0.008559836
0.005008779 0.006108612 0.0032029578 -0.004372308 -0.0018996866 0.011263388 0.0053527285 -0.004657075
0.0006054474 -0.008806829 0.00419662 -0.008984149 0.0057255616 -0.0042590727 0.0026925958 0.005167104
-0.004595798 0.0012475158 -0.0019375854 0.014319327 -0.0026294033 -0.00096337113 -0.0040483186 0.0015910128
0.005174683 -0.003281833 0.0022141014 0.0073961494 -0.00065732276 -0.0062663252 0.0050693443 -0.0073948465
0.002984098 0.00402321 -0.0017327205 -0.006984826 -0.0011229294 -0.004730324 -0.0031392819 -0.004105639
-0.0021099462 0.0019735752 -0.00015038144 0.00412397 -0.004726253 0.0046835206 0.0006838317 -0.0067644906
-0.003249317 0.0057750475 0.0043438133 0.0006139367 0.0047084847 0.00060785725 -0.005609173 -0.0042014816
00000000: bfd7 683c 83ed 893a 7bd0 573b 1d3d 653b
00000010: c639 5bbc 4da7 bf3b aa96 bdbb 253f a43a
00000020: 1765 f1ba 1cc8 a83b 23c0 c53b c44a b8ba
00000030: 60b5 2a3c 0be7 043b a503 4f3c 65c1 d6bb
00000040: 4cf6 363c a0c0 cdbb 183c ed3a 0016 1d3b
00000050: aed6 093c 2716 e3bb b237 e4bb 2363 68bb
00000060: c5af 77bb bfd0 51bb 8c1e 013b 47c7 193c
00000070: 0452 9f3b 098e c6bb f9be ebba b7e1 9d3b
00000080: a113 23bc ce04 703c 9be0 953b 5459 7e3b
00000090: 3983 e3bb 0efc 753b 55aa c23b be90 3b3c
000000a0: a00d ecbb 144b 633c 1ad9 cfbb 18fa a2bb
000000b0: db2e a8bb b251 883b 5ada f03b 78a0 9dbb
000000c0: 9546 c0bb 14d5 363c 3f2a fc3b 78b3 933b
000000d0: ec51 4b3c b27c 0e3b 03b8 813b 394d c0ba
000000e0: 40ea 17bc c5d2 873c 0a62 1ebc 004d cd3b
000000f0: bafc 33bc 6c53 9b3b 4122 883b 56c4 eabb
00000100: 27e8 483b 2bca 17bc 13e0 bdbb 12c8 8d3b
00000110: 8675 793b cc69 b53b ed94 103a 8e3e 0cbc
00000120: af20 a43b c02a c83b b7e8 513b 9445 8fbb
00000130: e8fe f8ba 138a 383c f165 af3b 609a 98bb
00000140: e3b6 1e3a 854a 10bc cd83 893b 4132 13bc
00000150: 7e9d bb3b b18f 8bbb 4376 303b cf50 a93b
00000160: 5998 96bb af83 a33a 94f6 fdba 9c9b 6a3c
00000170: 1152 2cbb be8a 7cba c2a7 84bb 8889 d03a
00000180: 6390 a93b 0514 57bb 751a 113b 665b f23b
00000190: 2f50 2cba bf55 cdbb be1c a63b 7850 f2bb
000001a0: db90 433b 22d5 833b 741c e3ba f8e0 e4bb
000001b0: 422f 93ba d500 9bbb 69bc 4dbb 9988 86bb
000001c0: 0647 0abb 1957 013b b6af 1db9 5e22 873b
000001d0: afde 9abb 3878 993b 2b43 333a a9a8 ddbb
000001e0: 7ef2 54bb 9c3c bd3b 8c56 8e3b 98f0 203a
000001f0: a249 9a3b 9c58 1f3a 27cd b7bb 95ac 89bb

network_body._body_endoder.seq_layers.2.weight f4 [128, 128]
0.015729558 -0.18311705 -0.0448157 -0.00054468017 -0.013292692 -0.13916336 -0.090704575 -0.065463625
0.10814479 -0.20206206 0.036952782 -0.0584592 0.11276345 -0.02101518 -0.036814567 -0.11605255
0.020184115 0.07406232 0.18350571 -0.038956847 0.03472938 -0.11164442 -0.014681751 0.052366573
0.07088996 -0.030300952 -0.024369475 -0.08918309 -0.08202879 0.0064410744 -0.019787448 0.025389351
-0.10352529 0.13366956 -0.025852546 -0.11266039 0.04535351 0.07149043 0.019456595 -0.01205038
0.11402673 -0.1245667 0.03831439 -0.10269855 -0.08602328 -0.12436824 -0.014233797 0.14185944
-0.10589938 -0.15564126 0.048347007 -0.07876835 0.08910467 -0.00034001787 0.00018723765 0.16871566
-0.014564403 0.065818794 0.11616268 0.022057617 0.055571776 0.0028677194 0.005645747 -0.04111555
-0.037291378 -0.037721507 -0.1321317 -0.009219158 -0.0013613704 -0.14592636 0.14622618 -0.11821161
-0.087123625 -0.14750935 -0.07509064 -0.03664485 -0.25869042 -0.08006564 -0.0025333692 0.030873775
-0.092257395 0.048821364 -0.011815184 -0.13029206 -0.08334352 -0.019450082 0.008358432 0.013403603
0.015201231 -0.018557545 -0.024112843 -0.086171366 -0.0907203 -0.04507723 -0.10509809 0.009321982
-0.057148095 -0.039318573 -0.040121514 -0.0842408 -0.0014408624 0.09119111 -0.030424068 -0.10240758
-0.04208945 0.12264337 0.1551147 0.0065294127 0.049242184 -0.044316195 0.025823867 0.02056359
0.12559094 0.012842062 -0.004201608 0.08269432 0.047955163 0.0057106214 -0.06290039 0.07872242
0.10114139 -0.09031065 -0.07357883 0.08306348 -0.08495567 0.10878522 0.11565025 -0.01198963
-0.022120051 -0.050021287 -0.104490824 0.11162757 -0.07750619 -0.082550295 0.040906504 0.040825956
0.18802072 0.0032842108 -0.0548631 -0.16656336 -0.025535153 -0.16440591 0.11758705 -0.058424268
-0.043007478 -0.015071155 0.015601266 -0.0699205 -0.09094849 -0.07440862 -0.13908447 -0.03387122
-0.031100446 0.042624243 0.031010818 -0.001497291 0.05888032 -0.075765416 -0.020887205 0.10601494
0.107410155 0.051472384 -0.08060468 0.03512417 -0.13306265 0.0267986 -0.052523147 -0.044081397
-0.004401048 -0.047117975 0.013133422 0.044508535 -0.010489616 0.10674609 -0.006875678 0.07840874
-0.07590202 -0.012454917 0.041474465 -0.16442265 0.007507879 -0.037836798 -0.047920134 0.008031172
-0.11484501 0.05981214 0.022936873 -0.042096335 -0.010511665 -0.0050936798 0.019131193 -0.074066736
0.031417258 0.01571455 -0.07158221 -0.051337898 0.009017946 0.017615113 -0.023762755 -0.029906876
-0.031760916 -0.060192198 0.24283242 0.043108188 -0.058200374 0.0006809091 -0.054614965 -0.16363306
0.07163618 -0.09533273 -0.14808898 -0.016061451 0.09892571 -0.13637242 -0.18646833 0.17575905
-0.045965686 -0.09034732 0.043414045 -0.122382894 -0.06405828 0.08345829 0.061345194 -0.07639813
0.074486166 -0.12148999 0.14397264 -0.10600223 0.0013718678 0.10019405 -0.16376601 -0.07936627
0.09493447 -0.026961016 -0.009816892 0.010811606 -0.004317352 0.071311556 0.09602004 0.02804201
0.20264147 0.0483582 0.02856187 -0.14476876 0.026502417 -0.08159339 0.017789805 -0.037037447
0.1688209 -0.10067254 0.0176023 -0.1448499 0.03854962 -0.046222083 0.014328735 0.17908573
00000000: 46db 803c 0983 3bbe ab90 37bd dec8 0eba
00000010: 97c9 59bc d780 0ebe 52c3 b9bd cb11 86bd
00000020: 047b dd3d 5be9 4ebe cd5b 173d ea72 6fbd
00000030: 86f0 e63d 0728 acbc dfca 16bd f6ac edbd
00000040: 2859 a53c fcad 973d ece8 3b3e 3791 1fbd
00000050: 6540 0e3d d4a5 e4bd ba8b 70bc 557e 563d
00000060: c12e 913d b439 f8bc 7ea2 c7bc a0a5 b6bd
00000070: b6fe a7bd a60f d33b 4919 a2bc 54fd cf3c
00000080: 1105 d4bd ace0 083e b8c8 d3bc 7eba e6bd
00000090: 9ac4 393d 9369 923d 7063 9f3c f56e 45bc
000000a0: d986 e93d d31c ffbd 8def 1c3d 9e53 d2bd
000000b0: f92c b0bd c7b4 febd df34 69bc 9a43 113e
000000c0: c6e1 d8bd 6c60 1fbe 8307 463d 4d51 a1bd
000000d0: 827c b63d 6d44 b2b9 3955 4439 ccc3 2c3e
000000e0: 899f 6ebc 01cc 863d b3e6 ed3d 2db2 b43c
000000f0: 3b9f 633d 59f0 3b3b f5ff b83b c768 28bd
00000100: d8be 18bd de81 1abd 884d 07be f40b 17bc
00000110: 0370 b2ba b86d 15be 51bc 153e ee18 f2bd
00000120: df6d b2bd b10c 17be 1fc9 99bd e918 16bd
00000130: 1273 84be 74f9 a3bd e206 26bb 00eb fc3c
00000140: 72f1 bcbd e9f8 473d 7994 41bc 486b 05be
00000150: 02b0 aabd c755 9fbc cef1 083c c99a 5b3c
00000160: 960e 793c fe05 98bc 4c88 c5bc 9d7a b0bd
00000170: 91cb b9bd e7a2 38bd ab3d d7bd 3abb 183c
00000180: 1f14 6abd 830c 21bd 7556 24bd 7186 acbd
00000190: 52db bcba 68c2 ba3d e53b f9bc 11bb d1bd
000001a0: fd65 2cbd 722c fb3d 63d6 1e3e aff4 d53b
000001b0: 2cb2 493d e684 35bd 938c d33c f974 a83c
000001c0: e99a 003e 8367 523c a4ad 89bb a45b a93d
000001d0: a26c 443d 2a20 bb3b ebd1 80bd 3839 a13d
000001e0: 3823 cf3d caf4 b8bd 7fb0 96bd 301d aa3d
000001f0: 3dfd adbd c9ca de3d 0ada ec3d 2770 44bc
00000200: 1c35 b5bc 1fe3 4cbd 49ff d5bd ff9c e43d
00000210: 91bb 9ebd 2110 a9bd 948d 273d 1e39 273d
00000220: 8188 403e ea3b 573b 21b8 60bd 968f 2abe
00000230: 192f d1bc 065a 28be 7bd1 f03d 494e 6fbd
00000240: 9c28 30bd 01ed 76bc 749c 7f3c 7b32 8fbd
00000250: 3443 babd 8c63 98bd 296c 0ebe 8cbc 0abd
00000260: 5dc6 febc c296 2e3d 660a fe3c c040 c4ba
00000270: 7e2c 713d e62a 9bbd a51b abbc 5c1e d93d
00000280: dbf9 db3d b5d4 523d 1114 a5bd 5dde 0f3d
00000290: 9341 08be bd88 db3c 8322 57bd b28e 34bd
000002a0: ab36 90bb c7fe 40bd 902d 573c 954e 363d
000002b0: a3dc 2bbc b29d da3d 5e4d e1bb c394 a03d
000002c0: 8572 9bbd b50f 4cbc 21e1 293d 695e 28be
000002d0: a704 f63b c2fa 1abd e747 44bd 2d95 033c
000002e0: dc33 ebbd 93fd 743d 1ce6 bb3c 356d 2cbd
000002f0: 1e39 2cbc e2e8 a6bb 05b9 9c3c 4db0 97bd
00000300: 62af 003d cdbb 803c b299 92bd b047 52bd
00000310: 02c0 133c 924d 903c 1caa c2bc 44ff f4bc
00000320: bc17 02bd 188c 76bd 10a9 783e 3692 303d
00000330: 8463 6ebd 097f 323a f1b3 5fbd 6d8f 27be
00000340: fdb5 923d ce3d c3bd a3a4 17be 4e93 83bc
00000350: 9099 ca3d 36a5 0bbe 8ef1 3ebe 2efa 333e
00000360: 8446 3cbd 0408 b9bd edd2 313d e2a3 fabd
00000370: fd30 83bd 2eec aa3d 1945 7b3d 9f76 9cbd
00000380: 348c 983d becf f8bd 906d 133e b217 d9bd
00000390: 3fd0 b33a 8a32 cd3d 47b2 27be c88a a2bd
000003a0: 016d c23d 59dd dcbc 08d7 20bc 2a23 313c
000003b0: 9378 8dbb cb0b 923d 28a6 c43d 5bb8 e53c
000003c0: 3f81 4f3e 3f13 463d 95fa e93c 433e 14be
000003d0: 991b d93c 6f1a a7bd edbb 913c 94b4 17bd
000003e0: 63df 2c3e 682d cebd b332 903c 8853 14be
000003f0: 35e6 1d3d 5e53 3dbd 12c3 6a3c 4062 373e

network_body._body_endoder.seq_layers.2.bias f4 [128]
-0.0059886784 0.005516092 0.0055709872 0.0017925747 0.0050385282 -0.006451942 -0.0060181357 -0.0055451537
0.005741801 0.004101789 0.004390699 0.003397511 -0.0058257943 -0.0063849725 -0.0077320514 0.003992066
-0.00059587805 0.0013618014 -0.0058369194 0.004998868 -0.0045395396 -0.006523951 -0.0063393875 -0.0023328238
0.0054870076 -0.0039233016 -0.0058447267 -0.0021020195 -0.0018720261 -0.002901364 0.0022396643 -0.0057132025
-0.0053167474 0.007435418 -0.003261899 0.0063164807 0.0055324505 -0.0061025275 -0.0017930925 -0.005722498
0.004597288 -0.0034373533 -0.0016931792 0.005039097 0.004916556 0.002963204 -0.006566626 0.0051593212
-0.0009827929 0.0054835165 -0.007389877 -0.00890746 -0.0057235872 -0.006178476 0.0045042033 -0.0065707453
0.0063566486 0.0024352914 0.0045839823 -0.0034180537 -0.0021044873 0.0034323016 -0.004986901 -0.0059657767
0.00554855 -0.005229899 0.0006325506 -0.0004792127 0.0060673663 0.005110433 -0.001868665 -0.0055617136
0.004645579 0.002883785 -0.0020285125 -0.0054397075 0.0036663709 0.004191987 0.004985693 -0.0017395886
0.0042433366 0.0017312737 -0.0054262136 -0.0027338688 0.004628946 -0.006640596 -0.0022916684 -0.0063339155
0.004262406 0.0063648303 -0.0015499017 -0.0014316885 -0.0033629925 -0.0072834543 0.0039657787 0.005240237
-0.0055255867 -0.007651649 0.010202497 -0.0054569035 0.0042101424 -0.0056062792 0.0016354036 0.009311054
-0.005707952 0.0037429393 -0.008028886 -0.005664123 0.0035523998 0.004300596 0.0025378063 0.0043891273
0.0030243602 0.0059888326 -0.0008696921 -0.004472501 -0.0039918693 -0.006050811 -0.0063444497 -0.0030788775
0.0054174424 -0.00074800954 -0.0068448167 0.0060780933 -0.004806096 0.0010459012 0.0042455094 0.0020454878
00000000: ad3c c4bb 55c0 b43b d48c b63b d3f4 ea3a
00000010: 3d1a a53b d06a d3bb c833 c5bb 1fb4 b5bb
00000020: b825 bc3b 4d68 863b dadf 8f3b c7a8 5e3b
00000030: 4ee6 bebb 0839 d1bb 265d fdbb e0cf 823b
00000040: b334 1cba 797e b23a a143 bfbb 8bcd a33b
00000050: 6bc0 94bb dec6 d5bb a3ba cfbb 4ae2 18bb
00000060: 5bcc b33b 0a8f 80bb 1f85 bfbb 09c2 09bb
00000070: c65e f5ba cf24 3ebb 55c7 123b d135 bbbb
00000080: 1c38 aebb cfa4 f33b 96c5 55bb 7bfa ce3b
00000090: 8f49 b53b b6f7 c7bb 3306 ebba cb83 bbbb
000000a0: d9a4 963b 3845 61bb abed ddba 021f a53b
000000b0: 101b a13b 5032 423b da2c d7bb 860f a93b
000000c0: 0fd1 80ba 12af b33b c826 f2bb 98f0 11bc
000000d0: ee8c bbbb d074 cabb ff97 933b 684f d7bb
000000e0: 6f4b d03b 6999 1f3b 3b35 963b 6d01 60bb
000000f0: 70eb 09bb 77f0 603b 2869 a3bb 907c c3bb
00000100: 9cd0 b53b 935f abbb c1d1 253a d73e fbb9
00000110: c2d0 c63b 6b75 a73b feed f4ba 093f b6bb
00000120: f139 983b e2fd 3c3b cbf0 04bb 933f b2bb
00000130: 7f47 703b f05c 893b 065f a33b e802 e4ba
00000140: b00b 8b3b e8eb e23a 61ce b1bb b52a 33bb
00000150: 6aae 973b 5b99 d9bb d12f 16bb bc8c cfbb
00000160: a7ab 8b3b 1190 d03b 1226 cbba 7fa7 bbba
00000170: a765 5cbb 0baa eebb 5df3 813b 4bb6 ab3b
00000180: fb0f b5bb afba fabb 6028 273c d3cf b2bb
00000190: 3cf5 893b e1b4 b7bb 0a5b d63a 648d 183c
000001a0: c609 bbbb 1a4c 753b 978b 03bc 1c9a b9bb
000001b0: 61cf 683b 04ec 8c3b 5351 263b abd2 8f3b
000001c0: 5834 463b f83d c43b 0dfc 63ba 0f8e 92bb
000001d0: 3ace 82bb e245 c6bb 1ae5 cfbb fec6 49bb
000001e0: cd84 b13b 1216 44ba 7c4a e0bb be2a c73b
000001f0: 757c 9dbb 9f16 893a ea1d 8b3b 970d 063b

action_model._continuous_distribution.log_sigma f4 [1, 2]
-0.008311681 -0.01808522
00000000: b82d 08bc 7527 94bc

action_model._continuous_distribution.mu.weight f4 [2, 128]
-0.0012655865 -0.018907351 0.009410336 0.030100832 -0.0027975815 -0.0022313686 0.0037471354 0.018043555
-0.017460683 0.0015977976 0.025358846 0.01072444 0.003909207 0.022652395 0.002517357 -0.016684804
-0.016636679 0.0044629276 0.016642315 -0.028135939 0.007770284 0.0139248995 0.043515477 0.034525886
-0.023950623 0.004828519 0.0067893956 -0.016224213 0.03233774 0.010072722 -0.0049838084 0.03389059
0.0047541745 -0.027967766 -0.015573091 -0.046448413 -0.02181654 0.040225867 0.039779693 0.018952975
0.01589572 0.0049032406 0.0034216836 0.012100956 -0.018967416 0.0035902548 0.00072473456 0.020543026
0.029744454 -0.031099143 0.02341157 0.031589165 0.020242713 -0.0068153823 -0.032108195 -0.00017886888
0.057084523 0.016054241 -0.01865854 -0.0054159085 0.018626243 -0.008946107 0.0039837924 0.011793561
-0.01656902 -0.0035540122 0.03232994 0.004263263 -0.032991815 -0.04286834 0.022859693 -0.004844401
-0.0025446925 -0.009411127 -0.00830805 0.027280975 0.0025366626 0.0007182355 -0.016981293 -0.0026458243
0.02640957 0.007966279 -0.0027869674 -0.0077683586 -0.010425646 -0.0051874933 0.013637939 0.022249827
0.010937768 -0.000108972636 -0.027666617 0.005498048 0.039274544 0.036064405 -0.034501553 -0.007965045
0.017316675 0.008642337 0.008038038 -0.0051642843 -0.02863254 0.06454661 0.010670364 0.0029740601
0.0043130475 0.016983118 -0.00073774677 -0.0017528349 -0.03964791 0.023576982 0.011446455 -0.002585311
-0.0016388166 -0.017329516 -0.019933298 -0.004852063 0.0012786958 0.01929427 0.0073038405 -0.004639377
-0.018701326 0.008651919 0.005060767 0.00982191 -0.008527736 0.010182368 0.028754089 -0.0036179957
-0.0070847487 -0.0009821771 0.021862704 -0.002841146 0.05326576 0.0040618996 0.0023875406 0.003932301
0.021572774 0.016305836 0.0011549135 0.021235153 -0.021224713 0.028080529 -0.0011753557 0.0036695
-0.020921048 0.0129680345 0.0017753985 0.0015561878 -0.008483169 0.0060467175 -0.0040971683 0.0007620999
0.03249212 -0.022795545 0.0076859724 -0.012863984 -0.003424665 0.008524834 0.0014837481 -0.017509483
-0.00017707028 -0.0015021688 -0.012416816 -0.0013023245 0.042838983 -0.0012089591 -0.020784743 -0.011065111
0.031505752 -0.028778544 0.0088974545 0.013800415 0.016975835 0.02057512 0.0038868415 -0.0066906395
0.02321203 -0.00033845397 -0.01270444 0.023187958 -0.0073036025 0.008435214 0.0133199785 -0.003080871
-0.0010889507 0.02685469 -0.0015836025 0.0005272193 0.011788375 0.006118027 -0.025048763 -0.0015029636
0.034133296 -0.0076809647 0.004178008 0.0096371425 0.030173473 0.012263014 0.0003629388 0.03533453
0.021210525 0.032022703 -0.018572755 0.006262246 0.01398075 0.016462585 0.010436583 -0.04928584
-0.017991425 0.014531314 -0.0014087509 -0.014149521 0.012220775 0.0015284207 0.015361644 0.0046333065
0.014914444 -0.017035691 -0.007331249 -0.0011553013 -0.026364513 -0.023068193 -0.00091783504 0.023626948
-0.015517259 -0.037564967 -0.013851466 -0.028178355 0.005210792 -0.010578167 0.020442585 -0.026414191
-0.025447203 -0.008451915 0.0015578398 -0.0069848197 0.011920235 0.034829035 0.025392743 0.011320247
0.024283916 0.058479145 -0.026718246 -0.011180485 -0.027954409 -0.0014138824 0.0060986998 -0.009124519
0.03350411 -0.00029598642 0.0005171061 0.044143528 -0.009511985 0.019551013 0.019211784 0.027369797
00000000: 09e2 a5ba 97e3 9abc cf2d 1a3c 0596 f63c
00000010: a157 37bb 273c 12bb 8092 753b 14d0 933c
00000020: b509 8fbc 316d d13a 5bbd cf3c 90b5 2f3c
00000030: ce18 803b 8491 b93c 3efa 243b 92ae 88bc
00000040: a549 88bc c03d 923b 7755 883c 577d e6bc
00000050: de9d fe3b 4325 643c 493d 323d 046b 0d3d
00000060: 1934 c4bc 8e38 9e3b 9479 de3b a4e8 84bc
00000070: 9474 043d 0f08 253c 374f a3bb dcd0 0a3d
00000080: e8c8 9b3b a81c e5bc 4726 7fbc b140 3ebd
00000090: 9ab8 b2bc e1c3 243d 08f0 223d 4543 9b3c
000000a0: be37 823c 5dab a03b 533e 603b 1743 463c
000000b0: 8e61 9bbc 7b4a 6b3b 1dfc 3d3a d949 a83c
000000c0: a4aa f33c a1c3 febc 9fc9 bf3c a463 013d
000000d0: 0cd4 a53c 9253 dfbb e283 03bd c08e 3bb9
000000e0: 76d1 693d 2f84 833c cbd9 98bc ef77 b1bb
000000f0: 1096 983c b192 12bc 798a 823b c839 413c
00000100: c1bb 87bc 6eea 68bb 666c 043d d8b2 8b3b
00000110: 6d22 07bd b696 2fbd 4044 bb3c c8bd 9ebb
00000120: dbc4 26bb 2131 1abc 7d1e 08bc 5a7c df3c
00000130: 233e 263b f847 3c3a 5a1c 8bbc 9165 2dbb
00000140: e258 d83c ff84 023c 8ea5 36bb b78d febb
00000150: 54d0 2abc d9fb a9bb a971 5f3c 4545 b63c
00000160: 5334 333c 3d88 e4b8 1aa5 e2bc f828 b43b
00000170: 58de 203d 45b8 133d 8051 0dbd d27f 02bc
00000180: b3db 8d3c 9798 0d3c fab1 033c 2839 a9bb
00000190: ca8e eabc 0331 843d c0d2 2e3c 73e8 423b
000001a0: 7754 8d3b 2e20 8b3c 5965 41ba 61bf e5ba
000001b0: d965 22bd 8424 c13c e989 3b3c 526e 29bb
000001c0: 8fcd d6ba a1f6 8dbc 284b a3bc 0efe 9ebb
000001d0: e999 a73a 040f 9e3c 0e55 ef3b ea05 98bb
000001e0: 8633 99bc c7c0 0d3c cad4 a53b 14ec 203c
000001f0: ebb7 0bbc f2d3 263c b28d eb3c e51b 6dbb
00000200: 2e27 e8bb 65bc 80ba 6a19 b33c 8532 3abb
00000210: 332d 5a3d af19 853b 4978 1c3b 88da 803b
00000220: 63b9 b03c d193 853c 7760 973a 58f5 ad3c
00000230: 73df adbc 2309 e63c 650e 9aba fe7b 703b
00000240: 9e62 abbc e177 543c 7db4 e83a fff8 cb3a
00000250: fdfc 0abc 8b23 c63b 8a41 86bb a9c7 473a
00000260: 7516 053d b9bd babc 9cda fb3b 76c3 52bc
00000270: 5870 60bb bfab 0b3c 537a c23a 0c70 8fbc
00000280: f1ab 39b9 6ce4 c4ba e76f 4bbc c2b2 aaba
00000290: ee77 2f3d f075 9eba c444 aabc 704a 35bc
000002a0: 2d0c 013d fbc0 ebbc a1c6 113c 231b 623c
000002b0: e810 8b3c 278d a83c 61ba 7e3b 273d dbbb
000002c0: 2827 be3c 8672 b1b9 4926 50bc acf4 bd3c
000002d0: 0f53 efbb da33 0a3c 0a3c 5a3c 70e8 49bb
000002e0: 1fbb 8eba 5efe db3c e290 cfba 1735 0a3a
000002f0: 0724 413c bb79 c83b 1033 cdbc 17ff c4ba
00000300: 5bcf 0b3d 9ab0 fbbb ace7 883b 1be5 1d3c
00000310: 5c2e f73c cfea 483c d248 be39 f1ba 103d
00000320: b2c1 ad3c 3d2a 033d e425 98bc 8733 cd3b
00000330: 840f 653c 8bdc 863c 34fe 2a3c f3df 49bd
00000340: c162 93bc c014 6e3c d6a5 b8ba 64d3 67bc
00000350: a539 483c 4a55 c83a 68af 7b3c fed2 973b
00000360: b65b 743c 6f8e 8bbc f93a f0bb 7b6d 97ba
00000370: 64fa d7bc 82f9 bcbc de9a 70ba 4d8d c13c
00000380: 1a3c 7ebc b9dd 19bd 42f1 62bc 4bd6 e6bc
00000390: 4bbf aa3b 0c50 2dbc 3577 a73c 9362 d8bc
000003a0: a776 d0bc e779 0abc 6e30 cc3a eae0 e4bb
000003b0: 174d 433c e4a8 0e3d 7104 d03c 8f78 393c
000003c0: 10ef c63c d487 6f3d 39e0 dabc 5a2e 37bc
000003d0: a500 e5bc 0552 b9ba 9ad7 c73b 027f 15bc
000003e0: 9b3b 093d a02e 9bb9 678e 073a d8cf 343d
000003f0: 28d8 1bbc 7229 a03c 0862 9d3c a036 e03c

action_model._continuous_distribution.mu.bias f4 [2]
-0.0054977 0.00520217
00000000: 0d26 b4bb f776 aa3b
